saved_experiments/ood_loc/GPN/1/model_9.pt (torch, 759609 bytes, 36 tensors)

input_encoder.0.weight f4 [64, 2879]
00000000: 00bc 1834 a43a 2637 526b c837 5c8d 4337
00000010: 5823 bb37 848b fc37 4bd6 b837 ec46 29b7
00000020: c915 3437 fd65 9437 daa5 f337 3070 1eb8
00000030: de13 13b7 58a0 1eb8 72fc 10b7 aa82 4938
00000040: 3620 9c37 4d81 0038 9fba 99b7 3c99 9eb7
00000050: 3093 dcb7 b423 c6bb c9b1 afb7 b661 bfb7
00000060: 9c0e 9836 88f7 cb37 3b42 b0b7 a05a 07b8
00000070: 56d6 2b38 3a40 5037 8c2d 7237 36cf 6237
00000080: 80df 6db7 aef3 0cb8 1604 e5b7 7830 f436
00000090: 1a1b c237 7cca f3b6 4c8a 9db7 8d03 b3b7
000000a0: 585b 5336 1ce7 1bb8 8046 ca34 1662 9fb7
000000b0: 73cc e437 dcba 0737 2b74 9cb7 9bd9 e037
000000c0: ec2b aab7 7478 54b7 9fab 1ab8 9f72 c537
000000d0: 208b f835 f897 b1b7 7ec0 b1b7 4e10 53b7
000000e0: 8826 9a37 a0e1 82b6 5e4d 37b7 6e0c 2b37
000000f0: 63e8 c237 c75a 8eb7 9009 6d36 2fb5 dcb7
00000100: 20d8 aab7 05eb fc37 398e c2b7 ba39 2ab8
00000110: 7a8b 3538 38df 5bb7 82e2 66b8 acdf d836
00000120: 4eb7 a5b7 60e9 3c38 2c13 e0b7 0ec4 2137
00000130: 2bf3 3238 68c5 cbb6 ecfa 9836 110d da37
00000140: 0822 3036 28c3 e137 a6ff acb7 42a0 ae37
00000150: ed31 9137 3ee5 f637 18ab 2a38 82e1 9bb7
00000160: 78e6 e936 9b43 c037 5f6a 9ab7 8010 f834
00000170: fe7d 0eb8 3bbb 53b8 4eb7 13b7 e2f9 b6b7
00000180: 3c83 2a38 a692 46b7 60f3 4737 4a14 ca37
00000190: 8e77 ff37 b60f 8bb7 4d12 e5b7 fc62 19b8
000001a0: ee11 e6b7 10bd 6136 0eb8 69b7 7e87 9b37
000001b0: c98b 07b8 349e 0338 c0de 2eb6 0a22 8737
000001c0: afe7 f337 ae39 abb7 9600 aa37 bbbe f3b7
000001d0: c22e 4db8 8e32 2838 80a8 12b4 a0d7 8637
000001e0: 1039 db37 1e04 0cb7 576f 8a37 4c63 bc37
000001f0: d4bf cab7 3cd4 b436 d05b 05b8 8ac7 6cb7
00000200: 30e2 a335 ddf6 9737 e850 4e36 aefc 49b8
00000210: 80a4 f936 80d0 8a37 26ed 66b8 85b5 a1b7
00000220: b088 0eb6 6eb8 27b8 16eb 80b7 8046 a1b6
00000230: 1866 0038 aac1 12b8 b198 9eb7 57e5 3a37
00000240: c12e b5b7 86dd b0b7 c2a8 c1b7 d3e6 f837
00000250: 4306 8fb7 b0f2 a635 8bed 06b8 861b 4f38
00000260: 7c1d 5bb7 05e6 3cb8 af74 25b8 d46f f736
00000270: f440 b9b6 0865 f436 d316 e537 000c 3fb8
00000280: 31ff 20b8 589e 03b8 3140 ad37 009e 6233
00000290: 406f b037 f6a8 2138 7048 a635 b8c4 b4b7
000002a0: f64c 27b8 b88f 1638 7dea 0338 1b02 8037
000002b0: 0a67 b337 b18d d737 a2c5 1e38 cc96 d9b6
000002c0: fb08 c0b7 7037 0536 3a58 1ab8 16e2 3537
000002d0: 7eab 4db8 6ccf d037 5a7e 4c38 03fb 94b7
000002e0: 46da aa37 dcc8 a637 ff39 3738 207b 9c37
000002f0: e14e 3b37 8974 c6b7 f874 58b7 e55e 15b8
00000300: ce42 3338 40f3 cab5 004f 3b38 e03a be37
00000310: 86c7 be36 70ee 4536 cc05 9236 4f2f 0338
00000320: a07b 2db5 2c65 42b7 daad adb7 18fe 34b7
00000330: b832 9e36 18d9 7337 61a1 4738 0d2e ca37
00000340: c90a 9337 64a7 c437 9110 dab7 0005 f735
00000350: 3019 b8b6 92c3 16b8 1e1d 51b7 ba2c e6b7
00000360: ba6f 7a37 422a 37b8 1742 e437 928b eeb7
00000370: b980 f1b7 9ebf f637 4d6e 84b7 100d 9e37
00000380: f053 9a37 3097 2237 b188 aa37 f379 e0b7
00000390: 8e08 2a38 c992 8937 9ac9 1fb8 d8ff 3ab8
000003a0: 505b be35 509f 8735 c5f2 11b8 1a2e 1738
000003b0: d556 8937 6ec7 18b8 c83c cab7 6876 3936
000003c0: 729d 4f38 d2b1 f337 bcab ba36 5d2a e8b7
000003d0: 5087 9235 4af7 e6b7 3099 0eb6 18e1 a2b7
000003e0: 102c bab6 bc59 0ab8 5ba5 f237 28b8 bdb6
000003f0: 37bf b637 f36d ff37 6673 72b7 ad60 d237
1.4224497e-07 9.908024e-06 2.3891833e-05 1.16558185e-05 2.2308595e-05 3.0105708e-05 2.2034297e-05 -1.0089698e-05
1.0733908e-05 1.7690467e-05 2.9045088e-05 -3.777462e-05 -8.7665085e-06 -3.7819467e-05 -8.641846e-06 4.8043825e-05
1.8611649e-05 3.0638e-05 -1.8325924e-05 -1.8906423e-05 -2.6294583e-05 -0.0060467366 -2.0944413e-05 -2.2814475e-05
4.5316538e-06 2.4314751e-05 -2.1011676e-05 -3.227091e-05 4.0969193e-05 1.241272e-05 1.4434929e-05 1.3518895e-05
-1.41783385e-05 -3.3605545e-05 -2.730083e-05 7.277409e-06 2.3139222e-05 -7.2655366e-06 -1.8780258e-05 -2.1340116e-05
3.149462e-06 -3.7170117e-05 3.7676728e-07 -1.8999952e-05 2.7274922e-05 8.090134e-06 -1.8650744e-05 2.6804211e-05
-2.0286032e-05 -1.266423e-05 -3.6876296e-05 2.3537605e-05 1.8517931e-06 -2.117081e-05 -2.118968e-05 -1.2580376e-05
1.8376173e-05 -3.900568e-06 -1.0925663e-05 1.0195288e-05 2.3234816e-05 -1.696999e-05 3.5321318e-06 -2.6310414e-05
-2.036622e-05 3.015018e-05 -2.319283e-05 -4.058492e-05 4.328366e-05 -1.3105389e-05 -5.5047225e-05 6.4633405e-06
-1.975489e-05 4.504004e-05 -2.6711808e-05 9.641995e-06 4.2664975e-05 -6.0728526e-06 4.559164e-06 2.599371e-05
2.6245852e-06 2.6912967e-05 -2.0623043e-05 2.0817042e-05 1.7308595e-05 2.9432234e-05 4.0690502e-05 -1.858245e-05
6.970771e-06 2.2919665e-05 -1.8407763e-05 4.6205605e-07 -3.3972778e-05 -5.0480692e-05 -8.804562e-06 -2.1812451e-05
4.065338e-05 -1.1835864e-05 1.19179895e-05 2.4089724e-05 3.045404e-05 -1.6577407e-05 -2.730745e-05 -3.657023e-05
-2.7426486e-05 3.3637662e-06 -1.3930736e-05 1.8540533e-05 -3.2316693e-05 3.1380172e-05 -2.6057678e-06 1.6109105e-05
2.9075743e-05 -2.0411648e-05 2.0265852e-05 -2.9056673e-05 -4.8919355e-05 4.0101404e-05 -1.365861e-07 1.6074453e-05
2.6133406e-05 -8.345609e-06 1.6502729e-05 2.2457585e-05 -2.4169603e-05 5.3891254e-06 -3.1795178e-05 -1.4113155e-05
1.2210276e-06 1.8115557e-05 3.0743486e-06 -4.815746e-05 7.4399286e-06 1.6547972e-05 -5.5057135e-05 -1.9277222e-05
-2.1239211e-06 -3.9987666e-05 -1.536826e-05 -4.806381e-06 3.061266e-05 -3.4989476e-05 -1.890617e-05 1.1139861e-05
-2.1598653e-05 -2.108399e-05 -2.3085977e-05 2.967139e-05 -1.7049844e-05 1.2438595e-06 -3.216932e-05 4.937828e-05
-1.3060282e-05 -4.5036915e-05 -3.9447736e-05 7.374192e-06 -5.520991e-06 7.2835282e-06 2.7309556e-05 -4.5549124e-05
-3.8384638e-05 -3.1380303e-05 2.0653099e-05 5.2763426e-08 2.103264e-05 3.854275e-05 1.2389046e-06 -2.1549276e-05
-3.9887578e-05 3.5896635e-05 3.1451218e-05 1.525977e-05 2.1386444e-05 2.5695977e-05 3.7854195e-05 -6.484659e-06
-2.2892365e-05 1.9850813e-06 -3.679863e-05 1.084108e-05 -4.9035523e-05 2.489212e-05 4.8755064e-05 -1.7759861e-05
2.036722e-05 1.9882275e-05 4.3684613e-05 1.8653984e-05 1.1164434e-05 -2.3657705e-05 -1.2901837e-05 -3.5612746e-05
4.2739142e-05 -1.5120968e-06 4.465785e-05 2.267718e-05 5.685669e-06 2.9494076e-06 4.351814e-06 3.1276893e-05
-6.462742e-07 -1.1586857e-05 -2.0704163e-05 -1.0787997e-05 4.7146714e-06 1.4534475e-05 4.7595593e-05 2.410172e-05
1.7528788e-05 2.3442968e-05 -2.599534e-05 1.8404389e-06 -5.4865595e-06 -3.5944926e-05 -1.246415e-05 -2.7438964e-05
1.4927175e-05 -4.3669956e-05 2.7210493e-05 -2.8436803e-05 -2.878938e-05 2.9414714e-05 -1.5786989e-05 1.884115e-05
1.8397317e-05 9.6911535e-06 2.0329231e-05 -2.6759668e-05 4.0539126e-05 1.6400025e-05 -3.809631e-05 -4.458413e-05
1.4182679e-06 1.010465e-06 -3.479679e-05 3.604414e-05 1.6372107e-05 -3.6425357e-05 -2.410858e-05 2.763607e-06
4.949928e-05 2.9050661e-05 5.5632245e-06 -2.7676282e-05 1.0917229e-06 -2.753329e-05 -2.1248816e-06 -1.9416722e-05
-5.5483615e-06 -3.2985336e-05 2.8925648e-05 -5.6540775e-06 2.1785132e-05 3.0449568e-05 -1.4451192e-05 2.5078969e-05

input_encoder.0.bias f4 [64]
00000000: d434 c5bc a595 a1bd 980e 80bd 4ee7 183d
00000010: 8b5a d93b b0ca 35bd 8f2f bdbb cff9 b9bc
00000020: e89a 6dbd 41f5 373c 43b7 b73c 1804 6bbd
00000030: 65fe c8bc b820 943a 0352 61bd a33f 0fbc
00000040: b3e9 13bc e8cc a33c ae53 0d3b 685e 8fbc
00000050: 6db7 58bc eec7 22bc 4e36 14bc 1409 843b
00000060: 8a37 39bc 9b0f 1f3c a101 5fbc 92ed 11bc
00000070: d920 36bd 5fda ac3c de33 f1bc 3f29 7ebd
00000080: 8c3f 1e3d 954c c6bc 3ec4 a9bc fdf6 b7bd
00000090: 4be7 42bc 5777 503c 4144 a0ba 3ac3 633b
000000a0: 2d30 7fbc 3ce3 3c3d abf3 60bd 1b21 63bd
000000b0: a007 57bd 1204 1a3c 8f3c 8e3c be04 7ebd
000000c0: 2179 9a3c 84c5 4dbd 51dc 723c 5b99 153c
000000d0: fe7e 9dba 8733 27bc e644 cd3b 6b28 01bd
000000e0: ac6d 5abc 933e 41bd fc07 3ebd b280 92bc
000000f0: 70e4 4dbd ca2a 90bb 3ff9 a53c 466d a93b
-0.024073042 -0.078898706 -0.062527835 0.037329964 0.006633108 -0.04438275 -0.0057734917 -0.022702126
-0.05800906 0.011227907 0.022426253 -0.05737695 -0.024535367 0.0011301255 -0.055009853 -0.0087431995
-0.009027886 0.019995168 0.002156477 -0.017501071 -0.013227326 -0.009935362 -0.00904615 0.0040294025
-0.011304745 0.0097083105 -0.013611228 -0.008906739 -0.04446492 0.021100221 -0.029443678 -0.062051054
0.03863482 -0.024206439 -0.020723458 -0.08982656 -0.011895965 0.012723765 -0.0012227372 0.0034753815
-0.015575451 0.046115145 -0.05491988 -0.055451494 -0.052497506 0.0094003845 0.017362861 -0.06201624
0.018856587 -0.050237194 0.014823035 0.009130801 -0.0012015996 -0.010205156 0.006264317 -0.031532686
-0.013331812 -0.047178816 -0.046394333 -0.017883632 -0.050266683 -0.004399632 0.020260451 0.005170497

latent_encoder.weight f4 [16, 64]
00000000: 6531 ea37 ff49 a33d de5d 083c 1ec4 adbe
00000010: 0004 fd3d 1b83 b83e ad38 dbbe 32d3 bfbd
00000020: dbe9 2cb9 1fbd a5be 0387 933e f48c be3d
00000030: 8e76 1638 dc1f 33be 42af 12be 453e 9c38
00000040: f6c2 b73e 94bb 463e 2fa6 de3d cd13 8fbe
00000050: 8719 9dbd 4061 9ab7 115a d5bc 1abc 1ebe
00000060: 8696 d2bd efe2 b3bd 842b 1eb9 957d 44be
00000070: c1ae 0c3d 4b0f 333d fefd 4638 fa02 8039
00000080: 1b5c 83be 2978 933d a576 ffbd 596d 3abd
00000090: df4e b93e a512 cfbd d9fb f0bd 4ba9 8bbe
000000a0: 35d3 ebbc 48d8 a6be dad5 f43d e2f3 6338
000000b0: aedd 18bd 0332 bb3e b050 69be 9e36 1eba
000000c0: 4080 233d 7626 8abd 6965 d73e 7ad2 aa3d
000000d0: 9abd fabd c9b4 d3be 2bfc a0be 7c6a b53e
000000e0: 2b29 5b3c ee20 c43d 86bc b938 dd91 78be
000000f0: c932 92bc 15c6 8b3d 9aed b7be e35d 213e
00000100: abd2 5fb9 2287 a2bd aa4b 753d b48c 46bd
00000110: 7987 523d 771c 7bbe a4db 22be fb2d b6be
00000120: b985 9439 6c1e d53d f8d7 7ebe b6f9 4dbd
00000130: f890 c136 8442 34be 177b 583c e3ec 8cb9
00000140: 49c0 b6be 85cf 32be fbea 2a3d 5a47 183e
00000150: 830a edbd da57 4438 43f8 453e fe30 873e
00000160: d6b8 a9be dfd0 833e b48c ffb8 85ae 843e
00000170: 9d1a 04bd 1ab2 243e c648 8538 a4a1 7eba
00000180: a028 4cbe 0cc1 a83d 1116 893e 71e3 eabb
00000190: 900d 8abe e72a 763e a50a 683e a2c3 a1be
000001a0: 56c9 813d a549 b2bd 3ca3 123e abe1 31b9
000001b0: 8f37 993d f592 90be d78b 36be 684f 7339
000001c0: 1c9c 8e3d 84c5 193d 25fc a0be 54de d43d
000001d0: b12d 6b3e caf4 c1bd f52b f8bd dc7f 9ebe
000001e0: 3868 9fbc 2248 1b3e 5a62 9fb9 aaea 193e
000001f0: 5923 9d3d 7e66 003e efce 2fbe 2ac6 783d
00000200: 6ec2 6038 6c0c 52bd 59f9 3ebd 75c9 afbd
00000210: 0135 b13d 42fa 84bc 42e5 13be 565c d53a
00000220: ae19 6eb9 5377 b13d 1dcd 5dbd 0ee7 dfbc
00000230: 615c 2539 d1a1 41bc 371a 3abd 870c 86b9
00000240: 3d50 233c adb5 5d3d a54b 1e3e 8923 583d
00000250: f31f c63c a9df 8a39 bcfa 163e d887 033e
00000260: 58de 13be e6a2 ba3d 62b6 9b38 8e51 953d
00000270: 79a0 ccbd 643e 673e cafb 30b9 b791 8db9
00000280: b8ca 1dbe 2240 8e3e ed3f cdbb abdf 6abd
00000290: fe66 403c 27a6 383e deb4 233d 2cf7 a6bd
000002a0: 6a1b 343e 9029 9fbd f2b1 a63c 8d35 f8b8
000002b0: db66 aabd 09fc 443c 9823 dc3d 6387 9639
000002c0: 4b95 e13d 682f fc3c 0ec5 a2bb f66b 693e
000002d0: 9be1 413e 48ee 9cbd 40e5 4d3c 3988 433d
000002e0: e880 babc ce36 d1bd 790e 3cb9 f789 a03d
000002f0: d7f9 58bd 9c54 703e 2aa9 a9bd 1157 383e
00000300: 057b acb9 f7a7 87bd e655 803d 3d7f 8ebd
00000310: d918 0c3d a164 ff3d 1551 223e da28 863e
00000320: 1d23 64b9 8e8a 9dbd 955c e43d 5b76 e33c
00000330: 3427 1d39 190b 083e 7793 f4bd acd5 cbb8
00000340: a2ba ab3d 3b3d c83d b415 6e3d 250a f2bc
00000350: 171a b33d 8fdd 3eb9 6255 7a3d bdf3 163c
00000360: 22f6 973d 7347 ae3a 4778 42b9 4041 223d
00000370: 6364 343d 94db 603d 94e4 10b9 421a d6b9
00000380: 495e 1a3d c10e 8c3c 662f 3ebc c48d d2bc
00000390: 43ab cd3d 3a84 a5b9 2b39 93bd 32bd 303e
000003a0: 02e5 66bd b672 26bc c43f e5bd 58ec a738
000003b0: a4a7 a23c aa5f 683d 6c41 6b3d 0e3d 4b39
000003c0: f04a 1f3d b6b9 26be d518 eb3d 1f42 ca3d
000003d0: d408 c93c 6539 ef3d 832e 0d3d 15cb f83d
000003e0: 5c0f 96ba 587b 4bbc 888e 1838 c598 eb3c
000003f0: 6f1b 0a3b ea3c aa3d e265 e03d 3778 cf3d
2.7917975e-05 0.07973098 0.008323161 -0.33938688 0.123542786 0.36037526 -0.42816678 -0.09366454
-0.00016490316 -0.3237085 0.28813943 0.093042284 3.58732e-05 -0.17492622 -0.14324668 7.450258e-05
0.3589093 0.19407493 0.10871541 -0.27944794 -0.076708846 -1.8403516e-05 -0.026043924 -0.15501443
-0.10282616 -0.087835185 -0.00015084265 -0.1918853 0.034346346 0.043715756 4.7443427e-05 0.0002441628
-0.25656208 0.07200653 -0.124738015 -0.04551444 0.36192986 -0.10110978 -0.11766786 -0.27277598
-0.028787235 -0.32586884 0.119548514 5.434815e-05 -0.037320785 0.36561593 -0.22784686 -0.000603536
0.03991723 -0.06745617 0.42069557 0.083409265 -0.12243195 -0.41348866 -0.3144239 0.35432804
0.013376514 0.09576593 8.856603e-05 -0.24274392 -0.017846482 0.068248905 -0.35923463 0.15758471
-0.00021345417 -0.07935931 0.059886612 -0.04847403 0.051398728 -0.24522577 -0.15904099 -0.35581955
0.0002832839 0.10406193 -0.24887073 -0.05028697 5.768725e-06 -0.17603499 0.013212941 -0.00026879375
-0.35693577 -0.17461975 0.041728 0.14870968 -0.115742706 4.681186e-05 0.19332986 0.26404566
-0.3314883 0.25745293 -0.000121855555 0.25914398 -0.032251943 0.16083565 6.355489e-05 -0.00097134174
-0.19937372 0.08239946 0.26774648 -0.0071682264 -0.26963472 0.24039803 0.2266031 -0.31594568
0.0633723 -0.08705453 0.14320081 -0.00016964103 0.074813 -0.2823712 -0.17826782 0.00023203867
0.06963369 0.03754188 -0.3144237 0.10393968 0.22966649 -0.09470518 -0.12117759 -0.30956924
-0.019458875 0.15164235 -0.0003040012 0.15030923 0.07672758 0.12539098 -0.17168783 0.06073586
5.358684e-05 -0.051281378 -0.046624515 -0.08583347 0.08652688 -0.016232613 -0.14442924 0.0016278129
-0.00022707015 0.086653374 -0.05415069 -0.027331855 0.0001577004 -0.011818365 -0.045435157 -0.00025567805
0.009967861 0.054128338 0.15458544 0.052768264 0.024185156 0.0002648805 0.14744085 0.12844789
-0.14440286 0.09113102 7.4249474e-05 0.07290946 -0.09991545 0.22582394 -0.00016878467 -0.00027002182
-0.15409362 0.27783304 -0.006263724 -0.057342213 0.011743305 0.18032132 0.03996741 -0.08152613
0.17588583 -0.07771599 0.020348523 -0.00011835536 -0.083203994 0.0120229805 0.107489765 0.000287111
0.110148035 0.030784324 -0.0049673384 0.2279509 0.18933718 -0.07662636 0.0125668645 0.047737334
-0.022766545 -0.10215531 -0.00017934469 0.07838815 -0.05297264 0.23469776 -0.082842186 0.18001963
-0.00032898053 -0.066238336 0.06266384 -0.069578625 0.034203384 0.12470365 0.15851243 0.26203042
-0.00021756855 -0.07692443 0.11150471 0.027766397 0.00014987291 0.13285483 -0.11942189 -9.719594e-05
0.08385207 0.09777304 0.058126166 -0.029545853 0.087452106 -0.00018202349 0.061116584 0.009213385
0.07419993 0.001329644 -0.00018546089 0.03961301 0.04404105 0.054896906 -0.00013818062 -0.00040836824
0.037687574 0.017096879 -0.01160798 -0.025702365 0.10042431 -0.0003156977 -0.07188638 0.17259672
-0.056370743 -0.010159185 -0.11193803 8.007203e-05 0.019855328 0.056731857 0.057435438 0.00019382333
0.038889825 -0.1628178 0.11479346 0.09875893 0.024540342 0.11680869 0.034468185 0.1214811
-0.0011448669 -0.012419544 3.6372367e-05 0.02875937 0.002107348 0.083124 0.109569326 0.10130351

latent_encoder.bias f4 [16]
00000000: b633 1ebc 3dfa 9b3d 3e70 12bd e209 91bc
00000010: dd22 0a3d b6ea cfbd 1f8d 56bc ebc8 acbc
00000020: 4cd1 19bd f57f 54bc 7e10 a13b 45c7 18bd
00000030: 7024 a9bd f911 60bd e5c6 3a3d 8f8b ab3d
-0.009655884 0.076160885 -0.035751574 -0.017704908 0.033724654 -0.101521894 -0.013095169 -0.021091899
-0.037553117 -0.01296996 0.004915296 -0.037299413 -0.08258903 -0.05470464 0.045599837 0.08376228

flow.flow.mean f4 [4, 16]
00000000: 0000 0000 0000 0000 0000 0000 0000 0000
00000010: 0000 0000 0000 0000 0000 0000 0000 0000
00000020: 0000 0000 0000 0000 0000 0000 0000 0000
00000030: 0000 0000 0000 0000 0000 0000 0000 0000
00000040: 0000 0000 0000 0000 0000 0000 0000 0000
00000050: 0000 0000 0000 0000 0000 0000 0000 0000
00000060: 0000 0000 0000 0000 0000 0000 0000 0000
00000070: 0000 0000 0000 0000 0000 0000 0000 0000
00000080: 0000 0000 0000 0000 0000 0000 0000 0000
00000090: 0000 0000 0000 0000 0000 0000 0000 0000
000000a0: 0000 0000 0000 0000 0000 0000 0000 0000
000000b0: 0000 0000 0000 0000 0000 0000 0000 0000
000000c0: 0000 0000 0000 0000 0000 0000 0000 0000
000000d0: 0000 0000 0000 0000 0000 0000 0000 0000
000000e0: 0000 0000 0000 0000 0000 0000 0000 0000
000000f0: 0000 0000 0000 0000 0000 0000 0000 0000
0.0 0.0 0.0 0.0 0.0 0.0 0.0 0.0
0.0 0.0 0.0 0.0 0.0 0.0 0.0 0.0
0.0 0.0 0.0 0.0 0.0 0.0 0.0 0.0
0.0 0.0 0.0 0.0 0.0 0.0 0.0 0.0
0.0 0.0 0.0 0.0 0.0 0.0 0.0 0.0
0.0 0.0 0.0 0.0 0.0 0.0 0.0 0.0
0.0 0.0 0.0 0.0 0.0 0.0 0.0 0.0
0.0 0.0 0.0 0.0 0.0 0.0 0.0 0.0

flow.flow.cov f4 [4, 16, 16]
00000000: 0000 803f 0000 0000 0000 0000 0000 0000
00000010: 0000 0000 0000 0000 0000 0000 0000 0000
00000020: 0000 0000 0000 0000 0000 0000 0000 0000
00000030: 0000 0000 0000 0000 0000 0000 0000 0000
00000040: 0000 0000 0000 803f 0000 0000 0000 0000
00000050: 0000 0000 0000 0000 0000 0000 0000 0000
00000060: 0000 0000 0000 0000 0000 0000 0000 0000
00000070: 0000 0000 0000 0000 0000 0000 0000 0000
00000080: 0000 0000 0000 0000 0000 803f 0000 0000
00000090: 0000 0000 0000 0000 0000 0000 0000 0000
000000a0: 0000 0000 0000 0000 0000 0000 0000 0000
000000b0: 0000 0000 0000 0000 0000 0000 0000 0000
000000c0: 0000 0000 0000 0000 0000 0000 0000 803f
000000d0: 0000 0000 0000 0000 0000 0000 0000 0000
000000e0: 0000 0000 0000 0000 0000 0000 0000 0000
000000f0: 0000 0000 0000 0000 0000 0000 0000 0000
00000100: 0000 0000 0000 0000 0000 0000 0000 0000
00000110: 0000 803f 0000 0000 0000 0000 0000 0000
00000120: 0000 0000 0000 0000 0000 0000 0000 0000
00000130: 0000 0000 0000 0000 0000 0000 0000 0000
00000140: 0000 0000 0000 0000 0000 0000 0000 0000
00000150: 0000 0000 0000 803f 0000 0000 0000 0000
00000160: 0000 0000 0000 0000 0000 0000 0000 0000
00000170: 0000 0000 0000 0000 0000 0000 0000 0000
00000180: 0000 0000 0000 0000 0000 0000 0000 0000
00000190: 0000 0000 0000 0000 0000 803f 0000 0000
000001a0: 0000 0000 0000 0000 0000 0000 0000 0000
000001b0: 0000 0000 0000 0000 0000 0000 0000 0000
000001c0: 0000 0000 0000 0000 0000 0000 0000 0000
000001d0: 0000 0000 0000 0000 0000 0000 0000 803f
000001e0: 0000 0000 0000 0000 0000 0000 0000 0000
000001f0: 0000 0000 0000 0000 0000 0000 0000 0000
00000200: 0000 0000 0000 0000 0000 0000 0000 0000
00000210: 0000 0000 0000 0000 0000 0000 0000 0000
00000220: 0000 803f 0000 0000 0000 0000 0000 0000
00000230: 0000 0000 0000 0000 0000 0000 0000 0000
00000240: 0000 0000 0000 0000 0000 0000 0000 0000
00000250: 0000 0000 0000 0000 0000 0000 0000 0000
00000260: 0000 0000 0000 803f 0000 0000 0000 0000
00000270: 0000 0000 0000 0000 0000 0000 0000 0000
00000280: 0000 0000 0000 0000 0000 0000 0000 0000
00000290: 0000 0000 0000 0000 0000 0000 0000 0000
000002a0: 0000 0000 0000 0000 0000 803f 0000 0000
000002b0: 0000 0000 0000 0000 0000 0000 0000 0000
000002c0: 0000 0000 0000 0000 0000 0000 0000 0000
000002d0: 0000 0000 0000 0000 0000 0000 0000 0000
000002e0: 0000 0000 0000 0000 0000 0000 0000 803f
000002f0: 0000 0000 0000 0000 0000 0000 0000 0000
00000300: 0000 0000 0000 0000 0000 0000 0000 0000
00000310: 0000 0000 0000 0000 0000 0000 0000 0000
00000320: 0000 0000 0000 0000 0000 0000 0000 0000
00000330: 0000 803f 0000 0000 0000 0000 0000 0000
00000340: 0000 0000 0000 0000 0000 0000 0000 0000
00000350: 0000 0000 0000 0000 0000 0000 0000 0000
00000360: 0000 0000 0000 0000 0000 0000 0000 0000
00000370: 0000 0000 0000 803f 0000 0000 0000 0000
00000380: 0000 0000 0000 0000 0000 0000 0000 0000
00000390: 0000 0000 0000 0000 0000 0000 0000 0000
000003a0: 0000 0000 0000 0000 0000 0000 0000 0000
000003b0: 0000 0000 0000 0000 0000 803f 0000 0000
000003c0: 0000 0000 0000 0000 0000 0000 0000 0000
000003d0: 0000 0000 0000 0000 0000 0000 0000 0000
000003e0: 0000 0000 0000 0000 0000 0000 0000 0000
000003f0: 0000 0000 0000 0000 0000 0000 0000 803f
1.0 0.0 0.0 0.0 0.0 0.0 0.0 0.0
0.0 0.0 0.0 0.0 0.0 0.0 0.0 0.0
0.0 1.0 0.0 0.0 0.0 0.0 0.0 0.0
0.0 0.0 0.0 0.0 0.0 0.0 0.0 0.0
0.0 0.0 1.0 0.0 0.0 0.0 0.0 0.0
0.0 0.0 0.0 0.0 0.0 0.0 0.0 0.0
0.0 0.0 0.0 1.0 0.0 0.0 0.0 0.0
0.0 0.0 0.0 0.0 0.0 0.0 0.0 0.0
0.0 0.0 0.0 0.0 1.0 0.0 0.0 0.0
0.0 0.0 0.0 0.0 0.0 0.0 0.0 0.0
0.0 0.0 0.0 0.0 0.0 1.0 0.0 0.0
0.0 0.0 0.0 0.0 0.0 0.0 0.0 0.0
0.0 0.0 0.0 0.0 0.0 0.0 1.0 0.0
0.0 0.0 0.0 0.0 0.0 0.0 0.0 0.0
0.0 0.0 0.0 0.0 0.0 0.0 0.0 1.0
0.0 0.0 0.0 0.0 0.0 0.0 0.0 0.0
0.0 0.0 0.0 0.0 0.0 0.0 0.0 0.0
1.0 0.0 0.0 0.0 0.0 0.0 0.0 0.0
0.0 0.0 0.0 0.0 0.0 0.0 0.0 0.0
0.0 1.0 0.0 0.0 0.0 0.0 0.0 0.0
0.0 0.0 0.0 0.0 0.0 0.0 0.0 0.0
0.0 0.0 1.0 0.0 0.0 0.0 0.0 0.0
0.0 0.0 0.0 0.0 0.0 0.0 0.0 0.0
0.0 0.0 0.0 1.0 0.0 0.0 0.0 0.0
0.0 0.0 0.0 0.0 0.0 0.0 0.0 0.0
0.0 0.0 0.0 0.0 1.0 0.0 0.0 0.0
0.0 0.0 0.0 0.0 0.0 0.0 0.0 0.0
0.0 0.0 0.0 0.0 0.0 1.0 0.0 0.0
0.0 0.0 0.0 0.0 0.0 0.0 0.0 0.0
0.0 0.0 0.0 0.0 0.0 0.0 1.0 0.0
0.0 0.0 0.0 0.0 0.0 0.0 0.0 0.0
0.0 0.0 0.0 0.0 0.0 0.0 0.0 1.0

flow.flow.transforms.0.x0 f4 [4, 16]
00000000: 2301 cb3e 31f6 91be db43 0dbe c334 8a3c
00000010: 43de 7fbe a054 a4bd 92d6 6dbe 64c0 973e
00000020: 5b76 153e 325a 86be e7e0 ba3e 0082 a93e
00000030: f13a 8d3d d35a 223e ec02 ac3e 1f15 64be
00000040: 273d 703e 45cf 25be 06df 90bc 262e 043e
00000050: 27c7 8ebe c43f 6d3e 192d dc3c ae69 123d
00000060: 8280 19be 64b6 e33d 3337 5e3e e61c f23d
00000070: 3cbd 443e da2b 353e ae5c af3d a22d a0be
00000080: c4b9 2a3e 3b7e 063e 1120 7a3d 26b2 1cbd
00000090: 7d4b f23c f1fb 0e3e 3b7d a9bd 67da b13d
000000a0: ebb6 053e 4539 59be 7b75 383d 0f63 5ebe
000000b0: 9b40 c3bd 9b1f a93d 8fcc b93e 44a9 58bb
000000c0: 2276 58bd 72b4 18be 5956 923d ad2a c0bc
000000d0: 5120 18be 94f9 be3e d754 e23d 909e 523e
000000e0: 11e8 553d 7ce3 773d b5b8 6b3e 0920 f3be
000000f0: 032b 29be 79a2 873e 2ba7 cb3d 7a8c 47be
0.39649305 -0.28508142 -0.13795416 0.016870862 -0.2498713 -0.080239534 -0.23226383 0.2963897
0.1459593 -0.2624069 0.36499712 0.33106995 0.06896008 0.15854959 0.3359598 -0.22273682
0.23460828 -0.16192348 -0.01768447 0.12908229 -0.27886316 0.23168856 0.026876973 0.035745315
-0.14990428 0.111187726 0.21700744 0.11821918 0.19212812 0.1769251 0.08562599 -0.31284815
0.16672426 0.1313409 0.061065737 -0.038255833 0.029577011 0.13963296 -0.08275839 0.08684235
0.13058059 -0.21213253 0.045033913 -0.21717475 -0.09533807 0.082579814 0.36288878 -0.0033059875
-0.052847035 -0.14912584 0.07145376 -0.02345785 -0.14856078 0.37299788 0.11051338 0.205683
0.05222327 0.06051968 0.23019679 -0.47485378 -0.16520314 0.26491144 0.09943994 -0.19487181

flow.flow.transforms.0.alpha_prime f4 [4]
00000000: 2109 0e3e 9c8b 1d3e 5c2b 953e 1a38 59be
0.1387067 0.15385288 0.29134643 -0.21212807

flow.flow.transforms.0.beta_prime f4 [4]
00000000: 8744 823e 0e0a d23d 82b8 3fbe 5de7 e8bd
0.25442907 0.10255824 -0.18722728 -0.11372254

flow.flow.transforms.1.x0 f4 [4, 16]
00000000: 43f3 8b3e 8bbf 45be 1457 13bd e389 a13d
00000010: 10cf 1dbe 21ed 21be eacf b5bd de6a 463e
00000020: 1ba6 0c3d 8b87 2ebe 9ba2 943e adee 553e
00000030: cf05 ae3c ce8f 513d 22f1 663e 8b05 dcbc
00000040: 836c f53d 8e00 353c 3c44 123c d74b 183d
00000050: 8b6e 8abd 4dc0 ea3d a3f9 9cbe ba28 903e
00000060: 86fc 6cbe a740 1abe 5a45 163d e744 42bd
00000070: d2b6 ec3c 65fc 103e 87cf ba3d 23f5 3ebe
00000080: 7264 59be e13b c9bd a3d3 0f3d 3a56 11be
00000090: fe2d e8bd e45f 673e a7b3 ef3d f67c 703e
000000a0: a7fe 883e 41c9 1f3d b6d9 b13e 04e8 323d
000000b0: 0d67 0e3e 5c73 33be e05e 06bd f933 59bd
000000c0: bd58 383e f4d6 aabd 4f4c 0c3e 13ec e4bd
000000d0: a2d3 a6bd ab5c e7be 73d2 f03d 5005 a3bd
000000e0: 8a89 ecb9 3cff 8a3e 51f5 563e 8e49 9b3e
000000f0: 9731 91bd 0a47 3b3d 6677 27be d2e1 413e
0.2733403 -0.19311349 -0.035971716 0.07887628 -0.1541102 -0.15813114 -0.08877547 0.19376704
0.034338098 -0.17043893 0.29030308 0.20891829 0.021243004 0.051162533 0.22552922 -0.026858112
0.119835876 0.0110474955 0.008927401 0.0371817 -0.06759366 0.1146246 -0.30659208 0.28156072
-0.23143205 -0.15063725 0.036687233 -0.04742899 0.02889577 0.14158781 0.09121614 -0.186482
-0.21229723 -0.09825874 0.035113942 -0.14193049 -0.11336897 0.22595173 0.11704188 0.23485169
0.26756784 0.03901029 0.34736413 0.0436783 0.13906498 -0.17524475 -0.032805324 -0.05302808
0.18002601 -0.0834178 0.13700984 -0.1117784 -0.081458345 -0.45187888 0.1175889 -0.07959998
-0.00045115902 0.27147853 0.20992018 0.30329555 -0.07089537 0.045722045 -0.1635414 0.189338

flow.flow.transforms.1.alpha_prime f4 [4]
00000000: 79a2 89be 840a f03d 91f5 d13c f917 883d
-0.2688177 0.11720756 0.02562979 0.066451974

flow.flow.transforms.1.beta_prime f4 [4]
00000000: d1cd b13e b634 3ebe efd4 0f3c b61b d2bd
0.34727338 -0.18574795 0.008778795 -0.10259192

flow.flow.transforms.2.x0 f4 [4, 16]
00000000: f8f9 8b3e 77f6 6abe 7599 25bc 1740 a23d
00000010: c83a 31be b318 48be e011 bdbd 30db 843e
00000020: 514d 2a3d 2915 5dbe 0e76 953e f239 8a3e
00000030: b3fc b03d c377 633d de54 8b3e 5fb4 acbc
00000040: 688c b4be 6dce a43e c2b0 58bd 603c 89bd
00000050: a7f2 b63c 927b 7dbd bc39 db3e c1b4 cebe
00000060: f4b3 d23e 84de 2f3e 7de1 b0be 39ff e5bd
00000070: 72a4 0e3e 6134 aebe 4494 1c3e 22fa 973e
00000080: 1606 a33e ab89 d33c 252d 7c3d 36b3 cbbc
00000090: c8ae d6bc 127d 0e3e 41b0 cfbd a885 f23b
000000a0: 4b5a 853e c0d5 9cbe 0812 eebc bc10 babe
000000b0: aac3 30be 9c53 bbbc a48f 3d3e 68e0 4b3d
000000c0: 4ebf 71bd 56be 643e 397e 793e b620 293e
000000d0: a5fb 52be 76a3 c13e 4a18 2bbe 9259 8c3e
000000e0: d029 133e 5007 adbe 3005 2dbe 44be 94be
000000f0: c14b c5bd b1a9 9c3e 7828 89bd b97f 22be
0.2733915 -0.22945581 -0.010107388 0.079223804 -0.1730758 -0.19540672 -0.09231925 0.25948477
0.04157764 -0.21590103 0.2919163 0.26997334 0.086419486 0.055534136 0.27213186 -0.021082101
-0.3526337 0.3218874 -0.052902944 -0.06700969 0.022332503 -0.061885424 0.42817485 -0.4037228
0.41152918 0.17174727 -0.34547034 -0.112303205 0.13929918 -0.34024337 0.15290934 0.29683024
0.3184058 0.025822481 0.06156649 -0.024865728 -0.02620639 0.13914898 -0.1014104 0.007401187
0.2604545 -0.30631828 -0.029061332 -0.36340892 -0.1726214 -0.022867016 0.18511826 0.049774557
-0.059020333 0.22338232 0.24364556 0.16516384 -0.20603807 0.37820023 -0.16708484 0.27412087
0.14371419 -0.33794641 -0.1689651 -0.2905141 -0.096335895 0.30598214 -0.06697172 -0.15869035

flow.flow.transforms.2.alpha_prime f4 [4]
00000000: dab9 abbe 4642 89be 407e 3e3e a1df 4ebe
-0.3354023 -0.26808375 0.18602848 -0.20202495

flow.flow.transforms.2.beta_prime f4 [4]
00000000: 0408 1abe e76a b1bd 5e3c 1d3d f783 bfbd
-0.1504212 -0.08662968 0.03838765 -0.09351342

flow.flow.transforms.3.x0 f4 [4, 16]
00000000: 6efb d03e d0f9 aabe 55e1 1ebb 4bb7 353e
00000010: ad0c 9cbe 90d5 61be 2543 01be 0a62 9c3e
00000020: b3c3 0f3e cdd9 8ebe 257c f13e f44f c83e
00000030: bcee a13d b436 c33d 0cbd 9f3e 40ea e4bd
00000040: a666 81be 4240 1c3e a443 323e d71b fd3d
00000050: 3c10 a03e efe5 aa3d 8942 7b3e de86 cabe
00000060: 3705 e93d aca7 f13d 083e a7be 9abf abbe
00000070: 1244 03be 0d12 a0be 2256 6c3d f39f 973d
00000080: ea92 da3e d43f 40be 2144 183e bc34 1d3d
00000090: 5b2a 473e 38a9 df3e 80b6 b9be e797 7dbe
000000a0: 6a65 4f3e 23ba b63d 8adb 343e d7b7 06bf
000000b0: 4da0 973d 8b87 af3e 2b31 c73e aa22 debc
000000c0: 36ce 623e d6bb e6bd 758f 823e ceb8 683e
000000d0: 9d95 983d 6d9e d63e 32de babe 1187 803e
000000e0: 6576 04be 2cbe 2fbe 1a34 163e 7bd3 b6be
000000f0: dbb2 8cbd 58dc 863e fd34 2dbc e0ee f4bd
0.40816826 -0.33393717 -0.0024243195 0.17745702 -0.3047842 -0.22054124 -0.1262327 0.30543548
0.14039497 -0.27900544 0.47165027 0.391235 0.07906863 0.09531918 0.3119892 -0.11177492
-0.25273627 0.15258887 0.17408615 0.12358826 0.31262386 0.083446376 0.245371 -0.3955602
0.11377948 0.11799559 -0.32664514 -0.33544618 -0.12818936 -0.31263772 0.05769933 0.07403555
0.42690212 -0.18774348 0.14869739 0.03838037 0.19449751 0.4368379 -0.3627205 -0.24764977
0.2025353 0.089222215 0.17661873 -0.5262427 0.07403622 0.342831 0.389047 -0.027116138
0.22148976 -0.112662956 0.25500074 0.22726747 0.074504115 0.41917744 -0.36497647 0.25103047
-0.12935789 -0.17162389 0.14668313 -0.35708222 -0.068700515 0.26339984 -0.010571715 -0.11959624

flow.flow.transforms.3.alpha_prime f4 [4]
00000000: e3f5 813c 5873 fb3b 6e27 213e d4a6 7cbe
0.015864318 0.007673662 0.15737697 -0.24673015

flow.flow.transforms.3.beta_prime f4 [4]
00000000: ebca 3f3e 920f 7d3e 6c18 a13d a776 f7bd
0.18729751 0.24712971 0.07865986 -0.12083178

flow.flow.transforms.4.x0 f4 [4, 16]
00000000: 1afd d9be 8bd0 5abd 46de 733e 8424 a6be
00000010: ec40 ba3e 40c6 b83d d5e5 6ebe 764f cabe
00000020: 5f2b e6bc 783a a13d 61d7 f2be a861 813e
00000030: 7889 2f3e 40b0 99b6 c230 b9be 6e68 9abe
00000040: 6520 ca3d a925 b1bd 83d4 21bd c2f5 103d
00000050: edc6 03be 0623 1ebd 1818 9bbe 2b6e a13e
00000060: 2c5c 99be 943a 8dbd 576e 283e 2d8e 183e
00000070: c498 043e 608c 213e e5e6 033d ec7f 46be
00000080: e8d4 113e 4730 fb3d 275d 593c ad6e e4bc
00000090: ec27 143d 3cf8 0a3e c5a3 ffbd 0404 373c
000000a0: 0c8f c03d 40b3 38be 336f 053d 72fc 77be
000000b0: 9dfd 84bd 5d91 5b3d e880 b63e 5324 443d
000000c0: 8be2 8bbd bc11 99bd 8eb7 f9bc cb26 853d
000000d0: 23be b43d 34ee cebe cc84 fdbd 25ef 2ebe
000000e0: 33d5 1fbd c9a9 a43d 2676 483e 3c5e 523e
000000f0: b7fd 11be b5ce 8abe e07b 0abe 942e f3bc
-0.42575914 -0.05342154 0.2381526 -0.32449734 0.36377656 0.09022188 -0.23329861 -0.3951375
-0.028096853 0.0787248 -0.47429946 0.25269818 0.17142284 -4.5802735e-06 -0.36170012 -0.301578
0.0986946 -0.08649761 -0.039509308 0.035390623 -0.12868853 -0.03860762 -0.3029182 0.31529364
-0.29953134 -0.068959385 0.16448341 0.14897986 0.129489 0.15776205 0.03220262 -0.19384736
0.14241374 0.122650675 0.013266838 -0.027884806 0.036170885 0.13571256 -0.124824084 0.011170391
0.09402284 -0.18037128 0.03257675 -0.24217394 -0.064936854 0.053605426 0.35645223 0.047886204
-0.06830319 -0.07474086 -0.030483034 0.0650154 0.08825328 -0.4041611 -0.123788446 -0.17083414
-0.039021682 0.080401964 0.1957632 0.2054376 -0.14256941 -0.2711083 -0.13523817 -0.029685296

flow.flow.transforms.4.alpha_prime f4 [4]
00000000: c7bd 033e 98b4 643e 31ae 4c3e 63e1 5ebd
0.12865363 0.22334516 0.19988324 -0.054414164

flow.flow.transforms.4.beta_prime f4 [4]
00000000: 93ae 3b3d f6e7 93be 1eb8 babe b04a 36be
0.045820784 -0.2888791 -0.36468595 -0.17801929

flow.flow.transforms.5.x0 f4 [4, 16]
00000000: c5ec d3be f494 bb3e bc3f 443e c6a4 c5bd
00000010: ee7d c8bd 28a4 d93d 38d5 6fbe c329 713e
00000020: 04b2 4c3b 42ea af3e 54ac e3be db87 c93d
00000030: c9a1 ad3d 426d b53b 13f6 a9be f4c3 5d3e
00000040: 7356 73be 7cbb 813e 096c d8bd 8fbc afbd
00000050: cd1a 6d3e 4cdb 95bd 6422 8a3e 5718 acbe
00000060: 81e8 693e 3ab7 e53d c2ba 57be 266d 9dbe
00000070: f858 c7bd 9e56 51be 6c47 373e 5d2b d83d
00000080: 69a1 c7be 6fd2 08be a04d 42be 5c36 b43d
00000090: 40f0 e1bd 05f9 debe 9a6c 1e3e ef60 88bc
000000a0: 134f c4bd 1399 8b3e 1947 ec3c 0288 9b3e
000000b0: 84a0 243e b373 81be 03ae d3be b9a0 b1bd
000000c0: 603c abbe 2af1 84be 19b1 483e a022 703e
000000d0: 823f 04be 4930 df3d 8763 093e 90e0 87be
000000e0: b085 37be 9c3f b43e 0e2c 153e 8de4 473d
000000f0: ba0d 3e3c f796 7cbd 8346 a5be 46ad 9f3e
-0.41391578 0.3663708 0.19164938 -0.09650569 -0.09789644 0.106270134 -0.2342118 0.23551087
0.0031234035 0.34358412 -0.44467413 0.098403655 0.08478124 0.005536706 -0.33195552 0.21656781
-0.23763447 0.25338352 -0.10567481 -0.085808866 0.23154755 -0.07317218 0.26979363 -0.3361232
0.228426 0.11216588 -0.21067336 -0.30747336 -0.09733766 -0.20443198 0.17898339 0.10555146
-0.38990334 -0.13361524 -0.18974924 0.08799431 -0.11032152 -0.43549362 0.15471116 -0.016647784
-0.09585395 0.27265224 0.028842496 0.30377203 0.16076857 -0.25283584 -0.41343698 -0.086732335
-0.334445 -0.25965244 0.19598807 0.23450708 -0.12914851 0.108978815 0.13416873 -0.26538515
-0.17922091 0.3520478 0.14567587 0.048801947 0.011599952 -0.06166741 -0.3228036 0.31186885

flow.flow.transforms.5.alpha_prime f4 [4]
00000000: 8243 033e 020e b1be aa1e b6be f022 8e3d
0.12818721 -0.34581 -0.3557027 0.069402575

flow.flow.transforms.5.beta_prime f4 [4]
00000000: 1a9a 843d 330a 773e a391 353e ac09 53be
0.06474705 0.24124984 0.17731337 -0.20609158

flow.flow.transforms.6.x0 f4 [4, 16]
00000000: 7c5e b33e 3c05 88be 3cd6 f6bc 5481 0d3e
00000010: da33 75be da04 efbd deec 50bc 84b8 7d3e
00000020: 3404 853d a1ea 2fbe 3d24 c33e 09da 803e
00000030: ef03 683d 7002 af3d 1738 873e 3700 0dbe
00000040: 4530 98be 77d2 a43e bad9 cbbd b59e 04be
00000050: 8b77 803e da85 8bbd 020a 993e 3e24 b0be
00000060: 745b 423e c0f5 043e 287e 80be 9156 1abe
00000070: 3525 3d3d 3af7 79be bd10 143e 435c 473e
00000080: 09c0 b7be 02ed f0bd 639e 2fbe 6635 603d
00000090: 1d14 e3bd fa6f dcbe 5c01 673e 446f 3bbc
000000a0: fa37 dbbd 86b1 933e 6e58 0d3d 686e 993e
000000b0: 1437 153e 1107 7fbe 31bc d5be 0a9f ddbd
000000c0: d762 823e 24e5 863d c769 673b 0635 85be
000000d0: 6090 303e d015 80bc 9c2c cabe d239 b2be
000000e0: 765b ac3e c8fd bebe 5dd8 b1be 7871 f2be
000000f0: f6b1 c63e c829 973e 5947 963e f0da 8dbe
0.35033023 -0.26566494 -0.030131452 0.13818866 -0.23945561 -0.11670847 -0.012751786 0.24777418
0.06494942 -0.17179348 0.38113585 0.25166348 0.056644376 0.08545387 0.2640998 -0.13769613
-0.29724327 0.32191822 -0.099536374 -0.12951167 0.25091204 -0.068126395 0.29890448 -0.3440265
0.18980199 0.12984371 -0.2509625 -0.15072085 0.04617806 -0.24410716 0.1445951 0.19468789
-0.358887 -0.11763956 -0.17150263 0.054738425 -0.11087821 -0.4305418 0.22559112 -0.011440102
-0.10704036 0.28846377 0.03450816 0.29967046 0.14571792 -0.2490504 -0.4174514 -0.1082135
0.25466034 0.06586674 0.003531085 -0.26017016 0.17242575 -0.015635401 -0.3948716 -0.34809738
0.3366353 -0.37302995 -0.34735385 -0.47352195 0.38807648 0.29524064 0.2935131 -0.277061

flow.flow.transforms.6.alpha_prime f4 [4]
00000000: b220 febd c159 73be cf9f 79be 47ad 1cbe
-0.1240858 -0.23764707 -0.24377368 -0.15300475

flow.flow.transforms.6.beta_prime f4 [4]
00000000: 044d ec3d f476 a23e 6537 373e 0cfb f7bd
0.11538127 0.3173138 0.17892225 -0.1210843

flow.flow.transforms.7.x0 f4 [4, 16]
00000000: dbf3 cfbe 07be 0dbe e307 33be 8fbe 6ebe
00000010: 26e1 8c3d 1657 123d 1163 b93e 80ca f4bc
00000020: 84a5 5abe 0a44 8e3e 5d34 42be e615 d0bd
00000030: a44b 8fbe a3c9 833d ea27 c2be 6a6a 993e
00000040: efc0 373e 8ba6 e7bd c19a b1bd c4b1 e7bd
00000050: 9d26 80be e4eb 073e e44a 9dbe dbf6 903c
00000060: 8f09 e9be b1c7 14bd 4050 9c3e 2566 4e3e
00000070: 45c7 a53d a6d0 4e3e 116b 1bbe e268 89be
00000080: 508a 9bbe 5bf4 91be 91d9 a03e b5c5 8bbe
00000090: 0676 68be 1e98 efbe 57a3 623e 7810 ebbd
000000a0: 67d4 dabe caea b83e 1441 a93e fe9f edbc
000000b0: 4e6c 5e3e b499 713e f7d3 eb3d 0172 c1be
000000c0: 664d 513d 0110 313e f7df 1d3e ed06 2b3d
000000d0: e081 0c3c 8993 9f3e 65f2 79be a8f9 083e
000000e0: c125 afbd 26e6 30be 6e74 c9bd b3cf c3be
000000f0: 8a10 c1bc 8137 283e 06c5 2b3e b133 d1bd
-0.40615734 -0.13842021 -0.17483477 -0.2331488 0.06878881 0.035727583 0.36208394 -0.029881716
-0.21352202 0.27786285 -0.18965288 -0.10160427 -0.27987397 0.064349435 -0.37921077 0.29964
0.17944692 -0.113110624 -0.08672095 -0.11313203 -0.2502946 0.13273579 -0.307212 0.017695835
-0.45515105 -0.036323253 0.30529976 0.20156153 0.08094648 0.2019678 -0.15177561 -0.26837832
-0.30378962 -0.2850674 0.3141599 -0.27299276 -0.22701272 -0.46795744 0.22132622 -0.114777505
-0.42740175 0.3611663 0.33057463 -0.029006954 0.21721002 0.2359379 0.115150385 -0.3778229
0.051099204 0.17291261 0.15417467 0.04175465 0.0085758865 0.31167248 -0.24408872 0.13376486
-0.08552123 -0.17275295 -0.0983666 -0.382444 -0.023567457 0.16427423 0.16774377 -0.102149375

flow.flow.transforms.7.alpha_prime f4 [4]
00000000: 7d3f 6cbd 3446 6f3e 4941 68be e278 5fbe
-0.057677735 0.23366624 -0.22681154 -0.21823457

flow.flow.transforms.7.beta_prime f4 [4]
00000000: 1c96 0fbe cdeb 5fbd b03a 4fbe a071 793e
-0.14022106 -0.054668237 -0.20237231 0.24359751

flow.flow.transforms.8.x0 f4 [4, 16]
00000000: 5179 aabe 1147 cf3e 5c68 e4bd 84a0 4cbe
00000010: ec1a 323d e25b 033d 3efa 1a3e 90df 87be
00000020: 92ba 2fbe 8119 1b3e b498 a1be 56ca a7be
00000030: af3a 8ebd 2a24 2f3d 3395 5ebe 9d7c 633e
00000040: 5cb0 84be 734c 2d3e f99e 02bd 8572 b43d
00000050: 7bd2 c43e 861e 5cbd e737 b93e 1081 c3be
00000060: 1ebd 6c3e 9c2e 433e 4ee4 d1be 517c 73bd
00000070: 5ea1 a83d 9778 a3be 79e5 4f3e df47 983e
00000080: 0ce6 c6be 5686 2cbe 66da bebd a5bc d73c
00000090: badc c2bd 35fc f1be 4dd3 493d 96af 9bbc
000000a0: e8a5 a5bc 0d92 063e 0865 ff3c f4e6 9c3e
000000b0: 8c4a 273e 5382 7abe 8574 8fbe e122 debd
000000c0: 5fc2 603d ab38 273e 79e2 153e 1abb 513d
000000d0: dfa8 ab3a 01f8 a23e d059 83be c5a1 0c3e
000000e0: b9a4 b2bd d3fb 38be ebf9 d7bd b5df c6be
000000f0: c327 c6bc a4d5 323e 4a8a 323e 962e e6bd
-0.33295682 0.40483907 -0.111527175 -0.19983107 0.043482706 0.03207005 0.15134522 -0.26537752
-0.17161015 0.15146448 -0.31561816 -0.32771558 -0.06944787 0.042759098 -0.21736602 0.22215505
-0.25915802 0.16923694 -0.03188989 0.08810905 0.38441834 -0.053740047 0.36175463 -0.38184404
0.23119017 0.19060749 -0.40994495 -0.05944473 0.08233903 -0.3192794 0.2030238 0.29742333
-0.38847387 -0.1684812 -0.09319 0.02633507 -0.095147565 -0.4726273 0.049273778 -0.019004624
-0.020220712 0.13141651 0.031176105 0.30644953 0.16337031 -0.24463777 -0.28018585 -0.108464964
0.054872867 0.16330211 0.14637174 0.051203825 0.0013096592 0.31829837 -0.2565446 0.13733585
-0.087228246 -0.18064813 -0.10545715 -0.3884255 -0.024188882 0.1746431 0.17435566 -0.11239354

flow.flow.transforms.8.alpha_prime f4 [4]
00000000: 8288 453e a1ec 123c 53cd c3bd 16d8 89be
0.19290355 0.00896755 -0.09560647 -0.26922673

flow.flow.transforms.8.beta_prime f4 [4]
00000000: df77 1fbe f783 a73e 3fd3 683d 4295 1d3e
-0.15573071 0.3271787 0.056842085 0.15388969

flow.flow.transforms.9.x0 f4 [4, 16]
00000000: 4175 cebe 8c51 03be d31b f93d e701 e2bd
00000010: 8d05 e03d ab82 273d 7b46 443e 90e7 9cbe
00000020: 7142 33be 7975 593e e967 c0be c0ec 98be
00000030: bb5c 82bd 463e 8abe c65c 9cbe 817c 6a3e
00000040: 05f7 723e 0df8 52be 0d90 1abe 4d70 283e
00000050: af0b 2ebe 2416 b1bd ae2e b2bd d03d fd3e
00000060: e8cd f6be aa17 a23d 1aca 423e 26e9 963e
00000070: bc42 723e d3b4 9e3e d75a 11be 9f2a b0be
00000080: 243e cabe f851 4bbe a170 89bd 068d 343e
00000090: 9bb2 c5bd 42c0 31be 8743 323e 4e03 e8bd
000000a0: b69f 93bd ea46 763e fc10 4cbd 3814 173e
000000b0: 6f86 de3d 1b7c 7ebe 9724 bdbe 8129 29be
000000c0: f735 8ebe 7b1f 19be dbc0 85bd de09 c0bb
000000d0: 6b62 10be 325e 0ebf cace 873e d759 b83c
000000e0: 3402 643e 67ee 393d 6bce 2f3b 1ab1 353d
000000f0: c190 663e 3a13 b9be d1c2 0bbe 0410 683e
-0.40323833 -0.12824076 0.1216351 -0.11035519 0.10938559 0.0408961 0.19167511 -0.30645418
-0.17505814 0.21236219 -0.37579277 -0.29868126 -0.06365343 -0.27000636 -0.3053953 0.22899057
0.23727043 -0.20602436 -0.15094014 0.1644909 -0.16996644 -0.08646801 -0.0870031 0.49461222
-0.4820397 0.0791467 0.19022408 0.29474753 0.2365827 0.30997333 -0.14194809 -0.34407517
-0.39500535 -0.19855487 -0.067109354 0.17631921 -0.09653207 -0.17358497 0.17408572 -0.11328755
-0.07208197 0.24050489 -0.049820885 0.14753807 0.10865485 -0.2485203 -0.36941978 -0.16519739
-0.27775547 -0.14953415 -0.06530925 -0.0058605513 -0.14100043 -0.5561248 0.26524955 0.022503776
0.22266465 0.045393374 0.0026825916 0.04435835 0.22516157 -0.3614748 -0.13648535 0.2266236

flow.flow.transforms.9.alpha_prime f4 [4]
00000000: 6dc8 193e 241b 603e fa44 4fbe 2d63 243c
0.15017863 0.21885353 -0.20241156 0.010033411

flow.flow.transforms.9.beta_prime f4 [4]
00000000: c005 5abe 5d1b ec3d ffaa 193e 5ceb 3fbe
-0.21291256 0.11528657 0.15006636 -0.18742126
