saved_experiments/ood_loc/GPN/1/model_1.pt (torch, 759609 bytes, 36 tensors)

input_encoder.0.weight f4 [64, 2879]
0	0x3d1eb617	0.038747873
1	0xbde2ffca	-0.11083944
2	0xbb2439bf	-0.0025058833
3	0x3d263746	0.040580057
4	0x3c77acb4	0.015116859
5	0x3d8ea1ce	0.069644555
6	0x3dfe3f36	0.124144
7	0xbca5bdd6	-0.020232122
8	0xbdc88972	-0.097918406
9	0xbe3893e3	-0.18025164
10	0xbd6a6641	-0.057226423
11	0x3d6dc940	0.058053255
12	0xbdd88a17	-0.105732135
13	0x3da67b36	0.08128969
14	0x3bf5b64d	0.0074985386
15	0xbe275afe	-0.16343305
16	0xbdc783ad	-0.09741912
17	0x3e3bb773	0.18331699
18	0x3e2da251	0.1695645
19	0xbdb77260	-0.08957362
20	0x3eaec7d9	0.34136847
21	0x3ad71a3d	0.0016411018
22	0xbdf84afd	-0.12123678
23	0x3e13b135	0.14423068
24	0x3daad5ca	0.08341558
25	0xbcbdc4ef	-0.023165194
26	0xbcabb202	-0.020958904
27	0xbdce891d	-0.10084746
28	0xbe24433e	-0.16041276
29	0xbdf9ff37	-0.122068815
30	0xbc3dae70	-0.011577234
31	0xbdd1bbe9	-0.10240919
32	0xbd0ce9ea	-0.034402765
33	0x3e7e60a6	0.24841556
34	0x3b9f5ea6	0.004863578
35	0xbda633e9	-0.0811537
36	0xbd4ca106	-0.04995825
37	0xbe1e953d	-0.15486617
38	0xbe2476b5	-0.16060908
39	0x3e92fe45	0.28709617
40	0xbccea1c2	-0.025223617
41	0xbe2101f8	-0.15723407
42	0x3e5859c2	0.2112799
43	0xbe09835b	-0.13429014
44	0xbdb3a484	-0.08771613
45	0x3d510cd8	0.05103764
46	0x3df98e5b	0.12185355
47	0x3ebe02c4	0.37111485
48	0x3cda89da	0.02667706
49	0xbe05adaf	-0.13054536
50	0xbdd3d336	-0.1034302
51	0x3cf67e3a	0.030089486
52	0x3d3d3c58	0.046200126
53	0xbcc74668	-0.024325565
54	0x3e44b72c	0.192105
55	0x3d203bf7	0.039119687
56	0xbd33e35f	-0.04391801
57	0xbd22b7d9	-0.039726112
58	0xbd9deaf5	-0.0771083
59	0xbe15c513	-0.14625959
60	0xbda5318a	-0.080660895
61	0x3e075a61	0.1321807
62	0x3c3c43a9	0.011490741
63	0x3e2ceb5e	0.1688666
64	0x3d389fb7	0.04507419
65	0x3daba22b	0.083805405
66	0x3ca5311b	0.020165017
67	0x3d2aca6a	0.041696943
68	0x3decf813	0.11570754
69	0xbd9a8751	-0.07545341
70	0xbdfc8b68	-0.12331277
71	0xbd2ce17d	-0.04220723
72	0xbe4a25c3	-0.19740967
73	0x3cc28b63	0.023748105
74	0x3d08b596	0.0333763
75	0x3d382ab2	0.044962592
76	0x3e1c1c9e	0.15245292
77	0x3ba9c1e8	0.005180586
78	0x3e294416	0.16529879
79	0x3ddceb3e	0.107870564
80	0x3d9fc1cf	0.07800638
81	0xbe116814	-0.14199859
82	0xbbce27f4	-0.006291384
83	0x3cae3407	0.021265043
84	0x3d5a113a	0.053239085
85	0x3d3c51c3	0.04597641
86	0xbd116a30	-0.03550166
87	0x3db3af4d	0.0877367
88	0x3dc704b5	0.09717695
89	0x3e0e3938	0.13889015
90	0x3dc7f062	0.09762646
91	0x3d672968	0.056435972
92	0x3c91fce2	0.01782078
93	0x3d67af67	0.05656376
94	0x3db32469	0.08747179
95	0xbc288858	-0.010286413
96	0xbd9557c5	-0.07292131
97	0xbd9e2a22	-0.0772288
98	0x3e24fa56	0.1611112
99	0x3e05a7d9	0.1305231
100	0x3cc49050	0.023994595
101	0xbdc947de	-0.09828161
102	0x3d6a7bbe	0.057246916
103	0xbd4e07a7	-0.050300267
104	0xbe3a0993	-0.18167715
105	0xbd6afe18	-0.05737123
106	0x3e5f5e57	0.21813332
107	0xbde1a5e7	-0.110179715
108	0xbe7324be	-0.23744485
109	0x3db9bc3c	0.09069106
110	0xbd9e1ba5	-0.077201165
111	0x3c7d96c1	0.015477837
112	0xbd132a19	-0.03592882
113	0x3e330c43	0.17485146
114	0xbdb18451	-0.086678155
115	0xbd98a132	-0.074526206
116	0x3e19348f	0.14961456
117	0x3d0fbf80	0.035094738
118	0xbe0534be	-0.13008401
119	0x3d8fe82a	0.07026704
120	0xbd16a308	-0.036776572
121	0xbe1fa65f	-0.1559081
122	0x3c8afef4	0.016967274
123	0xbdc1388d	-0.09434614
124	0xbd093c8e	-0.033505015
125	0x3ca10e10	0.019660026
126	0xbdd1e9c9	-0.10249669
127	0x3d813542	0.06308986
128	0x3daa72e7	0.08322697
129	0xbd7a8dfe	-0.06117057
130	0x3e274664	0.16335446
131	0x3dffd5da	0.12491961
132	0xbcc76c54	-0.024343647
133	0xbd269636	-0.040670596
134	0xbe965298	-0.2935989
135	0x3e379567	0.17928086
136	0xbdf0ab64	-0.1175144
137	0xbdb84fe3	-0.08999612
138	0xbde2f4a5	-0.110818185
139	0xbd3a9cbe	-0.045559637
140	0xbc07d76f	-0.008291109
141	0xbe06fea2	-0.13183072
142	0x3e669765	0.2251869
143	0xbe095f3d	-0.13415237
144	0x3d0cc160	0.034364104
145	0x3e66bd87	0.22533236
146	0x3e37fe63	0.17968135
147	0xbd08d2ff	-0.033404347
148	0xbd9299fa	-0.07158275
149	0xbe02f825	-0.12789972
150	0x3dfce066	0.12347488
151	0x3a67960c	0.00088343094
152	0x3e6a6eb6	0.22893795
153	0x3dd47eac	0.10375723
154	0x3db681df	0.0891149
155	0x3d8d80a2	0.069093004
156	0x3ea7dd84	0.3278619
157	0x3ca0cbfc	0.019628517
158	0xbc514563	-0.012772891
159	0xbddee584	-0.108836204
160	0xbb4c6446	-0.0031187697
161	0xbdd6e135	-0.104921736
162	0x3e29ebf9	0.16593923
163	0xbd123a8a	-0.03570036
164	0x3dc460bb	0.095887624
165	0x3de2aa57	0.11067646
166	0x3c0a4f8c	0.008441817
167	0x3cf73e7b	0.03018116
168	0x3cbe4cbd	0.023229951
169	0xbdbf6b88	-0.09346682
170	0xbc423072	-0.011852371
171	0x3d6adca6	0.057339333
172	0x3d1f30fe	0.038865082
173	0x3dd9f2e5	0.106420316
174	0xbe8b7356	-0.27236432
175	0xbdede752	-0.116163865
176	0xbb5e713a	-0.0033942
177	0xbe516996	-0.20450434
178	0x3d613c0e	0.054988913
179	0x3e425100	0.18976212
180	0x3c56c068	0.013107397
181	0xbd95fe82	-0.07323934
182	0xbba733aa	-0.0051025944
183	0x3ddc1a54	0.10747209
184	0x3e43b9d2	0.19113854
185	0x3dc6970a	0.09696777
186	0xbb230a80	-0.0024878085
187	0x3d861f92	0.0654899
188	0x3deccc64	0.11562422
189	0xbd8ca7a8	-0.068679154
190	0xbe12432a	-0.14283434
191	0x3ba10a7c	0.00491458
192	0x3cdd02b5	0.02697883
193	0x3e184b31	0.14872433
194	0xbc9e5437	-0.019327266
195	0xbbbf6995	-0.005841444
196	0xbd991864	-0.07475355
197	0x3e837714	0.25676787
198	0x3d419731	0.047263328
199	0xbe08aa0d	-0.13346119
200	0xbdb36a2a	-0.087604836
201	0x3d260963	0.040536296
202	0x3e9c7afc	0.3056258
203	0x3e67678b	0.22598092
204	0xbd196a79	-0.037455056
205	0xbcac98d8	-0.021068975
206	0xbd934579	-0.07190985
207	0xbcb39cce	-0.021925356
208	0xbe1e9669	-0.15487064
209	0xbd75caf0	-0.06000799
210	0xbe06daf0	-0.13169456
211	0xbc7c3afc	-0.015394922
212	0xbd273a4e	-0.040827088
213	0x3e2e31ef	0.17011236
214	0xba803ac3	-0.0009783137
215	0xbd822843	-0.063553356
216	0xbc0517bd	-0.008123335
217	0x3db7b4ae	0.08970009
218	0x3e46939d	0.19392247
219	0xbd9c4ec3	-0.0763221
220	0x3e519e75	0.20470603
221	0x3eab6def	0.3348231
222	0xbc5e2a71	-0.0135599235
223	0x3d7999ed	0.06093781
224	0x3e1a7c4a	0.15086475
225	0x3cbdb085	0.02315546
226	0x3b1df2fb	0.0024101126
227	0x3d9d961a	0.07694645
228	0x3e9877c4	0.29778874
229	0x3d387a31	0.045038406
230	0x3dc1f3c6	0.09470324
231	0x3e88b190	0.2669797
232	0x3d674fde	0.05647265
233	0x3d8c8ab6	0.068623945
234	0x3e30e128	0.1727339
235	0x3e0029eb	0.1251599
236	0x3eb08049	0.34472874
237	0x3deeeebf	0.11666631
238	0x3b56ca7e	0.0032774503
239	0x3d7bd178	0.06147906
240	0x3dd8827c	0.10571763
241	0xbc9ee64d	-0.019396925
242	0xbca22d0c	-0.01979687
243	0x3dcdb399	0.10044021
244	0xbe0f3f13	-0.13988905
245	0x3e39af13	0.18133192
246	0xbc151d28	-0.00910119
247	0x3c2c0e43	0.010501447
248	0x3e55bf91	0.20873858
249	0xbd8c8ca5	-0.06862763
250	0xbd9ed249	-0.077549525
251	0x3d575006	0.05256655
252	0x3df0e3f8	0.117622316
253	0xbd399f7a	-0.045318104
254	0xbdbee28e	-0.093205556
255	0x3d326592	0.043553896

input_encoder.0.bias f4 [64]
0	0x3ce564c2	0.028002147
1	0xbc316755	-0.010827859
2	0xbd439636	-0.047750674
3	0xbd439279	-0.04774711
4	0xbcccd1a9	-0.025002318
5	0x3c9b08d4	0.018925108
6	0x3d0b1714	0.033957556
7	0xbc9ac966	-0.018894862
8	0x3c573e0b	0.013137351
9	0xbcafae7d	-0.021445507
10	0xbb778dc4	-0.0037773708
11	0xbc4a3232	-0.012341069
12	0x3d0e9a57	0.03481516
13	0xbcd566fd	-0.026050085
14	0xbd7b1cc9	-0.06130675
15	0x3b894a16	0.00418974
16	0xbc8c6823	-0.0171395
17	0x3c512ad8	0.012766562
18	0xbb7fca86	-0.0039030625
19	0xbd7bc054	-0.061462715
20	0xbd309e5e	-0.04311978
21	0x38ae5b08	8.3139224e-05
22	0xbc988681	-0.018618824
23	0xbb1faabc	-0.002436324
24	0x3cf0ba40	0.029385686
25	0x3bce5c0e	0.006297595
26	0x3d279d3e	0.040921442
27	0x3c560294	0.013062138
28	0xbbe68bdc	-0.0070357155
29	0xbb372831	-0.002794754
30	0x3c852574	0.01625321
31	0xbb528900	-0.0032125115
32	0xbd53fc94	-0.05175455
33	0xbc926aa0	-0.017873108
34	0x3c902c27	0.017599178
35	0xbd81ceb7	-0.06338256
36	0xbd5b4d6b	-0.05354063
37	0x3ca44b86	0.020055544
38	0xbc6e5a1c	-0.014547851
39	0xbd041e3d	-0.0322554
40	0xbd4a300d	-0.04936223
41	0xbd569149	-0.05238465
42	0xbd03de14	-0.032194212
43	0xbca72151	-0.020401629
44	0xbcb3d11f	-0.021950303
45	0x3bd03d54	0.006354967
46	0xbcc83bc9	-0.02444257
47	0x3c8ed43d	0.017435187
48	0xbae55a5c	-0.0017498243
49	0x3ca5ec42	0.020254258
50	0x3c3e2eaa	0.011607805
51	0xbd59a529	-0.053136025
52	0xbd3c3eb0	-0.04595822
53	0xbce6599c	-0.028118901
54	0x3c8ee9e2	0.017445508
55	0xbd09a918	-0.033608526
56	0xbd3b4835	-0.04572316
57	0x3be82a56	0.007085125
58	0xbc57a746	-0.01316244
59	0xbd626397	-0.055270758
60	0x3c414837	0.0117970025
61	0x3c01d29b	0.007923747
62	0xbd1bbd98	-0.038022608
63	0x3c11f8ad	0.008909387

latent_encoder.weight f4 [16, 64]
0	0x3cc7abce	0.024373915
1	0xba1f3636	-0.0006073447
2	0x3bcd4dd9	0.0062653837
3	0xbadb668b	-0.0016738934
4	0x3e8ca2f6	0.2746808
5	0xbd9d0b2d	-0.07668147
6	0x3e9d4282	0.30714804
7	0x3ec73749	0.38909367
8	0x3edca043	0.4309102
9	0x3e94e875	0.290836
10	0xbe4ed156	-0.20197043
11	0x3ec28499	0.3799179
12	0xbe0f8902	-0.14017108
13	0xbad85ef1	-0.0016507787
14	0xb9a431b7	-0.00031317558
15	0xbe619272	-0.2202852
16	0x3e6c6426	0.23085079
17	0xbe9a04f1	-0.30081895
18	0x3e40f5e1	0.18843795
19	0xbb38ce79	-0.002819924
20	0x38aad613	8.146106e-05
21	0xbdcf0050	-0.101074815
22	0x3e806c8b	0.25082812
23	0xbd15a9de	-0.03653895
24	0x3e4cab34	0.19987184
25	0xbebda85e	-0.37042516
26	0xbe8f9746	-0.280451
27	0x3e0df732	0.13863829
28	0x3da7668b	0.081738554
29	0xbdb7786e	-0.08958517
30	0xbe9699c9	-0.29414204
31	0xbe48948a	-0.19587913
32	0xbdbcb2b0	-0.092137694
33	0xbe92136d	-0.28530446
34	0x3e58c36f	0.21168302
35	0x3af437ef	0.0018632392
36	0xbae09283	-0.0017133508
37	0xbe8c5c2b	-0.2741407
38	0x3acc3a01	0.0015581251
39	0x3e65ac29	0.22428955
40	0x3dd11d66	0.102106854
41	0xbdcdecb6	-0.10054915
42	0x3853b016	5.0470313e-05
43	0xbd65e13f	-0.056123015
44	0xbe82b536	-0.25528878
45	0x3dc7b291	0.09750856
46	0xbe60f652	-0.21968964
47	0x3e894a25	0.2681438
48	0xbe7d61ea	-0.24744383
49	0xbe12aa7b	-0.14322846
50	0x3d7ed71f	0.062216874
51	0xbce3b257	-0.027795
52	0xbd087cea	-0.033322252
53	0x3e8b26c3	0.2717801
54	0xbe924c3e	-0.28573793
55	0x3aa42bf5	0.0012525307
56	0x3db886e6	0.09010105
57	0xbe9c68b8	-0.30548644
58	0xbd051a67	-0.032495882
59	0xbddb7bdc	-0.10716984
60	0xbe176cc7	-0.14787589
61	0xbdf523b8	-0.119697034
62	0x3e8a15bf	0.26969716
63	0xbd8e1d16	-0.069391415
64	0xbc5af7ae	-0.0133647155
65	0x39e65606	0.0004393311
66	0x3ab3a27e	0.0013705043
67	0xba7d483d	-0.00096619484
68	0xbd21b59d	-0.03947984
69	0xbd87dc13	-0.06633773
70	0xbda0284f	-0.07820188
71	0xbd906374	-0.07050219
72	0xbce29fb1	-0.027664037
73	0xbd3317db	-0.043723922
74	0x3e2b95a3	0.167563
75	0x3ddd3078	0.1080026
76	0x3e49fa8a	0.1972448
77	0xb9930f94	-0.00028049632
78	0x399ec1ec	0.0003028059
79	0xbd329913	-0.043603014
80	0xbd855373	-0.06510057
81	0x3dd51418	0.10404223
82	0x3d101c1a	0.03518305
83	0xba6cb16f	-0.0009029125
84	0xbaa3c0f7	-0.0012493421
85	0x3e187d2c	0.148915
86	0x3a4878a8	0.0007647374
87	0x3d53dc4e	0.05172377
88	0xbdf256ac	-0.118329376
89	0xbcb20db3	-0.021735048
90	0x3e771822	0.241303
91	0xbcde2d6c	-0.027121268
92	0x3db93fb2	0.09045352
93	0x3e4aab16	0.19791827
94	0x3ba8d3b4	0.00515219
95	0x3e93d342	0.28872114
96	0x3cf83620	0.030299246
97	0x3e1ab0ee	0.15106556
98	0x3dc43b49	0.0958162
99	0x3b4ce5b0	0.0031264834
100	0x39f1aaf4	0.00046094472
101	0x3d96ceea	0.073636845
102	0xba737711	-0.00092874566
103	0xbe165136	-0.14679417
104	0xbd8ae289	-0.067814894
105	0x3dcab7a1	0.09898306
106	0x398ec2ad	0.00027229395
107	0xbd821a0a	-0.06352623
108	0xbd94a257	-0.07257526
109	0x3d6f276a	0.058387198
110	0x3d61d9e6	0.055139445
111	0xbe0e6883	-0.13907056
112	0x3b93e4a6	0.004513341
113	0x3e01e649	0.12685503
114	0x3d5319a0	0.05153811
115	0x3cffd563	0.03122968
116	0x3dddc2e6	0.108281896
117	0xbc6d2402	-0.014473917
118	0x3e44dce2	0.19224885
119	0x3a1ef7b4	0.00060641323
120	0xbe22ce22	-0.15898946
121	0x3e29d16b	0.16583793
122	0x3ccbabd4	0.024862207
123	0x3d28925c	0.041155204
124	0x3e384878	0.17996395
125	0x3d7e583d	0.06209587
126	0xbd36b39f	-0.044604894
127	0x3e5178d2	0.20456246
128	0xbd268c15	-0.040660936
129	0xba711a77	-0.0009197364
130	0x3b818cbf	0.003953546
131	0x3ab0ad90	0.001347946
132	0xbe067c29	-0.13133301
133	0xbc8a921c	-0.016915374
134	0xbeb8a47f	-0.36063
135	0xbe72ad19	-0.23698844
136	0xbe7b0d5c	-0.24516815
137	0xbdf366de	-0.11884855
138	0x3e60d41c	0.21955913
139	0xbe1fd37c	-0.15608019
140	0x3d9519cc	0.07280311
141	0x39970ae0	0.00028809067
142	0x3d2cd44f	0.04219466
143	0x3db32d14	0.08748832
144	0xbe85eed5	-0.26158777
145	0x3d3672ed	0.044543196
146	0xbe88c7a5	-0.26714817
147	0x3a810ae7	0.0009845168
148	0x3a44cd34	0.0007507384
149	0x3daaf752	0.08347954
150	0xbebe1b06	-0.37129992
151	0xbe3344ff	-0.17506789
152	0xbea4f200	-0.3221588
153	0x3e31dac4	0.17368609
154	0x3e8f86b5	0.2803246
155	0xbe61fb12	-0.22068432
156	0xbe4c1b7e	-0.19932362
157	0x3e7b032c	0.24512929
158	0x3de800a3	0.113282464
159	0x3e9d55a8	0.30729413
160	0xbce4b8b5	-0.027920106
161	0x3e853e5f	0.26024148
162	0x3cbe711b	0.023247292
163	0x3d05d66e	0.0326752
164	0xba305644	-0.0006726722
165	0x3e858337	0.2607667
166	0xb76e5010	-1.42045465e-05
167	0xbe4eb2d7	-0.2018541
168	0xbe19f6ca	-0.15035549
169	0x3e51809c	0.20459217
170	0x36bd4de0	5.641705e-06
171	0xbdddf304	-0.10837367
172	0x3dc88a22	0.09791972
173	0xbe469194	-0.19391471
174	0xbd2ef295	-0.042711813
175	0xbea45896	-0.32098836
176	0x3e228df7	0.15874468
177	0x3db35be6	0.087577626
178	0xbe05f2c3	-0.13080887
179	0x3cd6302f	0.026146023
180	0xbd42dd61	-0.047574405
181	0xbe7646f1	-0.240505
182	0x3ea50fb3	0.3223854
183	0xba2f411b	-0.00066854217
184	0xbe443034	-0.19159013
185	0x3ea93365	0.33047023
186	0xbe09f4f0	-0.13472342
187	0x3d9674c3	0.07346489
188	0x3e42a33b	0.1900758
189	0x3e1988dd	0.14993615
190	0xbead2948	-0.33820558
191	0x3e5a20ec	0.21301621
192	0xbe0c8f6c	-0.13726586
193	0x39b3f087	0.00034320747
194	0x38f29eb5	0.00011569021
195	0xb9b7cf1e	-0.00035058794
196	0x3d42c033	0.047546577
197	0xbd172841	-0.036903623
198	0x3e49bdc0	0.1970129
199	0x3e69d58a	0.22835365
200	0xbe43e635	-0.19130786
201	0x3dc3a020	0.09552026
202	0xbe82e513	-0.25565395
203	0xbe27d9a0	-0.16391611
204	0xbd760aeb	-0.060069006
205	0x3aa9ee7e	0.0012964753
206	0x3ad5f01a	0.0016322166
207	0x3d89bfe2	0.06726052
208	0x3e78ebe4	0.24308735
209	0x3cc14f17	0.023597283
210	0x3e961fa4	0.29321015
211	0xb65d0880	-3.2936514e-06
212	0xbab04c23	-0.0013450425
213	0xba296d40	-0.0006463118
214	0x3d8b80cd	0.06811676
215	0x3e86ef9c	0.26354682
216	0xbcbb3c0e	-0.022855785
217	0xbd7a3e53	-0.061094593
218	0xbecc59c1	-0.39912227
219	0x3e9d85bf	0.30766103
220	0x3e6b1346	0.22956571
221	0xbe8fb4fd	-0.2806777
222	0xbdb6024e	-0.08887158
223	0xbe617a30	-0.22019267
224	0xbbc511fb	-0.0060141063
225	0xbde9b385	-0.11411194
226	0xbdfdd53e	-0.12394188
227	0xbd6c64f3	-0.05771346
228	0xba17acfc	-0.00057859696
229	0xbe7746bf	-0.24148081
230	0xb963ca26	-0.00021723713
231	0xbc98a80b	-0.018634817
232	0x3d95e908	0.07319838
233	0xbe0eb6d5	-0.13936932
234	0xb8f6374c	-0.00011740494
235	0xbd3def84	-0.046370998
236	0xbdbc9850	-0.09208739
237	0x3e81e3e5	0.25369182
238	0x3e2ec8e2	0.17068818
239	0xbd00e755	-0.031470615
240	0xbe10acc6	-0.14128408
241	0xbd6328bc	-0.05545877
242	0x3e79570d	0.24349613
243	0xbd02f4bb	-0.031971674
244	0xbd2a75e4	-0.041616336
245	0x3e73c3df	0.23805188
246	0xbe450c2f	-0.19242929
247	0x3a4d0df8	0.0007822211
248	0x3d3f9337	0.046771254
249	0xbe8dc2c5	-0.2768766
250	0x3e87d70e	0.2653126
251	0x3cb3095d	0.02185505
252	0xbe7a0bea	-0.24418607
253	0xbe7fd66c	-0.24984139
254	0x3e12f488	0.14351094
255	0xbebd8480	-0.37015152

latent_encoder.bias f4 [16]
0	0x3c1c710c	0.009548437
1	0xbd9c4a1c	-0.07631323
2	0xbcebca7c	-0.028783076
3	0x3dc2bb5d	0.09508393
4	0x3d1a1f40	0.03762746
5	0x3d027bb1	0.031856243
6	0x3a88c0dc	0.0010433453
7	0xbd4a1e89	-0.049345527
8	0x3b9fad7b	0.0048729754
9	0xbda64f1e	-0.08120559
10	0x3d78a17b	0.060700875
11	0xbd7983ec	-0.060916826
12	0x3c006789	0.007837185
13	0xbce0fc12	-0.027463946
14	0xbd0fc377	-0.03509852
15	0xbd5acfe8	-0.05342093

flow.flow.mean f4 [4, 16]
0	0x00000000	0.0
1	0x00000000	0.0
2	0x00000000	0.0
3	0x00000000	0.0
4	0x00000000	0.0
5	0x00000000	0.0
6	0x00000000	0.0
7	0x00000000	0.0
8	0x00000000	0.0
9	0x00000000	0.0
10	0x00000000	0.0
11	0x00000000	0.0
12	0x00000000	0.0
13	0x00000000	0.0
14	0x00000000	0.0
15	0x00000000	0.0
16	0x00000000	0.0
17	0x00000000	0.0
18	0x00000000	0.0
19	0x00000000	0.0
20	0x00000000	0.0
21	0x00000000	0.0
22	0x00000000	0.0
23	0x00000000	0.0
24	0x00000000	0.0
25	0x00000000	0.0
26	0x00000000	0.0
27	0x00000000	0.0
28	0x00000000	0.0
29	0x00000000	0.0
30	0x00000000	0.0
31	0x00000000	0.0
32	0x00000000	0.0
33	0x00000000	0.0
34	0x00000000	0.0
35	0x00000000	0.0
36	0x00000000	0.0
37	0x00000000	0.0
38	0x00000000	0.0
39	0x00000000	0.0
40	0x00000000	0.0
41	0x00000000	0.0
42	0x00000000	0.0
43	0x00000000	0.0
44	0x00000000	0.0
45	0x00000000	0.0
46	0x00000000	0.0
47	0x00000000	0.0
48	0x00000000	0.0
49	0x00000000	0.0
50	0x00000000	0.0
51	0x00000000	0.0
52	0x00000000	0.0
53	0x00000000	0.0
54	0x00000000	0.0
55	0x00000000	0.0
56	0x00000000	0.0
57	0x00000000	0.0
58	0x00000000	0.0
59	0x00000000	0.0
60	0x00000000	0.0
61	0x00000000	0.0
62	0x00000000	0.0
63	0x00000000	0.0

flow.flow.cov f4 [4, 16, 16]
0	0x3f800000	1.0
1	0x00000000	0.0
2	0x00000000	0.0
3	0x00000000	0.0
4	0x00000000	0.0
5	0x00000000	0.0
6	0x00000000	0.0
7	0x00000000	0.0
8	0x00000000	0.0
9	0x00000000	0.0
10	0x00000000	0.0
11	0x00000000	0.0
12	0x00000000	0.0
13	0x00000000	0.0
14	0x00000000	0.0
15	0x00000000	0.0
16	0x00000000	0.0
17	0x3f800000	1.0
18	0x00000000	0.0
19	0x00000000	0.0
20	0x00000000	0.0
21	0x00000000	0.0
22	0x00000000	0.0
23	0x00000000	0.0
24	0x00000000	0.0
25	0x00000000	0.0
26	0x00000000	0.0
27	0x00000000	0.0
28	0x00000000	0.0
29	0x00000000	0.0
30	0x00000000	0.0
31	0x00000000	0.0
32	0x00000000	0.0
33	0x00000000	0.0
34	0x3f800000	1.0
35	0x00000000	0.0
36	0x00000000	0.0
37	0x00000000	0.0
38	0x00000000	0.0
39	0x00000000	0.0
40	0x00000000	0.0
41	0x00000000	0.0
42	0x00000000	0.0
43	0x00000000	0.0
44	0x00000000	0.0
45	0x00000000	0.0
46	0x00000000	0.0
47	0x00000000	0.0
48	0x00000000	0.0
49	0x00000000	0.0
50	0x00000000	0.0
51	0x3f800000	1.0
52	0x00000000	0.0
53	0x00000000	0.0
54	0x00000000	0.0
55	0x00000000	0.0
56	0x00000000	0.0
57	0x00000000	0.0
58	0x00000000	0.0
59	0x00000000	0.0
60	0x00000000	0.0
61	0x00000000	0.0
62	0x00000000	0.0
63	0x00000000	0.0
64	0x00000000	0.0
65	0x00000000	0.0
66	0x00000000	0.0
67	0x00000000	0.0
68	0x3f800000	1.0
69	0x00000000	0.0
70	0x00000000	0.0
71	0x00000000	0.0
72	0x00000000	0.0
73	0x00000000	0.0
74	0x00000000	0.0
75	0x00000000	0.0
76	0x00000000	0.0
77	0x00000000	0.0
78	0x00000000	0.0
79	0x00000000	0.0
80	0x00000000	0.0
81	0x00000000	0.0
82	0x00000000	0.0
83	0x00000000	0.0
84	0x00000000	0.0
85	0x3f800000	1.0
86	0x00000000	0.0
87	0x00000000	0.0
88	0x00000000	0.0
89	0x00000000	0.0
90	0x00000000	0.0
91	0x00000000	0.0
92	0x00000000	0.0
93	0x00000000	0.0
94	0x00000000	0.0
95	0x00000000	0.0
96	0x00000000	0.0
97	0x00000000	0.0
98	0x00000000	0.0
99	0x00000000	0.0
100	0x00000000	0.0
101	0x00000000	0.0
102	0x3f800000	1.0
103	0x00000000	0.0
104	0x00000000	0.0
105	0x00000000	0.0
106	0x00000000	0.0
107	0x00000000	0.0
108	0x00000000	0.0
109	0x00000000	0.0
110	0x00000000	0.0
111	0x00000000	0.0
112	0x00000000	0.0
113	0x00000000	0.0
114	0x00000000	0.0
115	0x00000000	0.0
116	0x00000000	0.0
117	0x00000000	0.0
118	0x00000000	0.0
119	0x3f800000	1.0
120	0x00000000	0.0
121	0x00000000	0.0
122	0x00000000	0.0
123	0x00000000	0.0
124	0x00000000	0.0
125	0x00000000	0.0
126	0x00000000	0.0
127	0x00000000	0.0
128	0x00000000	0.0
129	0x00000000	0.0
130	0x00000000	0.0
131	0x00000000	0.0
132	0x00000000	0.0
133	0x00000000	0.0
134	0x00000000	0.0
135	0x00000000	0.0
136	0x3f800000	1.0
137	0x00000000	0.0
138	0x00000000	0.0
139	0x00000000	0.0
140	0x00000000	0.0
141	0x00000000	0.0
142	0x00000000	0.0
143	0x00000000	0.0
144	0x00000000	0.0
145	0x00000000	0.0
146	0x00000000	0.0
147	0x00000000	0.0
148	0x00000000	0.0
149	0x00000000	0.0
150	0x00000000	0.0
151	0x00000000	0.0
152	0x00000000	0.0
153	0x3f800000	1.0
154	0x00000000	0.0
155	0x00000000	0.0
156	0x00000000	0.0
157	0x00000000	0.0
158	0x00000000	0.0
159	0x00000000	0.0
160	0x00000000	0.0
161	0x00000000	0.0
162	0x00000000	0.0
163	0x00000000	0.0
164	0x00000000	0.0
165	0x00000000	0.0
166	0x00000000	0.0
167	0x00000000	0.0
168	0x00000000	0.0
169	0x00000000	0.0
170	0x3f800000	1.0
171	0x00000000	0.0
172	0x00000000	0.0
173	0x00000000	0.0
174	0x00000000	0.0
175	0x00000000	0.0
176	0x00000000	0.0
177	0x00000000	0.0
178	0x00000000	0.0
179	0x00000000	0.0
180	0x00000000	0.0
181	0x00000000	0.0
182	0x00000000	0.0
183	0x00000000	0.0
184	0x00000000	0.0
185	0x00000000	0.0
186	0x00000000	0.0
187	0x3f800000	1.0
188	0x00000000	0.0
189	0x00000000	0.0
190	0x00000000	0.0
191	0x00000000	0.0
192	0x00000000	0.0
193	0x00000000	0.0
194	0x00000000	0.0
195	0x00000000	0.0
196	0x00000000	0.0
197	0x00000000	0.0
198	0x00000000	0.0
199	0x00000000	0.0
200	0x00000000	0.0
201	0x00000000	0.0
202	0x00000000	0.0
203	0x00000000	0.0
204	0x3f800000	1.0
205	0x00000000	0.0
206	0x00000000	0.0
207	0x00000000	0.0
208	0x00000000	0.0
209	0x00000000	0.0
210	0x00000000	0.0
211	0x00000000	0.0
212	0x00000000	0.0
213	0x00000000	0.0
214	0x00000000	0.0
215	0x00000000	0.0
216	0x00000000	0.0
217	0x00000000	0.0
218	0x00000000	0.0
219	0x00000000	0.0
220	0x00000000	0.0
221	0x3f800000	1.0
222	0x00000000	0.0
223	0x00000000	0.0
224	0x00000000	0.0
225	0x00000000	0.0
226	0x00000000	0.0
227	0x00000000	0.0
228	0x00000000	0.0
229	0x00000000	0.0
230	0x00000000	0.0
231	0x00000000	0.0
232	0x00000000	0.0
233	0x00000000	0.0
234	0x00000000	0.0
235	0x00000000	0.0
236	0x00000000	0.0
237	0x00000000	0.0
238	0x3f800000	1.0
239	0x00000000	0.0
240	0x00000000	0.0
241	0x00000000	0.0
242	0x00000000	0.0
243	0x00000000	0.0
244	0x00000000	0.0
245	0x00000000	0.0
246	0x00000000	0.0
247	0x00000000	0.0
248	0x00000000	0.0
249	0x00000000	0.0
250	0x00000000	0.0
251	0x00000000	0.0
252	0x00000000	0.0
253	0x00000000	0.0
254	0x00000000	0.0
255	0x3f800000	1.0

flow.flow.transforms.0.x0 f4 [4, 16]
0	0x3ebce31d	0.36892024
1	0xbd589c44	-0.0528834
2	0xbeb780d4	-0.35840476
3	0x3e31def6	0.17370209
4	0xbe6facf3	-0.23405819
5	0x3e42b1c9	0.19013132
6	0x3e781a6b	0.24228828
7	0xbe9d90fa	-0.3077467
8	0xbe9f3a3e	-0.31099123
9	0xbe6b1cc1	-0.22960187
10	0xbe18e63b	-0.14931576
11	0xbe33f247	-0.1757289
12	0xbe218d24	-0.15776497
13	0x3e9472a8	0.28993726
14	0x3da0657d	0.07831857
15	0xbdbf8ab1	-0.09352625
16	0x3b2cb004	0.002635003
17	0xbcc025dc	-0.023455553
18	0xbdf11d91	-0.117732175
19	0x3e925c3d	0.28585997
20	0xbcd09a46	-0.025464188
21	0x3e5a4415	0.21315034
22	0x3dad9834	0.08476296
23	0x3c818504	0.015810497
24	0x3e0b5d4b	0.13609807
25	0xbdc524c2	-0.096261516
26	0x3e3e63fc	0.18592829
27	0xbdcaa475	-0.09894649
28	0xbdfb8c23	-0.12282588
29	0xbe19d75e	-0.15023562
30	0x3e8e488b	0.2778972
31	0xbe04359f	-0.1291108
32	0x3db34e7f	0.08755206
33	0xbe14c60f	-0.14528678
34	0xbe60bc23	-0.21946768
35	0x3e0a7988	0.13522923
36	0x3d60050d	0.054692317
37	0x3e66ca0b	0.22538011
38	0xbd8aee00	-0.06783676
39	0x3e15eaed	0.14640398
40	0xbe54b2a6	-0.20771274
41	0xbeb592df	-0.35463616
42	0xbdeae4c7	-0.11469417
43	0xbd96b6c4	-0.073590785
44	0xbe1efd9d	-0.15526433
45	0x3d89a754	0.067213684
46	0xbe434e4b	-0.19072835
47	0x3ccdf2cb	0.025140187
48	0x3d07ab7d	0.03312253
49	0x3d0e1db0	0.03469628
50	0xbe616c92	-0.22014073
51	0x3e240021	0.16015674
52	0xbe4ce81a	-0.20010415
53	0x3ba57464	0.0050492752
54	0x3e7f0b99	0.24906768
55	0xbe1331b9	-0.14374436
56	0x3ea93860	0.33050823
57	0x3ddd2759	0.107985206
58	0x3e43cd93	0.19121389
59	0xbe5e6261	-0.21717216
60	0xbe66df38	-0.22546089
61	0x3e24dd6d	0.16100092
62	0x3ed11142	0.4083348
63	0xbe6e57fe	-0.23275754

flow.flow.transforms.0.alpha_prime f4 [4]
0	0xbe8878be	-0.2665462
1	0xbe4fbd3a	-0.20287028
2	0x3e8233e8	0.25430226
3	0x3e860734	0.2617737

flow.flow.transforms.0.beta_prime f4 [4]
0	0x3e23c5a7	0.15993367
1	0x3ea5744d	0.32315293
2	0x3d42a0ac	0.04751651
3	0x3e20c21d	0.15699048

flow.flow.transforms.1.x0 f4 [4, 16]
0	0xbe79c572	-0.24391726
1	0x3d836a9e	0.0641682
2	0x3e691107	0.22760402
3	0xbd004167	-0.031312373
4	0x3e037b4b	0.12840001
5	0xbd9f4916	-0.07777612
6	0xbe5a0e66	-0.21294555
7	0x3d593b8f	0.053035315
8	0x3e1f6878	0.15567195
9	0x3ddd30a0	0.1080029
10	0x3dbad682	0.09122945
11	0x3dd6a330	0.10480344
12	0x3da73ddf	0.08166098
13	0xbe0a0a49	-0.13480486
14	0xbcea5132	-0.02860317
15	0xbbfeda1d	-0.007777466
16	0x3c5d623a	0.013512189
17	0xbcefdf9c	-0.02928143
18	0xbe086d7d	-0.13323016
19	0x3e91d692	0.28484017
20	0xbd37ce19	-0.044874284
21	0x3e3d5224	0.18488365
22	0x3dd69833	0.104782484
23	0x3da13048	0.07870537
24	0x3e018dab	0.12651698
25	0xbd9797fb	-0.07402035
26	0x3e5b8d1e	0.2144055
27	0xbe09ed1f	-0.13469361
28	0xbe189dc8	-0.14903939
29	0xbe2f15fa	-0.17098227
30	0x3e8e0e83	0.27745447
31	0xbe0e5302	-0.13898852
32	0x3ea05187	0.313122
33	0x3ea2dfc5	0.31811348
34	0xbeda1b2b	-0.42598853
35	0xbe87dbc4	-0.26534855
36	0x3eadc65d	0.33940402
37	0xbb3a21c2	-0.002840147
38	0x3ea30bb3	0.31844863
39	0xbeaec431	-0.34134057
40	0x3d1f8916	0.038949095
41	0x3e55f384	0.20893675
42	0xbe78d1f0	-0.24298835
43	0x3dfff932	0.12498702
44	0x3e3c9f58	0.1842016
45	0x3dbd6a23	0.092487596
46	0xbe8da947	-0.2766821
47	0x3dc4fced	0.09618554
48	0xbe6e40a0	-0.2326684
49	0xbd3e5d8a	-0.046475925
50	0xbe9d81eb	-0.30763182
51	0x3e0f5487	0.13997088
52	0x3e28e9cf	0.16495441
53	0xbe9bdfa3	-0.3044406
54	0x3dfbfca5	0.123040475
55	0x3e3ad9b8	0.18247116
56	0xbe37f03f	-0.1796274
57	0x3ce749da	0.028233457
58	0x3f008761	0.5020657
59	0xbeb40059	-0.35156515
60	0x3e968290	0.29396486
61	0xbec0545c	-0.3756436
62	0xbdb2b787	-0.08726411
63	0x3e8fd06e	0.28088707

flow.flow.transforms.1.alpha_prime f4 [4]
0	0x3e61f616	0.2206653
1	0xbe916e90	-0.28404665
2	0x3dfd433c	0.123663396
3	0x3e0323c2	0.1280661

flow.flow.transforms.1.beta_prime f4 [4]
0	0xbe95b4c8	-0.29239488
1	0x3e343590	0.17598557
2	0x3df4d430	0.11954534
3	0x3dc2019d	0.09472964

flow.flow.transforms.2.x0 f4 [4, 16]
0	0x3ea27887	0.3173258
1	0xbdb4200d	-0.08795176
2	0xbed81554	-0.42203772
3	0xbd3f025b	-0.046633106
4	0xbe945315	-0.28969637
5	0x3e53d172	0.20685366
6	0x3eaa1b48	0.3322394
7	0xbeb0e4fd	-0.34549704
8	0xbe7d6936	-0.24747166
9	0x3cd1342d	0.025537575
10	0xbe0e99fd	-0.1392593
11	0xbd9118b1	-0.07084788
12	0xbde8a7a3	-0.11360099
13	0x3e1e6383	0.15467648
14	0xbc59c468	-0.013291456
15	0xbd555ddc	-0.052091464
16	0xbd145625	-0.036214966
17	0xbd825bdd	-0.06365178
18	0x3e50fac0	0.20408154
19	0xbe89f367	-0.26943514
20	0x3d451d18	0.04812345
21	0xbad97260	-0.0016589873
22	0xbd89214a	-0.066958025
23	0xbd950216	-0.072757885
24	0xbe81e55b	-0.25370297
25	0x3e111026	0.14166316
26	0xbe5525e8	-0.20815241
27	0x3e721b91	0.23643328
28	0xbde7c5a9	-0.113169976
29	0x3e7a7095	0.24457009
30	0xbeec6ecf	-0.4617829
31	0x3e32d9b1	0.17465855
32	0xbd9e138b	-0.07718571
33	0xbe734fc6	-0.237609
34	0xbe820abe	-0.2539882
35	0x3e9814e4	0.29703438
36	0xbdd294f5	-0.102823175
37	0x3e6d1dc0	0.2315588
38	0x3e6375dc	0.22212929
39	0xbbde4887	-0.0067835483
40	0xbe4e6a8f	-0.20157836
41	0xbea86913	-0.32892665
42	0xbddc690c	-0.107622236
43	0x3dd9e159	0.10638685
44	0xbe3bdc73	-0.18345813
45	0x3d52a6fc	0.05142878
46	0xbe26832d	-0.16260977
47	0xbc7d7d76	-0.015471807
48	0xbe84ffa7	-0.25976297
49	0x3df01ac4	0.11723855
50	0x3e598f28	0.21246016
51	0xb952cd39	-0.00020103612
52	0x3e9bcc75	0.30429426
53	0xbe2315c1	-0.15926267
54	0x3e43b2e1	0.19111206
55	0x3de95ae0	0.11394286
56	0xbe96c467	-0.29446718
57	0xbe9c62d2	-0.30544144
58	0xbe429c40	-0.19004917
59	0x3e29a417	0.16566502
60	0x3e134758	0.14382684
61	0x3e8a275b	0.2698315
62	0xbdbeb5de	-0.09312032
63	0xbbe96f6f	-0.0071238796

flow.flow.transforms.2.alpha_prime f4 [4]
0	0x3dcd7aea	0.100332096
1	0x3e380f1f	0.17974518
2	0x3df4b8fc	0.119493455
3	0xbdb787b6	-0.08961432

flow.flow.transforms.2.beta_prime f4 [4]
0	0x3e817c19	0.25289991
1	0xbe5b7152	-0.21429947
2	0xbe0e9fae	-0.139281
3	0x3d308518	0.043095678

flow.flow.transforms.3.x0 f4 [4, 16]
0	0x3ebfc2ad	0.37453213
1	0x3d0b951e	0.034077756
2	0xbebce92c	-0.36896646
3	0x3e36b186	0.17841157
4	0xbe895c36	-0.26828164
5	0x3d758723	0.05994333
6	0x3ea8bc07	0.32955953
7	0xbeb198e5	-0.34686962
8	0xbe832371	-0.25612977
9	0x3d8f82a0	0.070073366
10	0xbe164a75	-0.1467684
11	0xbd9270cd	-0.07150421
12	0xbd69f9c2	-0.057122953
13	0x3e792837	0.24331747
14	0x3dc78ef9	0.09744067
15	0xbe1cee34	-0.15325242
16	0x3d335878	0.043785542
17	0xbd1a8bfc	-0.037731156
18	0xbe3bd77a	-0.18343917
19	0x3eaa049a	0.33206636
20	0xbd1f0312	-0.038821287
21	0x3e860bd1	0.2618089
22	0x3e08bb1a	0.13352624
23	0x3d4b0a66	0.049570464
24	0x3d813945	0.063097514
25	0xbddb88db	-0.107194625
26	0x3e44a979	0.19205274
27	0xbe016f2c	-0.12640065
28	0xbe469444	-0.19392496
29	0xbe4611e7	-0.19342767
30	0x3e964309	0.2934802
31	0xbdf69c9b	-0.12041589
32	0xbe84c459	-0.2593105
33	0x3e3e0e90	0.18560243
34	0x3ea4cbc0	0.321867
35	0xbe59b5e9	-0.212608
36	0xbdb7aed7	-0.08968895
37	0xbea2f154	-0.31824744
38	0xbebdd831	-0.37079003
39	0x3d802bd9	0.06258363
40	0x3e8e1cc3	0.27756318
41	0x3e2ebf46	0.17065153
42	0x3d9aa92f	0.075518005
43	0x3e2c307f	0.16815375
44	0x3e89bd04	0.2690202
45	0x3dce0d59	0.100611396
46	0x3e23fd91	0.16014697
47	0xbdfd871c	-0.12379286
48	0xbe8c563b	-0.2740954
49	0x3d93ba5f	0.07213282
50	0x3e57e010	0.21081567
51	0xbd790f31	-0.060805503
52	0xbe967f4d	-0.29393998
53	0x3e98d2d0	0.29848337
54	0xbe5c351a	-0.21504632
55	0x3dacf239	0.08444638
56	0x3dc519a9	0.09624035
57	0xbdf475e8	-0.11936551
58	0xbe097b1b	-0.13425867
59	0x3e29cfd9	0.16583194
60	0x3e927321	0.2860346
61	0xbe9d36eb	-0.30705962
62	0x3ed5cd26	0.41758078
63	0xbea1b015	-0.31579652

flow.flow.transforms.3.alpha_prime f4 [4]
0	0x3df25637	0.118328504
1	0xbe02909b	-0.12750475
2	0xbd0081b2	-0.031373687
3	0xbd22ecf6	-0.039776765

flow.flow.transforms.3.beta_prime f4 [4]
0	0x3e84e8ac	0.25958765
1	0x3d8d8641	0.069103725
2	0x3e7e4cca	0.2483398
3	0xbd82c90a	-0.063860014

flow.flow.transforms.4.x0 f4 [4, 16]
0	0x3ea8f4cf	0.32999274
1	0xbe618595	-0.22023614
2	0xbeb92a27	-0.36164972
3	0x3ea41e80	0.3205452
4	0xbe8391a7	-0.2569706
5	0x3e3eaf96	0.18621668
6	0x3e894aa4	0.2681476
7	0xbe94876f	-0.29009578
8	0xbe6a05aa	-0.22853723
9	0xbe2c1974	-0.16806585
10	0xbe24c04c	-0.1608898
11	0x3d5d6b06	0.054057144
12	0x3c9b09e0	0.018925607
13	0x3e2e6207	0.17029582
14	0x3db7c818	0.08973712
15	0xbd75cd2c	-0.06001012
16	0x3da02c4e	0.078209504
17	0x3e4ba89a	0.19888535
18	0x3e73e1bb	0.23816578
19	0xbe6ab208	-0.22919476
20	0xbdcdab1f	-0.100424044
21	0xbea90260	-0.33009624
22	0xbb87ecdb	-0.0041481084
23	0xbe71e574	-0.23622686
24	0xbe8aa1b9	-0.2707651
25	0xbe2ac295	-0.1667579
26	0xbe2a9962	-0.16660073
27	0xbe1d30c1	-0.1535063
28	0x3ea2b6f4	0.31780207
29	0x3e48b574	0.19600469
30	0xbe526e9d	-0.20550008
31	0x3e54c4af	0.20778154
32	0xbe847da9	-0.2587712
33	0x3e332141	0.17493154
34	0x3e974cc7	0.29550764
35	0xbe6dac81	-0.23210336
36	0xbc95dbc1	-0.018293263
37	0xbea3759d	-0.3192567
38	0xbe9e41d3	-0.30909595
39	0x3dabc6aa	0.083875015
40	0x3e8d64a4	0.27615845
41	0x3e32072b	0.17385547
42	0x3e954ab6	0.29158562
43	0x3e0fc384	0.14039427
44	0x3e8df040	0.2772236
45	0x3ce7587c	0.028240435
46	0x3e2388ac	0.15970105
47	0xbd018c9e	-0.031628244
48	0xbcba4cce	-0.022741701
49	0x3dc2a42c	0.095039696
50	0xbdb0a3f6	-0.08625023
51	0x3e42e2ad	0.19031782
52	0xbe29b513	-0.1657298
53	0xbe29b83d	-0.16574188
54	0x3d601c29	0.054714356
55	0xbdc8c3c1	-0.09802962
56	0x3eb9557a	0.36198026
57	0x3e5e9af9	0.21738805
58	0x3ed163e3	0.4089652
59	0xbe1df78b	-0.15426461
60	0x3cefd4c5	0.029276261
61	0x3e0783f2	0.13233927
62	0x3ec48c70	0.38388395
63	0x3e0fef96	0.14056239

flow.flow.transforms.4.alpha_prime f4 [4]
0	0xbe84e869	-0.25958565
1	0x3e06c567	0.1316124
2	0xbe86138f	-0.26186797
3	0x3e4acff4	0.1980589

flow.flow.transforms.4.beta_prime f4 [4]
0	0x3daaaa7e	0.083333
1	0xbe43c46a	-0.19117895
2	0x3e947115	0.28992525
3	0xbe642448	-0.22279465

flow.flow.transforms.5.x0 f4 [4, 16]
0	0xbec54ac8	-0.38533616
1	0x3da8780b	0.082260214
2	0x3e91b352	0.28457123
3	0xbd8ed003	-0.06973269
4	0x3dd13402	0.10214998
5	0x3dae0d71	0.084986575
6	0xbe90ea5b	-0.283038
7	0x3e394d30	0.18095851
8	0x3e445312	0.19172314
9	0x3d8882c0	0.066655636
10	0xbb8914e0	-0.0041833967
11	0x3dc567be	0.09638928
12	0xbc952ec1	-0.01821077
13	0xbe4e4d1c	-0.20146602
14	0xbe090a96	-0.13382944
15	0x3dc391a9	0.09549267
16	0xbe451fcd	-0.19250412
17	0xbe2e6371	-0.17030121
18	0x3e7ebac2	0.2487593
19	0xbe67a362	-0.2262092
20	0x3be8371d	0.007086648
21	0x3e0436b0	0.12911487
22	0xbe3dd8df	-0.18539761
23	0xbddb5877	-0.10710233
24	0xbe28f511	-0.16499735
25	0x3e10dcf0	0.14146781
26	0xbe64c700	-0.22341537
27	0x3e3d1e63	0.18468623
28	0x3e9f7588	0.31144357
29	0x3e08fe5d	0.13378282
30	0xbeea1f36	-0.45726937
31	0x3e46b5a4	0.19405228
32	0xbbc7d339	-0.0060981777
33	0xbebdc0d1	-0.3706117
34	0xbcb00384	-0.021486051
35	0x3c0354fa	0.008015865
36	0x3c809047	0.015693797
37	0x3de0e5b1	0.1098131
38	0x3e805bea	0.25070125
39	0xbda965d1	-0.08271373
40	0xbe880a21	-0.26570228
41	0xbed9df28	-0.42553067
42	0xbe301c75	-0.17198355
43	0x3e4adb0b	0.19810121
44	0xbccba550	-0.0248591
45	0x3e0b291b	0.13589899
46	0xbeab1ae8	-0.33418965
47	0x3e64b75e	0.22335574
48	0xbe67df63	-0.22643809
49	0xbda7e570	-0.081980586
50	0x3d947557	0.07248943
51	0x3c9c03e1	0.019044818
52	0x3b285d66	0.0025690435
53	0xbd1f01b5	-0.038819987
54	0x3c082987	0.008310682
55	0x3e17b439	0.14814843
56	0xbe959fde	-0.2922353
57	0xbd7d3a21	-0.061823014
58	0xbe00758b	-0.12544839
59	0x3e324136	0.17407688
60	0xbe10ba48	-0.1413356
61	0x3e35c96b	0.17752616
62	0xbed46485	-0.4148294
63	0x3e210b1e	0.15726897

flow.flow.transforms.5.alpha_prime f4 [4]
0	0x3e5eb0ec	0.21747178
1	0x3e395062	0.1809707
2	0x3e7d2ead	0.24724837
3	0xbe2e1cf3	-0.17003231

flow.flow.transforms.5.beta_prime f4 [4]
0	0xbdb0ff81	-0.086424835
1	0xbd7fa5d6	-0.062414013
2	0x3dc4e8ad	0.09614692
3	0x3e700ed8	0.23443162

flow.flow.transforms.6.x0 f4 [4, 16]
0	0x3e015da7	0.12633382
1	0xbdc31b58	-0.095267
2	0x3e92a49f	0.2864122
3	0xbd930058	-0.071778
4	0x3eaabfb7	0.33349392
5	0xbe1aa5df	-0.15102337
6	0x3e176d71	0.14787842
7	0x3e6d4d32	0.23173979
8	0xbec09b07	-0.37618276
9	0x3eb55f5e	0.35424322
10	0xbe014760	-0.12624884
11	0x3e24cb1a	0.16093102
12	0x3e903bae	0.28170532
13	0x3eaed204	0.34144604
14	0x3eb4e65d	0.35332003
15	0xbea26a7d	-0.3172187
16	0x3d0f3303	0.034960758
17	0xb9e56866	-0.00043756067
18	0xbe171074	-0.1475237
19	0x3e90def6	0.28295106
20	0xbd4973c3	-0.049182665
21	0x3e8c059e	0.27348036
22	0x3e18040b	0.14845292
23	0x3d082228	0.0332357
24	0x3defda16	0.117115185
25	0xbd69ff91	-0.057128493
26	0x3e3b5fde	0.18298289
27	0xbdf91ee8	-0.12164098
28	0xbe299c86	-0.16563615
29	0xbe1005b2	-0.14064673
30	0x3e88ffaa	0.26757556
31	0xbde62a2b	-0.11238512
32	0xbe863193	-0.26209697
33	0x3e39f913	0.1816142
34	0x3e06d983	0.13168912
35	0xbe978dd2	-0.29600388
36	0xbd84f71f	-0.06492447
37	0xbea928fa	-0.33039075
38	0xbeb521a8	-0.3537724
39	0x3db86146	0.090029284
40	0x3e925e24	0.2858745
41	0x3e306435	0.17225726
42	0x3e948897	0.2901046
43	0x3e19d14d	0.15021248
44	0x3e9b2696	0.30302876
45	0x3d84289c	0.06453058
46	0x3e484035	0.19555743
47	0xbc2b4830	-0.010454223
48	0x3eb36861	0.35040572
49	0xbe8883bb	-0.26663002
50	0xbe9ba6a6	-0.3040058
51	0x3eb033f1	0.34414628
52	0x3de20666	0.11036377
53	0xbe246d86	-0.16057405
54	0x3e85e710	0.2615285
55	0x3ea2712a	0.31726962
56	0xbe5255d7	-0.20540558
57	0x3e247cfe	0.16063306
58	0x3e693912	0.22775677
59	0x3da02746	0.07819991
60	0xbe700aed	-0.23441668
61	0xbeac2b56	-0.33626813
62	0x3ee4d754	0.44695532
63	0xbdba9408	-0.09110266

flow.flow.transforms.6.alpha_prime f4 [4]
0	0xbe405bab	-0.18784969
1	0xbe2ac889	-0.1667806
2	0xbdbab52c	-0.09116587
3	0x3e31873c	0.17336744

flow.flow.transforms.6.beta_prime f4 [4]
0	0xbe45122e	-0.19245216
1	0xbc50f052	-0.012752609
2	0x3d4ec803	0.050483715
3	0x3e1360f5	0.14392455

flow.flow.transforms.7.x0 f4 [4, 16]
0	0x3e9f9fd9	0.31176642
1	0xbe99fa73	-0.3007389
2	0xbe9ce116	-0.30640477
3	0x3ea9ec5e	0.33188146
4	0xbe742d7d	-0.23845477
5	0x3ddf2dc8	0.10897404
6	0x3e755816	0.23959383
7	0xbe89a57f	-0.26884076
8	0xbd66e623	-0.05637182
9	0xbe9f62ac	-0.31129968
10	0xbe595b89	-0.21226324
11	0xbd0159f2	-0.03157992
12	0xbdb41835	-0.087936796
13	0x3e37d1ee	0.17951176
14	0xbbc05d54	-0.0058705006
15	0xbcf1e98c	-0.02953031
16	0x3be5a5cd	0.0070082904
17	0x3e1db5e8	0.15401423
18	0x3d99f810	0.07518017
19	0x3dd4601f	0.10369896
20	0x3e8bace2	0.27280337
21	0xbe44bc24	-0.19212395
22	0xbd0490e7	-0.032364752
23	0xbe876221	-0.26442054
24	0xbda62c0d	-0.08113871
25	0x3d17d9be	0.03707289
26	0x3e11666f	0.14199232
27	0x3e4bb1b1	0.19892003
28	0x3eb338d3	0.3500429
29	0xbe14c238	-0.14527214
30	0xbef11ab0	-0.47090673
31	0xbd92df46	-0.07171492
32	0xbdb0a03f	-0.086243145
33	0xbea7a74f	-0.32744834
34	0xbe8c3d4c	-0.27390516
35	0x3dc87f83	0.09789946
36	0xbda9f172	-0.08298005
37	0x3e9b5503	0.30338296
38	0x3e6a763d	0.22896667
39	0x3deef91e	0.11668609
40	0xbe875b31	-0.2643676
41	0xbdcd32e2	-0.10019471
42	0xbe606207	-0.21912394
43	0xbdf15e7b	-0.11785599
44	0xbe821c7a	-0.2541235
45	0x3e381e50	0.17980313
46	0xbe8c3537	-0.2738435
47	0x3d2d43dc	0.042301044
48	0xbe6c5405	-0.23078926
49	0xbd8421a3	-0.06451728
50	0x3dc972fc	0.09836385
51	0xbb5e6215	-0.0033932973
52	0x3c3a7880	0.0113812685
53	0xbd3c0cc0	-0.045910597
54	0x3b7e4846	0.0038800403
55	0x3decbd47	0.11559539
56	0xbe76ac9a	-0.2408928
57	0xbdf040eb	-0.11731132
58	0xbdeae997	-0.11470335
59	0x3e2fe302	0.1717644
60	0xbdc21feb	-0.09478744
61	0x3e2621ff	0.16223906
62	0xbec32f7a	-0.3812216
63	0x3e12c3c9	0.14332499

flow.flow.transforms.7.alpha_prime f4 [4]
0	0xbe8524dc	-0.26004684
1	0x3ba8ad46	0.005147609
2	0x3d567a22	0.05236257
3	0xbe8958f4	-0.26825678

flow.flow.transforms.7.beta_prime f4 [4]
0	0xbcb8644a	-0.022508759
1	0xbe02a906	-0.1275979
2	0xbd9800b7	-0.07422011
3	0x3e615851	0.22006346

flow.flow.transforms.8.x0 f4 [4, 16]
0	0xbe3222e6	-0.17396125
1	0x3dd36924	0.10322788
2	0x3e29e030	0.16589427
3	0xbdb29132	-0.087191
4	0x3e42571a	0.18978539
5	0xbdbb94e4	-0.09159258
6	0xbe39bc29	-0.18138184
7	0x3e347e39	0.17626275
8	0x3e754480	0.23951912
9	0x3d702853	0.058632206
10	0x3e61ced3	0.22051553
11	0xbd522b06	-0.05131056
12	0x3da3b264	0.0799301
13	0xbe844194	-0.25831282
14	0xbc963b92	-0.018338952
15	0xbcb1d9ad	-0.021710241
16	0xbe946821	-0.28985694
17	0xbeb2b9d3	-0.34907398
18	0xbe46a580	-0.1939907
19	0x3e9ef37c	0.3104514
20	0x3e5579c0	0.20847225
21	0xbec1f9d6	-0.37885922
22	0x3e60b304	0.21943289
23	0xbecb6867	-0.3972809
24	0xbe9f7c00	-0.31149292
25	0x3e9097b4	0.2824074
26	0xbecc881c	-0.39947593
27	0xbe90d232	-0.28285366
28	0xbdca836b	-0.09888347
29	0xbe8770cb	-0.26453242
30	0xbeceb01b	-0.40368733
31	0xbead6351	-0.33864835
32	0xbe6489f0	-0.22318244
33	0x3e214b4f	0.15751384
34	0x3ea3f942	0.32026106
35	0xbe632c43	-0.22184853
36	0x3cdf684f	0.027271418
37	0xbea5408d	-0.3227581
38	0x3d78a6cd	0.06070595
39	0x3d40a270	0.047029912
40	0x3e0d577a	0.13802901
41	0x3e25780c	0.16159075
42	0x3ea76c57	0.32699844
43	0x3e1a2f2f	0.15057062
44	0x3e459a01	0.19297029
45	0x3cc93997	0.024563594
46	0x3c4bbf7a	0.012435788
47	0x3dd089a3	0.10182502
48	0x3e2dada4	0.1696077
49	0x3d8431d1	0.06454814
50	0xbd5cad43	-0.053876173
51	0x3cb54b44	0.022130616
52	0xbe871592	-0.26383644
53	0xbd8496aa	-0.064740494
54	0x3bfafadd	0.0076592998
55	0xbdd57def	-0.104244106
56	0x3ebe4ba6	0.3716709
57	0x3dcbdaf5	0.09953872
58	0x3ec2f476	0.38077134
59	0x3dfe56d9	0.124189086
60	0x3e4dd5a9	0.20101036
61	0xbe305092	-0.17218235
62	0x3ec68f60	0.3878126
63	0x3db0fd3d	0.08642051

flow.flow.transforms.8.alpha_prime f4 [4]
0	0x3d998afa	0.07497211
1	0x3e0a40a2	0.13501218
2	0xbe19261c	-0.14955944
3	0x3e65a41a	0.22425881

flow.flow.transforms.8.beta_prime f4 [4]
0	0xbe555c86	-0.20836076
1	0x3e0222ee	0.12708637
2	0x3de7e985	0.11323837
3	0xbe4fa182	-0.20276454

flow.flow.transforms.9.x0 f4 [4, 16]
0	0x3e9b3f95	0.30321947
1	0xbe621527	-0.22078381
2	0xbebd01b1	-0.36915353
3	0x3e906d65	0.2820846
4	0xbe7b89d6	-0.24564299
5	0x3e44ceb4	0.19219476
6	0x3e7a676c	0.24453515
7	0xbe833bc2	-0.2563153
8	0xbe4d6b4a	-0.20060459
9	0xbdbdd595	-0.09269253
10	0xbe2f8bd6	-0.17143187
11	0xbdb27b77	-0.08714955
12	0xbd4795ce	-0.04872685
13	0x3e2cb77b	0.16866867
14	0x3ce46191	0.027878555
15	0x3d9dc984	0.07704452
16	0xbe0a8a16	-0.13529238
17	0xbe341335	-0.17585452
18	0xbe9e9be6	-0.30978316
19	0xbe6ad37c	-0.22932237
20	0xbe898724	-0.26860917
21	0x3de1da1b	0.110279284
22	0x3e899def	0.26878306
23	0x3e7cd6df	0.24691342
24	0x3ee20ff9	0.4415281
25	0xbeb76fd1	-0.35827497
26	0x3ec87bae	0.3915686
27	0x3e9c07be	0.30474657
28	0xbcbc461b	-0.022982648
29	0x3e8c9838	0.27459884
30	0x3ea7db2a	0.32784396
31	0x3ea61331	0.32436517
32	0x3ea78e39	0.32725695
33	0xbd06b66d	-0.03288882
34	0xbd2c4370	-0.0420565
35	0x3c522404	0.01282597
36	0xbdaf08af	-0.08546578
37	0x3ec2cba8	0.38046002
38	0x3ea241ce	0.3169083
39	0x3e1b066d	0.1513917
40	0x3cfdad23	0.030966347
41	0xbe6183de	-0.2202296
42	0xbe3832c6	-0.17988119
43	0xbdf361df	-0.11883902
44	0xbe946bda	-0.28988534
45	0x3e5cdb31	0.2156799
46	0x3d4bbbf9	0.04973981
47	0x3e7a3961	0.24435951
48	0xbe88656b	-0.26639876
49	0xbd1fcdbe	-0.03901457
50	0xbc92d919	-0.017925786
51	0xb947f8ac	-0.00019070756
52	0xbd952626	-0.07282667
53	0x3d68d6cf	0.056845482
54	0xbdb3cb62	-0.087790266
55	0x3e0fc21b	0.14038889
56	0xbe75fd39	-0.24022378
57	0x3c820309	0.015870588
58	0xbe7539fb	-0.23947899
59	0x3e7251cd	0.23664017
60	0xbe350ee7	-0.17681466
61	0x3e1a2b23	0.15055518
62	0xbea4cbe7	-0.32186815
63	0x3e11d1fe	0.14240262

flow.flow.transforms.9.alpha_prime f4 [4]
0	0xbd812da7	-0.063075356
1	0x3d76a407	0.060215022
2	0x3db4e0a3	0.088319086
3	0xbe3ce7f4	-0.18447858

flow.flow.transforms.9.beta_prime f4 [4]
0	0x3e8b0257	0.27150223
1	0x3dab529a	0.083653644
2	0xbe244c6b	-0.16044776
3	0x3dfa4745	0.12220625
