saved_experiments/ood_loc/GPN/1/model_7.pt (torch, 759609 bytes, 36 tensors)

input_encoder.0.weight f4 [64, 2879]
00000000: 28f4 d3b7 200e 2237 7006 c337 f842 fab7
00000010: 1bca 8438 e296 5bb8 0fd9 0e39 795d 10b8
00000020: bd32 9d3a d75c 76b8 3e7d ee38 9bd9 5e38
00000030: d468 37b8 7862 fd38 0d05 a338 b00c 28b7
00000040: f117 3538 12e7 1939 18f8 f5b7 8240 59b8
00000050: 8ce8 4439 c40b 7d39 de3a 17b9 b4f4 5dba
00000060: f469 7939 d51a 09b9 60bb 6739 a104 9a3a
00000070: cae6 5438 c6e6 19b9 c747 2039 8f43 b238
00000080: be50 03b8 277f 04b8 b838 bf37 fbaa 2139
00000090: d8c6 9438 98d9 38b7 e1eb aa38 6881 12b8
000000a0: e5c2 3139 b52d 8938 2e7e 7038 4a61 38b8
000000b0: b87e 22ba 1dbb 90b9 2322 9d38 8dfd b5b9
000000c0: 38cb 9bb7 d46c 1bb8 b86b 30b9 22ee 24b9
000000d0: 73b2 78b8 2437 2a38 bc5c 62b9 d021 b6b7
000000e0: 1016 e8b7 e0a6 7fb8 8aaf a5b8 e5b0 6138
000000f0: 7e0c ae38 eeaa 9238 0cd2 3939 b3a2 7639
00000100: c32b 4ab8 f805 23b8 a547 c3b9 841a ddb7
00000110: c2b0 15b9 2764 92b8 34da 1f37 406e 0eb9
00000120: 780e c4b7 fab0 e138 f870 fd38 0aef 8e37
00000130: e86f 12b8 33a1 7538 a0bb 7bb6 1bd7 6f39
00000140: 20fd 51b9 3e1c 8738 a808 fdb8 687f 0137
00000150: a08f 14b9 86ae 83b8 6779 6b38 9435 e738
00000160: a0e7 ae35 fc64 b8b8 42b6 0f3a 8261 4db8
00000170: 4f4c c7b8 84fe 0039 6e38 0a39 a8a0 e2b8
00000180: 87bd 8139 f69c e938 83b5 d2b8 e0b7 5d39
00000190: 7bf0 11b9 8f28 9a39 106d 03b9 30b5 97b6
000001a0: 23a2 8538 6631 40b9 c084 0938 d39c cd39
000001b0: bc59 9cb9 3b9c f4b8 32b4 b6b8 db1c 7fb9
000001c0: 1a1c 5d38 e0c4 19b9 ed5d fcb8 29a7 4b38
000001d0: a61b e939 34f7 ecb7 48aa 2bb9 72b5 b9b8
000001e0: eca8 e5b7 9a75 bab8 e242 8ab8 1c1d 0cb7
000001f0: b054 30b9 d034 db36 9cf6 8238 b836 8b38
00000200: 20df 0739 f0ea 29b7 57c6 8638 d34c 0339
00000210: 4f12 0fb8 f0d9 efb6 b8e6 9b37 dc5a 1fb8
00000220: 8be4 d038 c84f 5fb8 0294 063a 4b35 6cb8
00000230: c8a0 e738 4215 0eb8 0481 1fb9 accc e2b7
00000240: f8fc 49b7 9266 1e39 a63f 7eb9 100b 86b6
00000250: f88a 99b9 cee9 bbb8 55ef 98b8 2420 a1b9
00000260: 836d 2c38 0fe3 f3b8 e8b3 88b8 e813 81b9
00000270: 44b0 99b8 f207 b238 a8be c336 e6ab 96b9
00000280: 5c62 7338 6a4b 29b9 ef6b 9938 d0b6 c5b6
00000290: 8298 bcb8 b966 7bb8 b4bd 81b7 8418 1738
000002a0: 7057 a139 3a3c 0139 861c b4b8 a8a3 7837
000002b0: 2caf 26b8 767d eeb7 00f1 a2b5 e98d 7cb9
000002c0: c47d fa37 6c75 8239 58a4 5939 96c8 14ba
000002d0: d807 4a37 2ab1 5fb8 66cf 8938 f8bc 10b9
000002e0: bb89 3639 1fa1 253a a4b1 4639 5bfa 6738
000002f0: 8af5 9eb8 f6a4 bdb8 ea30 1638 0e5b a5b7
00000300: 7004 3d38 9237 5138 b104 a639 84eb 3db7
00000310: 86be 94b8 d082 1f38 deb0 7238 92ba 6037
00000320: 9cbc 95b8 14e8 5f38 a907 38b9 a540 e4b8
00000330: bea5 9939 0040 c335 80db c235 5877 0239
00000340: 4335 14b9 00d5 a835 94a5 8038 75a9 1f3a
00000350: d4d5 b338 3d8b 02b9 6e3b e2b8 2272 0b38
00000360: 667d 5bb8 cb07 ce38 e778 cdb9 20e4 58b9
00000370: 75bd da38 4bfd b6b9 4afb 67b8 e431 4c38
00000380: 7ec5 bcb7 fc0d e437 6ead 1139 c89e de37
00000390: b523 dab9 a285 ca38 e0b2 97b6 a029 70b8
000003a0: b026 2139 c436 dd37 d8f3 54b7 56b2 46b8
000003b0: 2dc5 0bb9 da96 8c38 a04c 63b6 6b6f dcb8
000003c0: 1665 99b8 99fb c538 5b6e e738 248b 12b8
000003d0: 5820 c338 dc8c 9d38 134e 3eb8 3fe4 9db8
000003e0: 6a51 c537 b980 c7b9 b497 0639 bf50 e6b8
000003f0: 3cec a339 dcae 1ab8 ea96 14b9 aefe 17b9
-2.5266854e-05 9.659241e-06 2.324881e-05 -2.9833507e-05 6.3318956e-05 -5.235419e-05 0.00013623036 -3.441933e-05
0.0011993271 -5.8737434e-05 0.000113720525 5.3131585e-05 -4.372823e-05 0.00012082321 7.7733865e-05 -1.0016534e-05
4.317606e-05 0.00014677297 -2.9321804e-05 -5.179691e-05 0.00018778647 0.00024132343 -0.00014422412 -0.00084669446
0.00023785961 -0.00013075334 0.0002209968 0.0011750647 5.0759678e-05 -0.00014677187 0.00015285528 8.500285e-05
-3.130803e-05 -3.1589672e-05 2.2795386e-05 0.00015417852 7.0942275e-05 -1.1017917e-05 8.1501676e-05 -3.492963e-05
0.00016952639 6.541183e-05 5.7337973e-05 -4.3959626e-05 -0.0006198692 -0.0002760523 7.492702e-05 -0.0003471192
-1.8572071e-05 -3.7056234e-05 -0.00016824796 -0.0001572897 -5.9294e-05 4.0582512e-05 -0.00021587586 -2.1711836e-05
-2.7666829e-05 -6.0952152e-05 -7.90051e-05 5.3808926e-05 8.2992934e-05 6.993661e-05 0.00017721223 0.00023520998
-4.820131e-05 -3.8867787e-05 -0.00037246678 -2.63576e-05 -0.00014275595 -6.980477e-05 9.527943e-06 -0.00013583247
-2.3371758e-05 0.000107618005 0.00012085022 1.703903e-05 -3.4913333e-05 5.856268e-05 -3.7511127e-06 0.00022872949
-0.0002002609 6.442562e-05 -0.000120655925 7.718663e-06 -0.00014167884 -6.279074e-05 5.614143e-05 0.00011024918
1.3031422e-06 -8.7926135e-05 0.00054821756 -4.896662e-05 -9.503273e-05 0.00012301846 0.00013181727 -0.00010806444
0.00024746006 0.00011139542 -0.000100473895 0.00021144701 -0.00013917864 0.00029403387 -0.00012533762 -4.5212437e-06
6.3721345e-05 -0.00018328949 3.278698e-05 0.0003921749 -0.00029821496 -0.00011663927 -8.712e-05 -0.00024329445
5.2716678e-05 -0.00014664559 -0.000120337914 4.855465e-05 0.00044461823 -2.8248505e-05 -0.00016371266 -8.855284e-05
-2.7377588e-05 -8.891076e-05 -6.592811e-05 -8.351428e-06 -0.00016816217 6.532857e-06 6.2448176e-05 6.638229e-05
0.00012957724 -1.0127886e-05 6.4265616e-05 0.00012521753 -3.4110908e-05 -7.1481263e-06 1.8584877e-05 -3.7993173e-05
9.960782e-05 -5.3241645e-05 0.0005133749 -5.6316418e-05 0.00011044886 -3.3875236e-05 -0.00015211484 -2.7036607e-05
-1.20394325e-05 0.00015106265 -0.00024247039 -3.994799e-06 -0.00029285974 -8.9604044e-05 -7.292504e-05 -0.0003073226
4.1109986e-05 -0.00011629436 -6.5184955e-05 -0.0002461963 -7.3284406e-05 8.489181e-05 5.833648e-06 -0.00028738304
5.802732e-05 -0.0001614519 7.315713e-05 -5.8923397e-06 -8.9929454e-05 -5.993873e-05 -1.5466336e-05 3.6024037e-05
0.0003077346 0.00012324835 -8.588382e-05 1.4820056e-05 -3.9740626e-05 -2.8430233e-05 -1.2140081e-06 -0.00024085458
2.9860887e-05 0.00024883018 0.00020755955 -0.00056756416 1.20419645e-05 -5.333234e-05 6.5713e-05 -0.00013803307
0.00017408181 0.00063182594 0.00018948928 5.5307853e-05 -7.579762e-05 -9.042949e-05 3.580834e-05 -1.9711933e-05
4.5065244e-05 4.9881237e-05 0.00031665483 -1.1320113e-05 -7.092678e-05 3.8030383e-05 5.7862017e-05 1.339488e-05
-7.140005e-05 5.3383483e-05 -0.00017550461 -0.00010883928 0.00029305922 1.4547259e-06 1.4518009e-06 0.00012442225
-0.00014134221 1.2578967e-06 6.134357e-05 0.000609062 8.575214e-05 -0.00012449636 -0.000107875894 3.3246477e-05
-5.2330455e-05 9.824297e-05 -0.00039190726 -0.00020684348 0.00010430339 -0.00034902463 -5.5308723e-05 4.8683854e-05
-2.250331e-05 2.718623e-05 0.00013892885 2.65384e-05 -0.00041606804 9.657002e-05 -4.5209745e-06 -5.7259225e-05
0.00015368569 2.6370755e-05 -1.2692959e-05 -4.7372967e-05 -0.00013329527 6.7038185e-05 -3.3870238e-06 -0.00010511171
-7.314437e-05 9.440556e-05 0.00011035494 -3.4938697e-05 9.304349e-05 7.5125805e-05 -4.5372242e-05 -7.5288575e-05
2.3522141e-05 -0.00038052144 0.0001283575 -0.00010982295 0.0003126579 -3.687931e-05 -0.000141706 -0.00014495358

input_encoder.0.bias f4 [64]
00000000: 7b82 5fbd a9fd 8abc 5692 6fbd 9fce 5cbd
00000010: a3c0 fb3c e3b3 973c f2d6 013d 72a4 54bd
00000020: 3840 46bd ca54 db3c 7a6d 48bd 5c35 5fbd
00000030: 9a0b 3ebd 72df cfbb 3c62 46bd 22fe c7bc
00000040: d3e7 3dbd 0ca9 7bbd d2d8 353d 5f80 84bd
00000050: 77d2 5abd 176c 1bbd 6041 0d3d 9ae7 8b3c
00000060: bda5 e53c d4c5 e5bc b37f 123d f275 b13b
00000070: 9e28 ac3c 2301 2f3d 8f68 95bc ef66 2a3d
00000080: c00d 1abd 5b09 3bbd a129 703d 29a5 ce3c
00000090: b51c 51bd f493 ef3c db0e 21bd e979 eebc
000000a0: ad7b 49bd 9377 36bd cecb cf3c 6329 94bb
000000b0: 8c75 6e3b 5470 33bd 40dc 93bc 6b7b 463c
000000c0: 743e 80bd bfed 75bd 8f5e 62bd e41e 81bd
000000d0: 599c 51bd 628c 8dbc 6bb3 2d3d 9472 46bd
000000e0: 6838 7cbd 845a fabc fc82 6ebd 7c7e 843d
000000f0: f86f 73bd add0 7cbd 6991 69bd b8db 6cbd
-0.054567795 -0.016966658 -0.058489166 -0.053907987 0.030731505 0.018518394 0.03169913 -0.05191464
-0.048401088 0.026773829 -0.04893253 -0.054494247 -0.046397783 -0.0063437754 -0.048433527 -0.024413172
-0.046363663 -0.061440513 0.04439623 -0.06469797 -0.05342337 -0.03794488 0.034486175 0.01707821
0.028033132 -0.028048433 0.035766315 0.0054156715 0.021015462 0.042725693 -0.018238334 0.04160207
-0.03761077 -0.04566322 0.05863345 0.025225239 -0.051052768 0.029245354 -0.039320808 -0.029110866
-0.049190212 -0.04454763 0.025365736 -0.0045215352 0.0036385981 -0.043808296 -0.01804936 0.012114386
-0.06261912 -0.060041185 -0.05526596 -0.0630472 -0.051174495 -0.017278854 0.042407434 -0.048449114
-0.06157723 -0.03056074 -0.058230385 0.064694375 -0.059432954 -0.061722446 -0.05702344 -0.057826728

latent_encoder.weight f4 [16, 64]
00000000: e81b 6438 d531 e6ba 6451 d83d de27 d63d
00000010: e2fe 173d 9a98 b7bd 5c8e 23bd 143f ebbc
00000020: 6cd5 aeb9 c49a febc ba17 1f3d e702 49bc
00000030: 0aa6 0dba bea1 d4bc 6ef2 773d cec0 6dbe
00000040: d7fb 7b3d 1f6a 3d3a 1265 733e c4e8 80b9
00000050: 76b8 f9bd dfb7 b9b8 d724 d03d 72ca 86bd
00000060: d644 143d b10f e73d bba1 c03d 98cb 5fbe
00000070: d4d2 a2be 02d5 ec3a daf6 86bb 4742 1dbe
00000080: bbdc dc3c 57cb 763d 17ac 23be ca4c 823c
00000090: 1835 abbc 1c89 3abc db62 113c 2cb9 e1bd
000000a0: 3cb7 29bd d089 d9bc ec54 993d 1604 053e
000000b0: 5fc2 3abe d2ef 70be a704 8ebe 9892 adbd
000000c0: d993 16bd 6b0b 163c 0dfd 913a 7bda a0ba
000000d0: 09fb 9ebc 85d5 56be 64a0 3bbc 51a6 88ba
000000e0: cff4 6f3c 6f76 71be 2c7b 733d 73e3 01be
000000f0: fc9d e53c ec3c 6c3c 6863 10ba 66ab bb38
00000100: b639 ce3a b677 8c3d e8a1 73bd 87d7 6b3d
00000110: 8535 d73e b09c 203e 1714 a73e 148f cdbd
00000120: cac1 733a 6f30 f03c 8ff1 8ebc 6717 063e
00000130: 58c7 08b9 e37f 2f3e 74c9 de3d 0eaa 80be
00000140: 86da 7fbd c406 ebbb eb5b 693d 8e98 f0b9
00000150: e26e 0abe 4786 2db9 efe0 983e 6355 4c3d
00000160: d10f a23e beb1 133f 0d34 35bd 1400 97be
00000170: a717 90be 4eb8 b93e fd56 02bd 5163 823e
00000180: 6f2a 60bd 206c d13c 5a03 a5bd ca16 18be
00000190: eeac 47bd 1fa8 c63c 649e 603d 82f4 39be
000001a0: 6232 bbbd 643b b03c a5e2 b63e 2ac4 3abe
000001b0: 6a3f 543d 819d 1ebe b8f2 85be e281 6b3e
000001c0: 3157 b4be 0131 de3b 5a74 1f3a fb9e 48ba
000001d0: 1f4a 363c 684c a3be 97f4 533e 5413 4d39
000001e0: 3310 363d 51a3 72be d9cf 6bbb b492 8b3e
000001f0: 1339 30bd 3ff2 f93b dc05 b4ba fdb2 853a
00000200: f1ae d3bb 1ac4 e23c a215 08bd 6d8b 92bc
00000210: 3dd9 b9bd b13f 783d 3fa8 51be 2bcb b6bc
00000220: 184d 03bb db87 583d cb3a b43d a426 ffbd
00000230: 7b94 413a 1ffe 0f3e 0234 ef3d 8e1e a53d
00000240: 5bd0 41bd 688d a43c 7a47 25be c744 a4ba
00000250: fb74 2ebe 022f e938 34f7 6e3d 7ccc 093e
00000260: c63e 98be 3d6a c6be ac9c af3d 401b 21bd
00000270: fd36 353e c717 72be 2c43 d23c 4b32 2b3e
00000280: 7d26 ce3d 314d 81bb 2ede 523e 547f e4bc
00000290: 5352 6c3b ca9d 823e d98b 153b 598f d3be
000002a0: ab4f 48bc 021b ea3d b4ba 003e 775b 02be
000002b0: fae3 8cbe fb25 adbe ac33 2d3e 58fb 74be
000002c0: f25c d5be 0854 b73b 14b7 38bb d962 f5b9
000002d0: f718 8a3c c82f ddbe 0b34 cfbb 12db 0db9
000002e0: 17b3 d4bc d247 433d 4f5f 073d c5fe cfbd
000002f0: a019 61bd 8d34 1b3d ee3d bcba 7ea5 0aba
00000300: d8cf 08bc 85aa 92bd 4920 75bd 86ac d7bc
00000310: 5c1a 6bbe 11ed ccbd a8f0 a7be 483f 403d
00000320: 0c80 3b3a a04b 79bc 7eff 9539 09e9 4ebb
00000330: e3cb 2eba a786 ebbc 3715 21bd 07be 1d3e
00000340: aa93 303d 41aa 073a ea83 06be 4832 a7b8
00000350: dc75 78bd f161 00ba 89ef 2b3d 5f86 143e
00000360: 9e7a b7be 4caf eabe 90a2 b13d 823b 913e
00000370: ccf9 cc3e 0e4c 9cbe 8d4c 003d 4978 2a3d
00000380: f9f7 abbb 9f01 a5bd 5914 a03e c3c0 d2bd
00000390: dd01 343d c3cf a23e 9695 96bd 178f 7abe
000003a0: a602 343d 02c4 20bd 2c96 853d 774c bfbd
000003b0: bd33 bbbe d598 d6be a0f1 a63e bcc1 a2be
000003c0: 41b9 01be c46e 4f3a 70ea 88bb df96 37ba
000003d0: 6a41 14bd 0a88 a9be 4dd0 65be 728a ae38
000003e0: 8fe9 81bc 85d3 863e 2152 e6bb 116e 56be
000003f0: ab7b 003e 2830 213d 01d5 a2bb c50c 72b9
5.4385426e-05 -0.0017562459 0.10562399 0.10456823 0.03710831 -0.08964653 -0.039930686 -0.028716601
-0.00033346878 -0.031079657 0.038840987 -0.012268758 -0.0005403465 -0.025956031 0.060533933 -0.2321808
0.06151947 0.0007225591 0.23769024 -0.00024587486 -0.12193386 -8.855736e-05 0.10163277 -0.06581582
0.03619846 0.1128229 0.09405848 -0.21855009 -0.31801474 0.0018068852 -0.0041187825 -0.15357314
0.026960721 0.060252514 -0.15983616 0.015905757 -0.02089934 -0.0113852285 0.008873667 -0.11021647
-0.04143451 -0.026554972 0.07486901 0.1298984 -0.18238209 -0.23528984 -0.27737924 -0.08475226
-0.036762092 0.009157996 0.0011138037 -0.0012272144 -0.019406812 -0.20979889 -0.011451814 -0.0010425543
0.014645769 -0.23580335 0.059443638 -0.12684421 0.028029434 0.014418822 -0.0005507977 8.94878e-05
0.0015733752 0.068587705 -0.059480578 0.05757859 0.4203302 0.15684772 0.32632515 -0.100370556
0.0009298591 0.02931997 -0.017449168 0.13094865 -0.00013044232 0.17138629 0.10878268 -0.2512974
-0.06246426 -0.0071724374 0.056972425 -0.0004589003 -0.13518861 -0.00016548588 0.2985911 0.04988612
0.31652692 0.5769309 -0.044239093 -0.29492247 -0.28143045 0.36273426 -0.03182124 0.25466397
-0.054727968 0.025564253 -0.0805728 -0.14852443 -0.048748903 0.024250088 0.054838553 -0.18159679
-0.09140469 0.021512695 0.3571979 -0.18238893 0.05181829 -0.1548977 -0.26161742 0.22998765
-0.35222772 0.006780744 0.00060827064 -0.00076530845 0.01112607 -0.3189423 0.20698772 0.00019557524
0.044449043 -0.23695113 -0.003598204 0.27260363 -0.04302318 0.007627755 -0.0013734656 0.0010200437
-0.0064600636 0.0276814 -0.033223756 -0.017888749 -0.09074638 0.060607616 -0.20474337 -0.022313675
-0.0020034965 0.052863937 0.08800276 -0.12458542 0.0007384491 0.14061783 0.116798416 0.080624685
-0.047317844 0.020086959 -0.16140547 -0.0012532704 -0.17036812 0.00011119062 0.05834122 0.13456911
-0.29735392 -0.38752928 0.08574805 -0.03933263 0.17696758 -0.23641883 0.025666796 0.16718404
0.10065935 -0.0039459695 0.20592567 -0.027892746 0.0036059811 0.25511009 0.0022818951 -0.41320303
-0.012226026 0.114309326 0.12571222 -0.12730204 -0.27517682 -0.3381804 0.16914243 -0.23924005
-0.41672474 0.005594734 -0.0028185295 -0.0004680369 0.016857607 -0.43200517 -0.0063233427 -0.00013528418
-0.025964303 0.047675915 0.033049878 -0.10156015 -0.05495608 0.037891913 -0.0014361718 -0.00052889425
-0.008350335 -0.0716143 -0.059845243 -0.026327383 -0.22959274 -0.10006154 -0.32800794 0.04693535
0.00071525644 -0.015215784 0.0002860985 -0.0031572005 -0.0006667955 -0.02875073 -0.039326873 0.15404521
0.043109573 0.0005175211 -0.13136259 -7.972546e-05 -0.060659274 -0.0004897407 0.041976485 0.14504384
-0.35835737 -0.45836866 0.086735845 0.28365713 0.4003433 -0.30526775 0.031323005 0.04161862
-0.0052480665 -0.0805695 0.31265524 -0.10290673 0.04394709 0.31799135 -0.0735275 -0.24468647
0.04394784 -0.039249428 0.06522784 -0.093407564 -0.3656291 -0.41913477 0.3260622 -0.31788433
-0.12668325 0.00079129287 -0.0041783378 -0.00070033775 -0.036195196 -0.33111602 -0.22442742 8.322754e-05
-0.01585844 0.26333252 -0.0070288335 -0.20940425 0.12547176 0.039352566 -0.0049692397 -0.00023083675

latent_encoder.bias f4 [16]
00000000: 0483 c53d 60f1 f9ba 7d62 ca3d 440c bb3d
00000010: 2af5 113e b3f4 b4bd f0a8 f03d 2059 f93d
00000020: 7689 05be fe68 90ba 607d b23d eb86 66bc
00000030: e220 88bd 23bb e23c 96d3 21be d6f8 8abb
0.0964413 -0.0019069128 0.098820664 0.09133199 0.14253679 -0.08835735 0.11750972 0.12175202
-0.13040718 -0.0011017618 0.0871532 -0.014070253 -0.06646897 0.027677124 -0.1580337 -0.0042410893

flow.flow.mean f4 [4, 16]
00000000: 0000 0000 0000 0000 0000 0000 0000 0000
00000010: 0000 0000 0000 0000 0000 0000 0000 0000
00000020: 0000 0000 0000 0000 0000 0000 0000 0000
00000030: 0000 0000 0000 0000 0000 0000 0000 0000
00000040: 0000 0000 0000 0000 0000 0000 0000 0000
00000050: 0000 0000 0000 0000 0000 0000 0000 0000
00000060: 0000 0000 0000 0000 0000 0000 0000 0000
00000070: 0000 0000 0000 0000 0000 0000 0000 0000
00000080: 0000 0000 0000 0000 0000 0000 0000 0000
00000090: 0000 0000 0000 0000 0000 0000 0000 0000
000000a0: 0000 0000 0000 0000 0000 0000 0000 0000
000000b0: 0000 0000 0000 0000 0000 0000 0000 0000
000000c0: 0000 0000 0000 0000 0000 0000 0000 0000
000000d0: 0000 0000 0000 0000 0000 0000 0000 0000
000000e0: 0000 0000 0000 0000 0000 0000 0000 0000
000000f0: 0000 0000 0000 0000 0000 0000 0000 0000
0.0 0.0 0.0 0.0 0.0 0.0 0.0 0.0
0.0 0.0 0.0 0.0 0.0 0.0 0.0 0.0
0.0 0.0 0.0 0.0 0.0 0.0 0.0 0.0
0.0 0.0 0.0 0.0 0.0 0.0 0.0 0.0
0.0 0.0 0.0 0.0 0.0 0.0 0.0 0.0
0.0 0.0 0.0 0.0 0.0 0.0 0.0 0.0
0.0 0.0 0.0 0.0 0.0 0.0 0.0 0.0
0.0 0.0 0.0 0.0 0.0 0.0 0.0 0.0

flow.flow.cov f4 [4, 16, 16]
00000000: 0000 803f 0000 0000 0000 0000 0000 0000
00000010: 0000 0000 0000 0000 0000 0000 0000 0000
00000020: 0000 0000 0000 0000 0000 0000 0000 0000
00000030: 0000 0000 0000 0000 0000 0000 0000 0000
00000040: 0000 0000 0000 803f 0000 0000 0000 0000
00000050: 0000 0000 0000 0000 0000 0000 0000 0000
00000060: 0000 0000 0000 0000 0000 0000 0000 0000
00000070: 0000 0000 0000 0000 0000 0000 0000 0000
00000080: 0000 0000 0000 0000 0000 803f 0000 0000
00000090: 0000 0000 0000 0000 0000 0000 0000 0000
000000a0: 0000 0000 0000 0000 0000 0000 0000 0000
000000b0: 0000 0000 0000 0000 0000 0000 0000 0000
000000c0: 0000 0000 0000 0000 0000 0000 0000 803f
000000d0: 0000 0000 0000 0000 0000 0000 0000 0000
000000e0: 0000 0000 0000 0000 0000 0000 0000 0000
000000f0: 0000 0000 0000 0000 0000 0000 0000 0000
00000100: 0000 0000 0000 0000 0000 0000 0000 0000
00000110: 0000 803f 0000 0000 0000 0000 0000 0000
00000120: 0000 0000 0000 0000 0000 0000 0000 0000
00000130: 0000 0000 0000 0000 0000 0000 0000 0000
00000140: 0000 0000 0000 0000 0000 0000 0000 0000
00000150: 0000 0000 0000 803f 0000 0000 0000 0000
00000160: 0000 0000 0000 0000 0000 0000 0000 0000
00000170: 0000 0000 0000 0000 0000 0000 0000 0000
00000180: 0000 0000 0000 0000 0000 0000 0000 0000
00000190: 0000 0000 0000 0000 0000 803f 0000 0000
000001a0: 0000 0000 0000 0000 0000 0000 0000 0000
000001b0: 0000 0000 0000 0000 0000 0000 0000 0000
000001c0: 0000 0000 0000 0000 0000 0000 0000 0000
000001d0: 0000 0000 0000 0000 0000 0000 0000 803f
000001e0: 0000 0000 0000 0000 0000 0000 0000 0000
000001f0: 0000 0000 0000 0000 0000 0000 0000 0000
00000200: 0000 0000 0000 0000 0000 0000 0000 0000
00000210: 0000 0000 0000 0000 0000 0000 0000 0000
00000220: 0000 803f 0000 0000 0000 0000 0000 0000
00000230: 0000 0000 0000 0000 0000 0000 0000 0000
00000240: 0000 0000 0000 0000 0000 0000 0000 0000
00000250: 0000 0000 0000 0000 0000 0000 0000 0000
00000260: 0000 0000 0000 803f 0000 0000 0000 0000
00000270: 0000 0000 0000 0000 0000 0000 0000 0000
00000280: 0000 0000 0000 0000 0000 0000 0000 0000
00000290: 0000 0000 0000 0000 0000 0000 0000 0000
000002a0: 0000 0000 0000 0000 0000 803f 0000 0000
000002b0: 0000 0000 0000 0000 0000 0000 0000 0000
000002c0: 0000 0000 0000 0000 0000 0000 0000 0000
000002d0: 0000 0000 0000 0000 0000 0000 0000 0000
000002e0: 0000 0000 0000 0000 0000 0000 0000 803f
000002f0: 0000 0000 0000 0000 0000 0000 0000 0000
00000300: 0000 0000 0000 0000 0000 0000 0000 0000
00000310: 0000 0000 0000 0000 0000 0000 0000 0000
00000320: 0000 0000 0000 0000 0000 0000 0000 0000
00000330: 0000 803f 0000 0000 0000 0000 0000 0000
00000340: 0000 0000 0000 0000 0000 0000 0000 0000
00000350: 0000 0000 0000 0000 0000 0000 0000 0000
00000360: 0000 0000 0000 0000 0000 0000 0000 0000
00000370: 0000 0000 0000 803f 0000 0000 0000 0000
00000380: 0000 0000 0000 0000 0000 0000 0000 0000
00000390: 0000 0000 0000 0000 0000 0000 0000 0000
000003a0: 0000 0000 0000 0000 0000 0000 0000 0000
000003b0: 0000 0000 0000 0000 0000 803f 0000 0000
000003c0: 0000 0000 0000 0000 0000 0000 0000 0000
000003d0: 0000 0000 0000 0000 0000 0000 0000 0000
000003e0: 0000 0000 0000 0000 0000 0000 0000 0000
000003f0: 0000 0000 0000 0000 0000 0000 0000 803f
1.0 0.0 0.0 0.0 0.0 0.0 0.0 0.0
0.0 0.0 0.0 0.0 0.0 0.0 0.0 0.0
0.0 1.0 0.0 0.0 0.0 0.0 0.0 0.0
0.0 0.0 0.0 0.0 0.0 0.0 0.0 0.0
0.0 0.0 1.0 0.0 0.0 0.0 0.0 0.0
0.0 0.0 0.0 0.0 0.0 0.0 0.0 0.0
0.0 0.0 0.0 1.0 0.0 0.0 0.0 0.0
0.0 0.0 0.0 0.0 0.0 0.0 0.0 0.0
0.0 0.0 0.0 0.0 1.0 0.0 0.0 0.0
0.0 0.0 0.0 0.0 0.0 0.0 0.0 0.0
0.0 0.0 0.0 0.0 0.0 1.0 0.0 0.0
0.0 0.0 0.0 0.0 0.0 0.0 0.0 0.0
0.0 0.0 0.0 0.0 0.0 0.0 1.0 0.0
0.0 0.0 0.0 0.0 0.0 0.0 0.0 0.0
0.0 0.0 0.0 0.0 0.0 0.0 0.0 1.0
0.0 0.0 0.0 0.0 0.0 0.0 0.0 0.0
0.0 0.0 0.0 0.0 0.0 0.0 0.0 0.0
1.0 0.0 0.0 0.0 0.0 0.0 0.0 0.0
0.0 0.0 0.0 0.0 0.0 0.0 0.0 0.0
0.0 1.0 0.0 0.0 0.0 0.0 0.0 0.0
0.0 0.0 0.0 0.0 0.0 0.0 0.0 0.0
0.0 0.0 1.0 0.0 0.0 0.0 0.0 0.0
0.0 0.0 0.0 0.0 0.0 0.0 0.0 0.0
0.0 0.0 0.0 1.0 0.0 0.0 0.0 0.0
0.0 0.0 0.0 0.0 0.0 0.0 0.0 0.0
0.0 0.0 0.0 0.0 1.0 0.0 0.0 0.0
0.0 0.0 0.0 0.0 0.0 0.0 0.0 0.0
0.0 0.0 0.0 0.0 0.0 1.0 0.0 0.0
0.0 0.0 0.0 0.0 0.0 0.0 0.0 0.0
0.0 0.0 0.0 0.0 0.0 0.0 1.0 0.0
0.0 0.0 0.0 0.0 0.0 0.0 0.0 0.0
0.0 0.0 0.0 0.0 0.0 0.0 0.0 1.0

flow.flow.transforms.0.x0 f4 [4, 16]
00000000: 823c 36bd 2645 a83d a862 3fbe e478 39be
00000010: 257d f0bb cd82 19bb fb05 193e 81f7 77bd
00000020: 9dd1 1d3e 9be3 3ebe a9ba 033e ce62 2b3e
00000030: bd72 8fbd a902 7fbe c5ab e43d e25e 183d
00000040: 3bda 0b3e f559 c93e 9308 95be acbb 90be
00000050: 33c7 f4bc 18bc 8e3e f43d 343e 5e86 193e
00000060: 1032 aa3e 4d04 113e 530b 3c3d 8821 ba3e
00000070: 66b1 c7bd 6dc9 0a3e 4023 dc3e bf6c e2bc
00000080: 77bf a93e a342 6e3e 37b3 81be 6d9d e9be
00000090: 1dfc 13bf 90a4 be3d dd70 acbe 7ae2 f4be
000000a0: 8342 20bf 52cc d03e 79e0 9fbe 10f6 fabd
000000b0: bd6d ba3e 6535 513e 99be 163f 7df6 0abe
000000c0: e439 5bbd 658c 24be bf2c 9a3e 7b4d bc3e
000000d0: a675 1c3e b82c 623d cc6c 55be a007 1f3e
000000e0: 294c 5cbe e8db 783e f2b1 8abd a1a0 4fbe
000000f0: 816c febd 1791 6a3e ac3f dfbe fc9a 3e3e
-0.0444913 0.08216314 -0.18689978 -0.18112522 -0.007339137 -0.002342391 0.14943688 -0.060538772
0.15411992 -0.18641512 0.12864174 0.1673691 -0.070043065 -0.24903359 0.11165575 0.037199862
0.13657467 0.39326444 -0.29108104 -0.28268182 -0.029880142 0.2787788 0.17601758 0.14992663
0.3324132 0.14161797 0.045909237 0.36353707 -0.09750633 0.135534 0.42995644 -0.027639745
0.3315389 0.23267607 -0.25332043 -0.4562792 -0.5780657 0.093087316 -0.33679858 -0.47829038
-0.6260149 0.40780884 -0.31225947 -0.12253964 0.3641185 0.20430525 0.5888458 -0.1357059
-0.053522006 -0.16069181 0.30112264 0.36777863 0.15279254 0.05521843 -0.20842284 0.15530252
-0.21513428 0.24302638 -0.067722216 -0.20276119 -0.12423039 0.2290691 -0.43603265 0.1861381

flow.flow.transforms.0.alpha_prime f4 [4]
00000000: 1839 0abe 53f4 21bd e755 143d 2b02 18be
-0.13498342 -0.039539646 0.036214735 -0.14844577

flow.flow.transforms.0.beta_prime f4 [4]
00000000: ad8d aa3e aa47 c9bd 0dc6 de3d 30e6 3b3e
0.33311215 -0.09828122 0.10877619 0.18349528

flow.flow.transforms.1.x0 f4 [4, 16]
00000000: 12f1 3f3d 4aab 943c 32cf 6bbd 0d62 63be
00000010: 2ea8 2ebd fa34 eb3d 4c6c 183e c8c3 7ebd
00000020: 5776 3c3e ad3a 52be 4a19 133e 79b3 2a3e
00000030: 9510 03be 3073 5bbe 19cf e23d 6f0f a73c
00000040: 54f1 013e f374 62bd 8a5b d7bd 22f5 2a3d
00000050: cfec 803e d921 c8bd 74f2 413e 20a3 293e
00000060: 2fe9 e8bd 744b b9bd 2dbf cf3d bbee c0bc
00000070: 4ff0 bf3b e35b d03d ade2 37be d33d a8bd
00000080: 4602 78bc 1419 26be ffba 993d 9a3a 123e
00000090: a20b 963e d47e 903c c11e 06bc f50f b83d
000000a0: 6118 233d 2cb0 b5bd 3d97 193e 1216 3ebe
000000b0: 078b 7e3d 2e28 ea3b cd14 8ebe 4a05 a63d
000000c0: 90e9 f0bd f247 e1bd e4e6 14be ae29 02be
000000d0: cb03 07be fde9 37bd ad90 2dbe b9d5 283e
000000e0: 9255 5d3e f526 eabb 05ba 8abe 6f09 62be
000000f0: bdbf 95be 2893 f5bc f564 cfbe 5a16 273e
0.046860762 0.018148083 -0.057570644 -0.22205372 -0.042640857 0.11484714 0.14885062 -0.06219843
0.18404518 -0.20530196 0.14365116 0.16670026 -0.12799294 -0.2143066 0.11074657 0.020393101
0.12689716 -0.055287313 -0.105155066 0.041737683 0.2518067 -0.09772081 0.18940145 0.16566133
-0.11372601 -0.09047595 0.10143886 -0.023551336 0.0058575044 0.10173776 -0.17957564 -0.08214917
-0.015137261 -0.16220504 0.0750637 0.14280167 0.2930575 0.017638601 -0.008186043 0.089874186
0.03981817 -0.08871493 0.14999099 -0.18563107 0.062144306 0.007145903 -0.27750245 0.081064776
-0.117632985 -0.110000506 -0.14541203 -0.12711212 -0.1318504 -0.044900883 -0.1694972 0.16487779
0.21614674 -0.0071457573 -0.27095047 -0.22073911 -0.29247847 -0.029977396 -0.40506712 0.1631712

flow.flow.transforms.1.alpha_prime f4 [4]
00000000: 7d0b c6bc 143e aebe b09f d23d 37f5 c4bd
-0.0241754 -0.34031737 0.10284364 -0.096170835

flow.flow.transforms.1.beta_prime f4 [4]
00000000: be01 8d3e 9319 693e 89b6 2bbe 1fff 14bd
0.27540392 0.22763662 -0.1676885 -0.036376115

flow.flow.transforms.2.x0 f4 [4, 16]
00000000: 4525 9fbe fcba 5e3e 9425 9dbe 5aa3 cd3e
00000010: 067a 43be 04c8 d63e 5103 37be e6d2 283e
00000020: 4b86 bb3e abe5 a1be ee33 8dbe ad10 043e
00000030: 54bf b53e d725 b5be a772 d4be c8d5 a93e
00000040: 181d dd3d 6b6a 95bd 8ffc 32bd ecdd 013d
00000050: ac01 873e 7661 adbd a84b 3b3e 7154 4c3e
00000060: 0336 7abd 5ff6 acbd e69f bd3d 1567 17bd
00000070: 20b9 363d 4f31 023e f9c6 3fbe af7f c1bd
00000080: e3c4 803e d522 103d d3df 89bd d526 8fbe
00000090: 33b2 0abf 871d fbbd af64 a7be 2293 74be
000000a0: bc7e 01bf d3fe 233e fd44 82be adb6 0d3f
000000b0: 42c9 a53e 9f25 aebe a53b e73e 6739 16be
000000c0: 0976 463e 80e6 f73d 9481 80be 1c94 97be
000000d0: b5cd 48be 5264 203b f68e b8bc 22c5 38be
000000e0: 4a7e e4bc b746 5cbe 4f2e 883e d576 803e
000000f0: 727d 283e 2b74 2bbc 84de 253e ebf2 823d
-0.31083122 0.21751016 -0.30692732 0.4016369 -0.19089517 0.41949475 -0.17872359 0.16486701
0.36625895 -0.31620535 -0.27578682 0.12896986 0.35497534 -0.35380432 -0.41493723 0.33170915
0.10796565 -0.07295688 -0.04369789 0.03170578 0.26368463 -0.08465855 0.1829058 0.19954087
-0.061086666 -0.08445429 0.09259014 -0.03696354 0.044610143 0.12714122 -0.18728246 -0.09448182
0.25150213 0.03518947 -0.06732144 -0.27959314 -0.5417816 -0.12261491 -0.32694003 -0.23884252
-0.50584006 0.16015176 -0.2544326 0.55356866 0.3238011 -0.34013078 0.45162693 -0.14670335
0.19380964 0.12104511 -0.2509886 -0.29605186 -0.19609721 0.0024473858 -0.022529107 -0.1804395
-0.02789225 -0.2151135 0.2659783 0.25090662 0.16454104 -0.010464708 0.16198164 0.06393989

flow.flow.transforms.2.alpha_prime f4 [4]
00000000: 5dc4 833c 82a9 7dbd 42e3 8abe 0e6c e7bc
0.016084844 -0.061929233 -0.2712651 -0.028249767

flow.flow.transforms.2.beta_prime f4 [4]
00000000: 404b 103d 3c4b 9c3e 5e1f 0ebd 8637 23be
0.035228014 0.3052615 -0.034697883 -0.1593915

flow.flow.transforms.3.x0 f4 [4, 16]
00000000: aafd 1f3d 3c08 8d3e 0379 90bb 8514 b93e
00000010: 6e15 963e ef84 ee3d de57 8c3e 83c6 753e
00000020: 300c b33e ed90 9fbe 9e95 86bb 4712 5c3e
00000030: 4e0a 893d 71d6 dcbd c391 b1be 5087 8a3e
00000040: ab1b ee3d dfd1 8fbd 2a09 82bd 67e8 1fbd
00000050: 0e69 913e 487e a8bd 32b5 523e a435 3f3e
00000060: 9123 b1bd 89bb a2bd 9751 a63d c922 a2bd
00000070: 15ab 173d b67f 083e 836e 3fbe 8145 e0bd
00000080: a7c0 6c3e d8e8 1d3f f6c2 eebc a5bb 8fbe
00000090: 91d3 08bf 6f03 123e 6ed7 98be c934 9dbe
000000a0: 4f46 86be e522 333e 2d61 88be e9c5 533e
000000b0: defa 9e3e 96fe 78be 0280 f73e 2ea4 493d
000000c0: 5f10 0bbd 5bb0 d2bd 8aca 933e b53f a63e
000000d0: dd2b 053e c7c6 4ebd 3181 fcbd b9c5 d53d
000000e0: 8413 9dbe 2add 813e 9687 98bd 163e 49be
000000f0: 7582 2fbe 4cb3 283e 5124 b4be ad69 1e3e
0.039060272 0.27545345 -0.004408957 0.36148468 0.29313225 0.11646449 0.27410787 0.24001507
0.34970236 -0.31165257 -0.004107191 0.21491347 0.066914186 -0.10783089 -0.3468152 0.2705636
0.11626371 -0.070224516 -0.06349404 -0.039039996 0.28400463 -0.08227211 0.20576933 0.18672806
-0.08649362 -0.07945926 0.08121031 -0.07916791 0.03702839 0.13329968 -0.186945 -0.10950757
0.23120366 0.61683416 -0.029145699 -0.2807285 -0.53447825 0.14259122 -0.2985186 -0.30704334
-0.26225516 0.1749378 -0.2663664 0.20680965 0.3105077 -0.24315867 0.4833985 0.04922884
-0.03395116 -0.102875434 0.28865463 0.3247048 0.13005014 -0.050482538 -0.12329329 0.10438103
-0.30678952 0.25364047 -0.07447736 -0.1965259 -0.17139609 0.16474646 -0.35183957 0.1547

flow.flow.transforms.3.alpha_prime f4 [4]
00000000: b6be 95bc c634 893b 6a26 9fbe 1b6a 8dbe
-0.018279415 0.0041871993 -0.31083995 -0.27620015

flow.flow.transforms.3.beta_prime f4 [4]
00000000: 63f4 ed3b 9f2f 983e 76ca 263e 7b3b 903e
0.007261799 0.29723832 0.1628817 0.2817038

flow.flow.transforms.4.x0 f4 [4, 16]
00000000: 348b 7a3d b485 a5be a1b9 093c c02c df3d
00000010: 53a8 933e 41c9 983e cb9f 02be 57af 00be
00000020: 36a3 e2be 8f8e 993e 8caa 123e 2acd 35be
00000030: 45b3 87bd 475c 9b3e 7ea8 c13d 6f43 0abe
00000040: 6b35 c73d 9558 c8bd 3004 75bd 10e0 593c
00000050: 866c 9a3e 4f21 93bd ee31 7e3e ae11 4ebd
00000060: 5461 46bd 016a f7bd c72c 943d 49ae 47bd
00000070: 649a c93c 7de5 063e a259 69be 9011 0fbe
00000080: fb24 fd3e 27c9 113f cc80 84be 2280 aabe
00000090: baf7 7bbd 32fd 853e 1fff d43d e223 81be
000000a0: dc22 00bf ff3a e4bd 86d7 8ebd b443 0e3f
000000b0: e616 703e c6eb 8c3d ea88 7d3e 02f5 7dbe
000000c0: 0809 d7bd f8c7 99bd 6449 873e 0aab af3e
000000d0: 6a73 183e b026 6fbc 3c14 08be 5772 53bd
000000e0: 42c4 95be e3ac a13e f134 c5bd b051 56be
000000f0: 2a11 3abe 6759 4a3e 619f d0be 2bf4 3b3e
0.06116791 -0.3232857 0.008406074 0.10897207 0.2883936 0.29841045 -0.12756269 -0.12566887
-0.44265145 0.29991576 0.14322871 -0.17754045 -0.0662599 0.3034384 0.094559655 -0.13502286
0.097269855 -0.09782521 -0.059818447 0.01329805 0.30160922 -0.071840875 0.24823734 -0.05030983
-0.048432663 -0.120807655 0.07235103 -0.048750196 0.024609752 0.1317348 -0.22788098 -0.13971543
0.49442276 0.5694756 -0.25879514 -0.33300883 -0.061515547 0.26169735 0.10400223 -0.2522269
-0.5005319 -0.11144065 -0.069747016 0.55572057 0.23446235 0.06880908 0.2475926 -0.24800494
-0.104997694 -0.07508844 0.2642318 0.3431018 0.14887777 -0.014596626 -0.13288969 -0.051622715
-0.29251295 0.31577215 -0.096292384 -0.20929599 -0.1817061 0.19760667 -0.40746596 0.18354861

flow.flow.transforms.4.alpha_prime f4 [4]
00000000: f062 483e 8bb0 c33c c9a3 29be c342 80be
0.19568992 0.023887893 -0.16566385 -0.25050935

flow.flow.transforms.4.beta_prime f4 [4]
00000000: 2579 483d 9006 593e 27f9 523d baa9 833e
0.048943657 0.2119391 0.05150714 0.2571543

flow.flow.transforms.5.x0 f4 [4, 16]
00000000: 665f b53c b594 943d 7f1d 20be 9528 3fbe
00000010: 03d7 b03b cc75 163c 71d7 f63d 16bf bebd
00000020: dc36 403e 60e8 38be 330e 1f3e 66d0 c13d
00000030: 550e febc 2009 6dbe 04a9 af3d 6f25 523d
00000040: 3607 d93d 9d31 33bd f8bf 6f3d ce0f 30bd
00000050: 4ee4 e43d 0054 a8bd 1f55 5b3e cbaf 313e
00000060: 5daf afbd e71a 6ebd 9c0e 923d 1acc 4fbc
00000070: c826 8fbd b694 ad3d ac41 33be 9631 9ebd
00000080: 3c45 6339 c721 183f 860e febd e409 8bbe
00000090: 7487 0cbf 63dc b13d 9bbe 9dbe a548 87be
000000a0: 31f9 a3be 9c8f ea3d 535f 7cbe 806a c63e
000000b0: 95ab 8a3e 75b8 6bbe e82b f13e 003f 9b3c
000000c0: faae edbd 2587 34be 5fb3 2ebd d13c c63e
000000d0: 7a7a 023e 61c3 0fbb 4736 37be 5d5d aa3d
000000e0: 661a 71be bdda a33e 0fd2 7cbd 6d97 80be
000000f0: 22d2 59be 06c8 4d3e 3ea2 d6be f007 203e
0.022140216 0.07254926 -0.15636252 -0.18667825 0.005396725 0.009183358 0.12052811 -0.093137905
0.18770927 -0.18057394 0.1553276 0.09463577 -0.031012693 -0.23148012 0.08577159 0.05130523
0.105970785 -0.043748487 0.058532685 -0.042983823 0.11176358 -0.08219147 0.2141919 0.17352216
-0.0857837 -0.058131125 0.07131693 -0.012682939 -0.06989819 0.0847563 -0.1750552 -0.077243015
0.00021674199 0.5942654 -0.12405114 -0.27155983 -0.54894185 0.086846136 -0.30809483 -0.2642261
-0.32026055 0.114531726 -0.24645738 0.38753128 0.27084032 -0.23019584 0.4710381 0.01895094
-0.1160564 -0.17629679 -0.04265153 0.38718274 0.12742034 -0.0021936523 -0.17891799 0.08318589
-0.23545226 0.32002822 -0.061723765 -0.2511553 -0.21271566 0.20095834 -0.41920656 0.15628028

flow.flow.transforms.5.alpha_prime f4 [4]
00000000: 41b1 57be 455f a5be 4066 93be c970 80be
-0.21063711 -0.32299247 -0.28788948 -0.25086048

flow.flow.transforms.5.beta_prime f4 [4]
00000000: 56dd 463e d325 4cbd f869 353e 5049 4a3e
0.1942037 -0.04984076 0.17716205 0.19754529

flow.flow.transforms.6.x0 f4 [4, 16]
00000000: 32fe 7ebe c220 013e f706 36be 7252 98bc
00000010: f973 2bbd 72aa bc3e 2850 a2bd 844c 3bbe
00000020: 4cf5 b93e 54c8 34be e511 c63e a440 74be
00000030: 3210 8cbe a4fb aebe 150f a93e 979c 6a3e
00000040: ea21 bebc a20d d6bd 81f4 3ebd fc8c 5d39
00000050: 13ad a43e 3221 bcbd 00cc b8bc 108f 1c3e
00000060: d708 b53d 1fbb 24be 3689 173e 4375 40bd
00000070: 1c6f 233e 4277 1a3e 0d2f 76be 3458 48be
00000080: 10b8 893d 35d3 163f f81e 1abd b4b5 84be
00000090: 1919 05bf a9fd 81bc ca32 61be 32fd 69be
000000a0: 9318 ddbe 624d 143d 16bc 95be a2d2 6ebc
000000b0: 39fe 993e bddd 75be fd72 ed3e 246e 0dbe
000000c0: 6980 2c3b 40f9 34bd 9f5e 4f3d 6f0b 3dbe
000000d0: 8876 51be a8f1 b3bd fc02 0c3e 0db6 f6bd
000000e0: 6cfb 63bd 8fa9 e73e f14b 47be a4a4 93bd
000000f0: e1ec 82be f0e1 f4bd c153 b6be 66a6 08be
-0.24901655 0.12610152 -0.17776094 -0.018594 -0.041858647 0.3684879 -0.07925445 -0.18290907
0.3631996 -0.17654544 0.38685527 -0.23852783 -0.27356106 -0.34176362 0.3301932 0.22911297
-0.02320953 -0.10451819 -0.046619896 0.00021128723 0.32163295 -0.09186019 -0.022558212 0.15288949
0.08839577 -0.16087006 0.14798436 -0.04698683 0.15960354 0.15084556 -0.24041386 -0.19564897
0.0672456 0.58916026 -0.03762719 -0.25919878 -0.5199142 -0.015868025 -0.2199203 -0.22850493
-0.4318281 0.03620661 -0.2924506 -0.014576586 0.3007677 -0.24010368 0.46376792 -0.13811547
0.0026321656 -0.044183016 0.050627347 -0.18461393 -0.20455372 -0.08786327 0.13673013 -0.12046442
-0.055659696 0.4524655 -0.19462563 -0.07209137 -0.2557135 -0.11957157 -0.35610774 -0.13344726

flow.flow.transforms.6.alpha_prime f4 [4]
00000000: b8ac fc3d 48b2 98be 5c57 86bb c45b 2d3d
0.12337631 -0.29823518 -0.0040997695 0.042323843

flow.flow.transforms.6.beta_prime f4 [4]
00000000: 1d68 303e b354 17be 0020 863e 935e af3d
0.17227216 -0.14778404 0.2619629 0.085629605

flow.flow.transforms.7.x0 f4 [4, 16]
00000000: 8868 53be 23df 6cbe 9d31 07be 1212 60bc
00000010: 620e 0dbe 454d 52be 800f 08be b1d8 21be
00000020: 2973 b83e 6866 623e 73ce 31be ec32 8fbe
00000030: 4f45 90be aa72 46be a352 833d 3cb3 963e
00000040: f253 67bd 5736 f43e be43 a03d a9e7 8fbe
00000050: c523 d3be 9cbe 993d 354a 45be 7d4b 73be
00000060: 7c8b a6be 6d5b a7bd 2359 523e cd80 023e
00000070: fa34 8ebd 0c4d 0fbd e356 a13e dff6 863e
00000080: 952e eb3d 68bc 0e3f 5eb5 91bd 9901 74be
00000090: ddcf f8be a643 713d ccb4 9bbe d2a8 6cbe
000000a0: 3ff5 85be 7f9e 0d3e d8fa 56be 4ab4 d53e
000000b0: 13ff 7c3e 4ab9 2ebe ed97 b43e 657f b4bc
000000c0: cba1 fa3e 1a59 103e 1e01 7cbd 77ef c4be
000000d0: b26d 9cbe 6eba d93d 834a 28be 827b 9cbe
000000e0: af54 173e 7de7 d0be 9a1b 01be 1998 7b3e
000000f0: be07 7cbb dd21 cd3d 2b1c c43e 8625 163e
-0.20645344 -0.23131995 -0.1320252 -0.013676183 -0.13775018 -0.20537288 -0.13287163 -0.15805317
0.3602536 0.22109377 -0.1736391 -0.27968538 -0.28177878 -0.19379678 0.06412246 0.2943362
-0.05647654 0.47697708 0.07825421 -0.2810643 -0.41238227 0.07507059 -0.19266589 -0.23759265
-0.32528293 -0.08171735 0.20541815 0.12744446 -0.06943698 -0.034985587 0.31511602 0.26360223
0.11483494 0.55756235 -0.07114671 -0.23828734 -0.48596087 0.058902405 -0.30411375 -0.23111275
-0.2616367 0.13829993 -0.20994127 0.41739112 0.24706678 -0.1706287 0.3527216 -0.022033403
0.48951563 0.1409649 -0.061524503 -0.38463947 -0.3055244 0.10631262 -0.16434674 -0.3056298
0.14778398 -0.40801612 -0.12608185 0.2456974 -0.0038456763 0.100162245 0.3830274 0.14662752

flow.flow.transforms.7.alpha_prime f4 [4]
00000000: 83e5 ad3d d446 e83d 3172 d2bd 2b20 ef3d
0.084910415 0.113416344 -0.102756865 0.116760574

flow.flow.transforms.7.beta_prime f4 [4]
00000000: 953f de3d 63c5 48be 2acc 263e 5761 123d
0.10851971 -0.19606547 0.1628882 0.03573736

flow.flow.transforms.8.x0 f4 [4, 16]
00000000: 820e 37bd 6cfd 11be b3a0 adbd b300 18be
00000010: f1e2 8d3c 64b7 6bbc 7f9b 453e e9c9 1ebe
00000020: 82c0 ee3d e4c5 e0bc 4367 c4bd 637b 493e
00000030: 79a7 6bbd 383a c8bd 6b2b 423e 96dc babb
00000040: 0f36 f7bd c764 39bd 7c44 28be 5e7a 9cbe
00000050: ebb4 d53d a6e6 443e db2e f63d 833d 0c3c
00000060: abf8 aa3e 19b1 2cbe de6e 863e 85aa f13e
00000070: 619a 253e c959 fabe e861 863e 19b1 c03e
00000080: fb4c 0ebd 02ea 64be c76c 223e de97 6b3e
00000090: 97f7 b93e bce9 d93d e86e d13d 6f43 8b3e
000000a0: d1e4 fa3a c4a4 c7bc 8f66 cdbd aa81 4dbe
000000b0: 0908 1cbe 9b77 a33d 254c cfbe 04bd cabd
000000c0: 2f00 5dbe 6019 ef3e 7adb 89bd 5ad2 1dbd
000000d0: fd69 aa3d 4033 65be b080 f33b 5569 67bd
000000e0: 0a86 5d3e dc59 84bd 96c5 a73e e791 143f
000000f0: d57f 833e e70e b2be db72 f33c 4405 afbe
-0.04469157 -0.14256829 -0.084779166 -0.14844017 0.017320128 -0.014386985 0.19297598 -0.1550671
0.11657812 -0.027438112 -0.09590008 0.19675975 -0.05753276 -0.09776729 0.18961875 -0.0057025654
-0.12070858 -0.045262124 -0.16432375 -0.3056211 0.10434898 0.1922861 0.12020656 0.008559587
0.33392844 -0.16864432 0.2625646 0.4720041 0.16172172 -0.48896626 0.26246572 0.37635115
-0.034741383 -0.22354892 0.15861808 0.23007151 0.3632171 0.106402844 0.10226232 0.27199885
0.0019141679 -0.024370559 -0.10029327 -0.20068994 -0.1523744 0.07981797 -0.4048778 -0.09899333
-0.21582101 0.46699047 -0.06731315 -0.038530685 0.08320997 -0.22382832 0.007431112 -0.056496937
0.21633163 -0.06462452 0.32767934 0.5803513 0.25683466 -0.34776995 0.029717853 -0.34183705

flow.flow.transforms.8.alpha_prime f4 [4]
00000000: 18cf 5ebe c09f 203e 0858 03be 11b9 a73d
-0.21758687 0.1568594 -0.1282655 0.081895955

flow.flow.transforms.8.beta_prime f4 [4]
00000000: 2b81 30bc e3fd 2bbe d043 94be 321e 30bd
-0.010772984 -0.16796069 -0.28957987 -0.042997546

flow.flow.transforms.9.x0 f4 [4, 16]
00000000: 8c1e 933c cdb9 513d 0448 28be ab8f 25be
00000010: 4af6 dcbb 3e5c b7bb fae6 bf3c 1872 89bd
00000020: d659 003e 7905 93bd 61ee 92bd f3b5 8d3d
00000030: bcce d1bd 1727 56be af3c da3d d7e2 94bd
00000040: fef8 963d 7585 3fbe 73b1 dabd dbd8 c0bd
00000050: cf47 a03e 189b 4f3d 42c9 c53d 8e12 223e
00000060: 9f79 183e 895b 49be 7c0d 963d 71b6 7cbd
00000070: 1047 743d 29c4 0a3e 5ef8 3ebe a50b ecbd
00000080: d3a6 423e 3616 173f c81d 88be 50dc babe
00000090: 58fc d8be 4af1 16be b5d6 3dbe 244d 52be
000000a0: 2f2b 973d 99b9 083e 44a4 68be 6077 0b3f
000000b0: 92a7 7c3e eb40 533d 8e2e 573e 6b8b 64be
000000c0: ef15 37be 9068 313e 7c54 e3bd 79b6 7cbd
000000d0: 0e11 9ebe 0e06 b13d 3801 04be 80db 9c3b
000000e0: 948b 563e 5f55 c2be 04cb cc3c a1f4 7ebd
000000f0: 3d21 983e 55dc a0be 05b3 d83e 6f20 b5be
0.017958902 0.051202584 -0.16433722 -0.16168086 -0.006743227 -0.005595713 0.023425568 -0.06711215
0.1253427 -0.07178778 -0.071743734 0.0691947 -0.102445096 -0.20913349 0.10656106 -0.07269829
0.0737171 -0.18703254 -0.10678377 -0.09416362 0.31304786 0.05068502 0.096575275 0.1582739
0.14890145 -0.19663824 0.07326791 -0.061697427 0.059638083 0.13551392 -0.18649432 -0.115256585
0.19008951 0.59018266 -0.2658522 -0.3649621 -0.42380023 -0.14740482 -0.18538935 -0.2053724
0.073812835 0.1335205 -0.22718912 0.54479027 0.24673298 0.051575582 0.21013853 -0.22318809
-0.17879461 0.17325044 -0.111000985 -0.061697457 -0.30872387 0.08643733 -0.1289109 0.0047869086
0.20951682 -0.37955758 0.02499915 -0.062245015 0.2971286 -0.314181 0.4232408 -0.35376307

flow.flow.transforms.9.alpha_prime f4 [4]
00000000: 420f 45be e12f 0e3e 62ee 3dbe 9ae1 c73d
-0.19244102 0.13885452 -0.18547967 0.09759827

flow.flow.transforms.9.beta_prime f4 [4]
00000000: 4899 073e eee4 933e 2be9 d23d 5665 84bd
0.13242066 0.28885597 0.102983795 -0.06464641
