saved_experiments/ood_loc/GPN/1/model_10.pt (torch, 759609 bytes, 36 tensors)

input_encoder.0.weight f4 [64, 2879]
-6.055505e-05 3.6810874e-05 -0.00020698269 -0.0011641708 -2.8854614e-05 0.0001532904 1.3109166e-05 -6.618566e-05
0.00021781411 -0.00016972146 0.00010321117 -0.00010063606 -0.000109309025 0.00017352254 0.00013720337 -6.1454e-05
-0.00012838807 -3.8042846e-05 6.418315e-05 0.00010804977 0.00011789916 0.00014219752 3.4932957e-05 -5.027903e-05
-0.0010086701 5.174532e-05 2.4947461e-05 -7.114425e-05 -4.7388592e-05 -4.932313e-05 -4.8865033e-05 -8.978788e-05
-0.00012168283 8.354651e-05 0.00011884836 -0.0002317664 -1.00324105e-05 9.463378e-05 -4.3437198e-05 0.000100462945
-0.00018440158 -0.000109220135 -0.00012779137 -0.000100316436 4.6923327e-05 3.485773e-06 4.3118893e-05 -0.0001051849
0.00017105468 -5.6336772e-05 -6.342445e-05 9.096402e-06 4.54973e-05 -1.534709e-05 1.8982078e-05 1.9157364e-05
-3.3353695e-05 -8.9374524e-05 9.300082e-05 7.6224445e-05 -6.607825e-05 -4.1115563e-06 -0.00013494203 -6.35398e-05
-0.00012392193 2.2824799e-05 -0.00012595471 8.2368984e-05 0.000106324565 0.00012201841 0.00013409843 -4.59895e-05
2.1367305e-06 2.5240926e-05 -8.788207e-05 6.1400606e-05 0.000102048 6.73571e-05 -0.00010500291 0.0001802461
0.00014230498 0.00019428483 9.296722e-05 7.283922e-05 0.00010918343 -9.069915e-05 0.00019660356 -9.461792e-05
8.230822e-05 0.000100732585 -9.458717e-05 0.00018761051 -8.480625e-05 -0.00013016944 -0.00018995558 9.411422e-06
2.8318078e-05 0.000119279175 -1.5228157e-05 -7.15768e-05 0.00013587967 0.0001290633 0.00010841631 -0.00011671796
-9.350669e-05 0.00011180067 6.33018e-05 0.000108301676 2.6492246e-05 -0.00014018454 -0.00014889793 -2.1203581e-05
4.494996e-05 2.1246844e-05 -3.3910674e-05 -1.4574216e-05 0.00023173829 0.00023158023 9.805539e-06 -1.8754872e-06
4.7906273e-05 0.00022017155 -0.00023199471 -0.000100519916 9.618191e-05 -8.1599865e-08 9.8471624e-05 2.1702937e-05
-6.905588e-05 0.0001860633 -9.675175e-05 -1.3159472e-05 0.00011981591 0.00014522023 -9.2245165e-05 -0.00012129636
-4.8937603e-05 -0.00016901779 0.0001518185 0.000112122754 8.6249456e-05 0.00017426368 -0.00019970491 0.00022449855
-9.46674e-05 7.484966e-05 0.00015673085 -0.00013584254 7.190924e-05 4.2122374e-05 0.00012822678 7.9456404e-05
9.518798e-05 0.00013758296 4.8105234e-05 7.741974e-05 0.00014504418 6.7168585e-06 -0.00017208402 0.00021042592
-9.53004e-05 0.00013971044 4.31123e-05 -1.2502423e-06 -4.416219e-05 -8.5688196e-05 9.78211e-06 -9.491461e-05
-2.78843e-05 6.280175e-05 8.312464e-05 -0.000118550786 0.0001595243 0.0001447258 0.00019110447 -1.9472267e-05
0.00019440893 0.00015151846 -8.012089e-05 0.000112886104 -0.00013853033 7.892217e-05 -0.00014242553 -8.188697e-05
7.495115e-05 5.2949326e-06 -9.5244664e-05 -0.0001348287 -5.7721925e-05 3.7728754e-05 -0.00013492392 -5.9800026e-05
-1.9129933e-05 0.00012582526 -0.000146206 3.3681354e-06 0.00012677518 6.8234214e-05 9.350956e-05 0.000106336905
-0.00019948815 6.7394445e-05 -0.00021438369 -0.00013177909 -5.7113313e-05 5.9404003e-05 1.3010889e-05 -0.00015276007
0.00010824249 0.0001907563 -4.1504627e-05 0.00017183485 -0.000103546365 2.4242581e-05 -3.698784e-05 -3.701923e-05
-0.00019598159 -1.8295308e-05 -7.5284e-05 -4.27024e-05 0.00010445143 0.0001302347 -5.4348973e-05 -7.752272e-05
-4.383277e-06 7.39829e-05 7.6958e-05 -0.000117137766 1.3866447e-05 -7.9706595e-05 0.00022168021 0.00013907504
-0.00012954223 3.3691394e-06 9.88056e-05 4.0696614e-05 0.00013578826 0.00014697261 -5.682691e-05 -8.2419625e-05
0.00016090262 1.640943e-05 0.00020708593 9.555854e-05 0.000115756506 3.883237e-06 -9.8210374e-05 0.00014014918
0.00010114876 -0.00012433689 -6.55512e-05 7.3392002e-06 4.415126e-05 -0.0001085119 -8.549112e-05 5.9023714e-05
00000000: 7dfc 7db8 6065 1a38 7e09 59b9 1797 98ba
00000010: d00c f2b7 94bc 2039 70ef 5b37 28cd 8ab8
00000020: 0865 6439 42f7 31b9 1373 d838 930c d3b8
00000030: d63c e5b8 9af3 3539 40de 0f39 dde0 80b8
00000040: e99f 06b9 3290 1fb8 119a 8638 c798 e238
00000050: a140 f738 db1a 1539 fa84 1238 b3e2 52b8
00000060: 5a35 84ba 1d09 5938 4446 d137 4733 95b8
00000070: 1dc3 46b8 4fe0 4eb8 6ef4 4cb8 804c bcb8
00000080: f92f ffb8 b135 af38 3a3e f938 5206 73b9
00000090: e050 28b7 2076 c638 5630 36b8 a2af d238
000000a0: ec5b 41b9 1d0d e5b8 bcff 05b9 fa60 d2b8
000000b0: 8acf 4438 20ed 6936 8fda 3438 b796 dcb8
000000c0: 245d 3339 264b 6cb8 be02 85b8 c09c 1837
000000d0: 5bd4 3e38 a0bd 80b7 b43b 9f37 20b4 a037
000000e0: 42e5 0bb8 956e bbb8 6f09 c338 b0da 9f38
000000f0: 7e93 8ab8 00f6 89b6 3a7f 0db9 ac40 85b8
00000100: 0af1 01b9 e277 bf37 b612 04b9 83bd ac38
00000110: 91fa de38 23e4 ff38 c69c 0c39 dae4 40b8
00000120: c064 0f36 7abc d337 544d b8b8 33c4 8038
00000130: 9a02 d638 1142 8d38 0235 dcb8 7200 3d39
00000140: b437 1539 f0b8 4b39 65f7 c238 42c1 9838
00000150: 68f9 e438 bc35 beb8 5e27 4e39 9c6d c6b8
00000160: e49c ac38 6540 d338 1a5d c6b8 50b9 4439
00000170: 02da b1b8 187e 08b9 d02e 47b9 c0e5 1d37
00000180: 9c8c ed37 8525 fa38 707c 7fb7 801b 96b8
00000190: ec7a 0e39 2a55 0739 905d e338 7ac6 f4b8
000001a0: 0619 c4b8 8776 ea38 e5c0 8438 0520 e338
000001b0: aa3b de37 80fe 12b9 7c21 1cb9 58de b1b7
000001c0: a788 3c38 403b b237 4f3b 0eb8 c883 74b7
000001d0: c6fe 7239 58d4 7239 7882 2437 40b9 fbb5
000001e0: f8ee 4838 dadd 6639 9b43 73b9 38ce d2b8
000001f0: 45b5 c938 003c afb3 8d82 ce38 b40e b637
00000200: 18d2 90b8 fd19 4339 33e7 cab8 80c7 5cb7
00000210: ad45 fb38 4246 1839 bf73 c1b8 7d60 feb8
00000220: 5a42 4db8 5e3a 31b9 7831 1f39 7223 eb38
00000230: d3e0 b438 8dba 3639 e167 51b9 5f67 6b39
00000240: 2c88 c6b8 9bf8 9c38 1e58 2439 f470 0eb9
00000250: fbcd 9638 8eac 3038 9d74 0639 d5a1 a638
00000260: a89f c738 2544 1039 9ac4 4938 685c a238
00000270: 0017 1839 6061 e136 7471 34b9 c7a5 5c39
00000280: 03dc c7b8 3c7f 1239 7bd3 3438 00ce a7b5
00000290: ca3a 39b8 80b3 b3b8 d81d 2437 e50c c7b8
000002a0: 14e9 e9b7 6fb4 8338 3453 ae38 789e f8b8
000002b0: fa45 2739 89c1 1739 3763 4839 6058 a3b7
000002c0: 40da 4b39 ede0 1e39 9306 a8b8 44bd ec38
000002d0: 7442 11b9 0483 a538 1058 15b9 bbba abb8
000002e0: 182f 9d38 20ab b136 17be c7b8 ce60 0db9
000002f0: 721a 72b8 f13e 1e38 5d7a 0db9 cad1 7ab8
00000300: 3879 a0b7 f6ef 0339 e04e 19b9 2008 6236
00000310: f4ee 0439 f718 8f38 901a c438 3101 df38
00000320: b12d 51b9 1e56 8d38 2fcc 60b9 2e2e 0ab9
00000330: f48c 6fb8 9028 7938 5849 5a37 382e 20b9
00000340: 3f00 e338 c105 4839 4115 2eb8 912e 3439
00000350: 0827 d9b8 8c5c cb37 6423 1bb8 1845 1bb8
00000360: 6880 4db9 e078 99b7 cae1 9db8 5a1b 33b8
00000370: ef0c db38 9c8f 0839 c4f4 63b8 b293 a2b8
00000380: 1014 93b6 4427 9b38 8364 a138 dca7 f5b8
00000390: f0a3 6837 2728 a7b8 d472 6839 acd4 1139
000003a0: bad5 07b9 6019 6236 da35 cf38 a8b1 2a38
000003b0: 6262 0e39 a91c 1a39 6e59 6eb8 b3d8 acb8
000003c0: f8b7 2839 fca6 8937 3525 5939 9a66 c838
000003d0: 4dc2 f238 c04c 8236 4bf6 cdb8 02f5 1239
000003e0: d41f d438 6e60 02b9 8878 89b8 4043 f636
000003f0: 0e2f 3938 e290 e3b8 b249 b3b8 3b90 7738

input_encoder.0.bias f4 [64]
-0.010473861 -0.048524674 0.002368655 -0.0041177687 -0.05050057 0.0059482865 -0.018699268 0.029436449
0.018370733 -0.012214843 -0.015599814 0.0040450487 0.016653826 0.002113075 -0.047200218 0.02198119
-0.04883969 -0.048552796 0.022338174 -0.05155922 0.024866575 -0.03578458 -0.028637487 0.00019302208
0.012302603 -0.061519284 -0.00037264975 -0.052352108 -0.052628253 0.013022101 -0.039883167 0.022431007
0.01851509 0.008146085 0.015258822 0.040899556 -0.043695908 -0.012914279 -0.0032675955 -0.005691228
-0.003474225 -0.052383017 -0.0109445695 0.03991321 -0.070591554 0.027569355 -0.055721745 -0.016137606
-0.005236676 0.03614619 0.03527406 -0.00960236 0.015731746 0.005071155 -0.021522326 -0.020253517
-0.06056832 0.01214159 0.02867635 -0.02025066 0.020218885 -0.04200938 0.0017964361 -0.06464875
00000000: 8f9a 2bbc cfc1 46bd 703b 1b3b 59ee 86bb
00000010: b0d9 4ebd d8e9 c23b 352f 99bc b524 f13c
00000020: 387e 963c c420 48bc 5d96 7fbc 548c 843b
00000030: 9b6d 883c 847b 0a3b 0455 41bd e611 b43c
00000040: 200c 48bd 4cdf 46bd 8cfe b63c c32f 53bd
00000050: fdb4 cb3c da92 12bd 2a99 eabc f865 4a39
00000060: db90 493c a5fb 7bbd 3460 c3b9 2a6f 56bd
00000070: b990 57bd a65a 553c 885c 23bd 3bc1 b73c
00000080: f5ac 973c 2877 053c 2300 7a3c 4b86 273d
00000090: 7bfa 32bd 6996 53bc 2825 56bb 7b7d babb
000000a0: d3af 63bb 938f 56bd da50 33bc 097c 233d
000000b0: 4e92 90bd 21d9 e13c 7c3c 64bd 0333 84bc
000000c0: 6c98 abbb 070e 143d 887b 103d 3853 1dbc
000000d0: dddf 803c ee2b a63b 974f b0bc b4ea a5bc
000000e0: 7d16 78bd 85ed 463c aaea ea3c b6e4 a5bc
000000f0: 13a2 a53c 0712 2cbd 6576 eb3a 9066 84bd

latent_encoder.weight f4 [16, 64]
3.8525905e-05 0.15390809 0.073742 -0.24174733 0.09615859 -0.11054492 -0.03520931 0.20972677
-0.17139938 0.23238602 0.12783621 0.38200465 0.41128254 0.17960596 0.109346345 0.1915636
0.009222623 -0.026035922 -0.33385056 -0.056983743 -0.1855376 0.09214722 0.31620026 -0.29448912
0.34946805 0.0012189638 0.20812199 -0.055417206 0.007923736 -0.09242109 0.0107227955 0.06494314
0.22927842 -0.05476446 -0.110166036 0.34957805 0.1634416 -0.1645548 -0.24733022 0.09791449
-9.158549e-05 -0.03378224 0.2576321 0.27281582 -0.0009531621 -0.2692942 -0.048183575 0.22623236
0.16900516 0.3305934 0.020628624 -0.00055468717 0.18440607 -0.1356921 -0.12287033 -0.00011603607
-0.0031750707 -0.085448675 0.29479223 0.053573687 0.054567207 0.16147733 -0.16217722 0.106965065
-0.00083741726 -0.045903213 -0.004579932 0.029724909 -0.07843283 -0.014840096 0.10412459 0.1915167
0.20320573 0.086348444 0.09844983 0.06348267 0.16197424 0.038434 -0.002296051 0.07680696
-0.058082502 -0.013624536 0.082048096 -0.046212275 0.21431094 0.06552128 0.026273005 -0.0034828153
0.05551301 0.00080974353 0.12938248 -0.052689124 -0.06990135 -0.030577397 -0.08700675 0.20949456
-0.0359975 0.116433084 0.0089189615 0.08190183 -0.06077048 0.0038801034 0.18717842 -0.052775238
-0.0005762296 -0.010508249 0.0077169524 -0.00763149 -0.00040941813 0.20928547 -0.095633276 0.03437162
0.102576055 0.018737277 0.021057345 0.00011584736 0.021821147 0.010843315 0.07694826 -0.000909577
-0.023435596 0.12113212 -0.027996603 -0.0132825645 0.033896662 0.059951857 -0.002160446 -0.056454334
-0.00064683496 -0.07282793 0.28230256 0.16241494 0.017662575 0.22168487 -0.07138395 0.035903707
-0.30976632 0.21321361 0.3048464 0.09826026 0.23181185 0.13372871 -0.059801757 0.11047766
0.0504019 0.01436904 -0.050457813 0.05691381 -0.34874958 -0.053755756 0.22401199 0.29527637
0.2639255 -0.019968847 0.2762472 0.0015355278 0.022132777 0.27418673 -0.08850561 -0.11559108
0.12385327 -0.31359494 0.19668543 0.16455929 0.13960715 0.30149361 -0.36913106 0.29345548
-0.00066887867 -0.0065524564 0.26855785 0.040548157 0.00015553925 -0.34079182 0.01702 0.059787374
0.0141389975 0.05386316 -0.0727605 0.001420245 -0.061633915 0.28959364 -0.05681204 0.0013218534
-0.008570239 -0.12318137 0.23608506 0.2791948 0.17240858 -0.016615046 0.047258183 0.0042705494
0.00094491994 0.066493884 -0.15980163 0.14272556 0.036273267 -0.053630088 0.20725685 0.17279845
0.37217155 -0.21215537 -0.13445026 -0.24871784 -0.27387357 -0.030484693 0.0065684477 -0.12133696
-0.174054 0.033651855 0.27018008 -0.09232349 0.33559808 0.025724228 -0.18665622 0.10365648
-0.17482199 -0.0010072853 -0.09009485 -0.00652697 -0.09840901 -0.09531515 -0.046405893 0.33924913
-0.2101244 0.29699418 -0.08000074 -0.16197598 -0.17081746 0.051351 0.34446034 -0.14538516
0.00013883656 0.019118425 -0.26379123 -0.20008479 -0.002033052 0.3075523 -0.1339918 0.11689623
0.1163195 -0.19151238 0.12200694 -0.0004640166 0.012544769 0.027944932 0.15857746 0.00056707894
-0.07664369 0.24336615 -0.2407246 -0.10670296 0.044767864 0.009983616 0.16296457 0.00025169374
00000000: e096 2138 159a 1d3e 0c06 973d 9d8c 77be
00000010: cbee c43d 6065 e2bd a337 10bd 9dc2 563e
00000020: 5283 2fbe 9af6 6d3e 7fe7 023e 1d96 c33e
00000030: a093 d23e a0ea 373e faf0 df3d 4029 443e
00000040: 7c1a 173c 4949 d5bc 76ee aabe c967 69bd
00000050: 92fd 3dbe afb7 bc3d 00e5 a13e 47c7 96be
00000060: 7aed b23e a3c5 9f3a ee1d 553e 27fd 62bd
00000070: 8fd2 013c 4547 bdbd aaae 2f3c e900 853d
00000080: f6c7 6a3e b350 60bd bb9e e1bd e5fb b23e
00000090: 3c5d 273e 0e81 28be 2244 7dbe 6487 c83d
000000a0: 9611 c0b8 3f5f 0abd 5be8 833e 84ae 8b3e
000000b0: a0dd 79ba eee0 89be 245c 45bd 75a9 673e
000000c0: b00f 2d3e 8a43 a93e 5cfd a83c 6d68 11ba
000000d0: f2d4 3c3e dff2 0abe 71a3 fbbd 6458 f3b8
000000e0: d914 50bb b7ff aebd 02ef 963e 1570 5b3d
000000f0: dd81 5f3d 505a 253e c911 26be 8010 db3d
00000100: 1f86 5bba 0205 3cbd 4113 96bb a781 f33c
00000110: 64a1 a0bd e023 73bc 463f d53d f41c 443e
00000120: 2a15 503e 74d7 b03d 11a0 c93d 3403 823d
00000130: 93dc 253e f86c 1d3d 5879 16bb f84c 9d3d
00000140: ebe7 6dbd 7239 5fbc d508 a83d 1549 3dbd
00000150: 5474 5b3e 0530 863d 7c3a d73c f23f 64bb
00000160: 9c61 633d f844 543a d77c 043e 8dd0 57bd
00000170: 7028 8fbd 737d fabc 9830 b2bd be85 563e
00000180: 1d72 13bd 7874 ee3d d620 123c 26bc a73d
00000190: 78ea 78bd 5549 7e3b b3ab 3f3e d92a 58bd
000001a0: 1d0e 17ba ca2a 2cbc 7dde fc3b 9411 fabb
000001b0: 2ca7 d6b9 ee4e 563e 61db c3bd 41c9 0c3d
000001c0: 6513 d23d eb7e 993c 7480 ac3c 14f3 f238
000001d0: 43c2 b23c 29a8 313c 0d97 9d3d ae70 6eba
000001e0: 02fc bfbc 1e14 f83d 2259 e5bc 1d9f 59bc
000001f0: 3ad7 0a3d 1490 753d 4596 0dbb a93c 67bd
00000200: 5c90 29ba cf26 95bd f689 903e 1a50 263e
00000210: 1bb1 903c 5c01 633e c031 92bd c40f 133d
00000220: b199 9ebe ab54 5a3e d414 9c3e ad3c c93d
00000230: 1660 6d3e 2ef0 083e b0f2 74bd 1d42 e23d
00000240: 3972 4e3d 1f6c 6b3c daac 4ebd 751e 693d
00000250: 4e8f b2be ff2e 5cbd 6663 653e 772e 973e
00000260: 3e21 873e b595 a3bc 4670 8d3e c343 c93a
00000270: cc4f b53c 3462 8c3e 6e42 b5bd 04bb ecbd
00000280: c9a6 fd3d 848f a0be e867 493e 3b82 283e
00000290: 2df5 0e3e 5f5d 9a3e bffe bcbe cc3f 963e
000002a0: b057 2fba fdb5 d6bb 6a80 893e d315 263d
000002b0: 4018 2339 447c aebe 876d 8b3c 9be3 743d
000002c0: 41a7 673c 9e9f 5c3d 7503 95bd 8427 ba3a
000002d0: d873 7cbd 9e45 943e beb3 68bd 0a42 ad3a
000002e0: 306a 0cbc 8446 fcbd 48c0 713e 9ff2 8e3e
000002f0: e08b 303e 471c 88bc cc91 413d f7ef 8b3b
00000300: 81b4 773a f22d 883d 0aa3 23be a626 123e
00000310: 4793 143d 39ab 5bbd 243b 543e 14f2 303e
00000320: 458d be3e 423f 59be 54ad 09be e4af 7ebe
00000330: 2839 8cbe 09bb f9bc 223c d73b 837f f8bd
00000340: 363b 32be 87d6 093d 0b55 8a3e 1914 bdbd
00000350: 83d3 ab3e 9ebb d23c cf22 3fbe d949 d43d
00000360: 8904 33be e306 84ba a683 b8bd 31e0 d5bb
00000370: aa8a c9bd 9734 c3bd 1b14 3ebd 10b2 ad3e
00000380: da2a 57be 9f0f 983e 6ed7 a3bd 08dd 25be
00000390: c6ea 2ebe 6d55 523d 1b5d b03e d9df 14be
000003a0: a894 1139 3e9e 9c3c a50f 87be 07e3 4cbe
000003b0: f43c 05bb 7f77 9d3e 2535 09be 4a67 ef3d
000003c0: eb38 ee3d d21b 44be c6de f93d 4147 f3b9
000003d0: 9388 4d3c c5ec e43c 2162 223e 06a8 143a
000003e0: 5ef7 9cbd fa34 793e 8280 76be 1587 dabd
000003f0: 825e 373d 5292 233c 2fe0 263e c3f5 8339

latent_encoder.bias f4 [16]
-0.042566143 -0.08546423 -0.067047656 -0.047293868 0.06444378 0.037205294 0.10628361 0.013722132
0.028852796 4.0047802e-05 -0.039952315 -0.030602947 -0.020460872 0.108082116 0.07411021 -0.030503815
00000000: d659 2ebd df07 afbd 4850 89bd 37b7 41bd
00000010: 1afb 833d 9464 183d 39ab d93d cbd2 603c
00000020: b35c ec3c 00f9 2738 0aa5 23bd 08b3 fabc
00000030: 8f9d a7bc 285a dd3d 18c7 973d 23e3 f9bc

flow.flow.mean f4 [4, 16]
0.0 0.0 0.0 0.0 0.0 0.0 0.0 0.0
0.0 0.0 0.0 0.0 0.0 0.0 0.0 0.0
0.0 0.0 0.0 0.0 0.0 0.0 0.0 0.0
0.0 0.0 0.0 0.0 0.0 0.0 0.0 0.0
0.0 0.0 0.0 0.0 0.0 0.0 0.0 0.0
0.0 0.0 0.0 0.0 0.0 0.0 0.0 0.0
0.0 0.0 0.0 0.0 0.0 0.0 0.0 0.0
0.0 0.0 0.0 0.0 0.0 0.0 0.0 0.0
00000000: 0000 0000 0000 0000 0000 0000 0000 0000
00000010: 0000 0000 0000 0000 0000 0000 0000 0000
00000020: 0000 0000 0000 0000 0000 0000 0000 0000
00000030: 0000 0000 0000 0000 0000 0000 0000 0000
00000040: 0000 0000 0000 0000 0000 0000 0000 0000
00000050: 0000 0000 0000 0000 0000 0000 0000 0000
00000060: 0000 0000 0000 0000 0000 0000 0000 0000
00000070: 0000 0000 0000 0000 0000 0000 0000 0000
00000080: 0000 0000 0000 0000 0000 0000 0000 0000
00000090: 0000 0000 0000 0000 0000 0000 0000 0000
000000a0: 0000 0000 0000 0000 0000 0000 0000 0000
000000b0: 0000 0000 0000 0000 0000 0000 0000 0000
000000c0: 0000 0000 0000 0000 0000 0000 0000 0000
000000d0: 0000 0000 0000 0000 0000 0000 0000 0000
000000e0: 0000 0000 0000 0000 0000 0000 0000 0000
000000f0: 0000 0000 0000 0000 0000 0000 0000 0000

flow.flow.cov f4 [4, 16, 16]
1.0 0.0 0.0 0.0 0.0 0.0 0.0 0.0
0.0 0.0 0.0 0.0 0.0 0.0 0.0 0.0
0.0 1.0 0.0 0.0 0.0 0.0 0.0 0.0
0.0 0.0 0.0 0.0 0.0 0.0 0.0 0.0
0.0 0.0 1.0 0.0 0.0 0.0 0.0 0.0
0.0 0.0 0.0 0.0 0.0 0.0 0.0 0.0
0.0 0.0 0.0 1.0 0.0 0.0 0.0 0.0
0.0 0.0 0.0 0.0 0.0 0.0 0.0 0.0
0.0 0.0 0.0 0.0 1.0 0.0 0.0 0.0
0.0 0.0 0.0 0.0 0.0 0.0 0.0 0.0
0.0 0.0 0.0 0.0 0.0 1.0 0.0 0.0
0.0 0.0 0.0 0.0 0.0 0.0 0.0 0.0
0.0 0.0 0.0 0.0 0.0 0.0 1.0 0.0
0.0 0.0 0.0 0.0 0.0 0.0 0.0 0.0
0.0 0.0 0.0 0.0 0.0 0.0 0.0 1.0
0.0 0.0 0.0 0.0 0.0 0.0 0.0 0.0
0.0 0.0 0.0 0.0 0.0 0.0 0.0 0.0
1.0 0.0 0.0 0.0 0.0 0.0 0.0 0.0
0.0 0.0 0.0 0.0 0.0 0.0 0.0 0.0
0.0 1.0 0.0 0.0 0.0 0.0 0.0 0.0
0.0 0.0 0.0 0.0 0.0 0.0 0.0 0.0
0.0 0.0 1.0 0.0 0.0 0.0 0.0 0.0
0.0 0.0 0.0 0.0 0.0 0.0 0.0 0.0
0.0 0.0 0.0 1.0 0.0 0.0 0.0 0.0
0.0 0.0 0.0 0.0 0.0 0.0 0.0 0.0
0.0 0.0 0.0 0.0 1.0 0.0 0.0 0.0
0.0 0.0 0.0 0.0 0.0 0.0 0.0 0.0
0.0 0.0 0.0 0.0 0.0 1.0 0.0 0.0
0.0 0.0 0.0 0.0 0.0 0.0 0.0 0.0
0.0 0.0 0.0 0.0 0.0 0.0 1.0 0.0
0.0 0.0 0.0 0.0 0.0 0.0 0.0 0.0
0.0 0.0 0.0 0.0 0.0 0.0 0.0 1.0
00000000: 0000 803f 0000 0000 0000 0000 0000 0000
00000010: 0000 0000 0000 0000 0000 0000 0000 0000
00000020: 0000 0000 0000 0000 0000 0000 0000 0000
00000030: 0000 0000 0000 0000 0000 0000 0000 0000
00000040: 0000 0000 0000 803f 0000 0000 0000 0000
00000050: 0000 0000 0000 0000 0000 0000 0000 0000
00000060: 0000 0000 0000 0000 0000 0000 0000 0000
00000070: 0000 0000 0000 0000 0000 0000 0000 0000
00000080: 0000 0000 0000 0000 0000 803f 0000 0000
00000090: 0000 0000 0000 0000 0000 0000 0000 0000
000000a0: 0000 0000 0000 0000 0000 0000 0000 0000
000000b0: 0000 0000 0000 0000 0000 0000 0000 0000
000000c0: 0000 0000 0000 0000 0000 0000 0000 803f
000000d0: 0000 0000 0000 0000 0000 0000 0000 0000
000000e0: 0000 0000 0000 0000 0000 0000 0000 0000
000000f0: 0000 0000 0000 0000 0000 0000 0000 0000
00000100: 0000 0000 0000 0000 0000 0000 0000 0000
00000110: 0000 803f 0000 0000 0000 0000 0000 0000
00000120: 0000 0000 0000 0000 0000 0000 0000 0000
00000130: 0000 0000 0000 0000 0000 0000 0000 0000
00000140: 0000 0000 0000 0000 0000 0000 0000 0000
00000150: 0000 0000 0000 803f 0000 0000 0000 0000
00000160: 0000 0000 0000 0000 0000 0000 0000 0000
00000170: 0000 0000 0000 0000 0000 0000 0000 0000
00000180: 0000 0000 0000 0000 0000 0000 0000 0000
00000190: 0000 0000 0000 0000 0000 803f 0000 0000
000001a0: 0000 0000 0000 0000 0000 0000 0000 0000
000001b0: 0000 0000 0000 0000 0000 0000 0000 0000
000001c0: 0000 0000 0000 0000 0000 0000 0000 0000
000001d0: 0000 0000 0000 0000 0000 0000 0000 803f
000001e0: 0000 0000 0000 0000 0000 0000 0000 0000
000001f0: 0000 0000 0000 0000 0000 0000 0000 0000
00000200: 0000 0000 0000 0000 0000 0000 0000 0000
00000210: 0000 0000 0000 0000 0000 0000 0000 0000
00000220: 0000 803f 0000 0000 0000 0000 0000 0000
00000230: 0000 0000 0000 0000 0000 0000 0000 0000
00000240: 0000 0000 0000 0000 0000 0000 0000 0000
00000250: 0000 0000 0000 0000 0000 0000 0000 0000
00000260: 0000 0000 0000 803f 0000 0000 0000 0000
00000270: 0000 0000 0000 0000 0000 0000 0000 0000
00000280: 0000 0000 0000 0000 0000 0000 0000 0000
00000290: 0000 0000 0000 0000 0000 0000 0000 0000
000002a0: 0000 0000 0000 0000 0000 803f 0000 0000
000002b0: 0000 0000 0000 0000 0000 0000 0000 0000
000002c0: 0000 0000 0000 0000 0000 0000 0000 0000
000002d0: 0000 0000 0000 0000 0000 0000 0000 0000
000002e0: 0000 0000 0000 0000 0000 0000 0000 803f
000002f0: 0000 0000 0000 0000 0000 0000 0000 0000
00000300: 0000 0000 0000 0000 0000 0000 0000 0000
00000310: 0000 0000 0000 0000 0000 0000 0000 0000
00000320: 0000 0000 0000 0000 0000 0000 0000 0000
00000330: 0000 803f 0000 0000 0000 0000 0000 0000
00000340: 0000 0000 0000 0000 0000 0000 0000 0000
00000350: 0000 0000 0000 0000 0000 0000 0000 0000
00000360: 0000 0000 0000 0000 0000 0000 0000 0000
00000370: 0000 0000 0000 803f 0000 0000 0000 0000
00000380: 0000 0000 0000 0000 0000 0000 0000 0000
00000390: 0000 0000 0000 0000 0000 0000 0000 0000
000003a0: 0000 0000 0000 0000 0000 0000 0000 0000
000003b0: 0000 0000 0000 0000 0000 803f 0000 0000
000003c0: 0000 0000 0000 0000 0000 0000 0000 0000
000003d0: 0000 0000 0000 0000 0000 0000 0000 0000
000003e0: 0000 0000 0000 0000 0000 0000 0000 0000
000003f0: 0000 0000 0000 0000 0000 0000 0000 803f

flow.flow.transforms.0.x0 f4 [4, 16]
0.33485982 0.009847968 0.22877169 0.19190578 -0.10070489 -0.32506546 -0.113007404 0.34766158
-0.26317757 -0.35927406 0.036136687 -0.3036254 -0.01995996 -0.31078678 -0.22030903 0.44238812
-0.1816316 -0.06528766 0.17415468 -0.01849294 -0.031295024 -0.15318666 -0.14330201 -0.19720684
-0.22120479 0.12402697 0.12766859 0.17773613 0.18755284 -0.08418901 -0.020042835 0.075695336
0.31774393 -0.02294646 0.30588612 -0.32744542 -0.21684422 0.35291493 -0.29100502 -0.30935085
0.18403526 0.37727803 -0.32883927 -0.049837958 0.33799857 0.052744884 0.57174444 -0.29527646
-0.18066686 0.14131872 -0.43286544 0.2926763 0.3475331 -0.0423062 0.23685135 0.071475975
0.1406771 -0.10973448 0.18393667 0.21697459 -0.30259383 0.2594623 -0.23805971 -0.20261279
00000000: bf72 ab3e 5f59 213c 2043 6a3e f382 443e
00000010: 5e3e cebd fb6e a6be 6d70 e7bd b300 b23e
00000020: 36bf 86be c5f2 b7be 1004 143d ca74 9bbe
00000030: 1283 a3bc 721f 9fbe b198 61be b280 e23e
00000040: a2fd 39be 89b5 85bd 9b55 323e 827e 97bc
00000050: 362f 00bd f7dc 1cbe c3bd 12be 97f0 49be
00000060: 8283 62be da01 fe3d 8ebb 023e 7600 363e
00000070: da0d 403e 4a6b acbd df30 a4bc 2806 9b3d
00000080: 55af a23e 37fa bbbc 1b9d 9c3e eda6 a7be
00000090: 690c 5ebe 44b1 b43e 9cfe 94be 3c63 9ebe
000000a0: bd73 3c3e 962a c13e 9f5d a8be e322 4cbd
000000b0: 260e ad3e 050b 583d d85d 123f 7a2e 97be
000000c0: bc00 39be dbb5 103e 8aa0 ddbe abd9 953e
000000d0: dcef b13e 4449 2dbd 2989 723e ff61 923d
000000e0: a80d 103e 79bc e0bd e559 3c3e 962e 5e3e
000000f0: 94ed 9abe 3ed8 843e edc5 73be ba79 4fbe

flow.flow.transforms.0.alpha_prime f4 [4]
-0.098426975 -0.15074925 -0.21064751 -0.04744988
00000000: 1594 c9bd 035e 1abe fbb3 57be ce5a 42bd

flow.flow.transforms.0.beta_prime f4 [4]
0.01816792 0.058025397 0.055887073 0.10219691
00000000: e4d4 943c 0aac 6d3d d8e9 643d 9d4c d13d

flow.flow.transforms.1.x0 f4 [4, 16]
-0.15342608 -0.05397267 -0.0012882858 0.011491531 -0.19254933 0.2073396 -0.11206587 -0.16288951
0.09202943 0.36869037 0.017317755 0.17373091 0.11312592 0.121985 0.3398582 -0.24209087
-0.26331937 0.11144739 -0.0021149786 0.30656692 0.31716946 -0.26112258 0.064145386 0.43478197
-0.15121043 0.14706706 0.15855479 0.31688067 0.24897964 0.5376828 -0.19381237 -0.20365822
0.34370297 0.0011216089 0.3038746 -0.34577706 -0.36999738 0.3658736 -0.30217457 -0.3605346
0.04584194 0.15688749 -0.13310985 0.022731045 0.40328133 0.043936435 0.5688904 -0.33305496
-0.07534202 -0.03022633 -0.3790809 0.22365864 0.2942125 0.10571524 0.34192607 0.16531253
0.14380787 -0.0893019 0.0759419 0.18091948 -0.10873588 0.20733769 -0.2065303 -0.1606803
00000000: ba1b 1dbe 7212 5dbd b3db a8ba f946 3c3c
00000010: a72b 45be d550 543e ca82 e5bd 82cc 26be
00000020: ed79 bc3d fcc4 bc3e f7dd 8d3c 84e6 313e
00000030: 90ae e73d 46d3 f93d e501 ae3e abe6 77be
00000040: ccd1 86be 873e e43d 749b 0abb 57f6 9c3e
00000050: 0964 a23e dcb1 85be a85e 833d be9b de3e
00000060: e8d6 1abe bf98 163e 305c 223e 2f3e a23e
00000070: 85f4 7e3e 94a5 093f c076 46be c88b 50be
00000080: d6f9 af3e f302 933a 7495 9b3e b109 b1be
00000090: 4c70 bdbe c953 bb3e a0b6 9abe fe97 b8be
000000a0: c2c4 3b3d 1da7 203e f34d 08be 7536 ba3c
000000b0: e47a ce3e b1f6 333d cda2 113f 2e86 aabe
000000c0: eb4c 9abd 359d f7bc e416 c2be c506 653e
000000d0: 05a3 963e 3b81 d83d ef10 af3e b047 293e
000000e0: 5f42 133e eae3 b6bd 6d87 9b3d f542 393e
000000f0: ebb0 debd 5550 543e ae7c 53be 6089 24be

flow.flow.transforms.1.alpha_prime f4 [4]
0.27111003 0.19466846 -0.16209301 -0.21851532
00000000: efce 8a3e 2b57 473e b6fb 25be 7bc2 5fbe

flow.flow.transforms.1.beta_prime f4 [4]
0.006335074 0.07907958 0.16111244 -0.034284886
00000000: 7496 cf3b 7af4 a13d a9fa 243e 4f6e 0cbd

flow.flow.transforms.2.x0 f4 [4, 16]
0.24843632 -0.07078486 0.10530139 -0.14368516 0.2763628 -0.2808528 -0.04757253 0.14139022
-0.2620782 -0.37023038 -0.30616727 0.02883855 -0.39022154 -0.0647761 -0.24877441 0.043389615
-0.17479782 -0.07381485 0.14089257 0.015016122 -0.07261025 -0.13933633 -0.08341119 -0.1942854
-0.18346535 0.10142218 0.07325425 0.14058697 0.20728615 -0.0884932 0.033627834 0.046692535
0.29177508 -0.042661473 0.29797733 -0.31812057 -0.29953066 0.29535222 -0.25195602 -0.29775304
0.1474295 0.3665338 -0.3208413 -0.1325341 0.35131407 0.040335387 0.5636165 -0.24550456
-0.040349774 0.0034717682 -0.38040343 0.3063257 0.33034623 0.052520916 0.38251907 0.11639302
0.18082483 -0.10696523 0.3012864 0.21585326 -0.01563546 -0.027005298 -0.22864577 -0.18333954
00000000: 1766 7e3e a7f7 90bd 41a8 d73d 3422 13be
00000010: 6d7f 8d3e f0cb 8fbe 6adb 42bd 99c8 103e
00000020: 1d2f 86be d68e bdbe f5c1 9cbe d33e ec3c
00000030: 1ecb c7be 55a9 84bd b8be 7ebe 4fb9 313d
00000040: 33fe 32be 3d2c 97bd 2446 103e 2e06 763c
00000050: afb4 94bd 2fae 0ebe 7cd3 aabd c0f2 46be
00000060: 57de 3bbe 6fb6 cf3d 5306 963d 08f6 0f3e
00000070: d242 543e ec3b b5bd 57bd 093d ac40 3f3d
00000080: 8b63 953e ccbd 2ebd 7c90 983e b3e0 a2be
00000090: 155c 99be 6838 973e 6100 81be 1673 98be
000000a0: c2f7 163e 51aa bb3e 5045 a4be 05b7 07be
000000b0: 70df b33e b836 253d 2c49 103f 8c65 7bbe
000000c0: ce45 25bd 9b86 633b 3dc4 c2be b9d6 9c3e
000000d0: 2423 a93e 2c20 573d 8ad9 c33e 775f ee3d
000000e0: 252a 393e 9610 dbbd 3642 9a3e a308 5d3e
000000f0: f015 80bc 373a ddbc 1e22 6abe 5cbd 3bbe

flow.flow.transforms.2.alpha_prime f4 [4]
-0.25583652 -0.15693212 -0.14088148 0.07243579
00000000: 01fd 82be d0b2 20be 3c43 10be 3759 943d

flow.flow.transforms.2.beta_prime f4 [4]
0.14539489 0.25332254 0.363637 0.24577877
00000000: 66e2 143e 7eb3 813e a12e ba3e 6ead 7b3e

flow.flow.transforms.3.x0 f4 [4, 16]
0.24824908 0.18246564 0.08442059 -0.1341147 0.27464733 -0.2702413 -0.0036413488 -0.07431833
-0.22943221 -0.35237125 -0.21868539 -0.15407558 -0.3862403 -0.04616434 -0.21002375 0.3421415
-0.08351179 -0.18068855 0.23927298 0.24667288 -0.32441613 0.024144758 0.4197177 -0.2160745
-0.2618132 0.33049515 0.002910479 0.31103164 -0.4662147 -0.13006516 -0.20686562 -0.40076154
0.21112862 0.27355456 -0.2666304 -0.09023345 0.26356208 -0.3229029 -0.23251028 -0.059484705
0.09175677 -0.3691342 0.2921831 0.33616227 0.24277636 -0.2683932 -0.2654282 0.34538457
-0.23445836 0.040950406 -0.12893869 0.24480341 0.34515953 0.049969565 0.24804015 0.09834011
-0.080028534 -0.18921195 0.2540308 0.18827368 -0.13721633 0.15542065 -0.22817221 -0.18385257
00000000: 0235 7e3e 46d8 3a3e b4e4 ac3d 5d55 09be
00000010: 939e 8c3e 115d 8abe b2a3 6ebb 3534 98bd
00000020: 47f0 6abe 016a b4be 10ef 5fbe fdc5 1dbe
00000030: 4ac1 c5be d216 3dbd 7710 57be 2c2d af3e
00000040: 3b08 abbd 6b06 39be fa03 753e d197 7c3e
00000050: df19 a6be 3acb c53c 3de5 d63e a242 5dbe
00000060: 610c 86be a936 a93e bcbd 3e3b 8a3f 9f3e
00000070: b1b3 eebe cd2f 05be 95d4 53be 9e30 cdbe
00000080: 1a32 583e 580f 8c3e c883 88be 51cc b8bd
00000090: 9cf1 863e 8753 a5be 2d17 6ebe 3ca6 73bd
000000a0: f9ea bb3d 28ff bcbe 0699 953e 761d ac3e
000000b0: 5e9a 783e d56a 89be 34e6 87be 3fd6 b03e
000000c0: da15 70be 9dbb 273d 8108 04be bfad 7a3e
000000d0: c0b8 b03e e3ac 4c3d 3dfe 7d3e 8a66 c93d
000000e0: 00e6 a3bd c7c0 41be 5310 823e d1ca 403e
000000f0: 7082 0cbe 9726 1f3e faa5 69be d943 3cbe

flow.flow.transforms.3.alpha_prime f4 [4]
-0.024849895 0.04421997 -0.019167438 -0.09346756
00000000: 0292 cbbc 0020 353d 0805 9dbc ec6b bfbd

flow.flow.transforms.3.beta_prime f4 [4]
0.23740163 -0.094389856 -0.062459577 0.24414077
00000000: 6a19 733e 784f c1bd 9dd5 7fbd 0a00 7a3e

flow.flow.transforms.4.x0 f4 [4, 16]
0.06432761 0.12518655 0.037451778 0.14012337 0.053606596 0.27208894 -0.13433184 -0.20293628
0.2451105 0.44861493 -0.06787826 0.15683298 0.27274778 0.07234583 0.22320896 -0.19923747
-0.185297 -0.076233044 0.18144014 0.047561046 -0.06625906 -0.17554903 -0.070007026 -0.21078786
-0.21331403 0.07365457 0.13043481 0.15133382 0.19689149 -0.08063424 -0.009769067 0.05275546
-0.1623232 -0.059163615 -0.08664418 0.055394378 0.22198464 0.026723832 0.2649913 0.09754177
-0.024541559 -0.21501628 -0.029266467 0.15882102 -0.28435448 0.048311707 -0.23507264 0.121210024
0.21402904 -0.21156548 0.23076347 -0.37990594 -0.19702482 -0.17224362 -0.10887044 -0.2128764
-0.120513864 0.16854268 -0.28783196 -0.19092251 0.09755942 -0.17554133 0.27253845 0.18894233
00000000: 32be 833d e730 003e 0967 193d 807c 0f3e
00000010: 9792 5b3d 3e4f 8b3e 498e 09be 87ce 4fbe
00000020: 3ffe 7a3e dbb0 e53e c203 8bbd d398 203e
00000030: 99a5 8b3e 0d2a 943d e490 643e e804 4cbe
00000040: 7fbe 3dbe 1220 9cbd 72cb 393e 5fcf 423d
00000050: d4b2 87bd 20c3 33be d85f 8fbd c6d8 57be
00000060: fe6e 5abe 35d8 963d b490 053e 41f7 1a3e
00000070: ec9d 493e 9023 a5bd 700e 20bc 1c16 583d
00000080: 0e38 26be 8c55 72bd 8172 b1bd 37e5 623d
00000090: f14f 633e f0eb da3c f1ac 873e fbc3 c73d
000000a0: 610b c9bc 3a2d 5cbe 3bc0 efbc faa1 223e
000000b0: e996 91be 7fe2 453d e2b6 70be f63c f83d
000000c0: 6e2a 5b3e 9fa4 58be 424d 6c3e 0883 c2be
000000d0: e0c0 49be a260 30be 77f7 debd 45fc 59be
000000e0: f9cf f6bd 7496 2c3e b65e 93be 3181 43be
000000f0: 3ccd c73d 1bc1 33be 298a 8b3e 197a 413e

flow.flow.transforms.4.alpha_prime f4 [4]
0.12086205 0.056742948 0.30068246 0.29439875
00000000: 8686 f73d 4b6b 683d 0df3 993e 6fbb 963e

flow.flow.transforms.4.beta_prime f4 [4]
-0.108741395 0.23951954 -0.19761124 -0.24703209
00000000: cfb3 debd 9c44 753e 9a5a 4abe fbf5 7cbe

flow.flow.transforms.5.x0 f4 [4, 16]
-0.10972039 0.042106405 0.011389562 0.048790105 0.0433183 0.047467504 0.05478074 -0.20885655
-0.15415588 0.44905764 -0.06192298 0.1612351 0.28430617 0.19345202 0.4530027 -0.24119659
0.35579324 0.3008408 0.0022031246 0.15869288 -0.2868038 -0.20346439 0.01761395 0.40985405
-0.13627045 -0.23012954 0.08299203 0.3037291 0.06622167 0.39179483 0.28745815 0.25943592
0.013497142 -0.07946639 0.23464203 -0.030393524 -0.377282 0.37165523 -0.18334627 -0.15171549
0.29316914 0.14794587 -0.24835184 0.10745751 0.28909838 0.1451056 0.529633 -0.34039736
-0.2638 0.21496041 -0.028380962 0.22865964 0.02171404 -0.15277909 0.2314721 0.17463435
0.13358635 -0.09333629 0.15279694 0.19745271 -0.2906187 0.2140358 -0.22916353 -0.21701857
00000000: 15b5 e0bd c477 2c3d 499b 3a3c 22d8 473d
00000010: 886e 313d 496d 423d c561 603d 7ede 55be
00000020: 0adb 1dbe e2ea e53e f3a2 7dbd d01a 253e
00000030: 9490 913e 4918 463e f8ef e73e 3dfc 76be
00000040: 882a b63e ce07 9a3e 4c62 103b 6380 223e
00000050: f3d7 92be f858 50be 214b 903c 64d8 d13e
00000060: 7b8a 0bbe 14a7 6bbe baf7 a93d 6182 9b3e
00000070: 3a9f 873d 5599 c83e b72d 933e c9d4 843e
00000080: 1e23 5d3c 46bf a2bd 0046 703e d7fb f8bc
00000090: 1b2b c1be 9849 be3e 20bf 3bbe 4e5b 1bbe
000000a0: 441a 963e 1f7f 173e f24f 7ebe af12 dc3d
000000b0: b404 943e 9096 143e 0796 073f 9048 aebe
000000c0: cb10 87be 951e 5c3e 317f e8bc c125 6a3e
000000d0: a4e1 b13c 1f72 1cbe 0607 6d3e 59d3 323e
000000e0: dcca 083e 1927 bfbd cd76 1c3e 0b31 4a3e
000000f0: f9cb 94be 332c 5b3e d8a9 6abe 1e3a 5ebe

flow.flow.transforms.5.alpha_prime f4 [4]
0.2301585 0.14120218 0.14841923 0.13436665
00000000: abae 6b3e 4e97 103e 36fb 173e 6997 093e

flow.flow.transforms.5.beta_prime f4 [4]
-0.011712358 0.03785849 0.263623 0.24872555
00000000: 31e5 3fbc 8111 1b3d 98f9 863e e9b1 7e3e

flow.flow.transforms.6.x0 f4 [4, 16]
0.22500376 -0.008439767 0.07440852 -0.13457792 0.28220367 -0.20353575 0.087917626 0.108598396
-0.18267693 -0.33096316 -0.27810583 -0.02796606 -0.28476074 -0.03498058 -0.19013417 0.2079718
0.23528293 0.055824414 -0.19545537 -0.08748269 0.31251368 -0.14186989 0.18950163 0.27098888
0.010733666 -0.3301235 -0.21521646 0.18210205 -0.35337278 0.15652032 -0.20601712 0.15922971
0.37387773 0.20955755 0.3016571 -0.28140804 -0.12931764 0.049520086 -0.21354795 -0.363914
0.33634043 0.421866 0.15729223 -0.28870714 0.35727933 0.23947665 -0.0018423453 -0.14729159
-0.08596667 -0.028918553 -0.29991987 0.19333754 0.24488641 0.0020349903 0.28350046 0.093431346
0.08825966 -0.054397423 0.1864386 0.1711263 -0.21328066 0.16402094 -0.1516578 -0.07902851
00000000: 6367 663e f346 0abc 7e63 983d cbce 09be
00000010: 007d 903e ad6b 50be 280e b43d d668 de3d
00000020: a90f 3bbe 0174 a9be e363 8ebe 1419 e5bc
00000030: 29cc 91be cc47 0fbd 88b2 42be 8ff6 543e
00000040: 02ee 703e 24a8 643d 7425 48be 202a b3bd
00000050: cb01 a03e 5746 11be b70c 423e 0ebf 8a3e
00000060: 42dc 2f3c f305 a9be b461 5cbe f678 3a3e
00000070: 47ed b4be dd46 203e 27f6 52be 1d0d 233e
00000080: e76c bf3e 4196 563e cd72 9a3e b714 90be
00000090: d86b 04be 93d5 4a3d 50ac 5abe f052 babe
000000a0: d034 ac3e d2fe d73e 3711 213e 6cd1 93be
000000b0: 51ed b63e 5e39 753e da7a f1ba 9bd3 16be
000000c0: 4b0f b0bd 9ae6 ecbc 198f 99be 47fa 453e
000000d0: 81c3 7a3e 795d 053b f926 913e ef58 bf3d
000000e0: 7bc1 b43d d5cf 5ebd c3e9 3e3e bc3b 2f3e
000000f0: 3f66 5abe 1bf5 273e 2f4c 1bbe b3d9 a1bd

flow.flow.transforms.6.alpha_prime f4 [4]
-0.35440096 0.10374646 -0.001462064 -0.35350305
00000000: 0b74 b5be 0679 d43d baa2 bfba 5afe b4be

flow.flow.transforms.6.beta_prime f4 [4]
0.21276565 -0.0109222215 0.080656834 0.23569357
00000000: 3ddf 593e 1ef3 32bc 692f a53d a859 713e

flow.flow.transforms.7.x0 f4 [4, 16]
0.29137477 0.015172146 0.0947288 -0.003572349 0.30475473 -0.10647363 0.1296365 0.15953515
-0.1816279 -0.34486246 -0.31597912 -0.04289128 -0.21774313 -0.06895514 -0.22217388 0.013006423
-0.2569587 0.2098292 -0.12690516 0.11906732 0.21565928 0.3206632 0.16406512 -0.106918365
0.3637125 -0.17661811 -0.19568676 0.14627086 -0.31479013 -0.21788666 0.26944733 -0.07515567
0.26126507 -0.028581679 0.2896917 -0.30812618 -0.30195567 0.33309564 -0.25855702 -0.25270614
0.1823149 0.37696514 -0.30651337 -0.14794472 0.32334366 0.037287693 0.43882254 -0.3046982
-0.2538058 0.09218281 0.02291438 0.29590538 -0.06655518 0.17197484 0.24367659 0.19267924
0.28635973 -0.18106328 0.27494597 0.18897492 -0.06937525 0.102625325 -0.20319009 -0.24922048
00000000: 132f 953e 9894 783c 2c01 c23d 121e 6abb
00000010: d008 9c3e d90e dabd 6ebf 043e 2f5d 233e
00000020: aafc 39be d091 b0be 04c8 a1be c4ae 2fbd
00000030: 0ef8 5ebe 5a38 8dbd 8d81 63be e418 553c
00000040: 1790 83be 77dd 563e 6df3 01be 91d9 f33d
00000050: c9d5 5c3e f82d a43e b000 283e 04f8 dabd
00000060: 8638 ba3e 61db 34be 1c62 48be 07c8 153e
00000070: 2c2c a1be ae1d 5fbe 00f5 893e 37eb 99bd
00000080: 89c4 853e 2024 eabc 7852 943e b7c2 9dbe
00000090: ef99 9abe 838b aa3e 9661 84be b362 81be
000000a0: c2b0 3a3e 9301 c13e 52ef 9cbe d27e 17be
000000b0: 4d8d a53e fbba 183d 59ad e03e 6701 9cbe
000000c0: d5f2 81be 57ca bc3d f0b6 bb3c e980 973e
000000d0: 154e 88bd 2c1a 303e 5b86 793e b54d 453e
000000e0: be9d 923e a768 39be b8c5 8c3e a482 413e
000000f0: 9c14 8ebd 3a2d d23d 1011 50be a733 7fbe

flow.flow.transforms.7.alpha_prime f4 [4]
-0.1746201 0.12949193 0.13010268 -0.24108574
00000000: 9dcf 32be 8899 043e a339 053e 2edf 76be

flow.flow.transforms.7.beta_prime f4 [4]
0.05914851 -0.069115944 0.2839672 -0.17044742
00000000: b545 723d a98c 8dbd 2664 913e c589 2ebe

flow.flow.transforms.8.x0 f4 [4, 16]
-0.11207677 0.25002992 -0.30943874 0.105823 -0.25957873 0.13862632 -0.2752906 0.033544965
0.33823517 0.2796863 0.10530313 -0.047971506 0.3015183 0.083298855 -0.15025793 -0.3447243
-0.20759767 -0.052161727 0.14899997 0.105936654 -0.05511976 -0.11185235 -0.07063891 -0.18888998
-0.25832972 0.038227044 0.16850933 0.22405395 0.20837471 -0.21361148 -0.005326448 -0.03548728
-0.1676953 -0.083422035 -0.1046595 0.07327055 0.1490509 -0.18615055 0.21358699 -0.011498679
-0.171078 -0.13937509 0.13038787 0.1723006 -0.20582162 0.018531462 -0.21385203 0.18068743
0.19428757 -0.16417211 0.26705778 -0.29212007 -0.20143037 -0.0884296 -0.146084 -0.19762884
-0.14358015 0.1311848 -0.20092428 -0.17524308 0.12111074 -0.12409179 0.28822258 0.17916013
00000000: 8188 e5bd ec03 803e c16e 9ebe bbb9 d83d
00000010: 81e7 84be 0ff4 0d3e e4f2 8cbe 7266 093d
00000020: 292d ad3e 0b33 8f3e 2ba9 d73d c57d 44bd
00000030: 9b60 9a3e 9798 aa3d 37dd 19be b47f b0be
00000040: 7c94 54be 89a7 55bd 7393 183e 51f5 d83d
00000050: 42c5 61bd d812 e5bd 22ab 90bd 606c 41be
00000060: cb43 84be f693 1c3d b68d 2c3e 666e 653e
00000070: 2e60 553e f8bc 5abe 7c89 aebb 1c5b 11bd
00000080: 51b8 2bbe 2cd9 aabd b857 d6bd df0e 963d
00000090: cda0 183e 409e 3ebe 8cb6 5a3e f564 3cbc
000000a0: 122f 2fbe 58b8 0ebe 6684 053e 926f 303e
000000b0: e7c2 52be 4bcf 973c 07fc 5abe 2006 393e
000000c0: 52f3 463e bc1c 28be ccbb 883e c390 95be
000000d0: c343 4ebe 941a b5bd 0b97 15be 375f 4abe
000000e0: ad06 13be 4f55 063e 18bf 4dbe ec72 33be
000000f0: e808 f83d d623 febd e991 933e c175 373e

flow.flow.transforms.8.alpha_prime f4 [4]
0.028852755 -0.2916765 0.13988258 0.16010155
00000000: 9d5c ec3c 9f56 95be 613d 0f3e a9f1 233e

flow.flow.transforms.8.beta_prime f4 [4]
-0.022064518 -0.18809868 -0.16148764 -0.23736943
00000000: a6c0 b4bc f19c 40be 045d 25be f910 73be

flow.flow.transforms.9.x0 f4 [4, 16]
-0.35254303 0.12382548 -0.3998473 0.22191098 0.35388136 0.4205614 -0.09174961 0.33263654
-0.21958601 0.33217928 -0.27028418 -0.2389172 0.43406668 -0.24558505 -0.24169181 -0.26464656
-0.16155165 -0.036504745 0.1500241 -0.013568584 -0.027083911 -0.13687006 -0.04380818 -0.14432378
-0.15816489 0.089545876 0.07286055 0.1499995 0.10397532 -0.04523951 0.01997996 0.040231913
0.3840048 -0.04609361 0.38562465 -0.08754553 0.081724234 0.2630093 -0.319024 -0.34578776
-0.07981618 -0.006356514 -0.47583485 -0.3891873 0.39210624 -0.08371486 0.6063098 -0.1799188
0.12026196 0.23088092 -0.20041329 0.34999913 -0.12330986 -0.18026407 -0.12320226 -0.11264677
0.25196412 -0.16807468 -0.11642809 0.09965685 -0.17607012 0.28824317 -0.2929945 -0.32019347
00000000: 8580 b4be 3798 fd3d c9b8 ccbe a23c 633e
00000010: f02f b53e d353 d73e 38e7 bbbd 564f aa3e
00000020: 28db 60be 6713 aa3e b062 8abe b6a6 74be
00000030: fd3d de3e a67a 7bbe 0f7e 77be c17f 87be
00000040: cc6d 25be 0086 15bd eb9f 193e c44e 5ebc
00000050: 14df ddbc aa27 0cbe 3570 33bd 9dc9 13be
00000060: faf5 21be d463 b73d e937 953d 7899 193e
00000070: 03f1 d43d 104d 39bd 03ad a33c 38ca 243d
00000080: 479c c43e a7cc 3cbd 9870 c53e 124b b3bd
00000090: 095f a73d 28a9 863e 1d57 a3be 180b b1be
000000a0: aa76 a3bd 4e4a d0bb a0a0 f3be 8f43 c7be
000000b0: 26c2 c83e b272 abbd 1e37 1b3f a23c 38be
000000c0: e74b f63d 0c6c 6c3e 2439 4dbe 1633 b33e
000000d0: e189 fcbd 2597 38be 7751 fcbd 5ab3 e6bd
000000e0: 7101 813e c51b 2cbe da71 eebd e418 cc3d
000000f0: ba4b 34be 9c94 933e 6003 96be 66f0 a3be

flow.flow.transforms.9.alpha_prime f4 [4]
-0.033408344 -0.2343811 -0.060084578 -0.09942668
00000000: 30d7 08bd 9901 70be 3f1b 76bd 37a0 cbbd

flow.flow.transforms.9.beta_prime f4 [4]
-0.03262056 0.15642403 0.017754309 -0.05114087
00000000: 239d 05bd 9f2d 203e 7c71 913c 1779 51bd
