saved_experiments/ood_loc/GPN/1/model_6.pt (torch, 759609 bytes, 36 tensors)

input_encoder.0.weight f4 [64, 2879]
000000 94 ee 29 3d ce 21 3c bd 2f 6b 15 3b d5 4b 3e bd
       0.04148729 -0.045930676 0.0022799482 -0.046459038
000010 8e 4e 35 3d 8f d3 f9 3d 88 19 fd bd ea ef 08 3e
       0.04426437 0.12198555 -0.12358385 0.1337277
000020 27 15 c8 bd 18 5b 3f bd 52 e5 fb bc 8e c6 b4 3b
       -0.097696595 -0.046717733 -0.030748997 0.0055168336
000030 f7 9b f6 bb f3 02 4d bc ba 74 ff bb 8d 50 21 bd
       -0.0075259167 -0.01251291 -0.0077958973 -0.03938346
000040 52 72 c5 bd ab 9c 8f bd 59 aa b5 3e e8 a0 d9 3d
       -0.096409455 -0.07012304 0.35481527 0.106263936
000050 42 23 c6 bd be 7e 95 bd 95 6e 8b be 78 79 8c bd
       -0.09674694 -0.07299565 -0.27232805 -0.06859106
000060 b1 1e 51 3d 5d 8d 89 3d 8d 5b 8c be 51 52 a8 bd
       0.05105466 0.06716416 -0.27413598 -0.082188256
000070 2e 68 b9 bd eb 5c 8f 3d f6 b0 16 3d e1 37 8d bd
       -0.09053074 0.070001446 0.036789857 -0.06895424
000080 11 86 01 3d fb ff 6d 3e 54 2f f2 bb 6b fd 33 bc
       0.031621996 0.2324218 -0.007390896 -0.0109857125
000090 aa 98 20 3d 77 a0 9f 3c 53 03 2d 3c fc 3e 52 bc
       0.03920809 0.019485695 0.010559875 -0.012832399
0000a0 83 d6 37 be 64 2f 33 be 63 07 2a 3d 3f f5 0a 3e
       -0.17952923 -0.17498547 0.04151095 0.13570116
0000b0 ef 48 01 3c 2e 30 8d 3d ea 13 32 be 95 25 95 3d
       0.007890924 0.06893955 -0.17390409 0.07282559
0000c0 71 e1 b5 bd f2 41 ec bc c7 91 c4 bd 6d db 9c 3d
       -0.0888089 -0.028840039 -0.09598117 0.0765904
0000d0 8f 61 f8 3d 15 ab 4e 3d 8e ca e8 3c 32 b2 14 3d
       0.12127983 0.050456125 0.028416898 0.036302753
0000e0 a8 60 07 bd 02 53 05 bd 0e da 30 3d d5 7f ac bd
       -0.033051163 -0.032549866 0.043176703 -0.084228195
0000f0 f1 a3 00 bd 95 76 5e bc 43 d7 7e be 61 79 8a bd
       -0.031406347 -0.013578077 -0.24886803 -0.067614324
000100 c4 f7 22 b9 e5 37 ba bc b8 8a 6d 3e fa c8 d9 bd
       -0.00015541824 -0.02273173 0.23197448 -0.10634036
000110 d9 e5 e2 3c af ee 5c be 53 63 62 be 0e 9e 0b 3d
       0.02769749 -0.21575426 -0.22108202 0.03408628
000120 1e f6 a4 bd a4 0d 6e bd 98 0a 78 3d 3b ed 34 be
       -0.08054756 -0.058118477 0.060556978 -0.17668621
000130 57 33 19 3e f8 0e a3 bb e1 47 ba 3d 29 cd a6 bd
       0.14960991 -0.0049761496 0.09095741 -0.081446
000140 28 fb 81 bd a2 97 c1 3c 92 22 7e bb 6d 81 21 be
       -0.063467324 0.023631874 -0.003877793 -0.15772028
000150 23 cd 62 3c de 29 2a bb 45 24 b3 bb 00 e0 40 be
       0.013842854 -0.0025964896 -0.00546697 -0.18835449
000160 77 98 19 be 5d c0 2a 3e 0a c5 7f bc 58 01 12 be
       -0.14999567 0.16674943 -0.015610943 -0.14258325
000170 21 ac 98 bd d9 52 f4 bd 3c 23 e5 3d 1a 2c 8c 3b
       -0.07454706 -0.119298644 0.11188361 0.0042777183
000180 e5 39 4c bd df 34 10 bd 3f 97 6d bd 1e 6d 10 3d
       -0.0498599 -0.03520667 -0.058005568 0.035260312
000190 73 8c b2 bc d1 21 00 be 08 26 b1 bd 34 68 ae bd
       -0.021795487 -0.125129 -0.08649832 -0.08515969
0001a0 4c 6d 1f 3b 5a 0e 0f 3e b8 58 cd 3d d0 bf b7 bd
       0.002432662 0.13970318 0.100266874 -0.08972132
0001b0 0a de 64 be 79 03 c3 3d b5 d9 8e bd e5 de 0b be
       -0.22350326 0.09522147 -0.06975118 -0.13659246
0001c0 74 d6 d6 bd 3a 29 e5 3c 5c 56 55 bd 91 a8 a0 3e
       -0.104901224 0.02797376 -0.05208431 0.31378606
0001d0 99 a5 81 bd f5 8e 10 be 4a d1 1e be 49 11 3f 3d
       -0.06330413 -0.14117034 -0.15509525 0.046647344
0001e0 de d2 96 bd b3 2f 48 3c 28 2f c1 3c 6f 90 22 be
       -0.073644385 0.012218404 0.023582056 -0.1587541
0001f0 51 49 e8 bd 7a f0 44 bc ec c2 8d bb c7 78 4f bd
       -0.11342109 -0.012020225 -0.004326215 -0.05065229
000200 94 3f 3f 3e d2 27 78 be 13 34 2e 3e ed df c1 bc
       0.18676597 -0.2423394 0.17012052 -0.023666346
000210 ed 43 4f be 94 e4 bc bd 75 5d ee bd 7c e8 4b 3d
       -0.20240755 -0.09223285 -0.11638919 0.04978226
000220 ff 46 26 3c cd 6a ed bd 9d 8a 0e 3d 51 97 69 bd
       0.010148763 -0.11592636 0.03480016 -0.057029072
000230 bb e4 3f bd d0 64 b5 3d 63 6a 05 3e 16 35 db 3d
       -0.046848994 0.08857119 0.13028865 0.10703485
000240 5c 64 57 3d cf b7 6a 3c 2e f3 43 3e e5 a0 93 bd
       0.052585945 0.01432605 0.19135734 -0.072084226
000250 f7 65 f4 3c ee d4 e9 bc bb 22 9f 3e 97 a5 f1 bd
       0.029833777 -0.028543916 0.31081185 -0.11799162
000260 c2 20 07 3e 80 c2 e8 bd a8 6a ef 3d 3a 1e 3d be
       0.1319609 -0.11365223 0.11690265 -0.18468562
000270 e7 f5 46 bd f5 6a 81 3d 8e 0b 2f 3d 9a 0f 52 be
       -0.048574354 0.063192286 0.04273563 -0.20513764
000280 1b 93 e0 bc 23 a2 99 bd 97 ea a3 bc 7d 7f 34 bc
       -0.027413895 -0.07501628 -0.020009322 -0.011016724
000290 ef c5 02 bc 05 5d d6 bc 8f 1b 84 bb 4d 7a 82 bd
       -0.007981761 -0.026167402 -0.0040316056 -0.06370983
0002a0 36 bb 45 bd 88 5e c7 3d 72 07 d4 bb 79 e2 72 3b
       -0.04827424 0.09734827 -0.006470614 0.0037061258
0002b0 ea d9 99 3b c8 88 57 3e c2 a8 35 be b8 16 07 be
       0.004695167 0.21048272 -0.17740157 -0.1319226
0002c0 aa 68 3d be 90 4e 98 3d 1d 20 ce 3d f8 5f d7 3b
       -0.18496957 0.074368596 0.10064719 0.0065727197
0002d0 43 75 12 be a5 78 ff bd 8c 78 ac bd 5e 59 18 be
       -0.14302544 -0.12474183 -0.0842143 -0.14877841
0002e0 34 14 8e bd cc 3e 19 3e 39 4c 26 3c 12 34 21 be
       -0.06937447 0.14965361 0.010150009 -0.1574252
0002f0 a9 42 a5 bc 17 6f 2c be 74 42 f3 3c c1 fb 80 bb
       -0.020173388 -0.16839252 0.029694773 -0.0039362614
000300 5e b7 b3 3d 2d 13 fc 3d 32 d3 59 bc c6 85 e5 bc
       0.08775209 0.12308345 -0.013294982 -0.02801789
000310 c1 0f 5e bb ed fb 14 3e 11 43 4a bd 0b 86 18 3c
       -0.0033883902 0.14549227 -0.049380366 0.009309302
000320 14 f6 ec bc 3f 14 a5 bc b2 7a d0 3d 87 87 c9 3d
       -0.028925933 -0.020151256 0.10179652 0.09840303
000330 78 1d 6f 3d 45 28 2d be 3d 1d 8b 3d 44 21 d8 bb
       0.058377713 -0.16909893 0.06792686 -0.0065957624
000340 8c 23 8e 3d 47 5e 48 3e ea 60 81 3d a2 9e ba bd
       0.06940374 0.19567214 0.06317313 -0.09112288
000350 aa 89 a7 bc a0 b8 a5 bc 71 f6 fe bb 2d 01 9a bd
       -0.020451386 -0.020229638 -0.007780843 -0.075197555
000360 f8 a3 21 3b 46 aa 26 3e e1 8f fa bd 31 d9 05 be
       0.0024664383 0.16275892 -0.12234474 -0.13071133
000370 32 6e 2a 3d 85 f1 e1 bd f4 28 d1 3a 13 32 a8 bd
       0.041608997 -0.11032394 0.001595764 -0.08212676
000380 3a ee 64 3e ce 8d e0 ba e1 1c 71 bd 7e 95 c1 bc
       0.22356501 -0.0017132105 -0.05886543 -0.023630854
000390 1f ae 72 3e 3c c4 11 bd cc a6 04 3a 78 5a b7 3d
       0.23699234 -0.035587534 0.0005060255 0.089528024
0003a0 9e a2 0a bc 00 d2 37 be 7d f5 97 bd 7d 7e 08 bd
       -0.0084616225 -0.17951202 -0.0741987 -0.033323754
0003b0 07 22 30 be 1d b1 af bd 43 80 12 3e 85 44 8f 3c
       -0.1720048 -0.085787036 0.1430674 0.017488727
0003c0 49 a0 27 be d5 a4 ae bd fb 1d 31 bd e1 5c 65 3d
       -0.16369738 -0.08527533 -0.043241482 0.05599678
0003d0 72 d4 5b bd 48 25 b8 bd b0 02 b5 bc 6f 05 7b bd
       -0.0536694 -0.08991486 -0.022096008 -0.06128448
0003e0 f5 14 20 3d 29 e2 68 be a5 13 20 3e 28 0a b7 3d
       0.039082486 -0.22742523 0.15632494 0.08937484
0003f0 27 e9 c8 3c c6 60 17 3c 61 c7 2c be 8b b8 a6 bd
       0.024525238 0.009239381 -0.16872932 -0.081406675

input_encoder.0.bias f4 [64]
000000 16 28 fd 3b ec 36 c3 3b 32 76 c2 bc 3f ae 09 bd
       0.007725726 0.005957475 -0.023738 -0.03361344
000010 ff 7c 34 3c 33 ad 2a bc 78 16 76 bc fc 23 c9 3c
       0.0110161295 -0.0104172705 -0.015020005 0.024553291
000020 e4 cd 2e 3c 9e 15 77 bd 36 8d ea 3b 46 64 a5 bc
       0.010669205 -0.06032335 0.007157947 -0.020189416
000030 3e 6a 74 bb 48 1c c2 ba 48 5b 15 3c 67 fe 62 bd
       -0.003729477 -0.0014809454 0.009116001 -0.0554184
000040 8f 8d 21 bd 01 67 58 bd f9 34 c5 bb 13 45 1e bb
       -0.03944164 -0.052832607 -0.0060182777 -0.0024150058
000050 77 74 5f bd 38 63 8e 3b d7 c3 a9 bc 84 a6 bb bb
       -0.05455443 0.004345324 -0.020723267 -0.0057266373
000060 58 52 84 bb ea 88 b6 3c d7 45 3f 3c 39 8e 8a bc
       -0.0040381365 0.022282083 0.011674366 -0.01691352
000070 47 ca 1d bd bb 70 93 bd 7b dd 81 bd dc 5b 60 3c
       -0.038522985 -0.07199236 -0.06341072 0.013693776
000080 00 09 78 bd 7a 79 94 bc a5 c6 bb bc d9 9e 3c bd
       -0.060555458 -0.01812433 -0.02292187 -0.046049926
000090 c7 55 c8 bc 98 e7 97 ba 4e 66 0e bd 17 20 26 bd
       -0.024454964 -0.0011589406 -0.034765534 -0.040557947
0000a0 4f f3 6e bc e1 29 59 bc 0f 07 21 bc 2f 23 dd 3c
       -0.0145843765 -0.013254614 -0.009828343 0.026994316
0000b0 40 7e fd bc 14 fc e4 3b cc 15 3e bd b3 99 a4 bc
       -0.03094399 0.006988058 -0.046407506 -0.02009282
0000c0 f6 d3 53 bc e4 5b 78 bc 7f 2c 57 3c 9b 2f 78 3c
       -0.012928953 -0.015158627 0.013133167 0.015148069
0000d0 de fe c5 bb 6b f1 79 bc db 61 1f 3c c2 44 c5 bc
       -0.0060423454 -0.015255312 0.00972792 -0.024080638
0000e0 5e bb 3f bd 22 81 92 bd 8b 62 58 bd 41 1b ab 3c
       -0.046809547 -0.071535364 -0.052828353 0.02088702
0000f0 43 a4 0a bd 7d 91 13 bd bf 6e 7f bd fd a0 ac bc
       -0.03384806 -0.03602742 -0.062361475 -0.021072859

latent_encoder.weight f4 [16, 64]
000000 34 06 b0 bd 18 08 2f be 96 1b 2f bd 50 af c3 bc
       -0.08594933 -0.17092931 -0.042750917 -0.023887306
000010 02 1e 33 be 87 2b 1c 3e 4d 03 20 be 3d 94 cd bd
       -0.17491916 0.1525098 -0.15626259 -0.1003804
000020 30 75 31 bd dd fc 61 3c 5b 9c 90 3e ad 05 b7 3d
       -0.04332465 0.013793197 0.2824429 0.089366294
000030 4f ca 2b be e0 a7 e2 3d 49 c3 ae bd f8 2e 39 b9
       -0.16776393 0.11067176 -0.085333414 -0.00017660472
000040 80 22 49 be 06 14 90 bd e0 54 4e be e0 08 ce b6
       -0.19642067 -0.07035069 -0.20149565 -6.1403116e-06
000050 39 06 bc bb 4a 13 28 bd b5 f7 5b 3e bd 9c a0 bd
       -0.0057380465 -0.04103402 0.21481211 -0.078423955
000060 28 7c 6a 3e ea aa 7b 3e 63 80 52 3e fe 97 df bd
       0.22898924 0.24576917 0.20556788 -0.10917662
000070 60 a6 9f 3b c6 df de bd 82 5b 3c 39 40 d5 15 bb
       0.0048721284 -0.10882525 0.00017963166 -0.0022862703
000080 f6 cc b6 b9 9b df da bd dc 23 4c be b4 4a 1a 3c
       -0.00034866453 -0.106871806 -0.19935554 0.009417225
000090 5f d2 20 be 26 26 97 3e 19 64 7a 3c 70 9b 9c b8
       -0.1570525 0.29521292 0.015282654 -7.467612e-05
0000a0 76 18 9d 3e cd 1e ca bc 37 36 d6 3e bb 1e 33 be
       0.30682725 -0.02467289 0.41838238 -0.17492191
0000b0 df 80 04 3e 57 3d 0e be ea c3 25 3e 59 6c 0c be
       0.12939785 -0.13890587 0.16188017 -0.13713206
0000c0 1e cf c7 bd 67 96 9a 3d 7d 44 9d 3e a9 dd 3c bd
       -0.09756301 0.07548218 0.30716315 -0.04610983
0000d0 1e 50 a6 38 6f 79 c6 3d 57 29 dd 3c 89 c4 84 be
       7.93042e-05 0.0969113 0.026997251 -0.25931194
0000e0 93 4b 83 3d 07 40 44 ba c6 c3 25 bc fe 65 ac 3e
       0.06410899 -0.00074863475 -0.010117477 0.33671564
0000f0 bc 55 c3 bb 8f 02 34 be 83 85 27 b8 a2 33 75 bd
       -0.005961148 -0.17579101 -3.9940245e-05 -0.059863694
000100 e1 1f 88 be e3 8a 98 3e 83 b4 80 be 3d 80 62 3d
       -0.26586822 0.29793462 -0.2513772 0.05529808
000110 49 34 83 3e 56 f5 2c 3e 25 6f 20 3e 26 d9 a2 bd
       0.25625828 0.16890463 0.15667398 -0.07951574
000120 81 fb a7 be 19 b8 c1 b8 75 74 1c be 6d 14 92 be
       -0.3280907 -9.237248e-05 -0.152788 -0.2853121
000130 60 c0 97 3e 28 01 16 3c 01 be 95 bc 6c d8 a8 38
       0.29638958 0.009155549 -0.018279077 8.051176e-05
000140 01 f9 b6 3d fe 42 1c bc e8 85 a6 3b a7 00 77 b7
       0.089342125 -0.009537457 0.005081881 -1.4722499e-05
000150 13 03 57 38 e5 d5 ed 3c 5a 32 54 bc d8 c3 74 3d
       5.1262858e-05 0.029032657 -0.012951458 0.059757084
000160 49 36 84 be 18 75 76 bd 55 ee 63 3d ba 1a d0 3c
       -0.25822666 -0.060170263 0.055647213 0.02540337
000170 a9 f9 54 3e 26 d9 a5 3e 2b a0 12 b9 b6 a0 91 be
       0.20798363 0.32392234 -0.00013983312 -0.28442925
000180 67 17 be 3c 59 11 85 3d d3 a5 2f 3e db 53 37 bc
       0.023204518 0.064974494 0.171531 -0.011189426
000190 e1 4d 39 3e 6e 98 fc b9 54 6a 8e be 42 29 28 b8
       0.18096115 -0.00048178755 -0.27815497 -4.0092746e-05
0001a0 cc db ea 3c 60 3f 97 be 0e 85 fb 3c 04 5a a6 3e
       0.02866926 -0.2954054 0.030703094 0.3249055
0001b0 f6 15 07 3d e9 67 ed bc b3 7d 5e 3c f2 e8 bb 3c
       0.032979928 -0.028980212 0.013579774 0.022938225
0001c0 0b 95 49 be e5 36 4f 3e 02 24 9c 3c b4 19 01 be
       -0.19685762 0.20235784 0.019060139 -0.12607461
0001d0 3e 91 b2 37 0f 45 1a 3e c8 e3 89 be d9 ab ab 3e
       2.1286887e-05 0.15065406 -0.26931596 0.33529547
0001e0 81 e9 ad be b3 b8 1c 3a a6 b8 78 bc 92 7f e1 3c
       -0.33967212 0.000597845 -0.015180742 0.02752665
0001f0 06 b9 2d bd 8a 0a 8f 3e 0d c2 01 39 f3 f0 68 bc
       -0.04241278 0.27937728 0.00012374688 -0.014217603
000200 18 8e 3a 3e f8 ea 69 bd 11 a0 3e 3e 3b 52 76 bd
       0.18218267 -0.05710885 0.18615748 -0.060137015
000210 79 2c 80 be e3 42 62 3d ca 14 81 be c3 95 4d 3e
       -0.2503393 0.05523957 -0.25211173 0.20076661
000220 f0 51 b5 3c 4e a4 0d b9 d4 22 43 3e d3 33 57 3e
       0.022133797 -0.00013508016 0.19056255 0.21015863
000230 5b 9f 7c bd b0 4d 1d be d8 de c1 bd 28 09 c6 b8
       -0.06167541 -0.15361667 -0.09466332 -9.443081e-05
000240 b3 19 46 be e9 5a 75 3c 33 08 22 be fd e2 0a b9
       -0.19345741 0.014975288 -0.1582344 -0.00013245265
000250 54 60 c7 bc 8a 95 21 be 87 7d 85 3d 85 73 79 be
       -0.024337925 -0.15779701 0.06518083 -0.24360473
000260 de 71 4d 3e da 0c 41 3e 9c 7e 1a be d2 19 65 be
       0.20062968 0.18852559 -0.1508736 -0.22373131
000270 28 84 ae 3c bb 05 1f bc 1b c2 ed 39 57 0c 18 bd
       0.021303251 -0.009705956 0.00045348782 -0.037121143
000280 08 0e 46 3b 10 c1 5a 3d f2 9c ef bd 2e 28 4a bd
       0.0030220766 0.053406775 -0.11699857 -0.049354725
000290 a2 7f dd bc 7b 29 76 3d f4 1a e2 bb 54 4c 14 b9
       -0.0270384 0.060098153 -0.0069001857 -0.00014142814
0002a0 35 49 06 3d 52 79 7e bb 97 35 e3 3d 36 f9 da 3c
       0.03278466 -0.0038829637 0.11094206 0.026730161
0002b0 77 2f 33 3e c0 80 9d be a2 fa 38 3d 70 97 98 be
       0.17498575 -0.3076229 0.045160897 -0.29803038
0002c0 da 26 71 bd 22 21 5d 3c 7e 26 b8 3d 9e aa 66 be
       -0.058874942 0.013496669 0.08991717 -0.22526023
0002d0 58 94 17 38 b7 0c 86 3d e9 18 8c 3c eb ff 0a be
       3.613936e-05 0.06545394 0.017101722 -0.13574187
0002e0 41 79 f7 3d cc 2f 91 b9 ca f5 fd 3c 80 62 89 3d
       0.12083674 -0.00027692167 0.03100099 0.067082405
0002f0 e1 b0 85 3d 1f c9 62 bd aa 54 fe 37 47 8a 69 be
       0.065278776 -0.055367585 3.0318584e-05 -0.22806655
000300 49 ee 96 3d 23 67 0f 3d af 18 00 be e4 2b 6e 3c
       0.07369668 0.03501047 -0.12509416 0.0145368315
000310 8f 03 f3 bc 1e 6a 0e 3e 68 1a 82 bd 3c 23 6d 3d
       -0.029664783 0.13907668 -0.06352693 0.05789493
000320 7f d3 1a be 69 cf 58 3c 55 82 24 3e 75 bb 6c 3c
       -0.15119742 0.013233044 0.16065343 0.01444899
000330 c5 52 98 3d cf d0 0f 3d b4 5c 17 bd 6f b7 da b8
       0.07437662 0.035111245 -0.036953643 -0.00010429217
000340 63 18 37 be 75 cf 22 3b 64 fe 46 bd 3b 71 a0 38
       -0.17880397 0.0024842892 -0.04858245 7.650485e-05
000350 78 16 04 bc d5 78 90 bd 83 c8 13 3e 83 ec 35 be
       -0.008061998 -0.07054297 0.14431958 -0.17766003
000360 a7 3d a4 3d 3a 77 3b 3e ab a3 20 3e 0f a7 46 be
       0.08019572 0.183072 0.15687434 -0.19399665
000370 32 51 56 3e dc 1f d6 3d 56 53 97 38 f5 9d 02 be
       0.20929411 0.104552954 7.2157636e-05 -0.12755568
000380 81 02 f2 3c 86 24 03 bd 45 3e 58 bd 33 8b 58 3d
       0.02954221 -0.032017253 -0.05279376 0.052867126
000390 a5 c3 ac bc 12 0f fd 3d 3d 14 12 be 50 00 1f b9
       -0.021089384 0.1235639 -0.14265533 -0.00015163538
0003a0 b5 24 20 3e c1 1c 0b be 13 f3 4e 3e 24 69 f3 3d
       0.15639003 -0.13585187 0.20209913 0.11885288
0003b0 4f 56 44 3e 18 57 07 be 74 37 11 3e 48 55 28 be
       0.19173549 -0.13216817 0.1418131 -0.16438782
0003c0 d4 6e 5b be 2a 49 20 3e ba 43 09 3e e4 22 2e be
       -0.21428996 0.1565291 0.13404742 -0.17005497
0003d0 0b 13 a8 b7 fa 3b 21 3e f1 40 22 be 0a 1e e8 3d
       -2.0036028e-05 0.15745535 -0.15845086 0.113338545
0003e0 20 6a 6d bd 10 ce 80 3a 10 93 01 3d d0 32 3d 3e
       -0.057962537 0.0009827036 0.03163439 0.18476415
0003f0 bf fc 9b bd 59 8a 01 3e 51 02 5d 38 71 2a 10 be
       -0.07616567 0.12650432 5.2692663e-05 -0.1407869

latent_encoder.bias f4 [16]
000000 29 e5 55 bd f4 bd 97 3b 86 ad f4 3c 9e e4 2e bd
       -0.052220497 0.0046307985 0.029867899 -0.042698495
000010 1f 02 31 ba 0f 60 32 3d 29 c4 5f 3d 2e 68 15 3e
       -0.000675233 0.04354864 0.054630432 0.14590523
000020 69 50 e2 bb ed 8e 6c 3d d0 80 5a 3d 25 14 cc 3b
       -0.0069065583 0.057753492 0.0533455 0.0062279874
000030 81 9c 8a 3c bd be 0a bd b9 53 b2 bd b6 4c a0 ba
       0.01692033 -0.03387331 -0.08707375 -0.0012229893

flow.flow.mean f4 [4, 16]
000000 00 00 00 00 00 00 00 00 00 00 00 00 00 00 00 00
       0.0 0.0 0.0 0.0
000010 00 00 00 00 00 00 00 00 00 00 00 00 00 00 00 00
       0.0 0.0 0.0 0.0
000020 00 00 00 00 00 00 00 00 00 00 00 00 00 00 00 00
       0.0 0.0 0.0 0.0
000030 00 00 00 00 00 00 00 00 00 00 00 00 00 00 00 00
       0.0 0.0 0.0 0.0
000040 00 00 00 00 00 00 00 00 00 00 00 00 00 00 00 00
       0.0 0.0 0.0 0.0
000050 00 00 00 00 00 00 00 00 00 00 00 00 00 00 00 00
       0.0 0.0 0.0 0.0
000060 00 00 00 00 00 00 00 00 00 00 00 00 00 00 00 00
       0.0 0.0 0.0 0.0
000070 00 00 00 00 00 00 00 00 00 00 00 00 00 00 00 00
       0.0 0.0 0.0 0.0
000080 00 00 00 00 00 00 00 00 00 00 00 00 00 00 00 00
       0.0 0.0 0.0 0.0
000090 00 00 00 00 00 00 00 00 00 00 00 00 00 00 00 00
       0.0 0.0 0.0 0.0
0000a0 00 00 00 00 00 00 00 00 00 00 00 00 00 00 00 00
       0.0 0.0 0.0 0.0
0000b0 00 00 00 00 00 00 00 00 00 00 00 00 00 00 00 00
       0.0 0.0 0.0 0.0
0000c0 00 00 00 00 00 00 00 00 00 00 00 00 00 00 00 00
       0.0 0.0 0.0 0.0
0000d0 00 00 00 00 00 00 00 00 00 00 00 00 00 00 00 00
       0.0 0.0 0.0 0.0
0000e0 00 00 00 00 00 00 00 00 00 00 00 00 00 00 00 00
       0.0 0.0 0.0 0.0
0000f0 00 00 00 00 00 00 00 00 00 00 00 00 00 00 00 00
       0.0 0.0 0.0 0.0

flow.flow.cov f4 [4, 16, 16]
000000 00 00 80 3f 00 00 00 00 00 00 00 00 00 00 00 00
       1.0 0.0 0.0 0.0
000010 00 00 00 00 00 00 00 00 00 00 00 00 00 00 00 00
       0.0 0.0 0.0 0.0
000020 00 00 00 00 00 00 00 00 00 00 00 00 00 00 00 00
       0.0 0.0 0.0 0.0
000030 00 00 00 00 00 00 00 00 00 00 00 00 00 00 00 00
       0.0 0.0 0.0 0.0
000040 00 00 00 00 00 00 80 3f 00 00 00 00 00 00 00 00
       0.0 1.0 0.0 0.0
000050 00 00 00 00 00 00 00 00 00 00 00 00 00 00 00 00
       0.0 0.0 0.0 0.0
000060 00 00 00 00 00 00 00 00 00 00 00 00 00 00 00 00
       0.0 0.0 0.0 0.0
000070 00 00 00 00 00 00 00 00 00 00 00 00 00 00 00 00
       0.0 0.0 0.0 0.0
000080 00 00 00 00 00 00 00 00 00 00 80 3f 00 00 00 00
       0.0 0.0 1.0 0.0
000090 00 00 00 00 00 00 00 00 00 00 00 00 00 00 00 00
       0.0 0.0 0.0 0.0
0000a0 00 00 00 00 00 00 00 00 00 00 00 00 00 00 00 00
       0.0 0.0 0.0 0.0
0000b0 00 00 00 00 00 00 00 00 00 00 00 00 00 00 00 00
       0.0 0.0 0.0 0.0
0000c0 00 00 00 00 00 00 00 00 00 00 00 00 00 00 80 3f
       0.0 0.0 0.0 1.0
0000d0 00 00 00 00 00 00 00 00 00 00 00 00 00 00 00 00
       0.0 0.0 0.0 0.0
0000e0 00 00 00 00 00 00 00 00 00 00 00 00 00 00 00 00
       0.0 0.0 0.0 0.0
0000f0 00 00 00 00 00 00 00 00 00 00 00 00 00 00 00 00
       0.0 0.0 0.0 0.0
000100 00 00 00 00 00 00 00 00 00 00 00 00 00 00 00 00
       0.0 0.0 0.0 0.0
000110 00 00 80 3f 00 00 00 00 00 00 00 00 00 00 00 00
       1.0 0.0 0.0 0.0
000120 00 00 00 00 00 00 00 00 00 00 00 00 00 00 00 00
       0.0 0.0 0.0 0.0
000130 00 00 00 00 00 00 00 00 00 00 00 00 00 00 00 00
       0.0 0.0 0.0 0.0
000140 00 00 00 00 00 00 00 00 00 00 00 00 00 00 00 00
       0.0 0.0 0.0 0.0
000150 00 00 00 00 00 00 80 3f 00 00 00 00 00 00 00 00
       0.0 1.0 0.0 0.0
000160 00 00 00 00 00 00 00 00 00 00 00 00 00 00 00 00
       0.0 0.0 0.0 0.0
000170 00 00 00 00 00 00 00 00 00 00 00 00 00 00 00 00
       0.0 0.0 0.0 0.0
000180 00 00 00 00 00 00 00 00 00 00 00 00 00 00 00 00
       0.0 0.0 0.0 0.0
000190 00 00 00 00 00 00 00 00 00 00 80 3f 00 00 00 00
       0.0 0.0 1.0 0.0
0001a0 00 00 00 00 00 00 00 00 00 00 00 00 00 00 00 00
       0.0 0.0 0.0 0.0
0001b0 00 00 00 00 00 00 00 00 00 00 00 00 00 00 00 00
       0.0 0.0 0.0 0.0
0001c0 00 00 00 00 00 00 00 00 00 00 00 00 00 00 00 00
       0.0 0.0 0.0 0.0
0001d0 00 00 00 00 00 00 00 00 00 00 00 00 00 00 80 3f
       0.0 0.0 0.0 1.0
0001e0 00 00 00 00 00 00 00 00 00 00 00 00 00 00 00 00
       0.0 0.0 0.0 0.0
0001f0 00 00 00 00 00 00 00 00 00 00 00 00 00 00 00 00
       0.0 0.0 0.0 0.0
000200 00 00 00 00 00 00 00 00 00 00 00 00 00 00 00 00
       0.0 0.0 0.0 0.0
000210 00 00 00 00 00 00 00 00 00 00 00 00 00 00 00 00
       0.0 0.0 0.0 0.0
000220 00 00 80 3f 00 00 00 00 00 00 00 00 00 00 00 00
       1.0 0.0 0.0 0.0
000230 00 00 00 00 00 00 00 00 00 00 00 00 00 00 00 00
       0.0 0.0 0.0 0.0
000240 00 00 00 00 00 00 00 00 00 00 00 00 00 00 00 00
       0.0 0.0 0.0 0.0
000250 00 00 00 00 00 00 00 00 00 00 00 00 00 00 00 00
       0.0 0.0 0.0 0.0
000260 00 00 00 00 00 00 80 3f 00 00 00 00 00 00 00 00
       0.0 1.0 0.0 0.0
000270 00 00 00 00 00 00 00 00 00 00 00 00 00 00 00 00
       0.0 0.0 0.0 0.0
000280 00 00 00 00 00 00 00 00 00 00 00 00 00 00 00 00
       0.0 0.0 0.0 0.0
000290 00 00 00 00 00 00 00 00 00 00 00 00 00 00 00 00
       0.0 0.0 0.0 0.0
0002a0 00 00 00 00 00 00 00 00 00 00 80 3f 00 00 00 00
       0.0 0.0 1.0 0.0
0002b0 00 00 00 00 00 00 00 00 00 00 00 00 00 00 00 00
       0.0 0.0 0.0 0.0
0002c0 00 00 00 00 00 00 00 00 00 00 00 00 00 00 00 00
       0.0 0.0 0.0 0.0
0002d0 00 00 00 00 00 00 00 00 00 00 00 00 00 00 00 00
       0.0 0.0 0.0 0.0
0002e0 00 00 00 00 00 00 00 00 00 00 00 00 00 00 80 3f
       0.0 0.0 0.0 1.0
0002f0 00 00 00 00 00 00 00 00 00 00 00 00 00 00 00 00
       0.0 0.0 0.0 0.0
000300 00 00 00 00 00 00 00 00 00 00 00 00 00 00 00 00
       0.0 0.0 0.0 0.0
000310 00 00 00 00 00 00 00 00 00 00 00 00 00 00 00 00
       0.0 0.0 0.0 0.0
000320 00 00 00 00 00 00 00 00 00 00 00 00 00 00 00 00
       0.0 0.0 0.0 0.0
000330 00 00 80 3f 00 00 00 00 00 00 00 00 00 00 00 00
       1.0 0.0 0.0 0.0
000340 00 00 00 00 00 00 00 00 00 00 00 00 00 00 00 00
       0.0 0.0 0.0 0.0
000350 00 00 00 00 00 00 00 00 00 00 00 00 00 00 00 00
       0.0 0.0 0.0 0.0
000360 00 00 00 00 00 00 00 00 00 00 00 00 00 00 00 00
       0.0 0.0 0.0 0.0
000370 00 00 00 00 00 00 80 3f 00 00 00 00 00 00 00 00
       0.0 1.0 0.0 0.0
000380 00 00 00 00 00 00 00 00 00 00 00 00 00 00 00 00
       0.0 0.0 0.0 0.0
000390 00 00 00 00 00 00 00 00 00 00 00 00 00 00 00 00
       0.0 0.0 0.0 0.0
0003a0 00 00 00 00 00 00 00 00 00 00 00 00 00 00 00 00
       0.0 0.0 0.0 0.0
0003b0 00 00 00 00 00 00 00 00 00 00 80 3f 00 00 00 00
       0.0 0.0 1.0 0.0
0003c0 00 00 00 00 00 00 00 00 00 00 00 00 00 00 00 00
       0.0 0.0 0.0 0.0
0003d0 00 00 00 00 00 00 00 00 00 00 00 00 00 00 00 00
       0.0 0.0 0.0 0.0
0003e0 00 00 00 00 00 00 00 00 00 00 00 00 00 00 00 00
       0.0 0.0 0.0 0.0
0003f0 00 00 00 00 00 00 00 00 00 00 00 00 00 00 80 3f
       0.0 0.0 0.0 1.0

flow.flow.transforms.0.x0 f4 [4, 16]
000000 f1 1b fe ba e0 4d c2 be 28 e0 66 3e af e0 03 be
       -0.0019386989 -0.3795004 0.22546446 -0.12878679
000010 fa 64 e9 3d b4 b0 5e be 82 5c 3f 3d 7a 4c 25 be
       0.11396213 -0.21747094 0.04671908 -0.16142455
000020 44 ba 30 3e 42 93 43 be 17 50 61 be 54 82 7e bd
       0.17258555 -0.19099143 -0.22003208 -0.06213601
000030 ce f4 9b 3c a1 33 2e 3c ed ee c6 3d a2 ea ac 3e
       0.01903763 0.0106324265 0.0971354 0.3377276
000040 09 c0 7e 3e 38 1b 64 bd f6 66 79 bb 1e 58 c7 bd
       0.24877943 -0.05569002 -0.0038055754 -0.09733604
000050 8e cf 90 3e 3c 51 37 be 65 7f 64 be 37 84 7d be
       0.28283352 -0.17902082 -0.22314222 -0.24757467
000060 e2 8f ad 3e fb 36 99 be 06 4f 9c bd 00 b6 7a be
       0.33898836 -0.2992476 -0.0763226 -0.2448349
000070 cc 4e d0 bc 33 35 2d 3e e7 99 99 3e 98 67 7d be
       -0.025428198 0.16914825 0.3000023 -0.24746549
000080 05 53 85 3e 57 5e 5b 3c 60 02 ec 3d f3 7a 09 3e
       0.260399 0.013389192 0.115238905 0.13425808
000090 84 d2 17 be 61 b9 f9 bc 3c 05 87 be df 92 91 bd
       -0.14826399 -0.030483903 -0.2637118 -0.071080916
0000a0 26 43 42 be 45 77 f9 3c 35 4b 30 3e d9 fb b7 bd
       -0.18970928 0.03045238 0.17216189 -0.08983583
0000b0 94 2e 8a be 47 c9 10 be 84 e1 11 3e 59 91 bb be
       -0.2698866 -0.14139281 0.14246184 -0.3663433
0000c0 2d 2f c3 bd b5 05 d6 bd f2 25 d3 bd ae d7 cf be
       -0.095304824 -0.10450307 -0.10309972 -0.40594238
0000d0 c2 f1 a6 3e 07 31 60 bd ef e0 9f 3e 8c 33 21 be
       0.32606322 -0.054734256 0.31226298 -0.1574232
0000e0 67 87 3b be c4 41 73 be c8 da b0 3e e2 fa 7e be
       -0.1831337 -0.23755556 0.34541917 -0.24900392
0000f0 5d 40 4f 3d 2b 67 ba 3e 80 12 75 3c ac 26 94 be
       0.05059849 0.36406836 0.014958024 -0.28935754

flow.flow.transforms.0.alpha_prime f4 [4]
000000 a5 89 6c be 93 85 56 3e b2 2b 7a be fc 1e 89 bc
       -0.23099382 0.20949392 -0.24430731 -0.016738407

flow.flow.transforms.0.beta_prime f4 [4]
000000 d1 60 75 3e ee 1e a6 3a 95 f2 44 3e eb ae 6e 3e
       0.23962714 0.0012674013 0.19233163 0.23308913

flow.flow.transforms.1.x0 f4 [4, 16]
000000 1c c8 83 3c 81 77 20 3e 21 10 11 bd 0a a4 04 3d
       0.01608663 0.15670587 -0.035415772 0.032383002
000010 fd 53 6f bd a0 0a 66 3e 66 9f 45 3c 28 10 0f 3e
       -0.058429707 0.2246499 0.012061929 0.13971007
000020 a4 e6 a8 be 8e 70 14 3e 06 81 96 3e 07 3d 46 3d
       -0.32988465 0.14496061 0.29395312 0.048398044
000030 7d 8f d5 bd c7 73 21 bd 43 6b da bd a2 60 ad be
       -0.10427759 -0.039417055 -0.1066499 -0.33862787
000040 bd f1 a5 3e 9f bc 6b be 65 c7 fd 3c c4 d5 78 3e
       0.32410994 -0.23021172 0.030978868 0.24300295
000050 34 cc 0c be af 9b 76 be f0 0b 51 3e e7 f1 9f be
       -0.13749772 -0.24082826 0.2041471 -0.31239244
000060 6c 05 f9 3e e4 58 7c be c5 83 84 be c7 d0 30 3e
       0.4863695 -0.24643284 -0.25881782 0.17267142
000070 03 2a 70 3d ac b0 84 3e cb d9 d3 3e 35 0a cc 3d
       0.058633815 0.2591604 0.413771 0.09962884
000080 c0 e2 03 3e 60 fa 67 be 9f 02 49 be 2a 6a 81 be
       0.12879467 -0.22654104 -0.19629906 -0.2527631
000090 31 a5 23 be e2 20 5f 3e 82 98 6c 3e ed dd 04 be
       -0.15980984 0.21789888 0.23105052 -0.12975283
0000a0 be e9 a4 3e 4f 75 80 be 05 4c b9 bd 6c ec f5 3d
       0.3220958 -0.250895 -0.09047703 0.120079845
0000b0 64 19 ab 3e f2 d7 25 be 79 04 9d be f6 b2 bc 3e
       0.3341781 -0.16195658 -0.30667475 0.36855286
0000c0 e8 b7 c6 3d 3e 71 27 3a bd 2c 62 3e 9f b3 54 3e
       0.09703046 0.0006387419 0.22087379 0.20771645
0000d0 da ce 62 be 65 5c be bd e0 f8 49 be 9e 03 08 3e
       -0.2214922 -0.092949666 -0.19723845 0.1328263
0000e0 62 30 5c bd a5 0f 3b 3e 25 de 73 bd 31 1b 82 3d
       -0.05375708 0.18267687 -0.059538025 0.063528426
0000f0 eb 1b 25 bd ab 0a 8c be 8a 7e 1f be e0 60 25 3d
       -0.040309828 -0.2735189 -0.15575615 0.04037559

flow.flow.transforms.1.alpha_prime f4 [4]
000000 63 ac 4b 3e c4 38 4e 3d a3 21 e0 3d 5e 98 5c 3e
       0.19889979 0.050347105 0.10943916 0.21542498

flow.flow.transforms.1.beta_prime f4 [4]
000000 f4 9b 90 be 79 01 58 3d 0e a8 17 be 26 0f 33 bd
       -0.28243983 0.05273578 -0.14810202 -0.04371562

flow.flow.transforms.2.x0 f4 [4, 16]
000000 7b ca 13 3e 4b 42 7b be 90 1b 15 3e c7 44 88 3e
       0.14432709 -0.24537008 0.14561296 0.26614973
000010 68 6a 9c 3e a4 64 11 be 37 09 fd 3d 90 3d 97 3c
       0.30549932 -0.14198548 0.12355273 0.018461972
000020 91 71 af 3d 94 c8 b9 be d6 47 6b be d3 fe d6 be
       0.08566583 -0.3628584 -0.22976622 -0.4199129
000030 4f 52 83 3e 23 5b 0c be 47 04 bc 3d 45 b9 33 3e
       0.25648734 -0.13706641 0.09180503 0.17551143
000040 bc 84 0e be 99 08 6e 3e 8d b1 6f 3d 12 75 d3 bc
       -0.13917822 0.23245467 0.058518935 -0.02581266
000050 fc d1 a8 bd 88 58 c3 3b 8a a7 2e 3e 08 4f 83 3e
       -0.08243176 0.0059614815 0.17056099 0.25646234
000060 30 85 be be 50 f4 ea 3e 73 93 32 bd 8b a6 95 3e
       -0.3721099 0.4588952 -0.04359765 0.29228625
000070 d6 f0 19 3e 78 4b 9d be 6e 30 03 bf 9b 5a 95 3e
       0.15033278 -0.3072164 -0.5124577 0.2917069
000080 8f 6e d1 be f2 20 49 be 8d 16 9a be 31 2e da 3c
       -0.40904662 -0.19641474 -0.3009533 0.026633354
000090 38 ba 74 3e 1d 05 4e 3e 56 4f c9 3e 1d f1 75 be
       0.23899162 0.20119138 0.3931834 -0.24017759
0000a0 af 0c d6 bc c6 4f 28 3d 89 38 4c 3e 22 80 00 3e
       -0.026129095 0.041091703 0.19943441 0.12548879
0000b0 f1 92 ad 3e 84 2c 36 be 1a 5d 82 3d 6e 4e f0 3c
       0.3390117 -0.17790419 0.06365414 0.029334273
0000c0 6b 2b bf 3b 97 66 2c be 9d e2 59 be 3c 91 6f bd
       0.0058340332 -0.1683601 -0.21277852 -0.058488116
0000d0 15 a6 aa 3e 22 24 c2 3e aa 87 8a 3e a2 51 26 be
       0.33329836 0.37918192 0.27056628 -0.16242078
0000e0 d2 f2 be 3c 1b 42 7b be 52 b2 4d 3e 24 7c df 3d
       0.023309145 -0.24536936 0.20087555 0.1091235
0000f0 29 e1 4d be de ec bc 3e 0b 1a d9 3d c1 8b 61 be
       -0.20105423 0.36899465 0.106006704 -0.22025968

flow.flow.transforms.2.alpha_prime f4 [4]
000000 b2 af 48 be be f0 de be 9b 9d 2b bd 88 99 9e be
       -0.19598272 -0.43543047 -0.04189835 -0.3097651

flow.flow.transforms.2.beta_prime f4 [4]
000000 3d ca e3 bd 5e 46 cb 3e d6 99 4a be d4 d2 61 3e
       -0.11122558 0.39702123 -0.19785246 0.22053081

flow.flow.transforms.3.x0 f4 [4, 16]
000000 86 17 8e bb 08 53 f9 be 28 1a a2 3e f5 24 5a bd
       -0.0043363003 -0.4869616 0.3166058 -0.0532579
000010 3c 25 8b 3d ee a1 94 be 82 c1 ff bc 34 82 54 be
       0.06794211 -0.29029793 -0.031220201 -0.20752794
000020 14 5d fe 3e 99 11 81 be a9 28 08 bd 98 14 04 bd
       0.49680388 -0.25208738 -0.0332419 -0.032246202
000030 4e e0 8f 3c 8d c5 98 3d 3f 95 9c 3c b0 0b ac 3d
       0.017563011 0.07459555 0.019114135 0.08400667
000040 87 c3 95 3e f2 a8 85 bd a8 6a 53 3d 61 9e 19 3d
       0.29250738 -0.065263644 0.051615387 0.037504558
000050 20 82 87 3e f2 a6 f0 bd 8f 9a 96 bd 48 a0 9a be
       0.26466465 -0.11750592 -0.073536985 -0.3020041
000060 bf dc d1 3e 89 1f af be 1b 02 15 be 36 4d 8a bc
       0.40988728 -0.34203747 -0.14551584 -0.01688252
000070 c2 a5 bc be ca 29 7c 3d 38 67 3d 3e a3 ca 98 be
       -0.36845213 0.06156329 0.18496406 -0.298421
000080 11 0c eb 3e 39 ba b3 3e b7 6e e8 3e 9b 14 91 be
       0.45907643 0.35103014 0.4539697 -0.28336033
000090 57 e4 b2 3e 80 92 8b be 78 b4 4c 3e e5 f7 ad be
       0.34939834 -0.27260208 0.19990718 -0.3397819
0000a0 f6 fe 7d bd c4 22 22 be e0 54 d2 be ca 29 e5 be
       -0.062010728 -0.15833575 -0.4108038 -0.44758445
0000b0 5e 50 59 3e 22 f3 43 3e 63 61 84 be 4f 2b 2b 3e
       0.21222064 0.19135717 -0.2585555 0.1671574
0000c0 82 d6 ba 3d 72 2f ef 3d f5 0e cf bd cd fa 4b 3d
       0.09122945 0.11678971 -0.10110275 0.04979973
0000d0 b7 9b 9f be 30 6e 34 be 08 0c dd 3d 42 65 43 3d
       -0.31173488 -0.17620158 0.107933104 0.04770399
0000e0 e2 57 3e bd 0d fe 9e 3e 39 81 18 be 53 38 c4 3d
       -0.04647053 0.310532 -0.14893045 0.095810555
0000f0 c9 c5 57 3d dc f3 ab be c5 ba 5b be 14 60 8a 3e
       0.052678857 -0.33584487 -0.21457966 0.27026427

flow.flow.transforms.3.alpha_prime f4 [4]
000000 1d 0a 70 be 45 7a f2 3d f3 e0 20 3d 10 80 0e 3e
       -0.23441358 0.11839727 0.03927703 0.1391604

flow.flow.transforms.3.beta_prime f4 [4]
000000 d7 43 0e 3d c6 66 db 3c 6a 9e 67 3c 22 12 73 bd
       0.034732666 0.026782405 0.01413689 -0.059343465

flow.flow.transforms.4.x0 f4 [4, 16]
000000 e3 99 73 3c 5c de 49 3e 1a 19 b5 bd e6 be 2d 3d
       0.014868232 0.1971373 -0.08842678 0.042418383
000010 42 2f c4 bd d3 e3 65 3e a4 6c 5e bd 56 cd 55 3e
       -0.09579326 0.2245019 -0.054302827 0.2087911
000020 ee 88 b3 be 3c e1 40 3e e9 11 9a 3e 7f 98 d8 3d
       -0.35065407 0.1883592 0.3009179 0.10575961
000030 48 52 09 bd 60 94 01 be c9 9d 1a be e4 f6 a2 be
       -0.033525735 -0.12654257 -0.15099253 -0.31828988
000040 3e 55 d6 bd db 54 d7 3d a5 37 14 3d e8 6d 73 bb
       -0.104654774 0.10514232 0.03618588 -0.0037144367
000050 c8 21 fe bd de 78 87 3c 6d 19 b9 3d 1d 42 88 3e
       -0.12408787 0.016537126 0.09038053 0.2661294
000060 1b 14 8c be 40 96 a2 3e 0a 7c 88 bd 3d 13 41 3e
       -0.2735909 0.31755257 -0.066642836 0.18854995
000070 e3 c2 aa 3d c8 db ad bd b8 90 d4 be 2a 65 c6 3d
       0.08337953 -0.084891856 -0.41516662 0.09687264
000080 2b 78 79 3e 21 15 19 bb 8c de b2 3d 43 65 ea 3d
       0.24362247 -0.002335854 0.08733854 0.114450954
000090 bc fa 0c be 5e c2 3a bc 41 0c 65 be 1b 4f b1 bd
       -0.13767523 -0.01139888 -0.22367956 -0.08657666
0000a0 19 8a 2f be 56 f5 1f 3c 6c dc 24 3e e9 59 9b bd
       -0.17142524 0.0097630825 0.1609971 -0.075855084
0000b0 8b fd 5e be 27 b0 17 be 88 4d ff 3d 97 82 a5 be
       -0.21776406 -0.1481329 0.1246596 -0.32326195
0000c0 25 04 0e 3e 06 d9 e1 3b 87 f6 76 3e 23 69 34 3e
       0.13868769 0.0068923263 0.2411748 0.17618231
0000d0 4c fb 8b be 10 77 1c be f9 21 69 be 73 92 eb 3d
       -0.27340162 -0.15279794 -0.22766866 0.11502542
0000e0 87 3e a3 bd 5f fc 2f 3e f1 b9 a6 bc 9f 55 fc bc
       -0.079709105 0.17186116 -0.020352336 -0.030802546
0000f0 d0 16 df bd e7 3c a7 be 31 5c 82 3d bd e9 61 3d
       -0.10893023 -0.32663652 0.0636524 0.05515455

flow.flow.transforms.4.alpha_prime f4 [4]
000000 ab 70 a9 3d 67 85 3b be b5 40 6c be a4 bb 04 3e
       0.08273443 -0.18312608 -0.23071559 0.12962204

flow.flow.transforms.4.beta_prime f4 [4]
000000 13 18 91 be 3a 5c b0 3e 36 cd a7 3d d0 6c 67 be
       -0.2833868 0.34445363 0.08193438 -0.22600102

flow.flow.transforms.5.x0 f4 [4, 16]
000000 7e 62 ec 3c 13 e2 ad be 83 3d 70 3e c6 5c 2d bd
       0.028855558 -0.33961543 0.23460965 -0.042324804
000010 49 34 6b 3d a6 98 04 be f2 0c fd 3c e6 9d 1b be
       0.05742291 -0.12948856 0.030889962 -0.15196952
000020 9b 5c b4 3e 4c 86 da bd 07 c3 16 be 4e 78 c9 bd
       0.35226902 -0.10670146 -0.14722835 -0.098373994
000030 5f b6 9a bd 77 52 b7 bd ae 35 ad 3c 70 2f 8f 3e
       -0.07554316 -0.08951276 0.02114376 0.2796588
000040 46 25 6a be 5c 82 26 3e f8 b9 bf 3d 24 d8 82 3d
       -0.22865781 0.16260666 0.093616426 0.06388882
000050 ba 7c 83 be 68 86 ba b9 0c be 59 3e 26 1b aa 3e
       -0.25681096 -0.00035576825 0.21263903 0.33223838
000060 48 64 8a be a1 f8 9f 3c 85 30 1c be db 30 b2 3e
       -0.27029634 0.019527735 -0.15252884 0.348029
000070 38 b8 55 3e 9e 61 85 be c9 82 9c bd 16 3d 17 3e
       0.20871055 -0.26051039 -0.07642133 0.14769396
000080 f1 8d e1 3e 73 d2 88 3a b7 6a 89 bd 0c ea ad 3d
       0.44053605 0.0010438695 -0.06709807 0.084919065
000090 7c 56 a8 be c1 4a de bd 70 7c d7 be 36 63 45 be
       -0.32878482 -0.10854102 -0.42087126 -0.19276127
0000a0 69 a9 a6 be fd f2 a6 bc 04 a7 9f 3e 3a ef 92 3d
       -0.32551125 -0.020379538 0.3118211 0.07174535
0000b0 71 fc c1 be 64 73 7d be 58 06 ce 3c 96 04 19 be
       -0.3788791 -0.2475105 0.02514951 -0.14943156
0000c0 52 7e 92 be 64 8b f3 3d eb bf 24 3d d2 09 d3 be
       -0.28612 0.11891821 0.04022209 -0.4121843
0000d0 49 95 8e 3e 1a 2c 93 3d 46 a3 b3 3e 10 8e 21 be
       0.2784827 0.07186146 0.35085505 -0.15776849
0000e0 fa d8 60 be c4 2e 61 be cc af 98 3e b6 5d 71 be
       -0.2195777 -0.21990496 0.29821622 -0.23570904
0000f0 75 f4 80 bd 8f 24 2b 3d 7e 03 50 3e 32 12 4b 3d
       -0.062966265 0.041782912 0.20313832 0.0495779

flow.flow.transforms.5.alpha_prime f4 [4]
000000 97 1b 26 be 4c e9 43 be 0d c7 67 3d 4b f7 14 be
       -0.16221462 -0.19131964 0.056586314 -0.1454746

flow.flow.transforms.5.beta_prime f4 [4]
000000 93 f2 b6 3e e5 64 7a 3d 08 99 00 3e b4 5f 1c 3e
       0.35731944 0.061131377 0.12558377 0.15270883

flow.flow.transforms.6.x0 f4 [4, 16]
000000 21 a1 f4 bd 67 7d 92 3e 92 5a 35 be 5c b5 5d 3b
       -0.119447954 0.286113 -0.17710331 0.0033830022
000010 e1 20 89 bd 2b 89 40 3e ff b3 91 bc 30 99 5d 3e
       -0.06695724 0.18802325 -0.017786024 0.21640468
000020 62 18 e0 be cc 98 14 3e 90 37 d9 3e a6 34 f7 3d
       -0.43768603 0.14511412 0.42425203 0.12070589
000030 ba c4 61 be 2a 8a d7 3c 3b 13 91 3d 14 93 eb be
       -0.22047701 0.026310999 0.07083746 -0.4601065
000040 e9 a7 63 3e a8 30 65 be 18 17 a3 bd bf fc 9a bd
       0.22232021 -0.22381842 -0.07963389 -0.07567739
000050 9b c9 2a 3e 11 3b 92 bc 1c 3b 2c be 0d b8 79 be
       0.16678469 -0.01785043 -0.16819423 -0.24386616
000060 fa 23 85 3e 99 fa 43 be fd de 13 3e 66 65 81 be
       0.2600401 -0.19138564 0.14440532 -0.25272673
000070 ff bc 96 be 6e 44 4b 3e f0 46 ad 3e f9 b0 a7 be
       -0.29441068 0.19850323 0.33843184 -0.32752207
000080 23 47 ae be f1 42 26 3e 4d 24 24 3e e2 cb 6c bd
       -0.34038648 0.16236474 0.16029473 -0.057811625
000090 19 a1 4e 3e 46 f3 1e be 53 a3 a4 3e 95 72 74 3e
       0.20178641 -0.15522489 0.32155856 0.23871835
0000a0 53 10 57 3e cc 34 06 3e 24 f2 5c be 88 65 08 3c
       0.21002321 0.13106078 -0.21576744 0.008324988
0000b0 d3 3e 5e 3e c0 2b 1e 3e 4e a3 f6 bd 0d 7a 8e 3e
       0.21703653 0.15446377 -0.12042867 0.27827492
0000c0 d7 c8 d0 3d dd 5d f5 3d e2 f8 5b 3d fb fa 05 3e
       0.10194557 0.119807936 0.05370415 0.13084023
0000d0 87 2e 8f be 5c 31 32 be 70 0f 65 be 71 1a 02 3e
       -0.27965185 -0.17401642 -0.2236917 0.12705399
0000e0 65 50 3d bd fe 43 81 3e 74 e6 48 bd d0 3c 25 3e
       -0.04621925 0.25247186 -0.049047902 0.1613648
0000f0 6f 7d 1c 3b d5 dd be be 4f 21 20 be 55 9f 31 3e
       0.0023878475 -0.3727862 -0.15637706 0.17345937

flow.flow.transforms.6.alpha_prime f4 [4]
000000 e8 85 76 3e 36 3a ee 3d c5 24 5b 3e 91 ae 02 3e
       0.24074519 0.116321966 0.21400745 0.12761904

flow.flow.transforms.6.beta_prime f4 [4]
000000 84 2b f0 3d c1 f9 5f be d7 b0 01 be 68 17 1d be
       0.1172705 -0.21872617 -0.12665115 -0.1534096

flow.flow.transforms.7.x0 f4 [4, 16]
000000 41 06 ef 3d 22 40 d0 3d f9 71 05 be 1b f4 1c 3e
       0.11671115 0.10168482 -0.13031758 0.15327494
000010 2e 13 44 be 33 e6 ba 3e e8 30 ff 3c 89 29 9d 3e
       -0.19147941 0.36503753 0.03115125 0.3069575
000020 a8 89 ca be 70 a5 85 3e ec 35 14 3e 0c 40 fb 3d
       -0.39558148 0.2610278 0.14473695 0.12268075
000030 35 a5 24 be 6b 63 d3 bd 27 c2 6e be e3 11 d5 be
       -0.16078646 -0.10321697 -0.2331625 -0.4161521
000040 ae 8e 8e 3e 24 9a a3 be 06 43 8a 3d 22 9e 02 3b
       0.2784323 -0.31953537 0.06751065 0.001993068
000050 e8 0f 1f 3e b1 17 ee 3c f6 c6 72 be d1 d5 8c be
       0.15533412 0.029064031 -0.2370871 -0.2750688
000060 d5 3c 4f 3e a3 db a6 be 45 88 b0 3c 7b d9 0f bd
       0.2023805 -0.32589445 0.021549353 -0.035119515
000070 da 4d b2 be 03 1c 0b 3e 53 23 ca 3e d0 ac bc be
       -0.3482502 0.13584904 0.39480075 -0.36850595
000080 fe 53 7d 3e f7 87 2e 3e 2f bd e1 3d b6 e1 08 3e
       0.24739072 0.17044054 0.11022412 0.13367352
000090 79 27 06 be d1 bd aa 3b c3 d3 74 be 2d 5d a7 bd
       -0.13100995 0.005210616 -0.23908906 -0.08172069
0000a0 42 b4 2c be 05 9b 2b 3c 7f ea e9 3d 68 30 b3 bd
       -0.16865638 0.010473971 0.1142168 -0.08749467
0000b0 51 a6 78 be dc 94 0f be 7c fd 1d 3e 96 ae aa be
       -0.24282195 -0.14021629 0.15428728 -0.33336323
0000c0 69 e2 c4 3d 4c 42 81 bc b2 a4 a1 3e 33 fe 84 bc
       0.09613497 -0.015778683 0.31570965 -0.016234493
0000d0 d4 78 b4 be d8 cd 53 be 72 5d 64 be a3 42 41 3e
       -0.35248435 -0.20683992 -0.22301272 0.18873076
0000e0 76 fa bf bd 9d 98 75 bd f3 7d 7a be 45 ba 2d 3d
       -0.093739435 -0.059959996 -0.24462108 0.04241397
0000f0 1c 88 1e 3e f6 98 91 be e9 1d a6 bd 0b 41 a3 3c
       0.15481609 -0.28437012 -0.08111174 0.019928476

flow.flow.transforms.7.alpha_prime f4 [4]
000000 51 9f bb 3c 18 cd 15 3e 29 6c 1b be 10 ca b7 3d
       0.022903116 0.14629018 -0.15177979 0.08974087

flow.flow.transforms.7.beta_prime f4 [4]
000000 e8 b1 63 be 33 2d 7f bd c0 02 69 bd 4a 68 7f be
       -0.22235835 -0.062298965 -0.05688739 -0.24942127

flow.flow.transforms.8.x0 f4 [4, 16]
000000 29 96 78 bd 7a 99 92 3e 3d af 00 be 2b b5 66 3d
       -0.06069008 0.28632718 -0.12566848 0.05632512
000010 4b a7 14 be 1a 07 65 3e ee 9e 17 3d 38 89 90 3e
       -0.14516942 0.2236599 0.0370168 0.2822969
000020 4d 8c d5 be 08 0a 39 3e 90 d1 ba 3e 2e 78 07 3e
       -0.41708604 0.18070233 0.36488008 0.13229439
000030 ae 01 9c bd bf 19 c2 bd 63 f0 ee bd 70 1a ca be
       -0.07617508 -0.09477567 -0.11666944 -0.39473295
000040 2d b9 96 3e 85 84 f2 be b0 fc 94 3e 0d 6e 32 3e
       0.29438153 -0.4736673 0.29099035 0.17424794
000050 b8 d1 c0 3e fa 16 d9 bd 97 05 95 be 6a 3c 0d 3d
       0.37660003 -0.106000856 -0.29105827 0.034481443
000060 71 a0 b3 bd 20 85 8f 3b dd 27 32 bd 74 92 ad be
       -0.08770836 0.0043798834 -0.043495048 -0.33900797
000070 24 63 c4 3d 36 98 ce 3e 7a ee bd 3d 6b eb f6 3a
       0.09589222 0.40350503 0.092740014 0.001883847
000080 76 c2 38 3d 7a 83 b9 3d 84 db 0c bd 6c a4 12 3e
       0.045107327 0.0905828 -0.034389034 0.14320534
000090 0a b1 ac bd e1 fa 23 bd 6c 09 d3 3e 7c 15 9f 3e
       -0.08432205 -0.04003418 0.41218126 0.3107108
0000a0 69 d7 5d 3e b8 37 79 3d 2b cc 35 3e f0 4c 17 be
       0.21664204 0.060844153 0.17753665 -0.14775443
0000b0 81 c4 83 3e 3b e6 33 bd 82 c4 bf be c5 50 cc 3e
       0.25735858 -0.043920737 -0.3745461 0.39905372
0000c0 b9 fb 8d 3e fb a5 bd bc e8 2d 6e 3b 1f 22 de 3d
       0.27731112 -0.023150435 0.003634328 0.10846352
0000d0 6b 45 68 3e 87 3a fd bc 79 10 3e be c6 a2 2d be
       0.22682731 -0.030911697 -0.18560971 -0.16956624
0000e0 e8 6f 82 be 69 f1 80 3e f5 11 2c bd ab c2 b6 3d
       -0.25476003 0.2518418 -0.042009313 0.08923849
0000f0 ee 66 5f 3e 64 01 8e 3e ed db 25 3e 27 da 40 be
       0.21816608 0.27735436 0.16197176 -0.18833219

flow.flow.transforms.8.alpha_prime f4 [4]
000000 e3 4b 4d 3d 07 fe 03 be 1b 12 1d 3e cf 9f 89 bb
       0.0501212 -0.12889872 0.15338938 -0.004199959

flow.flow.transforms.8.beta_prime f4 [4]
000000 de 31 f7 bd c4 74 12 be 07 df fb bd 4e 8a 2e 3d
       -0.12070058 -0.14302355 -0.122983985 0.042612366

flow.flow.transforms.9.x0 f4 [4, 16]
000000 e0 b6 40 bc a1 b7 db be 64 1a 73 3e b1 ec 51 be
       -0.011762351 -0.42913535 0.23740536 -0.20500447
000010 a7 74 b8 3d b8 13 7e be 9e 82 5b bd fd 71 81 be
       0.09006625 -0.2481221 -0.053591363 -0.2528228
000020 55 9e cd 3e d4 f8 8d be 52 4e 80 be 16 d3 02 be
       0.4015986 -0.27728903 -0.25059754 -0.12775835
000030 f6 2f 9c 3d 3c 0d 97 3d 9b 0a 4f 3e d9 04 a4 3e
       0.07626335 0.07375571 0.2021889 0.32034948
000040 f9 ef 32 3e 23 cc 91 be b8 51 0e 3d 26 0a d4 bd
       0.17474355 -0.28476056 0.0347459 -0.10353498
000050 a4 f2 30 3e a6 1e 20 3d 3a ef fb bd 0d 83 da bd
       0.1728006 0.03909173 -0.12301488 -0.10669527
000060 43 b6 8b 3e fa af 78 be cf 91 eb 3d a4 d0 7b be
       0.27287492 -0.2428588 0.1150242 -0.24591309
000070 1c 5e 7b be 97 71 4d 3e 87 5d 9a 3e 36 62 85 be
       -0.24547619 0.20062862 0.3014948 -0.26051491
000080 a9 ac 5d 3e 03 58 6e 3c a1 a0 cd 3d 0a e4 fa 3d
       0.21647896 0.014547351 0.10040403 0.12250526
000090 b7 a7 fe bd ad e1 eb bc 08 3e 33 be ef 81 50 bd
       -0.12434333 -0.028794134 -0.17504132 -0.050905164
0000a0 11 2f 01 be 18 59 90 3c a0 bc 10 3e be be b6 bd
       -0.1261561 0.017620608 0.14134455 -0.089231
0000b0 1c 30 3e be 2a 61 f8 bd 5f 46 d9 3d 92 66 8a be
       -0.1857304 -0.121279076 0.10609125 -0.2703138
0000c0 4f 58 ad bd 0b 44 09 be 79 9e 37 be 74 d7 7e be
       -0.08464109 -0.13404863 -0.17931546 -0.24886876
0000d0 c7 e8 9e 3e 28 83 a3 3e 16 99 62 3e ea b0 10 be
       0.3103697 0.31936002 0.2212871 -0.14129987
0000e0 80 6e 19 bd 2b 40 58 be 77 76 67 3e e1 3f 40 3c
       -0.037458897 -0.21118228 0.22603785 0.01173398
0000f0 17 55 51 be a9 fa a3 3e 90 a4 d2 3d 6f ed 29 be
       -0.20442615 0.32027176 0.10285294 -0.1659448

flow.flow.transforms.9.alpha_prime f4 [4]
000000 10 70 91 be 1a 8d 28 3e 92 07 5d bd 1c 12 ba be
       -0.2840581 0.16460076 -0.053962298 -0.3634194

flow.flow.transforms.9.beta_prime f4 [4]
000000 8d 80 24 3e 85 2f 42 be d6 39 ab 3d 64 ee 9b 3e
       0.16064663 -0.1896344 0.08360641 0.30455315
