saved_experiments/ood_loc/GPN/1/model_2.pt (torch, 759609 bytes, 36 tensors)

input_encoder.0.weight f4 [64, 2879]
0	0xbd0fe14e	-0.035126977
1	0x3e0c03f4	0.13673383
2	0xbc62142e	-0.0137987565
3	0x3d3336e6	0.043753527
4	0x3c4e29a4	0.01258317
5	0x3e015df3	0.12633495
6	0xbd83f260	-0.06442714
7	0xbd23e711	-0.040015284
8	0x3eaf8403	0.34280404
9	0x3cdbe7d5	0.026843945
10	0x3d469db6	0.04849025
11	0x3d3997c8	0.045310766
12	0xbbe39205	-0.006944897
13	0xbc039190	-0.00803031
14	0xbba8c090	-0.0051499084
15	0xbd8392d6	-0.06424491
16	0x3e980225	0.29689136
17	0xbd7cd740	-0.061728716
18	0x3e087ad5	0.13328107
19	0xbdd99628	-0.10624343
20	0xbd96bc16	-0.07360093
21	0x3db38a1d	0.087665774
22	0xbdbdb301	-0.09262658
23	0xbd862a79	-0.0655107
24	0xbd52d0e5	-0.05146875
25	0x3e260bec	0.16215485
26	0x3d2fc462	0.042911895
27	0x3e718a81	0.23587991
28	0xbd6d0ca9	-0.0578734
29	0xbe184962	-0.14871743
30	0x3dc6a4cf	0.096994035
31	0xbb300ef1	-0.0026864375
32	0xbcdf0a67	-0.02722664
33	0x3d5e0fe2	0.054214366
34	0x3dace8a4	0.0844281
35	0x3d55a034	0.052154735
36	0xbda49a54	-0.08037248
37	0xbd44128c	-0.04786925
38	0xbd47e888	-0.048805743
39	0xbd4440cf	-0.04791337
40	0xbda62b5e	-0.081137404
41	0xbca7ffe7	-0.020507766
42	0x3cd907f5	0.026493052
43	0xbb174cf0	-0.002308663
44	0xbdbd13b3	-0.09232273
45	0xbe58fff0	-0.21191382
46	0x3c53f592	0.0129369665
47	0x3e8fd9cb	0.2809585
48	0x3da4df48	0.080504
49	0x3ca77d5a	0.020445514
50	0xbcc076ef	-0.023494212
51	0x3cd1cd32	0.02561054
52	0xbe0842cc	-0.13306731
53	0xbe1da5ef	-0.1539533
54	0xbde25b1f	-0.11052536
55	0x3d31e81b	0.043434244
56	0xbd4cb439	-0.04997656
57	0xbd92b69a	-0.07163735
58	0x3cc020b6	0.023453098
59	0xbd633f5e	-0.055480354
60	0xbd122263	-0.035677325
61	0xbc8f83e1	-0.01751894
62	0xbe267a1f	-0.16257523
63	0xbcde2d39	-0.027121173
64	0xbd711f8e	-0.058867984
65	0xbd666c03	-0.05625535
66	0xbe91281c	-0.28350914
67	0xbe45cdc9	-0.19316782
68	0xbdaa9911	-0.08329976
69	0xbdce444b	-0.100716196
70	0x3e62b2f7	0.22138582
71	0xbdc5331c	-0.09628889
72	0x3d467277	0.048449006
73	0x3a8377a6	0.0010030165
74	0xbe0378dd	-0.12839074
75	0x3dc4f7c9	0.09617574
76	0xbd949df8	-0.07256693
77	0x3e9519d7	0.29121277
78	0xbd40be74	-0.04705663
79	0x3df4474d	0.11927662
80	0xbdff7a08	-0.124744475
81	0xbcd56e86	-0.026053678
82	0x3adb0635	0.0016710224
83	0x3e0abe37	0.13549124
84	0xbda61f96	-0.08111493
85	0xbd0cc369	-0.034366045
86	0xbc880a5f	-0.016606508
87	0x3d8a74a9	0.067605324
88	0xbc4b526e	-0.0124097895
89	0xbd42b31f	-0.047534104
90	0x3cc65b92	0.024213586
91	0x3e393938	0.18088233
92	0x3e98de57	0.29857132
93	0x3d5c8045	0.053833265
94	0x3c0d4188	0.008621581
95	0x3dd4eb4e	0.10396443
96	0x3e944273	0.28956947
97	0xbc8140f8	-0.01577805
98	0xbccca269	-0.024979787
99	0xbd5452ec	-0.051836893
100	0x3d27b8a9	0.04094759
101	0xbe306827	-0.17227231
102	0x3d8ff37c	0.07028863
103	0xbdc4bf77	-0.096068315
104	0xbde02b28	-0.109457314
105	0xbe3ca931	-0.18423916
106	0xbd66641b	-0.05624781
107	0x3c5a93e5	0.013340925
108	0x3d4829b1	0.048867885
109	0xbdde92e5	-0.10867862
110	0xbc2f3c6f	-0.010695561
111	0x3d5106cc	0.051031873
112	0xbe1406a4	-0.14455658
113	0xbe21c22a	-0.15796724
114	0xbd6c2de4	-0.057660952
115	0xbe1b3214	-0.15155822
116	0x3d0c21c0	0.034211874
117	0xbd69a5bd	-0.057042826
118	0x3e7b2bb8	0.24528396
119	0xbcdeb18d	-0.027184272
120	0xbc5f7eb9	-0.013641053
121	0xbd3fd96d	-0.046838213
122	0xbcb42a32	-0.021992777
123	0x3e398c6f	0.18119977
124	0x3e02c36f	0.12769864
125	0xbc9bc19e	-0.019013222
126	0x3cc6e764	0.024280258
127	0xbe7410eb	-0.23834579
128	0xbc8e3336	-0.017358404
129	0xbd2ba1c6	-0.041902326
130	0x3e45c57e	0.19313619
131	0xbd51a14c	-0.051179215
132	0xbc1df2a1	-0.009640367
133	0x3ea67020	0.3250742
134	0xbda73633	-0.081646346
135	0x3c68d3ae	0.014210625
136	0x3d09e827	0.033668663
137	0xbcad9175	-0.021187523
138	0x3ddd13b1	0.107947715
139	0x3d4b16a7	0.04958215
140	0x3d7aba39	0.061212752
141	0x3c199dd4	0.009376008
142	0xbd9ceb67	-0.07662087
143	0x3e395474	0.18098623
144	0xbddf0595	-0.108897366
145	0xbcabd00e	-0.020973232
146	0xbcf24978	-0.029576048
147	0xbd09afaf	-0.03361481
148	0xba4060ac	-0.0007338624
149	0xbd1aef62	-0.03782595
150	0xbde7276e	-0.112868175
151	0xbd8afbff	-0.06786346
152	0xbdc26f9c	-0.09493944
153	0xbcee1ab4	-0.029065467
154	0x3da930ee	0.08261286
155	0x3b9a92e4	0.0047172178
156	0x3cbb53d6	0.022867125
157	0xbcd58f8e	-0.026069429
158	0xbde54a4b	-0.11195811
159	0x3e68ab96	0.22721705
160	0xbc8c7907	-0.017147554
161	0x3d9d9b55	0.07695643
162	0xbe67afa7	-0.226256
163	0x3eb4afe1	0.35290435
164	0xbe103068	-0.14080966
165	0x3df358b1	0.11882151
166	0xbc9b6358	-0.01896827
167	0xbd487fc8	-0.048949987
168	0x3e8b2dcd	0.2718338
169	0xbda19dc6	-0.07891421
170	0x3e5f5472	0.21809557
171	0xbccc0b8b	-0.024907848
172	0xbd152cbe	-0.036419623
173	0xbdb71ef0	-0.08941448
174	0xbe147cb1	-0.14500691
175	0x3e2cc78d	0.16872998
176	0x3dc2dba8	0.09514552
177	0xbcdcfe25	-0.026976654
178	0x3e075bdd	0.13218637
179	0xbe029e47	-0.1275569
180	0xbe2d7965	-0.1694084
181	0xbccc12c4	-0.024911292
182	0xbdbe95cc	-0.09305915
183	0x3ce65b75	0.028119782
184	0xbcdd08dc	-0.026981764
185	0xbe635f99	-0.22204436
186	0x3c9e00b6	0.019287448
187	0xbcff3d2e	-0.031157102
188	0xbe1ab487	-0.15107928
189	0xbe0f20b7	-0.13977323
190	0xbe2df18e	-0.16986677
191	0x3d000bc4	0.03126122
192	0xbd536590	-0.05161053
193	0xbe643913	-0.22287397
194	0xbe0bcf07	-0.13653193
195	0xbd9ef425	-0.077614106
196	0xbd9429c2	-0.07234527
197	0xbe0efba9	-0.13963188
198	0xbd0169e5	-0.03159513
199	0xbd703e0b	-0.05865292
200	0x3d520bcd	0.051280785
201	0xbd135179	-0.03596637
202	0x3e58aedd	0.21160455
203	0x3d9499c6	0.072558925
204	0xbdf606ff	-0.12013053
205	0xbcb52960	-0.022114456
206	0xbe195284	-0.14972883
207	0x3d874611	0.06605161
208	0x3cdfda98	0.027325913
209	0xbd756ca1	-0.05991805
210	0x3daab966	0.08336143
211	0x3c4ba4ea	0.012429455
212	0x3e24b8ba	0.16086093
213	0x3e3e73f9	0.18598928
214	0x3e85b42f	0.26114032
215	0x3b9be984	0.004758062
216	0x3bc49626	0.0059993444
217	0x3d23b332	0.039965816
218	0xbda7dcbb	-0.08196398
219	0x3e2d00e0	0.16894865
220	0x3cd91e9f	0.02650386
221	0xbda08bb6	-0.07839148
222	0xbab9b268	-0.0014167549
223	0x3ea6eaf5	0.32601133
224	0xbd36a858	-0.04459414
225	0x3c115381	0.008870007
226	0x3c8000e8	0.015625432
227	0xbd76c6de	-0.06024825
228	0xbd4bc1da	-0.049745418
229	0x3c531236	0.01288276
230	0xbcd61cda	-0.026136804
231	0xbc3bc0a0	-0.0114595
232	0x3c08783c	0.008329447
233	0xbd724b68	-0.059153944
234	0xbdec79fb	-0.115467034
235	0x3d2f073b	0.042731505
236	0xbe0413f3	-0.12898235
237	0x3d91d101	0.071199425
238	0xbd80e0d0	-0.062928796
239	0x3d278499	0.04089794
240	0x3db5125f	0.08841395
241	0xbda2fcba	-0.0795836
242	0xbb0203e6	-0.001983875
243	0xbd1cc113	-0.038270067
244	0xbda265ee	-0.07929598
245	0xbd847982	-0.06468488
246	0xbd5cf836	-0.05394765
247	0x3df02267	0.11725312
248	0x3cfc2c01	0.030782701
249	0x3e2d284e	0.16909906
250	0xbda5d768	-0.08097726
251	0xbdeb07d7	-0.11476105
252	0xbe48db4d	-0.19614907
253	0x3d864246	0.065556094
254	0xbd3ee6aa	-0.046606697
255	0xbdf6505b	-0.12027045

input_encoder.0.bias f4 [64]
0	0x3cc12643	0.023577815
1	0xbc86d01c	-0.016456656
2	0x3c51b9ec	0.012800675
3	0x3c96b3a3	0.018396204
4	0xbb8ceb24	-0.004300492
5	0xbd4e649c	-0.050388917
6	0xbb3048bf	-0.0026898829
7	0xbb9f4eef	-0.0048617045
8	0xbca660a0	-0.020309746
9	0x3c1f6f0f	0.009731068
10	0x3a54eed5	0.0008122747
11	0x3a82896a	0.0009959165
12	0x3c70bbea	0.01469324
13	0xbc88a6ad	-0.01668104
14	0xbd62dbec	-0.055385515
15	0x3c2b110c	0.010441076
16	0xbd2e91ed	-0.042619634
17	0x3a8dc1d5	0.0010815213
18	0x3aecc7a3	0.0018064867
19	0x3c17b497	0.009259365
20	0x3c5b0f96	0.013370415
21	0xbcc643fd	-0.024202341
22	0xbcd84048	-0.02639784
23	0xbc265b03	-0.010153535
24	0xbc8d1cce	-0.01722565
25	0xbc36c7ba	-0.011156017
26	0xbbbf6bfe	-0.005841731
27	0x3c77edb4	0.015132356
28	0xbd61240f	-0.05496603
29	0xbc1a228d	-0.009407652
30	0xbcf4a16d	-0.02986213
31	0xbd7104ea	-0.058842577
32	0xbd1dc948	-0.038522035
33	0xbc62779c	-0.013822462
34	0xbd74c082	-0.059753902
35	0xbd4596c4	-0.048239484
36	0xbc1dc8b4	-0.009630371
37	0xbd53953b	-0.05165599
38	0xbc258722	-0.010103019
39	0xbd6196ca	-0.055075444
40	0xbd55f0bf	-0.052231546
41	0xbd4fa5ed	-0.05069535
42	0xbc373aca	-0.01118345
43	0x3ca383a7	0.019960238
44	0xbd5580e6	-0.05212488
45	0xbd6d8b5f	-0.057994243
46	0x3b80b263	0.0039275154
47	0xbd0b3b3e	-0.033992045
48	0xbd755012	-0.059890814
49	0x3cb54839	0.022129165
50	0xbd118896	-0.03553065
51	0xbce298d0	-0.027660757
52	0xbd145e76	-0.036222897
53	0x3b68899e	0.0035482417
54	0xbc76b28a	-0.0150572155
55	0xbe1e2980	-0.15445518
56	0xbd471b79	-0.048610184
57	0x3c816b6a	0.01579829
58	0xbc8aa86f	-0.016926019
59	0x3c6c86c3	0.014436427
60	0x3cbdfdd2	0.02319232
61	0xba9a282d	-0.0011761241
62	0x3cfa14ad	0.030527437
63	0x3d1a81c8	0.037721425

latent_encoder.weight f4 [16, 64]
0	0x3d8cb2da	0.06870051
1	0x3d9eddba	0.07757135
2	0x3e6c3eac	0.23070782
3	0xbe051b0e	-0.12998602
4	0xbeaf6fb0	-0.34264898
5	0x3ec441b2	0.38331372
6	0x3e9485d0	0.2900834
7	0xbd260826	-0.040535115
8	0x3ebadbc5	0.36495796
9	0xbeb691ef	-0.35658213
10	0x3dd22cf1	0.10262478
11	0xbe0c8742	-0.13723472
12	0x3dc94fc9	0.09829671
13	0xbe4dae76	-0.20086083
14	0x37ab28a1	2.0403708e-05
15	0x3c91f1a6	0.017815422
16	0xbb889ba0	-0.0041689426
17	0xbeaac344	-0.333521
18	0x3ec048ae	0.3755545
19	0x3d07ad97	0.033124533
20	0x3d0d3b82	0.03448058
21	0x3ea8e567	0.3298752
22	0x3e49dc0f	0.19712852
23	0x3ec46ad9	0.38362768
24	0xb6d15bfe	-6.2393947e-06
25	0x3ebae47b	0.36502442
26	0xbd7a1980	-0.061059475
27	0x3e872440	0.26394844
28	0x3ae0ed94	0.0017160648
29	0xb78d786b	-1.6864584e-05
30	0x3e165da0	0.14684153
31	0x39229316	0.00015504318
32	0x37cbad7c	2.428027e-05
33	0x3cf17d33	0.029478645
34	0xb745f998	-1.1800228e-05
35	0x3d3bd313	0.045855593
36	0xbe837dcc	-0.25681913
37	0x3d1c7eda	0.038206913
38	0xbe35d463	-0.177568
39	0xbbd11b20	-0.0063814074
40	0x3d6ef971	0.058343355
41	0x3d6ea0d7	0.058258858
42	0x3e8c3d43	0.2739049
43	0xbeb69c5f	-0.35666177
44	0xbc1f735c	-0.009732094
45	0x3cb259ef	0.0217714
46	0xbedf6c1f	-0.43637177
47	0x3e2c49fd	0.168251
48	0x38f74a82	0.00011791756
49	0x3d874def	0.066066615
50	0x3d058790	0.032599986
51	0x3e7d7b5b	0.24754088
52	0xb7a2f312	-1.9425093e-05
53	0xbe8f33f7	-0.27969334
54	0xbe0a4e52	-0.1350644
55	0x3d7ea159	0.062165592
56	0x3d64e40b	0.05588154
57	0x3d2ccfcb	0.042190354
58	0x3d8ca52d	0.06867442
59	0x3e2781a5	0.16358049
60	0x3d7a2566	0.061070822
61	0xbdd103cc	-0.10205802
62	0xbe8bb425	-0.27285877
63	0xbebe7f39	-0.37206438
64	0xbedae1d2	-0.42750412
65	0xbe80ca82	-0.251545
66	0x3e94735d	0.28994265
67	0x3e53de37	0.20690237
68	0x3ddacbe3	0.106834196
69	0x3e4fc25d	0.20288987
70	0x3da89f4f	0.08233511
71	0xbe1dbbf8	-0.15403736
72	0x3cd335f4	0.025782563
73	0x3da3ac4f	0.0799185
74	0x3de42812	0.11140455
75	0x3d9a6db8	0.075404584
76	0x3ea6274c	0.32451856
77	0x3e39fa83	0.18161969
78	0x3a1a42bf	0.000588458
79	0xbeacf25e	-0.3377866
80	0xbc1e1ed5	-0.009650906
81	0x3de3d923	0.111254
82	0x3d88c22d	0.06677661
83	0xbeb2295d	-0.34797183
84	0x3eab188d	0.33417168
85	0x3e2a6ffb	0.1664428
86	0x3e11e8c3	0.14248948
87	0x3e3408bd	0.17581458
88	0xb8a371db	-7.793653e-05
89	0x3e47c3d4	0.19508296
90	0xbdd33d11	-0.10314382
91	0x3e5d0bdc	0.21586555
92	0xbbb53bfc	-0.0055308323
93	0x37f31996	2.8979772e-05
94	0x3e9d8223	0.3076335
95	0xbd9841b3	-0.07434406
96	0xb82ded6a	-4.1467523e-05
97	0xbd49fd3b	-0.049313765
98	0x391a8cb3	0.00014738999
99	0x3c941090	0.018074304
100	0xbb1fd882	-0.0024390523
101	0xbcf99eee	-0.030471291
102	0xbd125139	-0.03572199
103	0xbc269471	-0.010167227
104	0xbcfbc0c9	-0.030731576
105	0x3cc6d991	0.024273666
106	0x3eb11ce7	0.34592363
107	0x3e47d38a	0.1951429
108	0x3cedc59a	0.029024888
109	0x3d8e50a6	0.06948976
110	0x3e98c5b2	0.2983833
111	0xbd13c636	-0.0360777
112	0x3c46c169	0.0121310735
113	0xbec6fe8c	-0.3886608
114	0xbe848b5a	-0.25887567
115	0x3e7b7647	0.24556838
116	0x388b565a	6.644121e-05
117	0x3e91165d	0.28337374
118	0xbdcfd048	-0.10147148
119	0x3b59bc0d	0.003322366
120	0x3da9df5a	0.08294554
121	0xbebb0648	-0.3652823
122	0xbe39cd4c	-0.18144721
123	0x3dbbd435	0.09171335
124	0xbecd1773	-0.40056953
125	0xbde09236	-0.109653875
126	0x3e1020cb	0.1407501
127	0x3e862ffd	0.26208487
128	0xbeddfde2	-0.4335776
129	0xbe3bbff8	-0.18334949
130	0x3e67fbec	0.22654694
131	0x3d89cff9	0.06729121
132	0xbc8b6d30	-0.017019838
133	0x3e7fcade	0.24979731
134	0xbcd7d0cd	-0.026344681
135	0xbdfd53d3	-0.12369504
136	0x3e444e6b	0.19170539
137	0x3d0091d6	0.03138908
138	0x3daa9f7a	0.08331199
139	0x3d828b72	0.06374253
140	0x3e9337ef	0.2875361
141	0x3e178eb8	0.14800537
142	0x3805ccc0	3.190036e-05
143	0xbeb8ef5a	-0.3612011
144	0xbd6eb3c6	-0.058276914
145	0x3d69700e	0.05699163
146	0x3e16962b	0.14705722
147	0xbeae4433	-0.34036407
148	0x3e8609ff	0.261795
149	0x3e9df90f	0.3085408
150	0x3e169832	0.14706495
151	0x3e8fee39	0.28111437
152	0x37d83255	2.5772644e-05
153	0x3e93c6b8	0.28862548
154	0xbc6a7b6c	-0.014311653
155	0x3e7d55e8	0.24739802
156	0x3b2fcf5f	0.0026826484
157	0x380902e6	3.2666045e-05
158	0x3eb58260	0.3545103
159	0x3d6c0043	0.057617437
160	0x3896dc81	7.1936294e-05
161	0xbddba008	-0.10723883
162	0x375c0452	1.3114028e-05
163	0x3d447567	0.047963526
164	0x3c465b02	0.012106659
165	0xbc72a0ab	-0.014808814
166	0xbc6a1d61	-0.014289231
167	0xbd0985dd	-0.033574928
168	0xbd876f45	-0.0661302
169	0xbd8c36f8	-0.06846422
170	0x3e716c6d	0.23576517
171	0x3bd9a062	0.0066414336
172	0x3c35c7ee	0.01109503
173	0xbcaae266	-0.020859908
174	0x3ca70a1b	0.02039056
175	0xbd427edd	-0.047484268
176	0xbc60120c	-0.013676178
177	0xbecf10ba	-0.4044245
178	0xbe9b70d8	-0.3035953
179	0x3e90e741	0.28301433
180	0x380847ed	3.2491913e-05
181	0x3ba46e87	0.0050180587
182	0xbe08c569	-0.13356556
183	0xbc8a8a58	-0.01691167
184	0xbc5e53ef	-0.013569816
185	0xbec63fc2	-0.38720518
186	0x3cb9e596	0.022692483
187	0x3e89d097	0.26916954
188	0xbed46884	-0.4148599
189	0xbe388822	-0.1802068
190	0xbc2705c9	-0.01019425
191	0x3e3c5eac	0.1839549
192	0x3c2320fa	0.009956593
193	0x3de0e87b	0.10981842
194	0x3e5e7284	0.21723372
195	0xbe4c9364	-0.199781
196	0xbe84b90b	-0.25922427
197	0x3e51bdf2	0.20482615
198	0x3d955a3a	0.072926
199	0x3e5deed7	0.21673141
200	0x3d47a3a6	0.04874005
201	0xbea3fb3e	-0.3202762
202	0xbc919300	-0.01777029
203	0x3c166230	0.009178683
204	0x3d6488c4	0.055794492
205	0xbe912fb6	-0.28356713
206	0xb91fe5b7	-0.00015248997
207	0xbca6e95b	-0.020374944
208	0x3b033b5f	0.0020024402
209	0xbe4cafec	-0.19988984
210	0x3e468f5c	0.19390625
211	0x3daa7575	0.083231844
212	0xbdb76cb1	-0.08956278
213	0x3e48e472	0.19618395
214	0x3e4338e8	0.19064677
215	0x3e39d054	0.18145877
216	0x38497fca	4.8041147e-05
217	0x3e48344e	0.19551203
218	0x3e1ed98c	0.15512675
219	0x3e245592	0.16048267
220	0xbc4a991c	-0.012365606
221	0x3781cd80	1.5473692e-05
222	0xbd7cb65a	-0.06169734
223	0xbce520e6	-0.027969789
224	0xb70b3748	-8.297917e-06
225	0x3e04aba1	0.12956096
226	0xb802e743	-3.1209795e-05
227	0xbdcd582a	-0.100265816
228	0x3e77801a	0.2416996
229	0xbcef0a5a	-0.02917974
230	0xbc8ed0c8	-0.017433539
231	0xbdc7fc44	-0.09764913
232	0x3d4a1067	0.04933205
233	0xbd86bf26	-0.065794274
234	0x3d777544	0.060414568
235	0xbeb9f659	-0.3632076
236	0x3c592e3f	0.013255655
237	0xbced6282	-0.028977636
238	0xbeb6053a	-0.35550863
239	0x3d487a84	0.048944965
240	0x360b0774	2.0716952e-06
241	0x3c42772a	0.011869231
242	0x3dd8d3b7	0.105872564
243	0x3d951f88	0.07281405
244	0xb733dde3	-1.0720893e-05
245	0xbeaea1fe	-0.34107965
246	0x3e070226	0.13184413
247	0xba4fb4be	-0.0007923356
248	0xbde5279e	-0.11189197
249	0x3d0858e9	0.033287916
250	0x3e680725	0.22658975
251	0x3d8f2261	0.06988979
252	0x3ca2336c	0.01979991
253	0x3e548657	0.20754372
254	0xbe043ed6	-0.12914595
255	0xbdf7be3c	-0.12096831

latent_encoder.bias f4 [16]
0	0xbd05fa18	-0.03270921
1	0xbd0831f0	-0.03325075
2	0x3d198ba8	0.037486702
3	0x3d136039	0.035980437
4	0x3d91f606	0.07127003
5	0xbd8246b4	-0.06361142
6	0xbdeecbea	-0.11659987
7	0x3db2afac	0.08724913
8	0xbd55eeda	-0.05222974
9	0xbc9ff088	-0.019523874
10	0x3cb5f0a0	0.022209466
11	0x3d048f98	0.032363504
12	0x3d0fd8c8	0.035118848
13	0x3d21f332	0.03953857
14	0x3d6551ee	0.055986337
15	0x3d27b365	0.04094257

flow.flow.mean f4 [4, 16]
0	0x00000000	0.0
1	0x00000000	0.0
2	0x00000000	0.0
3	0x00000000	0.0
4	0x00000000	0.0
5	0x00000000	0.0
6	0x00000000	0.0
7	0x00000000	0.0
8	0x00000000	0.0
9	0x00000000	0.0
10	0x00000000	0.0
11	0x00000000	0.0
12	0x00000000	0.0
13	0x00000000	0.0
14	0x00000000	0.0
15	0x00000000	0.0
16	0x00000000	0.0
17	0x00000000	0.0
18	0x00000000	0.0
19	0x00000000	0.0
20	0x00000000	0.0
21	0x00000000	0.0
22	0x00000000	0.0
23	0x00000000	0.0
24	0x00000000	0.0
25	0x00000000	0.0
26	0x00000000	0.0
27	0x00000000	0.0
28	0x00000000	0.0
29	0x00000000	0.0
30	0x00000000	0.0
31	0x00000000	0.0
32	0x00000000	0.0
33	0x00000000	0.0
34	0x00000000	0.0
35	0x00000000	0.0
36	0x00000000	0.0
37	0x00000000	0.0
38	0x00000000	0.0
39	0x00000000	0.0
40	0x00000000	0.0
41	0x00000000	0.0
42	0x00000000	0.0
43	0x00000000	0.0
44	0x00000000	0.0
45	0x00000000	0.0
46	0x00000000	0.0
47	0x00000000	0.0
48	0x00000000	0.0
49	0x00000000	0.0
50	0x00000000	0.0
51	0x00000000	0.0
52	0x00000000	0.0
53	0x00000000	0.0
54	0x00000000	0.0
55	0x00000000	0.0
56	0x00000000	0.0
57	0x00000000	0.0
58	0x00000000	0.0
59	0x00000000	0.0
60	0x00000000	0.0
61	0x00000000	0.0
62	0x00000000	0.0
63	0x00000000	0.0

flow.flow.cov f4 [4, 16, 16]
0	0x3f800000	1.0
1	0x00000000	0.0
2	0x00000000	0.0
3	0x00000000	0.0
4	0x00000000	0.0
5	0x00000000	0.0
6	0x00000000	0.0
7	0x00000000	0.0
8	0x00000000	0.0
9	0x00000000	0.0
10	0x00000000	0.0
11	0x00000000	0.0
12	0x00000000	0.0
13	0x00000000	0.0
14	0x00000000	0.0
15	0x00000000	0.0
16	0x00000000	0.0
17	0x3f800000	1.0
18	0x00000000	0.0
19	0x00000000	0.0
20	0x00000000	0.0
21	0x00000000	0.0
22	0x00000000	0.0
23	0x00000000	0.0
24	0x00000000	0.0
25	0x00000000	0.0
26	0x00000000	0.0
27	0x00000000	0.0
28	0x00000000	0.0
29	0x00000000	0.0
30	0x00000000	0.0
31	0x00000000	0.0
32	0x00000000	0.0
33	0x00000000	0.0
34	0x3f800000	1.0
35	0x00000000	0.0
36	0x00000000	0.0
37	0x00000000	0.0
38	0x00000000	0.0
39	0x00000000	0.0
40	0x00000000	0.0
41	0x00000000	0.0
42	0x00000000	0.0
43	0x00000000	0.0
44	0x00000000	0.0
45	0x00000000	0.0
46	0x00000000	0.0
47	0x00000000	0.0
48	0x00000000	0.0
49	0x00000000	0.0
50	0x00000000	0.0
51	0x3f800000	1.0
52	0x00000000	0.0
53	0x00000000	0.0
54	0x00000000	0.0
55	0x00000000	0.0
56	0x00000000	0.0
57	0x00000000	0.0
58	0x00000000	0.0
59	0x00000000	0.0
60	0x00000000	0.0
61	0x00000000	0.0
62	0x00000000	0.0
63	0x00000000	0.0
64	0x00000000	0.0
65	0x00000000	0.0
66	0x00000000	0.0
67	0x00000000	0.0
68	0x3f800000	1.0
69	0x00000000	0.0
70	0x00000000	0.0
71	0x00000000	0.0
72	0x00000000	0.0
73	0x00000000	0.0
74	0x00000000	0.0
75	0x00000000	0.0
76	0x00000000	0.0
77	0x00000000	0.0
78	0x00000000	0.0
79	0x00000000	0.0
80	0x00000000	0.0
81	0x00000000	0.0
82	0x00000000	0.0
83	0x00000000	0.0
84	0x00000000	0.0
85	0x3f800000	1.0
86	0x00000000	0.0
87	0x00000000	0.0
88	0x00000000	0.0
89	0x00000000	0.0
90	0x00000000	0.0
91	0x00000000	0.0
92	0x00000000	0.0
93	0x00000000	0.0
94	0x00000000	0.0
95	0x00000000	0.0
96	0x00000000	0.0
97	0x00000000	0.0
98	0x00000000	0.0
99	0x00000000	0.0
100	0x00000000	0.0
101	0x00000000	0.0
102	0x3f800000	1.0
103	0x00000000	0.0
104	0x00000000	0.0
105	0x00000000	0.0
106	0x00000000	0.0
107	0x00000000	0.0
108	0x00000000	0.0
109	0x00000000	0.0
110	0x00000000	0.0
111	0x00000000	0.0
112	0x00000000	0.0
113	0x00000000	0.0
114	0x00000000	0.0
115	0x00000000	0.0
116	0x00000000	0.0
117	0x00000000	0.0
118	0x00000000	0.0
119	0x3f800000	1.0
120	0x00000000	0.0
121	0x00000000	0.0
122	0x00000000	0.0
123	0x00000000	0.0
124	0x00000000	0.0
125	0x00000000	0.0
126	0x00000000	0.0
127	0x00000000	0.0
128	0x00000000	0.0
129	0x00000000	0.0
130	0x00000000	0.0
131	0x00000000	0.0
132	0x00000000	0.0
133	0x00000000	0.0
134	0x00000000	0.0
135	0x00000000	0.0
136	0x3f800000	1.0
137	0x00000000	0.0
138	0x00000000	0.0
139	0x00000000	0.0
140	0x00000000	0.0
141	0x00000000	0.0
142	0x00000000	0.0
143	0x00000000	0.0
144	0x00000000	0.0
145	0x00000000	0.0
146	0x00000000	0.0
147	0x00000000	0.0
148	0x00000000	0.0
149	0x00000000	0.0
150	0x00000000	0.0
151	0x00000000	0.0
152	0x00000000	0.0
153	0x3f800000	1.0
154	0x00000000	0.0
155	0x00000000	0.0
156	0x00000000	0.0
157	0x00000000	0.0
158	0x00000000	0.0
159	0x00000000	0.0
160	0x00000000	0.0
161	0x00000000	0.0
162	0x00000000	0.0
163	0x00000000	0.0
164	0x00000000	0.0
165	0x00000000	0.0
166	0x00000000	0.0
167	0x00000000	0.0
168	0x00000000	0.0
169	0x00000000	0.0
170	0x3f800000	1.0
171	0x00000000	0.0
172	0x00000000	0.0
173	0x00000000	0.0
174	0x00000000	0.0
175	0x00000000	0.0
176	0x00000000	0.0
177	0x00000000	0.0
178	0x00000000	0.0
179	0x00000000	0.0
180	0x00000000	0.0
181	0x00000000	0.0
182	0x00000000	0.0
183	0x00000000	0.0
184	0x00000000	0.0
185	0x00000000	0.0
186	0x00000000	0.0
187	0x3f800000	1.0
188	0x00000000	0.0
189	0x00000000	0.0
190	0x00000000	0.0
191	0x00000000	0.0
192	0x00000000	0.0
193	0x00000000	0.0
194	0x00000000	0.0
195	0x00000000	0.0
196	0x00000000	0.0
197	0x00000000	0.0
198	0x00000000	0.0
199	0x00000000	0.0
200	0x00000000	0.0
201	0x00000000	0.0
202	0x00000000	0.0
203	0x00000000	0.0
204	0x3f800000	1.0
205	0x00000000	0.0
206	0x00000000	0.0
207	0x00000000	0.0
208	0x00000000	0.0
209	0x00000000	0.0
210	0x00000000	0.0
211	0x00000000	0.0
212	0x00000000	0.0
213	0x00000000	0.0
214	0x00000000	0.0
215	0x00000000	0.0
216	0x00000000	0.0
217	0x00000000	0.0
218	0x00000000	0.0
219	0x00000000	0.0
220	0x00000000	0.0
221	0x3f800000	1.0
222	0x00000000	0.0
223	0x00000000	0.0
224	0x00000000	0.0
225	0x00000000	0.0
226	0x00000000	0.0
227	0x00000000	0.0
228	0x00000000	0.0
229	0x00000000	0.0
230	0x00000000	0.0
231	0x00000000	0.0
232	0x00000000	0.0
233	0x00000000	0.0
234	0x00000000	0.0
235	0x00000000	0.0
236	0x00000000	0.0
237	0x00000000	0.0
238	0x3f800000	1.0
239	0x00000000	0.0
240	0x00000000	0.0
241	0x00000000	0.0
242	0x00000000	0.0
243	0x00000000	0.0
244	0x00000000	0.0
245	0x00000000	0.0
246	0x00000000	0.0
247	0x00000000	0.0
248	0x00000000	0.0
249	0x00000000	0.0
250	0x00000000	0.0
251	0x00000000	0.0
252	0x00000000	0.0
253	0x00000000	0.0
254	0x00000000	0.0
255	0x3f800000	1.0

flow.flow.transforms.0.x0 f4 [4, 16]
0	0xbe129574	-0.14314824
1	0xbd384be1	-0.04499424
2	0x3df533dc	0.11972782
3	0xbe0e99b3	-0.13925819
4	0xbd855441	-0.06510211
5	0xbead9c1d	-0.33908167
6	0xbeef15be	-0.46696275
7	0x3b052fa3	0.0020322583
8	0x3ea5213d	0.3225192
9	0x3e299ce1	0.16563751
10	0x3db58e13	0.08864989
11	0xbcea71d3	-0.028618729
12	0xbe8eaa2e	-0.27864212
13	0x3dfdec7e	0.12398623
14	0xbafba111	-0.0019197782
15	0xbe478e19	-0.194878
16	0x3ebeec30	0.37289572
17	0x3d67a46f	0.0565533
18	0x3e314ca5	0.17314394
19	0x3e29375e	0.16525027
20	0x3e2f4f79	0.1712016
21	0xbbb6fd7c	-0.005584417
22	0xbe8c644f	-0.2742028
23	0x3dd19fbe	0.102355465
24	0xbc517cc0	-0.01278609
25	0x3eaef77b	0.34173188
26	0x3c26a26b	0.010170559
27	0xbd824021	-0.06359888
28	0xbde3520c	-0.110996336
29	0x3e526e8c	0.20549983
30	0x3ea111e6	0.31458968
31	0x3e45b67d	0.19307895
32	0x3ccd2334	0.0250412
33	0xbebcbb05	-0.36861435
34	0xbe9c5e9b	-0.30540928
35	0x3d6208e5	0.055184264
36	0xbdec36c5	-0.11533884
37	0xbce3d15a	-0.027809788
38	0xbe4accba	-0.1980466
39	0xbd8b0051	-0.0678717
40	0x3e5140d4	0.20434886
41	0xbda5aaf9	-0.08089251
42	0x3d6091b8	0.05482647
43	0xbda7e117	-0.08197229
44	0xbc8d9498	-0.01728277
45	0xbe0d2a92	-0.1378577
46	0x3e365425	0.17805536
47	0xbe26bcda	-0.16282979
48	0xbd1c02c7	-0.038088586
49	0xbe9cd3b9	-0.30630282
50	0xbe400183	-0.18750577
51	0x3e174984	0.14774138
52	0xbe90af87	-0.28258917
53	0x3e93212f	0.28736255
54	0x3cd3b960	0.02584523
55	0xbe67243d	-0.22572418
56	0xbd38bc04	-0.04510118
57	0x3e86e0be	0.2634334
58	0xbd8cd1fc	-0.06875989
59	0xbe8e18a6	-0.2775318
60	0xbd2c6b5f	-0.042094585
61	0xbe4d2cbe	-0.20036599
62	0xbbef162d	-0.0072963447
63	0x3e3eabd2	0.18620232

flow.flow.transforms.0.alpha_prime f4 [4]
0	0x3e0b5e8f	0.1361029
1	0xbe5eba9a	-0.2175087
2	0xbec40d64	-0.38291466
3	0x3e3cc46a	0.18434301

flow.flow.transforms.0.beta_prime f4 [4]
0	0x3d648625	0.055791993
1	0x3e982790	0.29717684
2	0xbcaa2657	-0.020770235
3	0xbdc7801c	-0.09741232

flow.flow.transforms.1.x0 f4 [4, 16]
0	0xbd2c93b3	-0.042133044
1	0xbdfeabbc	-0.124350995
2	0xbd806946	-0.06270079
3	0x3e68378e	0.22677442
4	0xbe37ebf4	-0.17961103
5	0x3ec9bcbb	0.39401802
6	0x3e6b4505	0.22975548
7	0xbe7e21ea	-0.24817625
8	0xbe9972f7	-0.29970524
9	0xbdbe38d4	-0.09288183
10	0xbeab10ae	-0.33411163
11	0xbe452f73	-0.19256382
12	0x3ec536b4	0.38518298
13	0xbd325580	-0.04353857
14	0xbe12bc60	-0.14329672
15	0x3dc04e7b	0.09389969
16	0x3e26e32b	0.16297595
17	0x3e20c94a	0.15701786
18	0x3e9a6d43	0.30161485
19	0x3e0dd89d	0.13852163
20	0x3ea567ab	0.32305655
21	0x3ddd5ed7	0.10809105
22	0xbea7a6d2	-0.3274446
23	0x3e830dad	0.2559637
24	0x3e1d70fc	0.15375131
25	0x3e1bc1ba	0.1521062
26	0xbd0b51f0	-0.03401369
27	0xbdc4fac1	-0.0961814
28	0xbe6aefc8	-0.22943032
29	0xbd0fe772	-0.035132833
30	0x3d4399d9	0.047754142
31	0x3e075bc0	0.13218594
32	0xbe523545	-0.20528133
33	0xbe66ced2	-0.22539833
34	0xbe896eb3	-0.2684227
35	0x3e516b9e	0.20451209
36	0x3c79ded2	0.015250878
37	0x3e055c93	0.13023596
38	0x3e785b2a	0.24253526
39	0xbe801036	-0.25012368
40	0xbe0cb1d9	-0.13739718
41	0x3ec68117	0.38770363
42	0x3e012c2f	0.12614511
43	0xbcc1db7d	-0.02366423
44	0x3ec45534	0.38346255
45	0xbdca97e9	-0.09892256
46	0xbe82fb20	-0.25582218
47	0xbea052c8	-0.31313157
48	0xbe5bf855	-0.2148145
49	0x3cf2f739	0.0296589
50	0x3d02432d	0.031802345
51	0xbe2091d4	-0.15680629
52	0x3e57fd7b	0.21092789
53	0xbe64f1a8	-0.2235781
54	0xbe1874bb	-0.14888279
55	0x3e18a977	0.14908396
56	0xbbe1290a	-0.0068713473
57	0xbe0d19af	-0.13779329
58	0x3e00869a	0.12551346
59	0x3e4f1f02	0.20226672
60	0x3d2b3cc3	0.041805994
61	0x3d813f58	0.0631091
62	0xbdd634db	-0.104593
63	0xbe125c74	-0.1429308

flow.flow.transforms.1.alpha_prime f4 [4]
0	0xbe96ae21	-0.29429725
1	0xbe797319	-0.24360313
2	0xbe136134	-0.14392549
3	0xbe9ca5bd	-0.30595198

flow.flow.transforms.1.beta_prime f4 [4]
0	0x3ec0bcf5	0.37644163
1	0x3e897557	0.26847336
2	0xbe2dbfd8	-0.16967714
3	0x3e3a2834	0.18179399

flow.flow.transforms.2.x0 f4 [4, 16]
0	0x3c4ba326	0.012429034
1	0xbd49a338	-0.049227923
2	0x3d5a955b	0.053365093
3	0xbd874a44	-0.06605962
4	0x3e346e3a	0.17620173
5	0xbea098ac	-0.3136648
6	0xbebb6de6	-0.36607283
7	0x3e2d28ba	0.16910067
8	0x3e5291f8	0.20563495
9	0xbad21d99	-0.0016030549
10	0x3e7bb8ee	0.24582264
11	0x3e2055cf	0.15657733
12	0xbe380a77	-0.17972742
13	0xbc504538	-0.012711816
14	0x3d35906d	0.04432719
15	0xbdcc1224	-0.099643975
16	0xbec1daba	-0.37862188
17	0xbe6f2234	-0.23352891
18	0xbea3b96b	-0.319774
19	0xbe114caa	-0.14189401
20	0xbdbb26e8	-0.0913828
21	0xbd777d88	-0.06042245
22	0x3e496dde	0.19670817
23	0xbd055dcc	-0.032560155
24	0x3df6869d	0.12037394
25	0xbe99cb85	-0.30038086
26	0xbdb56ed6	-0.08859031
27	0x3dae97ad	0.085250236
28	0x3de2411f	0.11047577
29	0xbdbb61f8	-0.091495454
30	0xbe8f4358	-0.27981067
31	0xbdd7283d	-0.10505722
32	0x3c828ee0	0.015937269
33	0x3dbd232a	0.09235223
34	0x3d9dcc0d	0.07704935
35	0xbdf1213e	-0.117739186
36	0xbe531d4e	-0.20616648
37	0xbe953cb3	-0.29147872
38	0xbe50ee07	-0.204033
39	0x3eb38655	0.35063425
40	0xbf0beea1	-0.54660994
41	0xbd612849	-0.05497006
42	0xbe8e60b9	-0.2780817
43	0xbc5601cd	-0.013061953
44	0xbe8fc347	-0.28078672
45	0xbd325ece	-0.043547444
46	0x3e74ea62	0.23917535
47	0xbdcc5e60	-0.09978938
48	0xbe9711f1	-0.29505876
49	0x3e501f49	0.20324434
50	0x3cda6c88	0.02666308
51	0xbe4232e1	-0.18964721
52	0x3e9a6eab	0.30162558
53	0xbeb68607	-0.3564913
54	0xbe873f88	-0.26415658
55	0xbce95fc8	-0.028488055
56	0x3c959f90	0.018264562
57	0xbe6946c0	-0.22780895
58	0x3e6f5118	0.23370779
59	0x3cb250f8	0.021767125
60	0xb9903e67	-0.00027512314
61	0x3e231b9b	0.159285
62	0xbd0d6d75	-0.034528214
63	0xbe9643eb	-0.29348692

flow.flow.transforms.2.alpha_prime f4 [4]
0	0x3e95da62	0.29268175
1	0x3d774a93	0.060373854
2	0xbd72a06b	-0.059235018
3	0xbe774872	-0.2414873

flow.flow.transforms.2.beta_prime f4 [4]
0	0xbda5f68e	-0.08103667
1	0xbe797323	-0.24360327
2	0xbe52f430	-0.20600963
3	0x3e9fdc76	0.31222886

flow.flow.transforms.3.x0 f4 [4, 16]
0	0xbe361029	-0.17779602
1	0x3e54ada2	0.2076936
2	0x3e5da70f	0.21645759
3	0xbe8dc40f	-0.27688643
4	0x3e9119a3	0.28339872
5	0xbdc6d5bf	-0.097087376
6	0xbcd3656d	-0.0258052
7	0x3e123619	0.14278449
8	0x3e88a0ee	0.2668528
9	0xbe67b341	-0.22626974
10	0x3d35911b	0.044327836
11	0x3ebc3e2f	0.36766192
12	0xbe638513	-0.22218733
13	0xbdacceea	-0.08437903
14	0x3d39ab93	0.04532964
15	0xbd544cec	-0.05183117
16	0xbe9aa84b	-0.30206522
17	0xbe9aae31	-0.30211022
18	0xbe7f8104	-0.2495156
19	0xbd56efe9	-0.05247489
20	0xbe357d14	-0.17723495
21	0xbd316544	-0.043309465
22	0x3e3d0548	0.18459046
23	0xbdef3a57	-0.11681049
24	0xbd800bb6	-0.06252234
25	0xbe9e6576	-0.30936784
26	0xbce55e88	-0.027999178
27	0x3cda2df5	0.026633242
28	0x3e8683df	0.26272485
29	0xbdf3de87	-0.11907678
30	0xbdd4a782	-0.10383512
31	0xbdf7fc42	-0.12108661
32	0x3c5aad00	0.0133469105
33	0x3ea5903d	0.32336608
34	0x3eb919d3	0.36152515
35	0xbe81cdf1	-0.25352433
36	0x3d0d12d3	0.03444178
37	0xbd5a62df	-0.053316947
38	0xbe8b1cd6	-0.27170438
39	0x3dba3516	0.090921566
40	0xbec31086	-0.38098544
41	0x3df0e93f	0.11763238
42	0xbde2e68f	-0.11079132
43	0x3e59d11f	0.2127118
44	0xbde88027	-0.11352568
45	0x3e6bb44a	0.23017994
46	0x3e599fa7	0.21252309
47	0xbe22a123	-0.15881781
48	0x3e8f44dd	0.27982226
49	0xbe97781f	-0.29583833
50	0xbdfb3892	-0.12266649
51	0x3dda656c	0.10663876
52	0xbe6bb838	-0.23019493
53	0x3e8b44b3	0.2720085
54	0x3d3b2069	0.045685206
55	0xbdd8a597	-0.10578459
56	0x3d0240fb	0.03180025
57	0x3d775e4b	0.06039266
58	0xbdf28801	-0.11842347
59	0xbe8a0d1a	-0.2696312
60	0x3d3642c7	0.044497278
61	0xbc9fbdcc	-0.019499682
62	0x3e70525a	0.23468915
63	0x3ebf7722	0.3739558

flow.flow.transforms.3.alpha_prime f4 [4]
0	0x3df24af3	0.11830702
1	0x3e665ff6	0.22497544
2	0xbd23aeba	-0.039961554
3	0x3e7017ea	0.23446622

flow.flow.transforms.3.beta_prime f4 [4]
0	0x3dc1b0a6	0.09457521
1	0xbe5ab9ed	-0.21359988
2	0xbe397226	-0.1810995
3	0xbe4f28b5	-0.20230372

flow.flow.transforms.4.x0 f4 [4, 16]
0	0x3b82bda1	0.0039898907
1	0xbd3396fe	-0.04384517
2	0xbc9e9c04	-0.019361503
3	0xbd5cee39	-0.053938124
4	0x3e3657b2	0.1780689
5	0xbe8b50f8	-0.27210212
6	0xbead5b71	-0.33858827
7	0x3e156d43	0.14592461
8	0x3e47332d	0.19453116
9	0x3c01caaa	0.007921854
10	0x3e5c10d9	0.21490802
11	0x3dc4323e	0.095798954
12	0xbe28da08	-0.16489422
13	0xbc943523	-0.018091744
14	0x3e24678e	0.16055128
15	0xbdc65ef0	-0.09686077
16	0xbe9caca6	-0.3060047
17	0xbe8de445	-0.27713218
18	0xbe97db05	-0.29659286
19	0xbdb1bece	-0.08678971
20	0xbe3ca899	-0.1842369
21	0x3de83b73	0.11339464
22	0x3e364981	0.17801477
23	0xbe0f89e4	-0.14017445
24	0xbdd73597	-0.10508268
25	0xbea4ba62	-0.3217345
26	0xbd6c3e3a	-0.05767653
27	0x3cb496e5	0.022044608
28	0x3d92defb	0.071714364
29	0xbd3dbf4b	-0.04632501
30	0xbe58bef0	-0.21166587
31	0xbe1b8a4a	-0.15189472
32	0xbdf5d6e1	-0.120038755
33	0x3d3f1b93	0.046657156
34	0x3edc0aed	0.42977086
35	0x3e8a8fa8	0.27062726
36	0xbe2a33b8	-0.16621292
37	0xbe7158c4	-0.23569018
38	0x3e8c4f78	0.2740438
39	0x3ec848d1	0.39118055
40	0xbc9331ce	-0.017968085
41	0xbe919a80	-0.28438187
42	0x3d504f54	0.050856903
43	0xbe2caaff	-0.16862105
44	0x3d0b24e2	0.03397072
45	0x3c49389a	0.012281561
46	0x3d5fdac9	0.05465201
47	0xbe821045	-0.25403038
48	0xbe830c4a	-0.25595313
49	0x3e0e33f5	0.13887008
50	0x3c16d13c	0.009205159
51	0xbe694e3c	-0.2278375
52	0x3e88a016	0.26684636
53	0xbeaa68a0	-0.33282948
54	0xbdc25bde	-0.094901785
55	0x3e72ffc1	0.23730375
56	0x3cbc1912	0.022961173
57	0xbe53123e	-0.20612428
58	0x3e5a2e0e	0.21306631
59	0x3e9eb70d	0.30999032
60	0x3db1ff17	0.08691233
61	0x3e82a678	0.2551763
62	0xbe148b60	-0.14506292
63	0xbe0fefbe	-0.14056298

flow.flow.transforms.4.alpha_prime f4 [4]
0	0x3e4c8b4d	0.19975014
1	0x3e507348	0.20356476
2	0x3d7dc132	0.061951824
3	0xbe2b4bc5	-0.16728123

flow.flow.transforms.4.beta_prime f4 [4]
0	0xbe59dc04	-0.21275336
1	0xbe90ddd3	-0.28294238
2	0xbcaa4fa8	-0.020789936
3	0x3e28bbcb	0.16477887

flow.flow.transforms.5.x0 f4 [4, 16]
0	0x3d46e11d	0.04855453
1	0xbe497a77	-0.19675623
2	0xbe056300	-0.13026047
3	0x3e6617f3	0.22470073
4	0xbe4d42c7	-0.20045005
5	0x3ec4d1a0	0.3844118
6	0x3e978bf8	0.29598975
7	0xbe7fc838	-0.24978721
8	0xbe4a91f6	-0.19782242
9	0xbe40efef	-0.18841527
10	0xbef0bb76	-0.4701802
11	0xbe3b319c	-0.18280643
12	0x3effa525	0.49930683
13	0xbd93f839	-0.07225079
14	0xbe8f5044	-0.27990925
15	0x3e8bea6e	0.27327293
16	0x3ea39216	0.31947392
17	0x3e958f8a	0.29211074
18	0x3e6245f7	0.22097002
19	0x3cd4f6a4	0.025996514
20	0x3dbc66c3	0.09199288
21	0x3e2e5540	0.17024708
22	0xbe71068c	-0.23537654
23	0xbde3c1f6	-0.111209795
24	0x3e13df0e	0.14440557
25	0x3f0521f6	0.52004945
26	0xbd70cf65	-0.058791537
27	0xbe676dff	-0.22600554
28	0xbe8cf914	-0.27533782
29	0xbc98856c	-0.018618308
30	0x3ef79b4e	0.48360676
31	0x3eeb7601	0.45988467
32	0x3e0542aa	0.13013712
33	0x3ed1d88b	0.40985522
34	0x3e9af2a7	0.30263254
35	0xbe049002	-0.1294556
36	0x3de3f503	0.11130717
37	0x3e614dd1	0.22002341
38	0x3e840d9d	0.25791636
39	0xbd068928	-0.032845646
40	0x3da9046b	0.08252796
41	0xbcbbdafe	-0.022931572
42	0x3e6c283b	0.23062222
43	0x3e919a88	0.2843821
44	0x3e959907	0.29218313
45	0xbc474358	-0.012162052
46	0xbe087b97	-0.13328396
47	0x3e5f1dc6	0.21788701
48	0x3ebce538	0.3689363
49	0xbebde872	-0.37091404
50	0xbd4cf7c4	-0.050040975
51	0x3ec7eb92	0.39046913
52	0xbe9ca817	-0.30596992
53	0x3eb78d6c	0.35850084
54	0x3de08c1e	0.10964225
55	0xbe2fb535	-0.17158969
56	0x3cc3cf33	0.023902511
57	0xbd0b556c	-0.03401701
58	0xbe923ce3	-0.28562078
59	0xbeac3b8e	-0.33639187
60	0xbd4a2965	-0.049355883
61	0xbe421673	-0.18953876
62	0x3e73f20f	0.23822807
63	0x3c6f7b19	0.014616751

flow.flow.transforms.5.alpha_prime f4 [4]
0	0xbe47c980	-0.1951046
1	0xbdad7403	-0.08469393
2	0x3df41dee	0.11919771
3	0x3e5d91ee	0.21637699

flow.flow.transforms.5.beta_prime f4 [4]
0	0x3ea4dce0	0.32199764
1	0x3e5a539a	0.21320954
2	0xbe3a3583	-0.18184476
3	0x3e00e74c	0.12588233

flow.flow.transforms.6.x0 f4 [4, 16]
0	0xbb8d21dd	-0.0043070153
1	0xbdba231d	-0.090887286
2	0xbd5248ad	-0.05133884
3	0xbdaed21a	-0.085361674
4	0x3e3bc857	0.18338142
5	0xbeb185ab	-0.34672293
6	0xbeaffeb3	-0.34374008
7	0x3d4c788b	0.049919646
8	0x3e8f2bbc	0.27963054
9	0x3bfdf85b	0.0077505535
10	0x3e9bf921	0.30463508
11	0x3d917a65	0.07103423
12	0xbe80fbbb	-0.25192055
13	0xbcf32faa	-0.029685814
14	0x3e7b60be	0.24548623
15	0xbe4f7b0e	-0.20261785
16	0xbeb1a45d	-0.34695712
17	0xbea11347	-0.3146002
18	0xbe9cdf15	-0.30638948
19	0xbd8ee499	-0.06977195
20	0xbe23e079	-0.16003598
21	0xbd84c825	-0.06483487
22	0x3db92e4e	0.09042035
23	0xbe0c43cf	-0.13697742
24	0xbd389818	-0.045066923
25	0xbeb2ad66	-0.34897918
26	0xbc04d9cd	-0.008108568
27	0x3da56434	0.08075753
28	0x3e75dc75	0.24009879
29	0xbd498e25	-0.049207825
30	0xbe3f941a	-0.1870884
31	0xbe4625ee	-0.19350407
32	0xbe8ee42b	-0.27908453
33	0x3eab0601	0.33403018
34	0x3eae9299	0.3409622
35	0xbc47ee15	-0.012202759
36	0xbdd12e89	-0.10213954
37	0x3c7a80e9	0.015289524
38	0x3e77e56b	0.2420861
39	0x3e4f5c03	0.20249943
40	0xbec7315b	-0.38904843
41	0x3e5d7210	0.21625543
42	0x3d87dad5	0.06633536
43	0x3d293c5c	0.04131733
44	0xbdc6a1e1	-0.09698845
45	0xbd9c8a69	-0.07643587
46	0xbdd67474	-0.104714304
47	0x3e84464c	0.25834882
48	0x3eb2f4f9	0.34952524
49	0xbeb26566	-0.34842986
50	0xbe179b93	-0.1480544
51	0x3ecdd59f	0.40202042
52	0xbe490a88	-0.19632924
53	0x3ea8fe9e	0.33006757
54	0xbd6555cc	-0.055990025
55	0xbe24aa6d	-0.16080637
56	0x3ddf8c1b	0.10915395
57	0xbd8054e8	-0.062661946
58	0xbe4739d8	-0.1945566
59	0xbe9d0f91	-0.3067594
60	0xbd8bfa5b	-0.06834861
61	0xbdd9411c	-0.10608122
62	0x3deec1f8	0.1165809
63	0x3e8ed279	0.27894953

flow.flow.transforms.6.alpha_prime f4 [4]
0	0x3c7aa36f	0.015297755
1	0x3e2be9ed	0.16788454
2	0x3dd8db85	0.10588745
3	0x3e14fe3e	0.1455011

flow.flow.transforms.6.beta_prime f4 [4]
0	0xbe6ab86a	-0.22921911
1	0xbe5c620c	-0.21521777
2	0xbd4be250	-0.049776375
3	0xbd5ae749	-0.053443227

flow.flow.transforms.7.x0 f4 [4, 16]
0	0xbdaa3091	-0.083100446
1	0xbe15c192	-0.14624622
2	0xbaec48e8	-0.0018027099
3	0x3da34cc8	0.07973629
4	0xbea9ac17	-0.33139107
5	0x3e942fda	0.28942758
6	0x3eb81de4	0.35960305
7	0xbe9cc993	-0.3062254
8	0xbefc3acb	-0.49263605
9	0xbe3108a8	-0.17288458
10	0xbe894ac5	-0.26814857
11	0xbe79226a	-0.24329534
12	0x3f01920a	0.5061346
13	0xbc334096	-0.010940691
14	0xbe8fb50a	-0.2806781
15	0x3e8eb21d	0.27870265
16	0x3e83c442	0.2573567
17	0x3ed0f0d7	0.40808746
18	0x3ef3b2c5	0.47597328
19	0xbc68061b	-0.014161612
20	0x3eb3923e	0.3507251
21	0xbe1d29ec	-0.15348023
22	0xbf0140ca	-0.50489485
23	0x3e528e44	0.20562083
24	0x3e1829b9	0.14859666
25	0x3efe67f7	0.49688694
26	0x3d7a6401	0.061130527
27	0xbe7b6514	-0.24550277
28	0xbec3f968	-0.3827622
29	0x3e94ee2c	0.2908796
30	0x3e8d0e40	0.27549934
31	0xbc47c6c8	-0.012193389
32	0xbe22dea8	-0.15905249
33	0x3edd118b	0.43177447
34	0x3ee44711	0.4458547
35	0xbe19a047	-0.15002547
36	0x3e3b8904	0.18313986
37	0x3deb5285	0.11490349
38	0xbe68d770	-0.22738433
39	0x3cae27ea	0.021259267
40	0x3e5e5994	0.21713859
41	0xbe907e9e	-0.282216
42	0x3e5f57b5	0.21810801
43	0xbe492936	-0.19644627
44	0x3e9442c7	0.28957197
45	0x3ec4fd82	0.3847466
46	0xbcd4cc52	-0.025976334
47	0xbe2c43d1	-0.16822745
48	0xbeaf85b2	-0.3428169
49	0x3e58de67	0.2117859
50	0xbc0ceae9	-0.008600929
51	0xbe80e6d2	-0.25176102
52	0x3ec441f1	0.3833156
53	0xbe95b805	-0.29241958
54	0xbe04917e	-0.12946126
55	0x3e6a9afc	0.22910684
56	0x3d6c24c6	0.057652257
57	0xbeca275f	-0.39483163
58	0x3e83215e	0.25611395
59	0x3ea4ee9f	0.32213303
60	0xbcc276f2	-0.023738358
61	0x3e882230	0.26588583
62	0xbe93683c	-0.28790462
63	0xbe92a9b5	-0.286451

flow.flow.transforms.7.alpha_prime f4 [4]
0	0xbe04b822	-0.12960866
1	0xbe69207b	-0.22766297
2	0x3daeb7d0	0.08531153
3	0xbe141562	-0.14461282

flow.flow.transforms.7.beta_prime f4 [4]
0	0x3e511d83	0.20421414
1	0xbd432272	-0.04764027
2	0xbcacea05	-0.021107683
3	0x3d8e86b6	0.06959288

flow.flow.transforms.8.x0 f4 [4, 16]
0	0x3e6f0d6c	0.23344964
1	0xbe32991c	-0.17441219
2	0x3e9f0da7	0.31065103
3	0xbe3c8f03	-0.1841393
4	0x3ed944f3	0.42435417
5	0x3dccf2ab	0.10007223
6	0x3d4a5028	0.04939285
7	0xbdca93ea	-0.098914936
8	0x3eba416b	0.36378035
9	0xbe79e8da	-0.24405232
10	0x3e015ea5	0.1263376
11	0x3e8b2b2e	0.2718138
12	0xbe407a51	-0.1879666
13	0xbe361d60	-0.17784643
14	0xbe169109	-0.14703764
15	0xbe5af619	-0.21382941
16	0x3eeb9530	0.4601226
17	0x3e86e8ad	0.26349393
18	0x3eac5cee	0.3366465
19	0x3e914ab2	0.283773
20	0x3e9ba73d	0.3040103
21	0xbe00800a	-0.12548843
22	0xbecd069b	-0.40044102
23	0x3d1c58e4	0.03817071
24	0x3e13367a	0.1437625
25	0x3d27db9a	0.040980913
26	0x3d226c2b	0.03965394
27	0xbe168fdc	-0.14703315
28	0xbe7b777f	-0.24557303
29	0x3e95d1dc	0.29261672
30	0x3ee5eac9	0.4490569
31	0x3e5ddec3	0.21667008
32	0xbe3dde03	-0.18541722
33	0x3e06e309	0.13172545
34	0x3edd4950	0.43219995
35	0x3e8c7797	0.2743499
36	0x3ccc5dd9	0.024947094
37	0xbe427466	-0.18989715
38	0x3ea054c1	0.31314662
39	0x3c02ade5	0.00797603
40	0x3da0558d	0.078288175
41	0xbe3ee762	-0.18642953
42	0xbc3787e7	-0.011201835
43	0x3d99325f	0.07480311
44	0xbc61c66c	-0.013780218
45	0x3da56c12	0.080772534
46	0xbe0d767e	-0.13814732
47	0xbdcff57f	-0.101542465
48	0x3ec8da0c	0.39228857
49	0xbece8f18	-0.40343547
50	0xbe5c74d9	-0.21528949
51	0x3e9d2858	0.30694842
52	0xbeb518c4	-0.35370457
53	0x3dac2d1b	0.08407041
54	0x3e2a553e	0.1663408
55	0xbe3f5d37	-0.18687902
56	0x3e3ab88c	0.18234462
57	0x3e91236b	0.28347334
58	0x3de64a18	0.11244601
59	0xbeac69aa	-0.33674365
60	0xbbf76757	-0.007550161
61	0xbe048333	-0.12940674
62	0x3ebe0d19	0.37119368
63	0xbca7d542	-0.020487431

flow.flow.transforms.8.alpha_prime f4 [4]
0	0x3cd38a9e	0.025822934
1	0xbd9ff3c4	-0.078101665
2	0x3e06dd52	0.13170364
3	0x3e4ecbc1	0.20194913

flow.flow.transforms.8.beta_prime f4 [4]
0	0x3d056bdd	0.03257357
1	0x3ea35bfd	0.3190612
2	0x3bc954d6	0.0061441464
3	0x3dff7feb	0.1247557

flow.flow.transforms.9.x0 f4 [4, 16]
0	0xbe77b5ad	-0.24190398
1	0x3e872ff5	0.26403776
2	0xbe3f62c6	-0.18690023
3	0xbd3f86cf	-0.046759423
4	0x3e3b67e5	0.18301351
5	0xbe2a5f03	-0.16637807
6	0xbd993110	-0.07480061
7	0x3ec6c1be	0.3881969
8	0xbe08bc10	-0.1335299
9	0x3e3dd973	0.18539982
10	0x3e40404b	0.18774526
11	0xbe0d36c4	-0.13790423
12	0xbe64612b	-0.22302692
13	0xbe8fbd6d	-0.28074208
14	0xbe9efcc8	-0.31052232
15	0x3de728d7	0.112870865
16	0x3e79b6e3	0.24386172
17	0x3ed1da4b	0.40986857
18	0x3f006ff7	0.50170845
19	0x3ed03726	0.40667075
20	0x3ede3119	0.43396834
21	0x3e2a6af8	0.16642368
22	0xbf03ed2e	-0.5153378
23	0x3eb82aa5	0.35970035
24	0x3ebcb75d	0.36858645
25	0xbe299f63	-0.16564707
26	0x3e397ad5	0.18113263
27	0xbb9e2e13	-0.00482727
28	0x3dbbf21e	0.091770396
29	0x3d4da665	0.050207514
30	0xbe638645	-0.22219189
31	0x3f0d5416	0.5520643
32	0x3c155985	0.009115581
33	0xbe735525	-0.23762949
34	0xbe39514e	-0.18097422
35	0x3d13229d	0.03592168
36	0xbdcc5a92	-0.099782124
37	0xbcb521b6	-0.022110801
38	0xbe04daa4	-0.1297403
39	0xbd14e985	-0.036355514
40	0x3e136002	0.14392093
41	0xbd98869c	-0.0744755
42	0x3d6fadc3	0.05851532
43	0xbd47a625	-0.048742432
44	0xbb29bf1e	-0.0025901268
45	0xbdcf5e8e	-0.10125457
46	0x3e0c143b	0.13679592
47	0xbe0acfd1	-0.13555838
48	0x3db187ed	0.08668504
49	0xbe9b5640	-0.3033924
50	0xbe343bcf	-0.1760094
51	0x3ebda5c8	0.37040544
52	0xbe8061f9	-0.25074747
53	0x3e976a86	0.29573458
54	0x3d85b6a0	0.065289736
55	0xbdcb55ff	-0.09928512
56	0x3b84a18e	0.004047579
57	0x3e6210ac	0.22076672
58	0xbe1c6b34	-0.1527527
59	0xbe921ed2	-0.2853914
60	0xbdd882e4	-0.105718404
61	0xbd928595	-0.07154385
62	0x3e89bb1d	0.2690057
63	0x3ece8489	0.4033549

flow.flow.transforms.9.alpha_prime f4 [4]
0	0x3e5831a5	0.21112688
1	0xbe5176dd	-0.20455499
2	0xbe928a6a	-0.28621227
3	0x3e33e8fd	0.17569347

flow.flow.transforms.9.beta_prime f4 [4]
0	0x3e757e15	0.23973878
1	0xbdc9f381	-0.09860898
2	0x3e963573	0.29337654
3	0xbe895c63	-0.26828298
