saved_experiments/ood_loc/GPN/1/model_5.pt (torch, 759609 bytes, 36 tensors)

input_encoder.0.weight f4 [64, 2879]
0	0xbdc4286e	-0.09578024
1	0x3c961bb0	0.01832375
2	0x3d3c5365	0.04597797
3	0x3eae924c	0.3409599
4	0xbdbefe1d	-0.09325812
5	0x3ca1d4e7	0.01975484
6	0xbd9df1e9	-0.07712156
7	0x3b1f0283	0.0024262972
8	0x3dfa49c8	0.12221104
9	0xbd9cb90e	-0.07652484
10	0x3d8fb06d	0.070160724
11	0x3da295a4	0.07938698
12	0xbd36036f	-0.04443687
13	0xbe0cc899	-0.13748397
14	0xbd286078	-0.041107625
15	0xbd0198e3	-0.031639945
16	0x3e3833ba	0.17988482
17	0xbe2942dd	-0.16529413
18	0x3d212301	0.039340023
19	0xbdce6cf5	-0.10079376
20	0xbdab9375	-0.083777346
21	0x3e72ae75	0.23699363
22	0x3e88f236	0.26747292
23	0xbdba8e8f	-0.09109222
24	0x3d8345c8	0.06409794
25	0xbbcf55b2	-0.0063273543
26	0x3e4b206a	0.19836584
27	0x3d90c2b8	0.0706839
28	0x3d26cd52	0.040723152
29	0x3db4feaa	0.08837636
30	0xbdccf27d	-0.100071885
31	0xbda8a6a1	-0.08234907
32	0xbe0c0cba	-0.1367673
33	0x3cea56d1	0.02860585
34	0x3ceebef7	0.029143794
35	0x3d71a586	0.058995746
36	0xbdadeb94	-0.084921986
37	0x3d7d0749	0.061774526
38	0x3dded6d7	0.10880821
39	0xbdf1aad3	-0.1180016
40	0x3c7533d6	0.014965972
41	0x3d2beebc	0.04197572
42	0xbd59fc37	-0.053219046
43	0x3e852c21	0.2601023
44	0xbcebb850	-0.02877441
45	0xbc03bca2	-0.008040579
46	0x3e0e6270	0.13904738
47	0xbe349961	-0.17636634
48	0xbdae7650	-0.0851866
49	0x3db49535	0.088175215
50	0x3da535b3	0.08066883
51	0x3bdfaac0	0.006825775
52	0xbe2d35b4	-0.16915017
53	0xbd9eaf33	-0.0774826
54	0xbdeca311	-0.1155454
55	0xbdf3abe6	-0.118980214
56	0xbbfde588	-0.0077483095
57	0xbc554882	-0.0130177755
58	0x3cf8cc76	0.030370932
59	0xbd6bd199	-0.057572935
60	0x3c217944	0.009855572
61	0xbe00cc8c	-0.12578028
62	0xbe08da4a	-0.1336452
63	0xbdce17c1	-0.100631244
64	0xbde2664d	-0.110546686
65	0xbde0e55f	-0.10981249
66	0xbe1b1d12	-0.15147808
67	0xbe6abcda	-0.22923604
68	0xbe3491bc	-0.17633718
69	0x3d165807	0.036705043
70	0x3d72fb7d	0.05932187
71	0x3cd1ed2c	0.025625788
72	0x3d8e1fb3	0.0693964
73	0x3ccdcdf5	0.025122622
74	0xbe03da74	-0.12876302
75	0xbd0ed70c	-0.034873053
76	0xbe13fdaa	-0.14452234
77	0x3d222bdd	0.039592613
78	0x3d28809a	0.04113827
79	0x3c4f2480	0.01264298
80	0xbdd9df7d	-0.1063833
81	0xbd9691b8	-0.073520124
82	0x3db821d9	0.08990831
83	0x3e299617	0.16561161
84	0xbc759c31	-0.014990852
85	0xbd953102	-0.07284738
86	0xbde5088a	-0.11183269
87	0xbd6dab36	-0.058024608
88	0xbdc6ce73	-0.09707346
89	0xbd604256	-0.054750763
90	0xbd55d7fb	-0.05220793
91	0x3e274f9d	0.16338964
92	0x3e132cf4	0.14372617
93	0x3b802e0e	0.00391174
94	0x3d64b3d0	0.055835545
95	0x3e3b5616	0.18294558
96	0x3e7a9319	0.24470176
97	0xbc9d78e7	-0.01922269
98	0xbe24c7d7	-0.16091858
99	0xbe26a7e7	-0.16274987
100	0x3cf84427	0.030305935
101	0x3d05e08e	0.032684855
102	0xbd00dba6	-0.031459473
103	0xbe0d6032	-0.13806227
104	0xbdb2fe8f	-0.087399594
105	0xbd94d2b4	-0.07266751
106	0xbdb3b091	-0.08773912
107	0x3da53d57	0.0806834
108	0x3e300767	0.17190324
109	0x3b7f2fc4	0.0038938383
110	0xbe01445d	-0.12623735
111	0xbde5b14b	-0.112154566
112	0x3cf34c40	0.029699445
113	0xbdc580a2	-0.096436754
114	0xbda0e340	-0.078558445
115	0xbd7ba4c5	-0.061436433
116	0x3d5c6393	0.0538059
117	0xbdde5e06	-0.10857777
118	0x3e4d57ae	0.20052978
119	0x3da19d82	0.0789137
120	0x3d72d62e	0.05928629
121	0x3db4ae69	0.088223286
122	0xbd71890e	-0.058968596
123	0x3e0e5c93	0.13902502
124	0x3e248cd9	0.16069354
125	0xbe31695a	-0.17325345
126	0x38bc47a8	8.9778856e-05
127	0xbde96430	-0.113960624
128	0xbdcb556c	-0.09928402
129	0xbde51878	-0.11186308
130	0xbe13451c	-0.14381832
131	0xbd664c0c	-0.056224868
132	0x3dfc4b8b	0.12319096
133	0x3e38a21e	0.18030593
134	0x3e14507b	0.14483826
135	0x3ddc7043	0.107636
136	0x3d96ada2	0.073573366
137	0x3d59fb17	0.053217974
138	0x3e20bd62	0.15697244
139	0x3dd04e9b	0.10171243
140	0x3d9712d4	0.07376638
141	0x3e29199a	0.16513672
142	0xbe0f9dc7	-0.14025031
143	0x3d36ec66	0.04465904
144	0xbe047ae4	-0.12937504
145	0x3d7fb6f5	0.06243034
146	0xbe2d7d89	-0.16942419
147	0x3dde26dc	0.108472556
148	0xbd2cfe46	-0.04223468
149	0x3d6e813a	0.05822871
150	0xbe31bd24	-0.17357308
151	0x3c77c198	0.01512184
152	0xbe563a5c	-0.209207
153	0x3d2cec32	0.04221744
154	0xbcf4979f	-0.029857455
155	0x3d4985cd	0.049199868
156	0xbd0c6898	-0.034279436
157	0x3a7cedcc	0.00096484716
158	0xbd4631ea	-0.048387446
159	0x3e4c07ac	0.19924802
160	0x3ddb8012	0.10717787
161	0x3e3eec26	0.18644771
162	0xbcdaae88	-0.026694551
163	0x3e451b81	0.19248773
164	0xbe0f94e7	-0.14021645
165	0x3d74eccd	0.059796143
166	0xbb75d140	-0.0037508756
167	0x3cdf01da	0.027222563
168	0xbc12f58c	-0.008969676
169	0xbda1bd39	-0.078974195
170	0x3d8c9e13	0.06866088
171	0xbdf2ab05	-0.11849026
172	0xbe33565f	-0.17513417
173	0xbd4d5e91	-0.050139014
174	0x3cec0f6e	0.028815951
175	0x3e852472	0.26004368
176	0xbc40f54e	-0.011777235
177	0xbcaa4a89	-0.020787494
178	0x3e056697	0.13027416
179	0x3ccf0956	0.025273006
180	0xbd844e11	-0.064602025
181	0xbd2f6691	-0.042822424
182	0xbd3008c7	-0.04297712
183	0xbd98a1c3	-0.074527286
184	0x3c078718	0.008271955
185	0xbde489ed	-0.1115912
186	0x3d5ed8de	0.05440604
187	0xbdd1e86d	-0.1024941
188	0xbe365d02	-0.17808917
189	0x3c9a16d9	0.018809723
190	0xbd0dec23	-0.034649026
191	0x3d83bee8	0.06432897
192	0xbe4887e1	-0.19583084
193	0xbdf143c5	-0.11780504
194	0xbdd01c14	-0.101616055
195	0xbd7d5e83	-0.06185771
196	0xbbf3d198	-0.007440757
197	0xbd176143	-0.03695799
198	0xb6c8ba00	-5.9821177e-06
199	0xbd8fa27d	-0.07013414
200	0x3da141d9	0.078738876
201	0x3d8e81b9	0.069583364
202	0xbdf6dabc	-0.12053439
203	0x3dc17b14	0.094473034
204	0xbd0a7ff2	-0.033813424
205	0x3c9ac9f5	0.018895129
206	0xbd1f8ed6	-0.03895458
207	0xbd0d0205	-0.034425754
208	0x3dc25a65	0.09489898
209	0xbcf05767	-0.029338552
210	0x3e16a831	0.14712597
211	0xbd4e77ca	-0.05040721
212	0x3db2df83	0.08734038
213	0x3e8b2592	0.271771
214	0xbc5daf6c	-0.013530593
215	0x3e31635f	0.17323063
216	0x3d3affe2	0.045654185
217	0xbca66052	-0.020309601
218	0x3d52ed5d	0.0514959
219	0x3dfff882	0.12498571
220	0xbd39f121	-0.045395974
221	0xbe07638d	-0.1322157
222	0x3d071ef7	0.032988515
223	0x3e7a9720	0.24471712
224	0xbd0b7a26	-0.034052037
225	0x3d92aaa2	0.07161452
226	0xbd2a0cb5	-0.041516025
227	0xbdf804a5	-0.12110261
228	0xbe3efce5	-0.18651159
229	0xbd26deec	-0.04073994
230	0xbddbfe94	-0.10741916
231	0xbdb5b4de	-0.08872388
232	0xbcdd4fa1	-0.02701551
233	0xbe133244	-0.14374644
234	0xbe2086cc	-0.15676421
235	0x3d41e1c8	0.047334462
236	0xbe4aecca	-0.1981689
237	0xbc0050c6	-0.007831758
238	0xbdda55ff	-0.10660934
239	0xbdee7ece	-0.1164528
240	0x3e0596c3	0.13045792
241	0x3d178d67	0.037000086
242	0xbd02c811	-0.03192908
243	0x3da049b9	0.078265615
244	0xbce5c65d	-0.028048689
245	0xbe379246	-0.17926893
246	0xbde1bb92	-0.11022104
247	0x3b458a9a	0.0030142427
248	0xbc39e928	-0.011347093
249	0x3db0783b	0.08616682
250	0x3d10b4d5	0.035328705
251	0xbd565948	-0.05233124
252	0xbe000b22	-0.12504247
253	0x3da135a2	0.07871558
254	0xbcb833fd	-0.022485727
255	0xbd8ad7eb	-0.06779464

input_encoder.0.bias f4 [64]
0	0x3ca16db8	0.019705638
1	0xbd3c46ba	-0.045965888
2	0xbd29f3a9	-0.041492138
3	0xbc83224e	-0.016007569
4	0x3c831723	0.016002243
5	0x3b27ab67	0.0025584341
6	0x3c98fddb	0.018675735
7	0x3b750328	0.0037385914
8	0x3c9f38a9	0.019436197
9	0x3c29d34e	0.01036532
10	0xbcd1a2fb	-0.02559041
11	0x3ce7f8fe	0.02831697
12	0xbd6db3f0	-0.05803293
13	0x3cc0ae9a	0.023520757
14	0xbc024de5	-0.007953142
15	0xbc4476ef	-0.011991247
16	0xbd608ed9	-0.05482373
17	0x3bd83cee	0.0065990603
18	0x3cb9f24e	0.022698548
19	0xbc5c68d9	-0.013452732
20	0x3c089ee0	0.00833866
21	0xbbd3f6c0	-0.006468624
22	0x3c135436	0.008992245
23	0xbd5427c6	-0.051795743
24	0xbd71d16b	-0.059037607
25	0x3cdd58ce	0.027019884
26	0x3b9dfcc7	0.004821393
27	0x3c813e5d	0.015776807
28	0x3a74ec03	0.000934303
29	0xbd679484	-0.05653812
30	0x3cc67f3c	0.024230592
31	0xbc51ee1c	-0.012813117
32	0xbd78770b	-0.060660403
33	0x3cc9f24c	0.024651669
34	0xbd243b0f	-0.040095385
35	0x3ce3b22d	0.027794922
36	0xbd63e33b	-0.055636626
37	0x3cefeb37	0.029286964
38	0xbc376b35	-0.011194994
39	0x3d37e4e1	0.04489601
40	0x3d01e601	0.03171349
41	0xbd51c1cc	-0.05121021
42	0x3c6432b5	0.013928105
43	0xbbe70163	-0.007049726
44	0x3b24f68d	0.002517137
45	0xbaa3e703	-0.001250476
46	0xbbdf60a7	-0.006816942
47	0x3c3f8c8f	0.011691227
48	0xbd7592c2	-0.059954412
49	0xbd7b96bc	-0.06142305
50	0xbce7838a	-0.028260965
51	0x3cc1d630	0.023661703
52	0xbc7791c2	-0.015110435
53	0x3bfef684	0.007780852
54	0xbab66920	-0.0013916828
55	0x3c9f38b9	0.019436227
56	0xbd613d89	-0.054990325
57	0x3c4674da	0.0121128205
58	0x3caa8b84	0.02081848
59	0xbc826e0c	-0.015921615
60	0x3ca50341	0.020143153
61	0xbc2fa3e7	-0.01072023
62	0xbd510e02	-0.05103875
63	0x3cbd8e5f	0.023139177

latent_encoder.weight f4 [16, 64]
0	0x3e4817bc	0.19540304
1	0x3dd263cb	0.1027294
2	0xbdb93aca	-0.09044416
3	0x3e00e9a7	0.12589131
4	0x3e3f4949	0.186803
5	0xbe83ae1f	-0.2571878
6	0x3e6e82aa	0.23292032
7	0x3c16d4e6	0.009206032
8	0x3ddfd87e	0.109299645
9	0xbe34e40d	-0.1766512
10	0x3e26b3ce	0.16279528
11	0x3e76d47b	0.24104492
12	0x3b8d97ac	0.004321059
13	0x3e8ddf65	0.277095
14	0xbd46d627	-0.048544075
15	0xbe60d63a	-0.21956721
16	0xbb819c73	-0.003955418
17	0xbe70e6cf	-0.23525546
18	0x3bdc28b0	0.0067187175
19	0x3da432e9	0.08017523
20	0x3e2be668	0.16787112
21	0xbd5f019f	-0.054444905
22	0x3d58358a	0.052785434
23	0xbca725ff	-0.02040386
24	0xbced240f	-0.028947858
25	0x3dcab493	0.09897723
26	0x3e2f3e77	0.17113672
27	0xbe42fdbc	-0.19042104
28	0xbdea032d	-0.11426387
29	0xbe022ef8	-0.1271323
30	0x3e0d1589	0.13777746
31	0x3e6370e2	0.2221103
32	0x3bd2810d	0.0064240755
33	0x3e032abc	0.1280927
34	0xbdc31d0d	-0.09527025
35	0xbe337f2e	-0.17528984
36	0x3c8d0902	0.01721621
37	0x3e6d4be3	0.2317348
38	0xbe1d0fa4	-0.15337998
39	0x3e92479f	0.28570268
40	0xbdde4010	-0.10852063
41	0xbd8f835f	-0.07007479
42	0x3dba7c07	0.091056876
43	0x3de5971d	0.11210463
44	0x3e3f0cdf	0.18657254
45	0x3e27ed20	0.1639905
46	0xbeb0e224	-0.34547532
47	0x3d428728	0.047492176
48	0xbb1f977c	-0.0024351766
49	0xbadadf60	-0.0016698651
50	0xbb2bce20	-0.002621539
51	0x3e9ab7b7	0.30218288
52	0xbeb178db	-0.34662518
53	0xbdc80b5c	-0.09767792
54	0x3e6d0660	0.23146963
55	0x3e62cd27	0.22148572
56	0xbd3e533f	-0.04646611
57	0xbe3a79d5	-0.18210538
58	0x3e1c947a	0.15291014
59	0xbcba5ba2	-0.022748772
60	0x3e2f7e99	0.17138137
61	0xbeb29e6f	-0.348865
62	0x3dd84263	0.10559537
63	0x3e4cb7cf	0.19991992
64	0x3d29b723	0.04143442
65	0x3cd9a67e	0.026568647
66	0x3dc163f8	0.09442896
67	0xbe3e7b13	-0.18601637
68	0xbe600d3d	-0.2188005
69	0x3dc308cd	0.09523163
70	0x3df121e5	0.11774043
71	0xbbd74c88	-0.0065704025
72	0x3e982a5a	0.29719812
73	0xbdea3baa	-0.11437161
74	0x3e938f04	0.2882005
75	0x3c6201c6	0.013794368
76	0xb99788f5	-0.00028903005
77	0x3dff4756	0.12464778
78	0xbda716b8	-0.0815863
79	0xbe5cda66	-0.21567687
80	0xbd0d8116	-0.034546934
81	0xbd8f082e	-0.06983982
82	0x3c1427ad	0.009042663
83	0xbeba2389	-0.36355236
84	0xbe6b5180	-0.22980309
85	0xbeaf4af2	-0.34236866
86	0xbeac9376	-0.33706254
87	0xbd37b9f4	-0.044855073
88	0x3d6fc9c0	0.058542013
89	0x3e77585a	0.24154797
90	0xbdd58e90	-0.10427582
91	0x3e8ed991	0.27900365
92	0x3cb0a96a	0.021565158
93	0xbd0d7fa1	-0.034545545
94	0xbd984ba1	-0.074363
95	0x3e4f8a90	0.20267701
96	0xbd1786e9	-0.036993895
97	0x3e977b53	0.29586276
98	0x3e0aa22a	0.13538423
99	0x3ea19fb2	0.3156715
100	0xbd09b03e	-0.033615343
101	0x3d7f4aab	0.06232707
102	0xbe0e2280	-0.13880348
103	0x3e67168d	0.22567196
104	0x3dec350b	0.11533555
105	0xbd6c1744	-0.057639375
106	0x3e9ed246	0.310198
107	0xbe228356	-0.15870413
108	0xbd52c5e9	-0.051458273
109	0xbd689967	-0.05678692
110	0xbd104762	-0.035224326
111	0xbe8fe06d	-0.2810091
112	0x3c809915	0.015697995
113	0xbaba3448	-0.0014206255
114	0xba481f86	-0.0007634092
115	0x3da1dffc	0.0790405
116	0x3e307a87	0.1723424
117	0x3e381ece	0.17980501
118	0x3dcd3c1c	0.100212306
119	0x3d2ac5db	0.041692596
120	0x3c3b916d	0.011448246
121	0xbc65ef9a	-0.014034176
122	0x3d39149a	0.045185663
123	0xbe2eed95	-0.17082818
124	0x3ca4af52	0.02010313
125	0x3de66f0a	0.11251648
126	0xbddd6408	-0.10810095
127	0x3e18d68b	0.14925592
128	0xbe365cd2	-0.17808846
129	0xbd83d216	-0.06436555
130	0x3de9fa51	0.11424697
131	0x3e640495	0.22267373
132	0x3e66e40a	0.22547927
133	0x3df9da32	0.121998206
134	0xbe90036c	-0.2812761
135	0xbd09e65f	-0.033666965
136	0xbe672be8	-0.22575343
137	0x3e4bcd47	0.19902526
138	0xbdc5c394	-0.09656444
139	0xbe21936c	-0.15778893
140	0x3d1901f3	0.037355375
141	0xbe094486	-0.13405046
142	0x3e53f93a	0.20700541
143	0xbc7097d6	-0.014684638
144	0xbcdc3f87	-0.026885761
145	0x3e430ae7	0.19047128
146	0x3e622e41	0.22087957
147	0x3deeb4fe	0.11655615
148	0x3e3edfd2	0.18640068
149	0x3d2ea852	0.04264099
150	0x3daf0491	0.08545793
151	0x3d4f0ba7	0.050548222
152	0x3c98eac8	0.01866664
153	0x3b393646	0.002826111
154	0x3e3247e6	0.1741024
155	0xbd3c4622	-0.04596532
156	0xbbf75c5d	-0.0075488524
157	0xbdad1dc6	-0.084529445
158	0xbdde8324	-0.10864857
159	0xbd9c2503	-0.07624247
160	0x3c1e0eab	0.009647052
161	0xbe03b52f	-0.12862085
162	0xbd9598f7	-0.07304566
163	0xbdccaf47	-0.09994369
164	0x38db42c8	0.00010455173
165	0x3d4ae9fe	0.04953956
166	0x3e1612d9	0.14655627
167	0xbd833863	-0.06407239
168	0x3e09b04b	0.13446157
169	0x3d5c40e4	0.053772822
170	0xbe43b6a2	-0.19112638
171	0x3e7852d4	0.24250346
172	0xbd0a9444	-0.033832803
173	0x3c382a33	0.01124053
174	0x3d80b06e	0.06283651
175	0x3e0ae333	0.13563232
176	0xbd6203a3	-0.05517925
177	0x3b5e35e0	0.0033906624
178	0x3b17de48	0.0023173261
179	0x3e077b97	0.1323074
180	0x3d0b3545	0.03398635
181	0xbdebac96	-0.115075275
182	0x3da65d75	0.08123294
183	0xbe1b6c60	-0.1517806
184	0x3d236a81	0.039896492
185	0x3e77dc54	0.24205142
186	0x3d04271d	0.032263864
187	0x3e2d3e5b	0.16918318
188	0x3e0e45d2	0.13893822
189	0x3d2b7fcb	0.04186992
190	0xbdbe24d8	-0.09284371
191	0xbe8126de	-0.25224966
192	0x3e9b55a3	0.30338773
193	0x3dd0794d	0.10179386
194	0xbda4d3fe	-0.08048247
195	0x3df7bb73	0.120963
196	0x3dd2cb6d	0.10292707
197	0xbe82e96c	-0.25568712
198	0x3e8e504d	0.2779564
199	0x3c5006b2	0.012696909
200	0x3c7157d7	0.014730415
201	0xbe480fe3	-0.1953731
202	0x3ae2966b	0.001728726
203	0x3e974115	0.2954184
204	0xbcb80e9c	-0.022467904
205	0x3c7bd32c	0.0153701715
206	0xbdc9579d	-0.09831164
207	0x3da235da	0.079204276
208	0xbe287e50	-0.16454434
209	0xbe925c53	-0.28586063
210	0xbe3c8eb0	-0.18413806
211	0x3e9e7cc6	0.3095457
212	0x3e6da351	0.23206832
213	0x3e4908c9	0.19632258
214	0x3eb0abe2	0.34506136
215	0x3d38f8a5	0.045159
216	0xbca50acf	-0.020146756
217	0x3d0db7b5	0.034599025
218	0x3d163a39	0.03667662
219	0xbe9d6236	-0.30738991
220	0xbeaea5a0	-0.34110737
221	0x3d6e8a1c	0.05823718
222	0x3ea4519c	0.32093513
223	0x3e344c49	0.17607225
224	0xbdc1165e	-0.09428094
225	0xbd55e7b4	-0.052222922
226	0xbe217aae	-0.15769455
227	0xbe9e5fa4	-0.30932343
228	0xbdaf534b	-0.08560809
229	0x3d84a9d0	0.06477702
230	0x3c0b3397	0.008496187
231	0x3e5a0d87	0.21294223
232	0xbe7759f1	-0.24155404
233	0xbd8c8113	-0.068605565
234	0x3e7de6e0	0.24795103
235	0xbd46c97d	-0.048531998
236	0x3eca9f61	0.3957472
237	0x3ea5c863	0.32379445
238	0xbe446722	-0.19179967
239	0x3e495ec1	0.19665052
240	0xb99750a9	-0.0002886106
241	0x3b3a221c	0.0028401678
242	0xba30f472	-0.00067502924
243	0x3e19a073	0.15002613
244	0xbeb186ba	-0.346731
245	0xbd7a9fc5	-0.061187524
246	0x3daed260	0.085362196
247	0x3e3cdd28	0.1844374
248	0xbcc8fd92	-0.024534974
249	0xbe809dc1	-0.25120357
250	0x3e06ece9	0.13176312
251	0x3d442889	0.04789022
252	0x3e423101	0.18964006
253	0xbeae00a4	-0.33984864
254	0x3df564f1	0.11982144
255	0x3e1aa404	0.1510163

latent_encoder.bias f4 [16]
0	0xbd9dde68	-0.07708436
1	0xbce6e9c6	-0.028187644
2	0xbd07bd52	-0.033139534
3	0xbd994758	-0.07484311
4	0x3c67c52e	0.014146132
5	0x3d4280bf	0.047486063
6	0xbd22a9d5	-0.039712746
7	0x3d94418d	0.07239065
8	0xbd26fa06	-0.040765785
9	0x3d3430bc	0.04399179
10	0xbd0912ee	-0.03346532
11	0xbd463450	-0.048389733
12	0x3dc28e15	0.09499756
13	0xbd10d450	-0.035358727
14	0xbb678867	-0.0035329105
15	0x3cf98165	0.030457208

flow.flow.mean f4 [4, 16]
0	0x00000000	0.0
1	0x00000000	0.0
2	0x00000000	0.0
3	0x00000000	0.0
4	0x00000000	0.0
5	0x00000000	0.0
6	0x00000000	0.0
7	0x00000000	0.0
8	0x00000000	0.0
9	0x00000000	0.0
10	0x00000000	0.0
11	0x00000000	0.0
12	0x00000000	0.0
13	0x00000000	0.0
14	0x00000000	0.0
15	0x00000000	0.0
16	0x00000000	0.0
17	0x00000000	0.0
18	0x00000000	0.0
19	0x00000000	0.0
20	0x00000000	0.0
21	0x00000000	0.0
22	0x00000000	0.0
23	0x00000000	0.0
24	0x00000000	0.0
25	0x00000000	0.0
26	0x00000000	0.0
27	0x00000000	0.0
28	0x00000000	0.0
29	0x00000000	0.0
30	0x00000000	0.0
31	0x00000000	0.0
32	0x00000000	0.0
33	0x00000000	0.0
34	0x00000000	0.0
35	0x00000000	0.0
36	0x00000000	0.0
37	0x00000000	0.0
38	0x00000000	0.0
39	0x00000000	0.0
40	0x00000000	0.0
41	0x00000000	0.0
42	0x00000000	0.0
43	0x00000000	0.0
44	0x00000000	0.0
45	0x00000000	0.0
46	0x00000000	0.0
47	0x00000000	0.0
48	0x00000000	0.0
49	0x00000000	0.0
50	0x00000000	0.0
51	0x00000000	0.0
52	0x00000000	0.0
53	0x00000000	0.0
54	0x00000000	0.0
55	0x00000000	0.0
56	0x00000000	0.0
57	0x00000000	0.0
58	0x00000000	0.0
59	0x00000000	0.0
60	0x00000000	0.0
61	0x00000000	0.0
62	0x00000000	0.0
63	0x00000000	0.0

flow.flow.cov f4 [4, 16, 16]
0	0x3f800000	1.0
1	0x00000000	0.0
2	0x00000000	0.0
3	0x00000000	0.0
4	0x00000000	0.0
5	0x00000000	0.0
6	0x00000000	0.0
7	0x00000000	0.0
8	0x00000000	0.0
9	0x00000000	0.0
10	0x00000000	0.0
11	0x00000000	0.0
12	0x00000000	0.0
13	0x00000000	0.0
14	0x00000000	0.0
15	0x00000000	0.0
16	0x00000000	0.0
17	0x3f800000	1.0
18	0x00000000	0.0
19	0x00000000	0.0
20	0x00000000	0.0
21	0x00000000	0.0
22	0x00000000	0.0
23	0x00000000	0.0
24	0x00000000	0.0
25	0x00000000	0.0
26	0x00000000	0.0
27	0x00000000	0.0
28	0x00000000	0.0
29	0x00000000	0.0
30	0x00000000	0.0
31	0x00000000	0.0
32	0x00000000	0.0
33	0x00000000	0.0
34	0x3f800000	1.0
35	0x00000000	0.0
36	0x00000000	0.0
37	0x00000000	0.0
38	0x00000000	0.0
39	0x00000000	0.0
40	0x00000000	0.0
41	0x00000000	0.0
42	0x00000000	0.0
43	0x00000000	0.0
44	0x00000000	0.0
45	0x00000000	0.0
46	0x00000000	0.0
47	0x00000000	0.0
48	0x00000000	0.0
49	0x00000000	0.0
50	0x00000000	0.0
51	0x3f800000	1.0
52	0x00000000	0.0
53	0x00000000	0.0
54	0x00000000	0.0
55	0x00000000	0.0
56	0x00000000	0.0
57	0x00000000	0.0
58	0x00000000	0.0
59	0x00000000	0.0
60	0x00000000	0.0
61	0x00000000	0.0
62	0x00000000	0.0
63	0x00000000	0.0
64	0x00000000	0.0
65	0x00000000	0.0
66	0x00000000	0.0
67	0x00000000	0.0
68	0x3f800000	1.0
69	0x00000000	0.0
70	0x00000000	0.0
71	0x00000000	0.0
72	0x00000000	0.0
73	0x00000000	0.0
74	0x00000000	0.0
75	0x00000000	0.0
76	0x00000000	0.0
77	0x00000000	0.0
78	0x00000000	0.0
79	0x00000000	0.0
80	0x00000000	0.0
81	0x00000000	0.0
82	0x00000000	0.0
83	0x00000000	0.0
84	0x00000000	0.0
85	0x3f800000	1.0
86	0x00000000	0.0
87	0x00000000	0.0
88	0x00000000	0.0
89	0x00000000	0.0
90	0x00000000	0.0
91	0x00000000	0.0
92	0x00000000	0.0
93	0x00000000	0.0
94	0x00000000	0.0
95	0x00000000	0.0
96	0x00000000	0.0
97	0x00000000	0.0
98	0x00000000	0.0
99	0x00000000	0.0
100	0x00000000	0.0
101	0x00000000	0.0
102	0x3f800000	1.0
103	0x00000000	0.0
104	0x00000000	0.0
105	0x00000000	0.0
106	0x00000000	0.0
107	0x00000000	0.0
108	0x00000000	0.0
109	0x00000000	0.0
110	0x00000000	0.0
111	0x00000000	0.0
112	0x00000000	0.0
113	0x00000000	0.0
114	0x00000000	0.0
115	0x00000000	0.0
116	0x00000000	0.0
117	0x00000000	0.0
118	0x00000000	0.0
119	0x3f800000	1.0
120	0x00000000	0.0
121	0x00000000	0.0
122	0x00000000	0.0
123	0x00000000	0.0
124	0x00000000	0.0
125	0x00000000	0.0
126	0x00000000	0.0
127	0x00000000	0.0
128	0x00000000	0.0
129	0x00000000	0.0
130	0x00000000	0.0
131	0x00000000	0.0
132	0x00000000	0.0
133	0x00000000	0.0
134	0x00000000	0.0
135	0x00000000	0.0
136	0x3f800000	1.0
137	0x00000000	0.0
138	0x00000000	0.0
139	0x00000000	0.0
140	0x00000000	0.0
141	0x00000000	0.0
142	0x00000000	0.0
143	0x00000000	0.0
144	0x00000000	0.0
145	0x00000000	0.0
146	0x00000000	0.0
147	0x00000000	0.0
148	0x00000000	0.0
149	0x00000000	0.0
150	0x00000000	0.0
151	0x00000000	0.0
152	0x00000000	0.0
153	0x3f800000	1.0
154	0x00000000	0.0
155	0x00000000	0.0
156	0x00000000	0.0
157	0x00000000	0.0
158	0x00000000	0.0
159	0x00000000	0.0
160	0x00000000	0.0
161	0x00000000	0.0
162	0x00000000	0.0
163	0x00000000	0.0
164	0x00000000	0.0
165	0x00000000	0.0
166	0x00000000	0.0
167	0x00000000	0.0
168	0x00000000	0.0
169	0x00000000	0.0
170	0x3f800000	1.0
171	0x00000000	0.0
172	0x00000000	0.0
173	0x00000000	0.0
174	0x00000000	0.0
175	0x00000000	0.0
176	0x00000000	0.0
177	0x00000000	0.0
178	0x00000000	0.0
179	0x00000000	0.0
180	0x00000000	0.0
181	0x00000000	0.0
182	0x00000000	0.0
183	0x00000000	0.0
184	0x00000000	0.0
185	0x00000000	0.0
186	0x00000000	0.0
187	0x3f800000	1.0
188	0x00000000	0.0
189	0x00000000	0.0
190	0x00000000	0.0
191	0x00000000	0.0
192	0x00000000	0.0
193	0x00000000	0.0
194	0x00000000	0.0
195	0x00000000	0.0
196	0x00000000	0.0
197	0x00000000	0.0
198	0x00000000	0.0
199	0x00000000	0.0
200	0x00000000	0.0
201	0x00000000	0.0
202	0x00000000	0.0
203	0x00000000	0.0
204	0x3f800000	1.0
205	0x00000000	0.0
206	0x00000000	0.0
207	0x00000000	0.0
208	0x00000000	0.0
209	0x00000000	0.0
210	0x00000000	0.0
211	0x00000000	0.0
212	0x00000000	0.0
213	0x00000000	0.0
214	0x00000000	0.0
215	0x00000000	0.0
216	0x00000000	0.0
217	0x00000000	0.0
218	0x00000000	0.0
219	0x00000000	0.0
220	0x00000000	0.0
221	0x3f800000	1.0
222	0x00000000	0.0
223	0x00000000	0.0
224	0x00000000	0.0
225	0x00000000	0.0
226	0x00000000	0.0
227	0x00000000	0.0
228	0x00000000	0.0
229	0x00000000	0.0
230	0x00000000	0.0
231	0x00000000	0.0
232	0x00000000	0.0
233	0x00000000	0.0
234	0x00000000	0.0
235	0x00000000	0.0
236	0x00000000	0.0
237	0x00000000	0.0
238	0x3f800000	1.0
239	0x00000000	0.0
240	0x00000000	0.0
241	0x00000000	0.0
242	0x00000000	0.0
243	0x00000000	0.0
244	0x00000000	0.0
245	0x00000000	0.0
246	0x00000000	0.0
247	0x00000000	0.0
248	0x00000000	0.0
249	0x00000000	0.0
250	0x00000000	0.0
251	0x00000000	0.0
252	0x00000000	0.0
253	0x00000000	0.0
254	0x00000000	0.0
255	0x3f800000	1.0

flow.flow.transforms.0.x0 f4 [4, 16]
0	0xbe4d3ef7	-0.2004355
1	0x3e06286d	0.13101359
2	0xbe78c776	-0.24294838
3	0x3d89da0c	0.06731042
4	0x3e4b5ee2	0.19860414
5	0x3ec6590c	0.38739812
6	0xbe2d0ada	-0.16898671
7	0x3d015fba	0.031585433
8	0x3e5a6f07	0.21331416
9	0x3e4f015f	0.20215367
10	0x3da5d302	0.08096887
11	0xbe10f4b5	-0.14155848
12	0xbc4539a2	-0.0120376665
13	0x3e58b503	0.211628
14	0xbe75a676	-0.23989281
15	0xbe5c73c0	-0.2152853
16	0x3c39cf22	0.011340888
17	0xbe16d746	-0.14730558
18	0x3d389212	0.04506118
19	0x3ecb2a0e	0.39680523
20	0xbe1a3eb7	-0.15062986
21	0x3d2486da	0.040167667
22	0xbe14ec27	-0.1454321
23	0xbe84b9fe	-0.2592315
24	0x3ea06675	0.3132817
25	0xbe453d68	-0.19261706
26	0x3eb9ed22	0.3631373
27	0x3e5e7766	0.21725234
28	0x3da6dc73	0.08147516
29	0x3edfee20	0.43736362
30	0xbe810845	-0.25201622
31	0xbe92b030	-0.28650045
32	0x3e9026c2	0.2815457
33	0x3e925dee	0.28587288
34	0xbeb0d686	-0.34538668
35	0x3e51ff5b	0.20507567
36	0x3ea10a06	0.3145296
37	0xbd9becdf	-0.07613539
38	0x3e98b185	0.29822937
39	0xbe827aaf	-0.25484225
40	0x3e2f7a09	0.17136396
41	0xbe0384c7	-0.1284362
42	0xbe6b68bc	-0.22989172
43	0x3dbff388	0.09372622
44	0xbe700b39	-0.23441781
45	0x3de71cf2	0.11284818
46	0xbe71f2ac	-0.23627728
47	0x3e6e3d0b	0.23265474
48	0xbec9df66	-0.39428252
49	0x3dc315a8	0.09525615
50	0x3d7a70a7	0.06114259
51	0xbee642dd	-0.44972888
52	0x3c9ef8b9	0.01940571
53	0x3e8c7208	0.2743075
54	0xbe8e55a5	-0.27799717
55	0x3e2fcd1d	0.17168088
56	0x3e33e992	0.17569569
57	0x3d950958	0.07277173
58	0x3d2e600a	0.04257206
59	0xbd138d13	-0.03602321
60	0x3d0a33db	0.03374086
61	0xbeaeba79	-0.34126642
62	0xbe773427	-0.24140988
63	0xbe85b945	-0.26117912

flow.flow.transforms.0.alpha_prime f4 [4]
0	0x3e18b979	0.14914502
1	0x3d888435	0.066658415
2	0xbe49f826	-0.19723567
3	0xbe7a00db	-0.24414389

flow.flow.transforms.0.beta_prime f4 [4]
0	0xbe6f32cc	-0.23359221
1	0x3de33554	0.11094156
2	0xbc1de159	-0.009636247
3	0x3e79f63a	0.24410334

flow.flow.transforms.1.x0 f4 [4, 16]
0	0x3e7fc57c	0.24977678
1	0xbd7fe0fe	-0.06247043
2	0xbec762d0	-0.38942575
3	0x3e85fe26	0.26170462
4	0x3ea5357b	0.32267365
5	0x3c86171f	0.016368447
6	0xbe72a124	-0.23694283
7	0x3d2e5248	0.04255894
8	0xbe2f3d48	-0.1711322
9	0xbcc6389d	-0.024196917
10	0x3e97c1e1	0.29640105
11	0xbecac944	-0.39606678
12	0xbe9cef93	-0.3065153
13	0x3c3ca3b2	0.011513637
14	0x3df914d5	0.121621765
15	0xbdab9a5f	-0.08379053
16	0xbe46ed63	-0.19426493
17	0xbe2fe719	-0.17178
18	0xbe18a6a5	-0.1490732
19	0xbeed3759	-0.4633129
20	0xbcbd2a6b	-0.023091516
21	0xbe2f6104	-0.17126852
22	0x3df486dd	0.11939786
23	0x3e7054ae	0.23469803
24	0x3e9508e5	0.29108348
25	0xbe250b49	-0.16117586
26	0xbec62435	-0.386995
27	0x3ea111a6	0.31458777
28	0xbcbfb53c	-0.023401849
29	0xbec07964	-0.37592614
30	0x3e70a07e	0.23498723
31	0xbdfdc2dc	-0.12390682
32	0xbe1b2c99	-0.15153731
33	0xbe851e77	-0.25999805
34	0x3e687908	0.2270242
35	0xbe819d58	-0.25315356
36	0xbe881250	-0.2657647
37	0xbe2d06bf	-0.16897105
38	0xbc71aaff	-0.014750241
39	0x3da03a95	0.07823674
40	0x3e092520	0.13393068
41	0xbd071171	-0.032975618
42	0x3e258911	0.16165568
43	0x3e1545ab	0.14577357
44	0x3e9e8fa0	0.30968952
45	0xbea101d9	-0.31446722
46	0x3d6c75fe	0.057729714
47	0xbdbcfada	-0.09227534
48	0x3e7f902f	0.24957345
49	0x3e08aca2	0.13347104
50	0xbd9e3a70	-0.0772599
51	0x3e72d41d	0.23713727
52	0x3e28dd30	0.16490626
53	0xbe3ddc0b	-0.18540971
54	0xbdd350d7	-0.10318153
55	0xbe3b77a7	-0.18307362
56	0xbe639f0b	-0.22228639
57	0xbd2b4101	-0.04181004
58	0x3ce704e5	0.028200576
59	0x3bb3fb00	0.005492568
60	0x3d8cbc3a	0.06871839
61	0x3e8f02b8	0.27931762
62	0x3e620c34	0.22074968
63	0x3ce2da8a	0.027692098

flow.flow.transforms.1.alpha_prime f4 [4]
0	0x3d0f0f30	0.034926593
1	0x3e0d74ad	0.1381404
2	0x3e4b7f74	0.19872838
3	0x3da5b651	0.08091415

flow.flow.transforms.1.beta_prime f4 [4]
0	0xbe33d7a7	-0.17562734
1	0xbdebe50d	-0.11518297
2	0xbd94b9b5	-0.07261983
3	0xbd913091	-0.070893414

flow.flow.transforms.2.x0 f4 [4, 16]
0	0x3e481bdb	0.19541876
1	0x3e5d4021	0.21606494
2	0xbedc8ff0	-0.43078566
3	0xbe6d2781	-0.23159601
4	0x3c7edad1	0.0155551
5	0x3e47633b	0.19471447
6	0x3e3c6291	0.18396975
7	0x3e906c82	0.28207785
8	0x3e7c9640	0.24666691
9	0x3ec6c92b	0.38825354
10	0xbdf51465	-0.119667806
11	0xbec134e8	-0.37735677
12	0xbe81a9ef	-0.25324962
13	0xbe303a52	-0.17209747
14	0x3e48fa34	0.19626695
15	0x3d8f9f8a	0.070128515
16	0x3d9e37a3	0.077254556
17	0xbe6a436d	-0.22877283
18	0xbd1d3e38	-0.038389415
19	0x3e0cdbe8	0.13755763
20	0x3cf5443f	0.029939769
21	0xbe14e737	-0.14541326
22	0xbd8e07d2	-0.06935085
23	0xbe083e9a	-0.1330513
24	0x3d008f9c	0.031386957
25	0x3d250fda	0.04029832
26	0x3e15bb9d	0.1462235
27	0xbdef9cda	-0.11699839
28	0x3e54f9c1	0.20798399
29	0x3e62e5d2	0.22157982
30	0x3d5693a5	0.0523869
31	0xbda32641	-0.07966281
32	0x3e3fbf04	0.1872521
33	0x3e9a44bb	0.30130562
34	0xbe95f312	-0.2928701
35	0x3def3821	0.116806276
36	0x3ea40cbb	0.32040963
37	0xbd53c75a	-0.05170379
38	0x3eaf28e5	0.34210888
39	0xbca8e57f	-0.020617245
40	0x3d5c1e1b	0.05373965
41	0xbdb7d5ba	-0.08976312
42	0xbeb1615d	-0.34644595
43	0xbe3b21f3	-0.1827467
44	0xbe8921e1	-0.2678366
45	0x3e931c3f	0.28732488
46	0xbe34d707	-0.17660151
47	0x3e799c4a	0.24376026
48	0x3e270bab	0.16313045
49	0x3d0032b0	0.03129834
50	0xbe85900a	-0.26086456
51	0xbbde64f8	-0.0067869388
52	0x3e45c514	0.1931346
53	0xbdb0d8ed	-0.08635125
54	0x3dec4c07	0.115379386
55	0xbd63bd4b	-0.055600446
56	0xbe87a2a5	-0.26491275
57	0x3e5600eb	0.20898788
58	0xbd80cb6c	-0.062888
59	0x3e881795	0.26580492
60	0x3e4b4bc0	0.19853115
61	0x3ea66e7e	0.32506174
62	0xbdd57369	-0.10422403
63	0xbcadc256	-0.02121083

flow.flow.transforms.2.alpha_prime f4 [4]
0	0xbce3167e	-0.027720686
1	0xbd5ed788	-0.054404765
2	0xbe94fcba	-0.29099065
3	0xbd49fd82	-0.04931403

flow.flow.transforms.2.beta_prime f4 [4]
0	0xbe24241e	-0.16029403
1	0x3d8b95ca	0.06815679
2	0x3e8b17ea	0.27166682
3	0xbd9ede29	-0.077572174

flow.flow.transforms.3.x0 f4 [4, 16]
0	0xbe6bfc19	-0.23045386
1	0xbcdd31b2	-0.027001236
2	0xbea9d759	-0.3317211
3	0xbdf872d4	-0.12131277
4	0x3e62a840	0.22134495
5	0x3e3b7636	0.18306813
6	0xbdd7ecf0	-0.10543239
7	0xbe409692	-0.18807438
8	0x3e0dbc6c	0.13841408
9	0xbd7bd255	-0.061479885
10	0x3e17c626	0.14821681
11	0xbeb053f2	-0.34439045
12	0x3e016aa5	0.12638338
13	0x3e124dd2	0.14287499
14	0xbe89597f	-0.26826093
15	0xbe80150f	-0.25016066
16	0x3e81c468	0.2534516
17	0x3ea1d5ff	0.3160858
18	0xbe8b7d2e	-0.27243942
19	0xbcc1b293	-0.023644721
20	0x3e266929	0.16251053
21	0xbda2021b	-0.07910558
22	0x3eb1de07	0.34739706
23	0x3e650c23	0.22367911
24	0xbda43103	-0.08017161
25	0xbe630188	-0.22168553
26	0xbeeabab9	-0.45845583
27	0xbe09ecba	-0.1346921
28	0xbe5f95ed	-0.21834536
29	0x3d797904	0.060906425
30	0x3e108432	0.14112929
31	0xbc6f38b2	-0.01460092
32	0xbe3c30b0	-0.18377948
33	0xbe275f50	-0.16344953
34	0x3e5b27cf	0.21401905
35	0xbe5ab7b2	-0.21359137
36	0xbe2107df	-0.15725659
37	0x3da04449	0.07825524
38	0xbe8dc87b	-0.27692017
39	0x3ae56744	0.0017502089
40	0xbbb022b8	-0.0053752325
41	0x3d8ff18c	0.07028493
42	0x3db861f5	0.09003059
43	0xbc935577	-0.017985089
44	0x3e7839cf	0.24240802
45	0xbe599ab3	-0.2125042
46	0x3d0d3db8	0.034482688
47	0xbdb169d4	-0.08662763
48	0x3e6e6850	0.2328198
49	0xbd22e1b6	-0.039766036
50	0x3e18b549	0.14912905
51	0x3ebd3fcc	0.36962736
52	0x3e8a9cbd	0.27072707
53	0xbe3b97ef	-0.18319677
54	0x3d707698	0.05870685
55	0x3ca5c62a	0.020236094
56	0x3e18297f	0.1485958
57	0xbde8103b	-0.11331221
58	0xbc187a86	-0.009306556
59	0xbe246c59	-0.16056956
60	0xbdaf9b75	-0.08574573
61	0xbc987b8c	-0.0186136
62	0xbc2d3d6b	-0.010573725
63	0x3c82b450	0.01595512

flow.flow.transforms.3.alpha_prime f4 [4]
0	0x3e1448d8	0.14480913
1	0x3e0eb311	0.13935496
2	0x3d12dac5	0.035853166
3	0x3e1951e6	0.14972648

flow.flow.transforms.3.beta_prime f4 [4]
0	0xbe79973b	-0.24374096
1	0xbd0ae48c	-0.033909366
2	0xbe8d0132	-0.27539974
3	0x3c46becd	0.012130451

flow.flow.transforms.4.x0 f4 [4, 16]
0	0x3dacff4f	0.08447134
1	0xbdee6ed9	-0.11642236
2	0x3dbb73c1	0.09152938
3	0xb98d2954	-0.00026924408
4	0xbe0d501b	-0.13800089
5	0xbe9a2bc3	-0.30111513
6	0xbac51c5c	-0.0015038359
7	0xbe0c2844	-0.13687235
8	0xbc7f6572	-0.015588151
9	0xbe894606	-0.26811236
10	0xbe13a168	-0.1441704
11	0x3ea58ae3	0.32332525
12	0xbcf45166	-0.02982397
13	0xbe6ebdc9	-0.23314585
14	0x3e7671bf	0.24066828
15	0x3e34b198	0.17645872
16	0x3cf25afc	0.0295844
17	0xbe690f63	-0.22759776
18	0xbd71e4d3	-0.059056114
19	0x3e2f740e	0.17134115
20	0x3e08777b	0.13326828
21	0xbcc3287f	-0.023823021
22	0x3cc0e000	0.023544312
23	0xbdd96d69	-0.106165715
24	0x3d8db6df	0.069196455
25	0x3d3a25eb	0.045446318
26	0x3de5e051	0.112244256
27	0xbe4509f8	-0.19242084
28	0x3e1ac1c1	0.15112974
29	0x3dcca5b0	0.0999254
30	0x3d33ee7a	0.0439286
31	0xbe072966	-0.13199386
32	0x3e876b8d	0.26449242
33	0x3ea08ae0	0.31355953
34	0xbc8bf198	-0.017082974
35	0x3e00ec18	0.12590063
36	0x3e9b2b57	0.30306503
37	0x3da41bc0	0.080131054
38	0x3eaa86e9	0.33306053
39	0xbe0e14b5	-0.13875087
40	0xbd7b2d78	-0.06132266
41	0xbd97712e	-0.07394634
42	0xbe9587e0	-0.29205227
43	0xbe68984e	-0.2271435
44	0xbe86aff6	-0.26306123
45	0x3e95e307	0.2927477
46	0xbe265926	-0.16244945
47	0x3e242026	0.16027889
48	0xbed3c950	-0.41364527
49	0x3e2681a2	0.16260388
50	0x3dc6cc46	0.09706931
51	0xbe391be9	-0.18077053
52	0x3d84781b	0.06468221
53	0x3ea5a4d9	0.3235233
54	0xbddd1779	-0.10795493
55	0x3e3613d4	0.17781001
56	0x3e768d6e	0.24077389
57	0x3dd0998b	0.10185536
58	0x3d7af6c6	0.061270498
59	0xbd93b984	-0.07213119
60	0x3cb5433e	0.02212679
61	0xbeb5c9df	-0.35505578
62	0xbe8ce000	-0.27514648
63	0xbe93557f	-0.28776166

flow.flow.transforms.4.alpha_prime f4 [4]
0	0xbe8900af	-0.26758334
1	0xbde11ad1	-0.10991443
2	0xbe87bbd6	-0.26510495
3	0xbc074e8b	-0.008258472

flow.flow.transforms.4.beta_prime f4 [4]
0	0xbdbc057a	-0.09180732
1	0x3e62cf30	0.22149348
2	0x3e1ed11c	0.15509456
3	0x3e691960	0.22763586

flow.flow.transforms.5.x0 f4 [4, 16]
0	0x3d94e1fd	0.07269666
1	0xbddfe66a	-0.1093262
2	0x3dcf5429	0.10123474
3	0x3c87a9f3	0.01656053
4	0xbe03e15f	-0.12878941
5	0xbe8d17d4	-0.27557242
6	0xbd05a03c	-0.032623515
7	0xbdd4a872	-0.10383691
8	0xbc8414ce	-0.016123202
9	0xbe81ce5d	-0.25352755
10	0x3ce030e6	0.027367067
11	0x3e919580	0.28434372
12	0x3e244613	0.16042356
13	0xbe6126c2	-0.21987441
14	0x3e6c0772	0.23049715
15	0x3eb985d2	0.3623491
16	0x3e949139	0.29017046
17	0xbee06ce8	-0.4383309
18	0xbeb287b3	-0.34869155
19	0x3e90ab52	0.28255707
20	0x3e926650	0.28593683
21	0xbe136e2a	-0.14397493
22	0x3e687d91	0.2270415
23	0xbe0f6d7e	-0.14006612
24	0x3e3dcbbd	0.18534751
25	0xbe71820d	-0.23584767
26	0x3e88b944	0.26703846
27	0xbe6a0fa8	-0.22857535
28	0x3e05cfad	0.13067503
29	0xbe5fb8d5	-0.21847852
30	0x3eae9bf6	0.34103364
31	0x3e388f9e	0.18023536
32	0xbeb22c01	-0.34799197
33	0xbe4850ee	-0.19562122
34	0x3e404645	0.18776806
35	0x3bd07d4a	0.006362592
36	0xbe72fe65	-0.23729856
37	0xbddd996f	-0.10820281
38	0xbe36e417	-0.17860447
39	0x3e107cca	0.14110103
40	0xbd76937a	-0.06019924
41	0x3e508ccc	0.2036621
42	0x3e417b8e	0.18894789
43	0x3de54cac	0.111962646
44	0x3c745ba1	0.014914424
45	0xbe3610f0	-0.17779899
46	0xbe32d296	-0.17463145
47	0xbe9772a9	-0.29579666
48	0xbe2ef24a	-0.17084613
49	0x3e14382c	0.14474553
50	0xbd68234f	-0.056674298
51	0xbea6b3e8	-0.32559133
52	0xbcbbe3b5	-0.022935728
53	0x3ea4605c	0.32104766
54	0xbeb8d104	-0.36096966
55	0x3e5c9db2	0.21544531
56	0x3de27a9e	0.110585436
57	0xbdbbf2c1	-0.09177161
58	0x3df8bd27	0.12145453
59	0xbe31a2a9	-0.17347206
60	0x3d666e58	0.056257576
61	0xbeb95085	-0.36194244
62	0xbe64ea76	-0.22355065
63	0xbe892460	-0.26785564

flow.flow.transforms.5.alpha_prime f4 [4]
0	0xbcaafe3d	-0.020873183
1	0x3d2f94a1	0.042866353
2	0x3e5d88bc	0.21634191
3	0x3dec3e5a	0.1153533

flow.flow.transforms.5.beta_prime f4 [4]
0	0x3e6d35a1	0.23164989
1	0x3db787a3	0.089614175
2	0x3e2fa8a1	0.1715417
3	0x3e8d7d3d	0.27634612

flow.flow.transforms.6.x0 f4 [4, 16]
0	0xbe802637	-0.25029156
1	0xbb6dfeda	-0.0036315233
2	0xbeb4f468	-0.35342717
3	0xbd85ea5b	-0.065388404
4	0x3e9ede7c	0.31029117
5	0x3e28a3b9	0.16468705
6	0xbe7a806b	-0.2446305
7	0x3e1e5920	0.15463686
8	0xbe002677	-0.12514673
9	0x3e9dacdc	0.30795944
10	0xbc93e739	-0.018054591
11	0xbbf46cee	-0.0074592745
12	0xbe207dc9	-0.15672983
13	0xbd35f41d	-0.044422258
14	0xbe1bbad8	-0.15207994
15	0xbe9434ab	-0.28946432
16	0xbc9fd2d2	-0.019509707
17	0xbe2a63da	-0.16639653
18	0xbd5e3567	-0.054250147
19	0x3de8d7ab	0.113692604
20	0x3de9170c	0.11381349
21	0xbc3e12ce	-0.011601163
22	0xbce88628	-0.028384283
23	0xbda62eff	-0.081144325
24	0x3d7682cf	0.060183343
25	0x3d847162	0.064669386
26	0x3dc02faf	0.09384095
27	0xbe3a01df	-0.18164776
28	0x3e134c15	0.14384492
29	0x3dc09ae9	0.09404547
30	0x3d155cbc	0.03646539
31	0xbda6d03e	-0.08145188
32	0x3e764dad	0.24053068
33	0x3bd1168c	0.0063808616
34	0xbdd1c97b	-0.102435075
35	0x3e2bf9ad	0.16794463
36	0x3eb11ac3	0.3459073
37	0xbe21c933	-0.15799408
38	0x3edc8354	0.43068945
39	0x3c2341d4	0.009964425
40	0xbe8d967f	-0.27653882
41	0xbd204fd9	-0.03913865
42	0xbeccf084	-0.4002725
43	0xbe8d6f0a	-0.2762378
44	0xbe9c4054	-0.30517828
45	0x3ea9a99d	0.33137217
46	0x3decac1a	0.11556263
47	0x3ea69676	0.32536668
48	0x3e4a3939	0.19748391
49	0xbda802e8	-0.08203679
50	0x3ddefcb3	0.10888042
51	0x3e8b68a6	0.27228278
52	0x3e4a740f	0.19770835
53	0xbe187a57	-0.14890419
54	0x3e8db90d	0.27680245
55	0xbe74438b	-0.2385389
56	0xbe40be1c	-0.18822521
57	0x3d8c89d9	0.0686223
58	0x3d353134	0.044236377
59	0xbdb2b8b2	-0.08726634
60	0xbe711602	-0.23543552
61	0x3e9bc4bd	0.30423537
62	0x3e1563fb	0.14588921
63	0x3d353087	0.044235732

flow.flow.transforms.6.alpha_prime f4 [4]
0	0x3c28e76c	0.0103090815
1	0xbe8b6944	-0.2722875
2	0xbe41a6ef	-0.18911336
3	0x3d96cd77	0.07363408

flow.flow.transforms.6.beta_prime f4 [4]
0	0xbe3a5a71	-0.18198563
1	0x3e1ce38d	0.15321179
2	0xbdc9ed13	-0.098596714
3	0xbd3672c5	-0.044543047

flow.flow.transforms.7.x0 f4 [4, 16]
0	0x3cf415e4	0.029795595
1	0xbdd04665	-0.10169677
2	0x3e397d69	0.18114246
3	0xbbfe85b8	-0.0077674054
4	0xbdb8236d	-0.08991132
5	0xbe8716e0	-0.2638464
6	0xbd83d41c	-0.06436941
7	0xbde9de1b	-0.114193164
8	0xbbf1779f	-0.0073689963
9	0xbe791cf1	-0.24327447
10	0xbd44c813	-0.04804237
11	0x3e8f4f46	0.27990168
12	0x3e1d8f9a	0.15386811
13	0xbe6a9127	-0.22906934
14	0x3e600b1f	0.21879242
15	0x3ea467a5	0.32110325
16	0x3eb0a2da	0.34499246
17	0x3ecd36ab	0.4008077
18	0x3e18b02b	0.14910953
19	0xbdb53fa9	-0.08850033
20	0x3ea64ce9	0.32480553
21	0xbeb69499	-0.35660246
22	0x3e8067da	0.25079232
23	0xbe522a09	-0.20523848
24	0xbdf95603	-0.121746086
25	0xbebafaa0	-0.36519337
26	0x3e33d8fa	0.17563239
27	0xbcadf392	-0.021234307
28	0xbe69adfc	-0.22820276
29	0x3e99cf54	0.3004099
30	0xbe7da016	-0.24768099
31	0x3dc927ba	0.0982203
32	0xbd971b50	-0.07378256
33	0xbe875a44	-0.26436055
34	0x3e6c4368	0.23072588
35	0x3de62810	0.1123811
36	0xbe91b929	-0.28461578
37	0xbcfc5070	-0.030800074
38	0x3cff4b3a	0.0311638
39	0xbc574b40	-0.0131405
40	0x3e22e2cb	0.15906827
41	0x3dcf2683	0.101147674
42	0x3e4e9e20	0.20177507
43	0x3c3390d3	0.010959822
44	0x3e3c5c61	0.18394615
45	0xbeafa4b0	-0.34305334
46	0x3dc26ca1	0.094933756
47	0xbe159c2e	-0.14610359
48	0x3e8b9921	0.27265266
49	0xbe32cf63	-0.17461924
50	0xbe1c5dd0	-0.15270162
51	0x3e801562	0.25016314
52	0x3e835229	0.2564862
53	0x3cecf47e	0.028925177
54	0x3e5b2ffc	0.21405023
55	0xbe79f29b	-0.24408953
56	0x3e1b12a3	0.15143828
57	0xbe60b4a0	-0.21943903
58	0xbc7fc1b7	-0.01561015
59	0xbe25e801	-0.16201784
60	0xbd8dc4f4	-0.069223315
61	0x3ea4b874	0.32171977
62	0x3e26197f	0.16220663
63	0x3e8e509e	0.2779588

flow.flow.transforms.7.alpha_prime f4 [4]
0	0xbd9982df	-0.07495665
1	0x3d667141	0.05626035
2	0xbdba4bd2	-0.09096493
3	0x3d852011	0.06500257

flow.flow.transforms.7.beta_prime f4 [4]
0	0x3e240e14	0.16020995
1	0xbabf9528	-0.0014616596
2	0xbe514391	-0.20435931
3	0xbe20f9d0	-0.15720296

flow.flow.transforms.8.x0 f4 [4, 16]
0	0x3de51eed	0.11187539
1	0x3dd991d8	0.106235206
2	0x3eb2764d	0.3485588
3	0x3e55f741	0.20895101
4	0xbe927d5b	-0.28611264
5	0xbebd0c09	-0.36923245
6	0xbe154a35	-0.14579089
7	0xbd8b1e10	-0.06792843
8	0xbe24effc	-0.16107172
9	0xbecba259	-0.397723
10	0xbe3c14eb	-0.18367355
11	0x3ecc8fad	0.39953366
12	0xbd39db0f	-0.045374926
13	0x3d6b0d45	0.0573857
14	0x3e416b75	0.18888648
15	0x3ee3248d	0.44363824
16	0x3ea54291	0.3227735
17	0xbe90defa	-0.28295118
18	0xbe4acd09	-0.19804777
19	0xbd8f54a3	-0.06998565
20	0xbe97eea3	-0.29674253
21	0xbca1fef1	-0.019774886
22	0x3e8d789e	0.27631086
23	0x3b4b1d57	0.003099283
24	0x3c9eafcb	0.019370934
25	0xbe48d323	-0.19611792
26	0xbed90ea6	-0.42393988
27	0xbe3633f0	-0.1779325
28	0x3e8a3df9	0.27000406
29	0xbe7e4dc9	-0.2483436
30	0xbe28fd73	-0.16502933
31	0x3ec1a21f	0.37819
32	0xbe93a00a	-0.28833038
33	0xbe7ce664	-0.24697262
34	0x3e43b046	0.19110212
35	0xbe360c27	-0.17778073
36	0xbe21bcf7	-0.1579474
37	0x3cbe282c	0.023212515
38	0xbeadd805	-0.33953872
39	0x3dabd7a1	0.08390737
40	0x3d8ef04e	0.06979428
41	0x3a7616a2	0.0009387528
42	0x3e12599e	0.14291999
43	0xbd1379ae	-0.036004715
44	0x3ea46b68	0.32113194
45	0xbe9ed888	-0.31024575
46	0xbc894d2b	-0.01676043
47	0xbdd06793	-0.10176005
48	0xbe418d4d	-0.18901558
49	0xbe655434	-0.22395402
50	0xbe49788c	-0.19674891
51	0x3e95c271	0.2924991
52	0x3e5a51c4	0.21320254
53	0xbbd342de	-0.00644718
54	0x3e75a401	0.23988344
55	0xbd587877	-0.05284926
56	0x3e768c55	0.2407697
57	0x3e5eaee3	0.21746401
58	0xbcf13e90	-0.029448777
59	0x3dbdf457	0.0927512
60	0x3e8032f5	0.25038877
61	0x3ea42032	0.32055813
62	0x3e686062	0.22693017
63	0xbe1395d0	-0.14412618

flow.flow.transforms.8.alpha_prime f4 [4]
0	0xbe8802f4	-0.26564753
1	0xbd5842b4	-0.052797988
2	0x3e51a7e8	0.20474207
3	0x3d90f8a6	0.07078676

flow.flow.transforms.8.beta_prime f4 [4]
0	0xbe1f9885	-0.15585525
1	0xbdadfd3b	-0.084955655
2	0xbe8de68f	-0.27714965
3	0x3d1a13ae	0.037616424

flow.flow.transforms.9.x0 f4 [4, 16]
0	0x3d547577	0.051869836
1	0xbdb23038	-0.08700603
2	0x3e28d663	0.16488032
3	0xbcec5acd	-0.028851891
4	0xbdb9cc3e	-0.09072159
5	0xbe806edf	-0.25084588
6	0xbd6ba090	-0.05752617
7	0xbdba5745	-0.090986766
8	0x3cfcad47	0.030844344
9	0xbe643ce3	-0.22288851
10	0xbd9b2441	-0.07575274
11	0x3e94cba5	0.29061618
12	0x3e032044	0.12805277
13	0xbe572c14	-0.21012908
14	0x3e514fb3	0.20440559
15	0x3e8376f8	0.25676703
16	0x3e1c53b9	0.15266313
17	0x3e8e970f	0.27849624
18	0x3e43e381	0.19129755
19	0xbc8726c2	-0.016497973
20	0xbe6a1bde	-0.22862193
21	0xbe8815f0	-0.26579237
22	0xbdf0e513	-0.117624424
23	0xbe4dbca7	-0.20091496
24	0xbea87daa	-0.32908374
25	0xbdb7c121	-0.08972383
26	0xbedab552	-0.4271646
27	0x3ea40dfd	0.32041922
28	0x3dc04eac	0.093900055
29	0xbd9d3f68	-0.076781094
30	0x3e99f8d8	0.30072665
31	0x3eccbe56	0.39988965
32	0x3ea6f687	0.3260996
33	0x3eb72644	0.35771382
34	0xbde6c0c1	-0.11267234
35	0x3e352ea9	0.1769358
36	0x3ec636c3	0.38713655
37	0xbd36de43	-0.04464556
38	0x3edebfc2	0.43505675
39	0xbe164426	-0.14674434
40	0x3e27e1c0	0.1639471
41	0x3d5e0692	0.054205485
42	0xbede21c5	-0.4338514
43	0xbd439acd	-0.04775505
44	0xbca5c7f8	-0.020236954
45	0xbd2a7336	-0.04161378
46	0xbe9a79ea	-0.30171138
47	0x3e9f54b0	0.311193
48	0x3dc5ac74	0.096520334
49	0x3e5f3d36	0.21800694
50	0x3e896dc7	0.26841566
51	0xbf0e1d9e	-0.5551394
52	0xbe800062	-0.25000292
53	0xbe0c44a1	-0.13698055
54	0xbe911d47	-0.2834265
55	0x3e41fafd	0.189434
56	0x3e38d474	0.18049794
57	0xbe734589	-0.23756994
58	0x3e9ee1de	0.31031698
59	0x3e05767f	0.13033484
60	0xbd517218	-0.0511342
61	0xbee2010c	-0.44141424
62	0xbeb48f6c	-0.35265672
63	0xbdcd01f0	-0.10010135

flow.flow.transforms.9.alpha_prime f4 [4]
0	0xbeb4cd00	-0.35312653
1	0x3e2156d3	0.15755777
2	0x3e0a49a3	0.13504653
3	0xbe1160fd	-0.14197154

flow.flow.transforms.9.beta_prime f4 [4]
0	0x3e83dd87	0.2575495
1	0xbe3d4046	-0.1848155
2	0x3e605866	0.21908721
3	0xbd823ee9	-0.063596554
