saved_experiments/ood_loc/GPN/1/model_4.pt (torch, 759609 bytes, 36 tensors)

input_encoder.0.weight f4 [64, 2879]
000000 c8 d1 25 39 b8 b9 66 b9 b8 a6 9f b9 65 5d 8f b9
       0.00015813776 -0.00022003695 -0.00030451058 -0.0002734467
000010 49 af 95 39 3a 72 40 39 c8 77 b9 b7 09 a3 2a 39
       0.00028550092 0.000183531 -2.2109496e-05 0.00016273199
000020 24 6b 3a b9 4a 95 66 b8 2b 49 1f 39 60 a7 69 37
       -0.00017778255 -5.497531e-05 0.00015190679 1.3926852e-05
000030 a8 68 28 b9 a6 ca 4b b9 6c 1f 8d b9 40 a4 e5 b9
       -0.00016060716 -0.00019435081 -0.00026917027 -0.0004380066
000040 61 ca 9b 39 3c c7 48 38 a0 e8 0b b9 c9 32 28 b9
       0.00029714688 4.7869267e-05 -0.00013342733 -0.00016040647
000050 df 51 ce 39 80 6e 24 3b af 3f 7e b9 29 d1 f0 39
       0.0003935238 0.0025090277 -0.00024247052 0.00045932204
000060 b8 9e 21 3a 23 02 b2 3a 29 ba 99 39 e4 46 98 39
       0.00061653135 0.0013580959 0.00029321134 0.00029044517
000070 86 85 ac b9 98 df bc b9 20 1d e8 37 a6 d3 91 b9
       -0.0003290588 -0.00036024745 2.7670118e-05 -0.00027814246
000080 b8 fe 08 38 c4 a7 82 39 80 aa 52 b8 94 d8 29 b9
       3.2662152e-05 0.00024920527 -5.0226692e-05 -0.00016197778
000090 de 68 cf b9 b8 6a 5a b9 52 6a ec b9 0a 9e c4 b9
       -0.0003956025 -0.00020829856 -0.00045092643 -0.00037501781
0000a0 39 d1 f5 b8 7c 65 e3 39 a3 e5 45 b9 80 52 c8 39
       -0.00011721481 0.00043372426 -0.0001887293 0.0003820844
0000b0 9d 7c b4 39 c8 eb 28 3a e5 6f 61 b9 cb b9 31 3a
       0.0003442512 0.00064438256 -0.00021499356 0.00067796995
0000c0 e4 e6 4c b9 80 f3 20 b9 12 31 8f b9 60 2a 59 39
       -0.0001954097 -0.000153495 -0.00027311646 0.00020710519
0000d0 90 9e 3c 38 28 d9 99 39 9d 83 56 b9 83 0d 66 b9
       4.4970366e-05 0.00029344228 -0.0002045766 -0.00021939543
0000e0 88 93 75 b8 98 ae d1 b7 e5 c1 35 b9 c0 89 38 b9
       -5.854995e-05 -2.4996043e-05 -0.00017333736 -0.00017598923
0000f0 21 81 26 39 40 75 01 b9 02 d6 5e 3a da 8c 2b b9
       0.00015879098 -0.00012346078 0.00085005176 -0.00016360302
000100 90 33 67 b9 40 92 38 36 34 89 3f b9 36 64 9c 39
       -0.00022049085 2.7503265e-06 -0.00018266292 0.00029829302
000110 a4 08 5d 38 1c 98 3a b9 8e 1e c0 39 68 cf 2a 39
       5.2698553e-05 -0.00017795007 0.0003664386 0.00016289728
000120 35 d7 55 39 44 fd fe 38 0b 61 44 39 d2 e2 80 b9
       0.00020393434 0.00012158838 0.00018728168 -0.00024583057
000130 a0 8f a5 b9 df d6 81 b9 dd 41 25 b9 04 7f 08 b8
       -0.0003157826 -0.0002476489 -0.00015760162 -3.254322e-05
000140 a0 f5 23 b9 2a 5a 02 39 c4 80 8b b9 dc 65 5c 39
       -0.00015636394 0.00012431355 -0.00026608084 0.0002101878
000150 58 4e 5c 38 b1 6c 88 b9 1e 08 a8 b8 a6 de 63 39
       5.252505e-05 -0.00026020923 -8.012376e-05 0.0002173135
000160 d0 64 c8 38 c0 2d 9b 38 54 e1 68 b9 a6 a8 87 b9
       9.555521e-05 7.3994976e-05 -0.00022209185 -0.0002587486
000170 8c 3f b4 b8 85 3b 4c 39 0c f9 5d 38 a9 3e 94 b9
       -8.5949054e-05 0.00019477129 5.292245e-05 -0.00028275445
000180 8a 3f 92 b8 ba 87 c4 39 30 90 80 39 dd 8d 5c 39
       -6.9736576e-05 0.00037485157 0.0002452149 0.00021033683
000190 dc 10 cd 38 d2 90 50 39 1d f5 7f b9 fe aa 81 b9
       9.778302e-05 0.00019890376 -0.00024410007 -0.00024732196
0001a0 a6 a4 91 39 2c bb a5 b8 66 44 0f b9 cd d6 2f 39
       0.00027779228 -7.9026766e-05 -0.00013663023 0.0001676932
0001b0 c9 fa d8 b8 81 85 a8 39 15 26 77 39 af 82 45 39
       -0.00010346395 0.00032142925 0.00023569942 0.00018836067
0001c0 f0 e5 44 b9 c0 5c 6d b8 bb 43 d2 39 07 e8 44 b9
       -0.00018777675 -5.6591583e-05 0.00040104784 -0.00018778454
0001d0 d6 33 46 b9 c1 0a ba 39 04 5c c5 38 78 4c 4e b9
       -0.00018902062 0.00035484697 9.410831e-05 -0.00019674178
0001e0 e4 29 67 b9 0b 04 dc 39 ba 5c b4 b8 ed f6 45 b9
       -0.00022045482 0.00041964682 -8.6003405e-05 -0.00018879371
0001f0 da 1a ab b9 0c 56 b5 b8 3d 7e 34 39 9f 10 83 b9
       -0.00032635668 -8.64678e-05 0.00017213165 -0.0002499865
000200 eb fd 7c 39 29 1c 1e b9 9e 0b f4 b9 04 0b db b9
       0.00024127185 -0.00015078545 -0.00046547962 -0.00041779142
000210 c1 84 59 b9 1e d4 4c 39 78 26 d7 b9 8c c5 66 b9
       -0.00020744187 0.00019533976 -0.00041036657 -0.00022008101
000220 84 46 f6 38 9d d9 97 39 fa cc 2e 39 42 d7 cc b9
       0.00011743329 0.000289631 0.00016670293 -0.00039070292
000230 f5 52 22 b9 f8 4b 0f 39 c6 49 36 39 43 b2 f2 39
       -0.00015480428 0.00013665843 0.00017384355 0.00046290652
000240 79 98 4f b9 24 c8 86 b9 b6 03 1b b9 7e f8 52 b9
       -0.00019797859 -0.00025707588 -0.00014783334 -0.00020119731
000250 e6 a6 4c b9 91 81 a9 39 88 0c 8d 39 54 ec d6 b9
       -0.0001951713 0.00032330726 0.00026902952 -0.0004099334
000260 ea 28 bb b9 0c c2 0d b8 da e6 d0 39 d2 a1 9a ba
       -0.00035697903 -3.379774e-05 0.0003984485 -0.0011797494
000270 3f 29 e2 38 95 c0 85 b8 e0 c1 a4 38 e5 fe 98 b9
       0.000107842025 -6.3778054e-05 7.8562414e-05 -0.0002918161
000280 42 da 3f 39 57 21 4d b9 a7 b7 ed b9 13 12 82 39
       0.00018296487 -0.00019562744 -0.00045340994 0.00024809
000290 03 b4 94 b9 4a b9 9b 39 af 70 af b9 04 fd 14 b8
       -0.0002836288 0.00029701955 -0.00033462557 -3.552159e-05
0002a0 b7 a0 8b b9 d8 f6 80 39 00 4f 87 b6 24 02 61 b9
       -0.00026631888 0.00024597975 -4.0325103e-06 -0.0002145847
0002b0 93 28 a3 39 52 ac 4f 38 8b 32 95 b9 d8 3c cf 39
       0.00031120013 4.951313e-05 -0.00028457152 0.0003952745
0002c0 21 21 8e 39 4a 9f 97 38 fb 70 20 b9 71 fe 31 39
       0.00027109034 7.229911e-05 -0.00015300878 0.00016974822
0002d0 e4 ea df 38 a8 81 98 37 6f 7c 2e 39 52 ae 26 b9
       0.000106772204 1.8180188e-05 0.00016640288 -0.00015895933
0002e0 00 63 2c b5 dd d9 56 b9 2a b6 c0 b8 b2 5f 3b b9
       -6.4219057e-07 -0.00020489791 -9.189204e-05 -0.00017869359
0002f0 b9 c4 39 b9 d8 2e ec 39 18 94 da 37 b6 5c 59 39
       -0.0001771626 0.0004504833 2.6056587e-05 0.0002072927
000300 e4 80 ed b8 90 cc c8 b7 78 b2 ed b9 61 0e 16 b9
       -0.000113250484 -2.3937115e-05 -0.00045337132 -0.00014310471
000310 0a 30 49 39 39 ba 98 39 d1 e8 3f 39 2e f8 c0 38
       0.0001918675 0.00029130446 0.0001830191 9.2015005e-05
000320 2a 41 84 b9 4a b8 8c 38 b4 f3 bb 39 c4 60 f1 38
       -0.00025225553 6.710047e-05 0.00035848992 0.000115097995
000330 12 60 55 39 8e 5f 1e b9 01 49 ab b9 c0 92 60 b7
       0.00020349052 -0.00015103651 -0.00032670054 -1.3385608e-05
000340 da 29 81 b9 f1 fe ed b9 a8 d1 85 39 43 55 3e b9
       -0.0002463598 -0.0004539411 0.00025523943 -0.00018151574
000350 de 01 4e 39 76 e6 2f 39 00 b4 0a 37 53 83 12 39
       0.00019646386 0.00016775154 8.2673505e-06 0.00013972567
000360 4f 4e 5b b9 21 f3 2d b9 fc af 54 38 30 0d 57 b7
       -0.0002091464 -0.00016589138 5.0708637e-05 -1.2818069e-05
000370 54 eb 6f 39 bc 37 89 38 c8 e1 43 39 a2 a4 ef 39
       0.00022880483 6.5430504e-05 0.00018680759 0.00045708293
000380 d0 a6 5c b8 48 1e fd 38 0b bb 52 b9 d4 85 bf b9
       -5.2607444e-05 0.000120696204 -0.0002009684 -0.0003653007
000390 8b d9 89 39 c6 ee 1d 39 de 49 3b 39 79 aa f6 b9
       0.00026292758 0.00015061637 0.00017861227 -0.00047047788
0003a0 b8 8d 8e b9 cb 5c b7 b9 07 08 96 39 44 88 e4 b9
       -0.0002718994 -0.00034973616 0.0002861621 -0.00043589075
0003b0 4a fc 47 39 85 bf 7c b9 19 38 62 b9 62 2d 89 b9
       0.00019072104 -0.0002410394 -0.00021573938 -0.0002616449
0003c0 f3 47 7d 39 e0 cc bf 36 37 e5 af b9 54 5f 4e 39
       0.00024154763 5.716094e-06 -0.0003354938 0.00019681203
0003d0 a0 74 ca 38 53 c4 12 39 20 6c 4e 39 f6 57 d0 b8
       9.653834e-05 0.00013996781 0.0001968597 -9.934597e-05
0003e0 ec b6 45 39 8f 7d 5a 39 40 0c db 38 51 6c 60 b9
       0.00018855528 0.00020836874 0.000104450155 -0.00021402656
0003f0 37 7e a3 39 fe 18 92 b9 1f 44 24 39 c1 3d 2d b9
       0.0003118382 -0.0002786591 0.00015665636 -0.00016521571

input_encoder.0.bias f4 [64]
000000 26 83 9d bc 16 a3 8a bc 7c 5d 88 3a 75 1c 4a bd
       -0.019227576 -0.016923469 0.0010403837 -0.049343545
000010 7d 1b 0c 3d 7d 26 ee bb 51 82 76 bd cd d8 c7 3c
       0.034205902 -0.0072677718 -0.060182873 0.02439537
000020 ba 42 e1 ba 56 c1 43 3c 9f 0f 36 3c 24 4c bc 3c
       -0.0017186024 0.01194795 0.011112123 0.022985525
000030 a9 88 5f bd e3 c8 75 bd 06 6f 63 bd 86 84 b4 3c
       -0.05457369 -0.060006034 -0.055525802 0.022035848
000040 5a df 55 bd fd e4 07 bb 3c 9e 0b 3b db 1f cc ba
       -0.052214958 -0.0020735853 0.0021304032 -0.0015573459
000050 9e 99 0a bd 1a 89 e1 3b f1 f0 4b 3c 4b 6d 65 3c
       -0.033837907 0.006882799 0.012447582 0.014003108
000060 00 50 f0 3c de bd 58 3c a0 46 7b 3c 28 ff 0c 3c
       0.029335022 0.013228862 0.0153366625 0.008605756
000070 f3 6a 89 3c 0c 5d 8b 3c d0 a2 c6 3c fe 90 65 3c
       0.01677463 0.017012142 0.024247557 0.01401162
000080 c2 16 45 bd 62 ff 60 3b b3 b5 82 3b 49 88 5e bd
       -0.048117407 0.0034331908 0.0039889454 -0.05432919
000090 45 75 cd 3c 31 4b 8a bc 91 52 9b 3c 89 13 74 bd
       0.025080333 -0.016881557 0.01896027 -0.059588943
0000a0 cb a1 3d bd 07 da b3 3c bc c3 a5 3b 7a 97 8f bd
       -0.046296876 0.02195455 0.0050587337 -0.07011314
0000b0 76 0b 8a 3b 83 c7 7c bd b6 61 ad 3c c9 d4 3b bd
       0.004212792 -0.061713707 0.021164756 -0.045857225
0000c0 83 25 83 bd 91 56 56 bd 30 c6 71 3a c7 bf b4 3c
       -0.06403639 -0.05232865 0.00092229526 0.022064103
0000d0 81 47 86 bc 88 72 36 bc 7d 5c c5 3c 29 0f 90 bb
       -0.016391518 -0.011135705 0.024091953 -0.0043963385
0000e0 4c fa 70 bd 4c 6d f9 3b d4 55 82 3b bc 8a 18 3c
       -0.05883245 0.007611906 0.0039775167 0.009310421
0000f0 df 85 54 bb 42 fd 43 3c a4 cd 01 3c 18 f9 80 bd
       -0.0032428426 0.011962237 0.007922564 -0.06297511

latent_encoder.weight f4 [16, 64]
000000 17 77 24 ba 7b 12 25 3a e1 c3 98 be 02 7a 84 3d
       -0.0006273849 0.00062970043 -0.29836944 0.06468584
000010 8e 4f 90 be 8f b5 b2 ba 80 26 a3 bd 3a 10 72 bd
       -0.28185695 -0.0013634431 -0.07966328 -0.059097506
000020 8d 75 a1 3d 03 0f 20 be 9e 4c 75 3e 50 a0 37 bd
       0.07883749 -0.15630727 0.23955008 -0.04483062
000030 76 7a 1f 3d 38 e0 3e bd 0f 62 43 bd a5 2c d8 3d
       0.038935147 -0.04660055 -0.047700938 0.1055539
000040 33 a4 d2 ba 2b 44 b8 bd 87 05 40 bd f2 dc 11 be
       -0.0016070664 -0.08997377 -0.04688027 -0.1424444
000050 2f 6f d0 3c 3a 2b 74 be a5 30 9c 3e 29 60 01 3e
       0.025443641 -0.23844615 0.30505863 0.12634338
000060 07 cb 3d 3e 81 60 5c 3e ba 89 dc bc ad f8 14 be
       0.1853448 0.21521188 -0.026921142 -0.14547987
000070 bb 84 80 3e 34 60 bf 3e 02 ed a2 3e 43 1d 6d 3e
       0.25101265 0.37378085 0.31821448 0.23155694
000080 b4 6e be bd 70 5b 85 bd aa 54 ae bd e8 16 72 3a
       -0.09298459 -0.06511581 -0.08512242 0.00092349807
000090 43 b9 15 3e e7 96 5c be 20 d4 71 be 00 28 fc 3b
       0.14621453 -0.2154194 -0.23616076 0.007695198
0000a0 6b f1 e3 b9 65 47 db bd 54 0c 96 be 31 f1 bb bd
       -0.00043476684 -0.10706977 -0.2930628 -0.09176863
0000b0 12 ca 0b be e8 f7 c6 3b e6 42 b1 3e 3b ef 44 bb
       -0.13651302 0.006072033 0.34621352 -0.003004982
0000c0 88 a9 26 3b cf f3 d2 3d 12 05 8b 3a 65 4a 17 3d
       0.0025430638 0.10300409 0.001060637 0.036936183
0000d0 96 2a af 3a d7 c5 1a be 94 f8 47 be 0e d6 9d be
       0.0013364132 -0.15114532 -0.19528419 -0.30827373
0000e0 f1 09 18 3d b5 87 70 be 1b 89 39 bb e0 08 99 3e
       0.037118856 -0.23489268 -0.002831048 0.29889584
0000f0 fa 54 9c 3e 14 d3 1c be 0a d3 18 3e 4b ef 93 39
       0.30533582 -0.15314895 0.14924255 0.00028216312
000100 5b 50 c6 ba 4f 10 f5 3a 7f 1e 29 3e 21 da e4 bd
       -0.0015130149 0.0018696877 0.1651554 -0.11174417
000110 f2 65 90 3d 21 cc 8c b9 3a 54 ae 3c 71 a4 81 be
       0.070506945 -0.0002685497 0.021280397 -0.2532077
000120 55 0b b7 bd a6 66 c7 be 77 82 9c be 13 38 18 3e
       -0.08937708 -0.38945502 -0.30568287 0.1486514
000130 76 d4 e4 ba ff 67 24 bc 02 60 13 be 4b 14 96 be
       -0.0017458338 -0.01003456 -0.14392093 -0.29312357
000140 43 af cd 3c 5d dd dc be 13 2f c3 be 00 a8 0d 3c
       0.025107985 -0.43137637 -0.38121852 0.008646011
000150 df ea 26 3d b8 14 9d be 8e 77 ec 3d 86 a2 28 3e
       0.040751334 -0.3067987 0.11546241 0.16468248
000160 c8 71 6a be f0 8b 88 3e 40 a0 d0 3e d6 b0 ca 3e
       -0.22894967 0.26669264 0.4074726 0.3958804
000170 ce e0 c0 be ae 47 d8 bd 87 49 ad be f1 09 85 3e
       -0.37671512 -0.10560547 -0.3384516 0.25984147
000180 28 85 e8 bc e0 c2 cb be 47 c3 c2 3e 7f e3 bf 3a
       -0.028383806 -0.39797115 0.3803961 0.0014639943
000190 b8 32 b5 be 71 3f 8a be cc fd a8 3c 79 4a f9 3c
       -0.35390258 -0.27001527 0.020628832 0.03043102
0001a0 fb f9 e5 bd 97 b4 5d 3e be cb 20 3e 53 3c a1 bb
       -0.112293206 0.21650921 0.15702721 -0.0049205213
0001b0 3f 98 46 3e ae 1b 45 39 1a 44 8e be a0 29 8b 37
       0.19394015 0.00018797696 -0.27786332 1.6589474e-05
0001c0 44 7a ba 3a 6d e4 f3 3b 00 97 0f bd 12 79 df 3d
       0.0014227112 0.007443002 -0.035056114 0.10911764
0001d0 6e 5f d6 b9 5a 6b a8 3e a6 21 04 be 19 72 c6 bd
       -0.0004088836 0.32894403 -0.12903461 -0.09689731
0001e0 94 01 4d bd 0e d6 91 3e a0 ea be 3d 19 c9 ab be
       -0.050050333 0.28483623 0.09322095 -0.33551863
0001f0 6c 56 a9 be d6 80 35 3d 35 08 8b 3e 20 8a 80 ba
       -0.33073747 0.04431232 0.271547 -0.000980679
000200 b3 2e dc ba e7 f1 9c ba 00 14 93 3d a2 a5 3c bd
       -0.0016798585 -0.0011973948 0.07181549 -0.046056397
000210 ed df 6a 3c d8 3c 4c 3a e5 a4 fa bd 8a a9 5f be
       0.014335615 0.0007791049 -0.122384824 -0.21842018
000220 e1 32 ca bc e7 eb b9 be 87 c2 46 be 39 54 f7 3d
       -0.024682464 -0.36312792 -0.19410144 0.12076611
000230 1d 09 01 3d 84 2a 0f be 87 28 e1 3c 44 d4 87 be
       0.03150283 -0.13981062 0.027485145 -0.26529133
000240 e8 b6 a8 bc ad 88 97 be fe f0 51 be 14 8a 3d ba
       -0.020595029 -0.29596463 -0.20502087 -0.0007230353
000250 4a ef ee bd 18 08 46 be 34 6c 57 3d cb be b6 3d
       -0.116667345 -0.19339025 0.052593425 0.089231096
000260 07 43 ee bd 77 68 42 3e 39 1c 94 3e 90 3d 9a 3e
       -0.11633878 0.18985163 0.28927782 0.30125093
000270 90 f6 ac be 1e 21 9d bd d0 89 88 be 7f 74 2f 3e
       -0.33781862 -0.07672332 -0.26667643 0.17134283
000280 fe a4 a0 bd 42 76 9a be 7f 1e 89 3e ce 3c 60 3b
       -0.0784397 -0.3016835 0.2678108 0.003421593
000290 35 f2 1e be d7 2d 7c be a3 50 a3 3d 39 99 96 ba
       -0.15522082 -0.24626862 0.079743646 -0.0011489756
0002a0 3a 41 95 bc 1a e4 9a 3d 50 04 f9 3d e5 a5 c2 bd
       -0.018219579 0.07563038 0.12159026 -0.09504298
0002b0 23 98 06 3e bb 13 84 ba e8 95 7a be ad 5e a5 39
       0.13143973 -0.0010076681 -0.24471247 0.0003154179
0002c0 7c 83 7a bb bc f8 34 bc 13 3e 57 be 50 d0 b4 3d
       -0.0038225343 -0.011045631 -0.21019773 0.08828795
0002d0 af e5 73 3b b8 6e e4 3d 1b 21 48 be a7 bf 06 be
       0.003721576 0.111539304 -0.19543879 -0.13159047
0002e0 fd 50 0b be 0b 45 4a 3e 12 aa ca 3b 1a 77 8b be
       -0.13605113 0.197529 0.0061848247 -0.27239305
0002f0 7f ee 8c be eb b2 82 bd 3f 03 60 3e fc 26 8d 3a
       -0.27525708 -0.06381782 0.21876238 0.0010769065
000300 32 25 35 ba c1 c4 bc 3a d6 05 5f be aa 38 1f 3e
       -0.00069101446 0.0014401899 -0.2177957 0.1554896
000310 f0 d0 63 be 0c 88 6c 3b 89 1b 8e 3b 75 17 e3 bd
       -0.22247672 0.0036091832 0.0043367785 -0.110884584
000320 30 4f d3 bd 77 78 21 3e 12 fd 1a bd 0c 58 b5 3e
       -0.10317838 0.1576861 -0.037839003 0.35418737
000330 4c 59 ee bc 16 07 38 3c e4 18 14 bc ad 17 70 bc
       -0.029095314 0.011232158 -0.0090391375 -0.014654082
000340 9e 7b b3 bb 36 56 e1 3d fa 41 a2 3e 9a e7 1f be
       -0.005477383 0.110027716 0.3169096 -0.15615693
000350 d2 d4 41 bd fe 32 f8 bd e4 ec 51 3e 3b 41 b8 3e
       -0.047322102 -0.12119101 0.20500523 0.35987267
000360 1b 85 37 be eb ff a1 3e 23 8c 86 3e ff 74 8c 3e
       -0.1792187 0.31640562 0.2627879 0.2743301
000370 9e 55 d5 3d 90 95 67 3e 38 67 f3 3c d8 ea 86 3e
       0.10416721 0.22615647 0.029712304 0.26351047
000380 40 00 2e 3e 70 d1 24 3e aa f2 55 3e 9d db c4 3a
       0.16992283 0.16095519 0.2089335 0.0015019063
000390 f5 76 30 3e 0c 07 c6 3d 89 34 57 be 5a 2a 17 3b
       0.17232879 0.09669313 -0.21016134 0.0023066015
0003a0 dc 80 41 3e 34 3c b0 3e 3c 0d 5b be f4 1a 13 3d
       0.18896812 0.3442093 -0.21391767 0.035914376
0003b0 e7 12 97 3e ba b0 95 ba e1 97 f7 3d 70 fb 36 b8
       0.2950661 -0.0011420466 0.120895155 -4.362635e-05
0003c0 2f 70 43 3b 84 c4 4f 3a 99 4c a8 3e 69 59 b2 3e
       0.0029821505 0.00079257064 0.3287094 0.3483384
0003d0 d9 2a 78 bb 1c ad 48 3e 5f f8 94 be 63 db 2b be
       -0.0037867336 0.19597286 -0.29095742 -0.16782908
0003e0 45 f8 94 3c b8 00 dc bd 58 2b 8e 3e d9 d9 6c bd
       0.01818479 -0.107423246 0.27767444 -0.057824943
0003f0 de 94 1c 3d ee 85 72 3e 5e 17 cc 3d 42 2a 1f bb
       0.03822791 0.23683903 0.099653944 -0.0024286662

latent_encoder.bias f4 [16]
000000 0a 1b c0 3b bf 87 23 3c 94 b5 04 3d c3 9a 30 bd
       0.0058625983 0.009981095 0.03239973 -0.043116342
000010 4b 38 10 3d f5 51 62 3c 8b 69 19 be df 14 9d 3d
       0.035209935 0.013813485 -0.14981668 0.076699965
000020 11 b8 52 3c 32 49 06 bd 13 ed 0d 3e 9a cf d6 ba
       0.012861268 -0.03278465 0.13859968 -0.0016388774
000030 45 86 00 bc de ab 43 3c ed 51 e9 bc 17 ac 8c bc
       -0.007844512 0.011942832 -0.028481448 -0.017171903

flow.flow.mean f4 [4, 16]
000000 00 00 00 00 00 00 00 00 00 00 00 00 00 00 00 00
       0.0 0.0 0.0 0.0
000010 00 00 00 00 00 00 00 00 00 00 00 00 00 00 00 00
       0.0 0.0 0.0 0.0
000020 00 00 00 00 00 00 00 00 00 00 00 00 00 00 00 00
       0.0 0.0 0.0 0.0
000030 00 00 00 00 00 00 00 00 00 00 00 00 00 00 00 00
       0.0 0.0 0.0 0.0
000040 00 00 00 00 00 00 00 00 00 00 00 00 00 00 00 00
       0.0 0.0 0.0 0.0
000050 00 00 00 00 00 00 00 00 00 00 00 00 00 00 00 00
       0.0 0.0 0.0 0.0
000060 00 00 00 00 00 00 00 00 00 00 00 00 00 00 00 00
       0.0 0.0 0.0 0.0
000070 00 00 00 00 00 00 00 00 00 00 00 00 00 00 00 00
       0.0 0.0 0.0 0.0
000080 00 00 00 00 00 00 00 00 00 00 00 00 00 00 00 00
       0.0 0.0 0.0 0.0
000090 00 00 00 00 00 00 00 00 00 00 00 00 00 00 00 00
       0.0 0.0 0.0 0.0
0000a0 00 00 00 00 00 00 00 00 00 00 00 00 00 00 00 00
       0.0 0.0 0.0 0.0
0000b0 00 00 00 00 00 00 00 00 00 00 00 00 00 00 00 00
       0.0 0.0 0.0 0.0
0000c0 00 00 00 00 00 00 00 00 00 00 00 00 00 00 00 00
       0.0 0.0 0.0 0.0
0000d0 00 00 00 00 00 00 00 00 00 00 00 00 00 00 00 00
       0.0 0.0 0.0 0.0
0000e0 00 00 00 00 00 00 00 00 00 00 00 00 00 00 00 00
       0.0 0.0 0.0 0.0
0000f0 00 00 00 00 00 00 00 00 00 00 00 00 00 00 00 00
       0.0 0.0 0.0 0.0

flow.flow.cov f4 [4, 16, 16]
000000 00 00 80 3f 00 00 00 00 00 00 00 00 00 00 00 00
       1.0 0.0 0.0 0.0
000010 00 00 00 00 00 00 00 00 00 00 00 00 00 00 00 00
       0.0 0.0 0.0 0.0
000020 00 00 00 00 00 00 00 00 00 00 00 00 00 00 00 00
       0.0 0.0 0.0 0.0
000030 00 00 00 00 00 00 00 00 00 00 00 00 00 00 00 00
       0.0 0.0 0.0 0.0
000040 00 00 00 00 00 00 80 3f 00 00 00 00 00 00 00 00
       0.0 1.0 0.0 0.0
000050 00 00 00 00 00 00 00 00 00 00 00 00 00 00 00 00
       0.0 0.0 0.0 0.0
000060 00 00 00 00 00 00 00 00 00 00 00 00 00 00 00 00
       0.0 0.0 0.0 0.0
000070 00 00 00 00 00 00 00 00 00 00 00 00 00 00 00 00
       0.0 0.0 0.0 0.0
000080 00 00 00 00 00 00 00 00 00 00 80 3f 00 00 00 00
       0.0 0.0 1.0 0.0
000090 00 00 00 00 00 00 00 00 00 00 00 00 00 00 00 00
       0.0 0.0 0.0 0.0
0000a0 00 00 00 00 00 00 00 00 00 00 00 00 00 00 00 00
       0.0 0.0 0.0 0.0
0000b0 00 00 00 00 00 00 00 00 00 00 00 00 00 00 00 00
       0.0 0.0 0.0 0.0
0000c0 00 00 00 00 00 00 00 00 00 00 00 00 00 00 80 3f
       0.0 0.0 0.0 1.0
0000d0 00 00 00 00 00 00 00 00 00 00 00 00 00 00 00 00
       0.0 0.0 0.0 0.0
0000e0 00 00 00 00 00 00 00 00 00 00 00 00 00 00 00 00
       0.0 0.0 0.0 0.0
0000f0 00 00 00 00 00 00 00 00 00 00 00 00 00 00 00 00
       0.0 0.0 0.0 0.0
000100 00 00 00 00 00 00 00 00 00 00 00 00 00 00 00 00
       0.0 0.0 0.0 0.0
000110 00 00 80 3f 00 00 00 00 00 00 00 00 00 00 00 00
       1.0 0.0 0.0 0.0
000120 00 00 00 00 00 00 00 00 00 00 00 00 00 00 00 00
       0.0 0.0 0.0 0.0
000130 00 00 00 00 00 00 00 00 00 00 00 00 00 00 00 00
       0.0 0.0 0.0 0.0
000140 00 00 00 00 00 00 00 00 00 00 00 00 00 00 00 00
       0.0 0.0 0.0 0.0
000150 00 00 00 00 00 00 80 3f 00 00 00 00 00 00 00 00
       0.0 1.0 0.0 0.0
000160 00 00 00 00 00 00 00 00 00 00 00 00 00 00 00 00
       0.0 0.0 0.0 0.0
000170 00 00 00 00 00 00 00 00 00 00 00 00 00 00 00 00
       0.0 0.0 0.0 0.0
000180 00 00 00 00 00 00 00 00 00 00 00 00 00 00 00 00
       0.0 0.0 0.0 0.0
000190 00 00 00 00 00 00 00 00 00 00 80 3f 00 00 00 00
       0.0 0.0 1.0 0.0
0001a0 00 00 00 00 00 00 00 00 00 00 00 00 00 00 00 00
       0.0 0.0 0.0 0.0
0001b0 00 00 00 00 00 00 00 00 00 00 00 00 00 00 00 00
       0.0 0.0 0.0 0.0
0001c0 00 00 00 00 00 00 00 00 00 00 00 00 00 00 00 00
       0.0 0.0 0.0 0.0
0001d0 00 00 00 00 00 00 00 00 00 00 00 00 00 00 80 3f
       0.0 0.0 0.0 1.0
0001e0 00 00 00 00 00 00 00 00 00 00 00 00 00 00 00 00
       0.0 0.0 0.0 0.0
0001f0 00 00 00 00 00 00 00 00 00 00 00 00 00 00 00 00
       0.0 0.0 0.0 0.0
000200 00 00 00 00 00 00 00 00 00 00 00 00 00 00 00 00
       0.0 0.0 0.0 0.0
000210 00 00 00 00 00 00 00 00 00 00 00 00 00 00 00 00
       0.0 0.0 0.0 0.0
000220 00 00 80 3f 00 00 00 00 00 00 00 00 00 00 00 00
       1.0 0.0 0.0 0.0
000230 00 00 00 00 00 00 00 00 00 00 00 00 00 00 00 00
       0.0 0.0 0.0 0.0
000240 00 00 00 00 00 00 00 00 00 00 00 00 00 00 00 00
       0.0 0.0 0.0 0.0
000250 00 00 00 00 00 00 00 00 00 00 00 00 00 00 00 00
       0.0 0.0 0.0 0.0
000260 00 00 00 00 00 00 80 3f 00 00 00 00 00 00 00 00
       0.0 1.0 0.0 0.0
000270 00 00 00 00 00 00 00 00 00 00 00 00 00 00 00 00
       0.0 0.0 0.0 0.0
000280 00 00 00 00 00 00 00 00 00 00 00 00 00 00 00 00
       0.0 0.0 0.0 0.0
000290 00 00 00 00 00 00 00 00 00 00 00 00 00 00 00 00
       0.0 0.0 0.0 0.0
0002a0 00 00 00 00 00 00 00 00 00 00 80 3f 00 00 00 00
       0.0 0.0 1.0 0.0
0002b0 00 00 00 00 00 00 00 00 00 00 00 00 00 00 00 00
       0.0 0.0 0.0 0.0
0002c0 00 00 00 00 00 00 00 00 00 00 00 00 00 00 00 00
       0.0 0.0 0.0 0.0
0002d0 00 00 00 00 00 00 00 00 00 00 00 00 00 00 00 00
       0.0 0.0 0.0 0.0
0002e0 00 00 00 00 00 00 00 00 00 00 00 00 00 00 80 3f
       0.0 0.0 0.0 1.0
0002f0 00 00 00 00 00 00 00 00 00 00 00 00 00 00 00 00
       0.0 0.0 0.0 0.0
000300 00 00 00 00 00 00 00 00 00 00 00 00 00 00 00 00
       0.0 0.0 0.0 0.0
000310 00 00 00 00 00 00 00 00 00 00 00 00 00 00 00 00
       0.0 0.0 0.0 0.0
000320 00 00 00 00 00 00 00 00 00 00 00 00 00 00 00 00
       0.0 0.0 0.0 0.0
000330 00 00 80 3f 00 00 00 00 00 00 00 00 00 00 00 00
       1.0 0.0 0.0 0.0
000340 00 00 00 00 00 00 00 00 00 00 00 00 00 00 00 00
       0.0 0.0 0.0 0.0
000350 00 00 00 00 00 00 00 00 00 00 00 00 00 00 00 00
       0.0 0.0 0.0 0.0
000360 00 00 00 00 00 00 00 00 00 00 00 00 00 00 00 00
       0.0 0.0 0.0 0.0
000370 00 00 00 00 00 00 80 3f 00 00 00 00 00 00 00 00
       0.0 1.0 0.0 0.0
000380 00 00 00 00 00 00 00 00 00 00 00 00 00 00 00 00
       0.0 0.0 0.0 0.0
000390 00 00 00 00 00 00 00 00 00 00 00 00 00 00 00 00
       0.0 0.0 0.0 0.0
0003a0 00 00 00 00 00 00 00 00 00 00 00 00 00 00 00 00
       0.0 0.0 0.0 0.0
0003b0 00 00 00 00 00 00 00 00 00 00 80 3f 00 00 00 00
       0.0 0.0 1.0 0.0
0003c0 00 00 00 00 00 00 00 00 00 00 00 00 00 00 00 00
       0.0 0.0 0.0 0.0
0003d0 00 00 00 00 00 00 00 00 00 00 00 00 00 00 00 00
       0.0 0.0 0.0 0.0
0003e0 00 00 00 00 00 00 00 00 00 00 00 00 00 00 00 00
       0.0 0.0 0.0 0.0
0003f0 00 00 00 00 00 00 00 00 00 00 00 00 00 00 80 3f
       0.0 0.0 0.0 1.0

flow.flow.transforms.0.x0 f4 [4, 16]
000000 ce 5e 09 be fe 62 ba be fa 07 94 be 10 f6 df 3e
       -0.13415071 -0.3640365 -0.28912336 0.43742418
000010 95 70 a2 3e 58 d2 32 bd 9f c0 90 3e 43 ca 02 3d
       0.31726518 -0.04365763 0.28271958 0.031931173
000020 6e 02 f2 3c 20 68 87 3e 0e 33 62 be 79 52 72 be
       0.029542174 0.2644663 -0.22089788 -0.23664273
000030 ee 3f fe 3d 8d bf 1a 3e 84 e2 86 be 25 e9 d7 3e
       0.12414537 0.15112133 -0.26344693 0.42170063
000040 99 e7 73 be 44 fd a7 3e 25 7f 2a bd 79 0e 5d 3e
       -0.23818816 0.32810414 -0.04162516 0.21587552
000050 18 cf 95 be f8 39 5e be 6e 60 ea bd 0e d6 47 be
       -0.29259562 -0.21701801 -0.11444174 -0.19515249
000060 c5 30 5e be 11 cd c4 3e 92 d4 94 be e3 91 fd 3d
       -0.21698292 0.38437703 -0.29068428 0.12381341
000070 94 e0 ec bd f5 8d 18 be ab 37 36 bd b0 39 48 be
       -0.115662724 -0.14897902 -0.044486683 -0.19553256
000080 61 7d 35 be 32 8d 4f 3d 70 71 fd 3b 06 34 14 be
       -0.1772361 0.050671764 0.00773447 -0.1447297
000090 d4 e4 65 bd cd 85 10 be 9f 45 3b be 60 ad 46 3e
       -0.05612643 -0.14113541 -0.18288277 0.19402075
0000a0 7f b8 0d be df 83 0c bd 42 17 6e 3e 2b 0c a1 bd
       -0.13839911 -0.03430545 0.2325106 -0.07863649
0000b0 03 a5 47 be 22 16 15 3e 79 a9 83 bc 4d 5d 92 bd
       -0.1949654 0.14559224 -0.016072022 -0.07146702
0000c0 2e 6f 8b 3d d7 2c 09 bc bf 9e 22 3e 5f 84 83 3e
       0.06808315 -0.008372507 0.1588087 0.2568693
0000d0 b2 85 36 3e d0 06 65 be cd ce 5b 3e 24 2b a7 bd
       0.17824438 -0.2236588 0.21465607 -0.08162525
0000e0 22 1d 03 be 08 19 d8 3e 07 92 c1 bd 1a 53 f2 3e
       -0.12804082 0.42206597 -0.09451681 0.47329026
0000f0 ab d7 7e be 95 44 56 ba 02 bd 28 3c fe 82 c3 bd
       -0.24886958 -0.00081736717 0.010298969 -0.09546469

flow.flow.transforms.0.alpha_prime f4 [4]
000000 db 29 63 be ba db 3d be b2 50 15 3e 80 ec 67 3e
       -0.22183935 -0.1854085 0.14581564 0.22648811

flow.flow.transforms.0.beta_prime f4 [4]
000000 1f 25 1e 3e f7 f1 c0 bd 3c 99 a2 3e 61 da 08 be
       0.15443848 -0.09421151 0.31757534 -0.13364555

flow.flow.transforms.1.x0 f4 [4, 16]
000000 29 e0 6f 3d b6 a2 24 3c 05 44 0a 3e e2 78 52 be
       0.058563385 0.010048559 0.1350251 -0.20553926
000010 a8 a2 2a be 91 d3 ed bc cb d1 92 be 2f 53 55 3e
       -0.16663611 -0.029031547 -0.28675684 0.20832513
000020 2d e0 95 bd 4f 1e 9b bd 5f 07 69 3e dd e1 9f bd
       -0.07318149 -0.0757414 0.22756718 -0.07806752
000030 fa 6c 2c bc 88 84 83 3d e6 e6 ab 3b bd 29 68 be
       -0.010524029 0.06421763 0.005246031 -0.22672172
000040 3c 04 81 bd 94 22 a3 3e 56 b3 9e 3e 05 67 0c 3e
       -0.06299636 0.3186232 0.30996197 0.13711174
000050 82 49 f5 bd 4d 7f 85 be 4a 47 0f 3e 4f b2 20 3e
       -0.11976911 -0.26073685 0.13992038 0.1569302
000060 99 f3 10 be c7 cd 86 3e 70 49 60 be 07 31 75 3d
       -0.14155425 0.2632887 -0.21903014 0.05986121
000070 92 b1 f8 3d 50 85 f5 bd ed bb d7 be 55 9c 43 be
       0.12143244 -0.11988318 -0.42135563 -0.19102605
000080 89 c8 3d be 15 0a e6 3c 63 53 a0 3c 7c d6 3e be
       -0.1853353 0.02808098 0.019571012 -0.18636507
000090 d4 4e 36 bd a3 33 df bd c5 9c 0b be 5f 0d 3f 3e
       -0.04450877 -0.10898521 -0.13634022 0.18657444
0000a0 1d ce 0d be 88 05 51 bd 6b d2 4e 3e d5 55 1b 3c
       -0.13848157 -0.051030666 0.20197456 0.009480913
0000b0 e0 89 39 be 5d 09 0d 3e 08 73 b9 bb 33 99 61 bd
       -0.18119001 0.13773103 -0.0056594647 -0.055077743
0000c0 88 7d 66 be eb cf 27 be b6 98 21 be 1c ef 2c 3e
       -0.22508824 -0.16387908 -0.15780911 0.16888088
0000d0 17 09 37 3e 0b 3b c8 bd 07 81 c7 3d 0a 9f ac bd
       0.17874561 -0.097768866 0.09741407 -0.08428772
0000e0 20 93 60 be a1 c1 65 bd e8 fe 80 bd f2 ad fc 3e
       -0.21931124 -0.056092862 -0.062986195 0.4935146
0000f0 d9 94 11 be 80 11 4a 3e 5f 34 bc be a1 7d 32 3e
       -0.14216937 0.19733238 -0.36758706 0.17430736

flow.flow.transforms.1.alpha_prime f4 [4]
000000 a6 d5 1f 3e ed c6 dc bd ee 29 92 bd f4 8b 42 3e
       0.15608844 -0.107801296 -0.07136904 0.189987

flow.flow.transforms.1.beta_prime f4 [4]
000000 b2 6b a1 be 58 60 62 3d 0e dc fb 3d b0 e4 ff bd
       -0.31527478 0.05526766 0.122978315 -0.124947906

flow.flow.transforms.2.x0 f4 [4, 16]
000000 c9 cc c3 3d 6a 21 01 bf 39 10 ea be 31 d9 dd 3e
       0.09560544 -0.5044161 -0.45715502 0.43329766
000010 19 12 1d 3f c0 87 cb 3c f7 d5 ac 3e ae 24 c5 bd
       0.6135574 0.024845004 0.33756992 -0.09626137
000020 a7 03 36 3d 20 76 2e bb f5 41 e3 be a4 b0 8c be
       0.044437077 -0.00266207 -0.4438626 -0.27478516
000030 09 14 92 bd ba a1 b4 3e a0 cd 11 3d e4 74 0a 3e
       -0.07132728 0.35279638 0.03559649 0.13521153
000040 77 c3 e6 bd 64 b3 0b 3e a7 24 de 3b d7 56 96 be
       -0.11267751 0.13642651 0.0067792716 -0.2936313
000050 ec 7a 3b be f6 3f e2 3e ff d4 cb 3d 7b 78 ed bd
       -0.1830861 0.44189423 0.09952735 -0.115952455
000060 bb 09 5c be 16 3c 83 be a4 29 de 3d bd da ab be
       -0.21488087 -0.2563178 0.10847786 -0.33565322
000070 1e b6 7d be 3f 81 65 3e 84 c9 d4 3e 1b ea 6f be
       -0.24776503 0.22412585 0.41559994 -0.23429148
000080 83 53 13 be 80 e9 a7 3c 9d ff 31 bb f0 8f 42 be
       -0.14387326 0.020497084 -0.0027160414 -0.1900022
000090 99 70 61 bd 55 10 dc bd 2e e0 32 be ed 2b 48 3e
       -0.055039022 -0.107453026 -0.1746833 0.19548006
0000a0 eb 08 1c be a3 68 09 bd 5a 3e 3e 3e 9a cf 69 3a
       -0.15237777 -0.033547055 0.18578473 0.00089191797
0000b0 b1 59 31 be 33 be 15 3e 16 d1 fd bc ca 6c 39 bd
       -0.17319371 0.14623336 -0.030983489 -0.045269765
0000c0 44 71 64 3e 9e 27 86 be cc ea 47 be a9 43 0b 3d
       0.22308832 -0.262021 -0.19523162 0.034000073
0000d0 68 db e1 3c d5 7d aa 3e a5 1c 6e 3c 55 c3 14 3e
       0.027570441 0.33299127 0.014533197 0.14527638
0000e0 55 4a b2 3e 48 03 79 be 1f 5e 1b 3e 15 f0 7d be
       0.34822336 -0.24317658 0.15172623 -0.24798615
0000f0 77 ea 7b 3e f4 1d 99 3d 9e 3b 88 3e e6 e6 f7 bd
       0.2460116 0.07476416 0.26607984 -0.12104587

flow.flow.transforms.2.alpha_prime f4 [4]
000000 f6 1d aa 3d 70 92 83 bd ae d1 a7 be 4f 8e f1 bd
       0.08306496 -0.06424415 -0.3277716 -0.11794721

flow.flow.transforms.2.beta_prime f4 [4]
000000 fc ea 46 3e 71 d6 21 be 8f c5 00 3e 0e 81 3b 3d
       0.19425577 -0.15804459 0.12575363 0.045777373

flow.flow.transforms.3.x0 f4 [4, 16]
000000 1c 04 c1 bc 05 7d d9 be 49 f9 c2 be cf 87 fd 3d
       -0.02356153 -0.42478195 -0.38080814 0.12379419
000010 fb be ed bb ab e0 64 be 74 f3 8f 3e 65 74 46 3c
       -0.0072554327 -0.22351329 0.28115427 0.012112712
000020 cc 5b 9e 3e 29 e9 81 3e fd 5e 6c be 60 cc 95 bd
       0.3092941 0.253732 -0.2308311 -0.07314372
000030 91 c7 bd 3d ae ad 3b 3e 64 76 b8 3c 2d c4 dd 3e
       0.0926658 0.18327972 0.02251739 0.43313733
000040 00 44 55 3e 00 a2 f6 be 3c bb 9d be 8c 10 03 be
       0.20826721 -0.4817047 -0.3080691 -0.12799281
000050 64 55 ea bd 48 3e 9d 3e d7 b1 ec 3c f6 bd f7 bd
       -0.11442068 0.3071158 0.028893394 -0.12096779
000060 8d 28 b9 3e f1 6c a7 3c 93 77 59 be f8 b6 ce be
       0.3616375 0.02043769 -0.2123702 -0.4037397
000070 28 d1 c7 3d 4b 4d 76 3e 5c 6a 85 bc 2f 1f 49 be
       0.0975669 0.24052922 -0.016286068 -0.19640802
000080 9d d2 ca 3e 6f 70 07 3e d9 b9 1b 3e 69 16 d4 3e
       0.3961381 0.13226484 0.15207614 0.41423348
000090 c7 40 c3 bd cc 4b 3c be cd 73 09 3e 0c ad ab be
       -0.0953384 -0.18388289 0.1342308 -0.33530462
0000a0 4a 8d f9 3d f6 74 87 be 37 30 d3 3d 4d f5 6b be
       0.12185152 -0.26456422 0.103119306 -0.23042794
0000b0 b9 e4 25 be dc 03 3b bd 5c ac a0 3d 36 b6 9b 3e
       -0.16200532 -0.045657977 0.07845375 0.30412453
0000c0 ec 6f a0 3e a4 cf 8c be 7f 48 40 be 45 69 38 3d
       0.3133539 -0.27502167 -0.18777655 0.045022268
0000d0 09 7a bc bd ad 12 bf 3e b8 8c 07 be ca ac 36 3e
       -0.09202964 0.37318936 -0.13237274 0.17839351
0000e0 6a 2e bc 3e e1 56 8f be 54 16 20 bd 9c ab 6d be
       0.3675416 -0.2799597 -0.039083794 -0.23209995
0000f0 22 0b 84 3e cd 1b 3f 3d 28 4d 90 3e c2 e9 23 be
       0.25789744 0.046657372 0.28183866 -0.1600714

flow.flow.transforms.3.alpha_prime f4 [4]
000000 64 1c 58 be 09 5d 9c 3d c8 64 70 bd 40 86 a8 3d
       -0.2110458 0.076349325 -0.058689862 0.08228731

flow.flow.transforms.3.beta_prime f4 [4]
000000 5b 8a c0 bd 0e d4 ca bd 52 0e 1c be ad e6 67 3e
       -0.09401389 -0.099037275 -0.15239838 0.2264659

flow.flow.transforms.4.x0 f4 [4, 16]
000000 e9 1b 7e 3e 60 8e d7 be ba 09 c7 be a2 e1 00 3e
       0.24815334 -0.4210081 -0.38874608 0.12586072
000010 db e5 11 3f 2a 11 8b 3e c4 ca 9f 3c 3d bf e3 be
       0.56991357 0.27161533 0.019505866 -0.4448184
000020 24 d2 8d 3e fe 94 06 3f 8e e4 a8 bd 31 c7 56 be
       0.27699387 0.52571094 -0.08246718 -0.20974423
000030 0a 99 38 be d0 a0 b3 3e 1a 60 55 be 1f f6 f9 bb
       -0.1802713 0.35083628 -0.20837441 -0.007628217
000040 5c 45 aa bc de d6 ac be 42 63 5e 3a 51 f1 68 be
       -0.020785026 -0.3375768 0.00084834185 -0.22748305
000050 fb e5 77 3e 85 d2 81 3e d0 4c 5b be 8a 58 de bd
       0.24208824 0.25355926 -0.2141602 -0.10856731
000060 7f 8d 44 bd fc 00 23 be 48 a4 40 3e ff 0b 54 be
       -0.047986504 -0.15918344 0.18812668 -0.20707701
000070 ff 92 63 bd 79 b6 0e 3e a3 18 ee 3d 5a c9 2a 3e
       -0.05556011 0.13936795 0.11625793 0.16678372
000080 0f bc 2a be b4 fc 1a 3d b6 39 2c 3d c7 3f 2f be
       -0.16673301 0.037838653 0.042047225 -0.17114173
000090 04 58 7f bd a2 f4 dc bd 4f 3f 24 be 4b 4f 06 3e
       -0.062339798 -0.107888475 -0.16039775 0.13116185
0000a0 56 90 d5 bd e2 55 0d bd 15 7e 2f 3e dd c7 40 bc
       -0.104279205 -0.034505732 0.1713794 -0.011766401
0000b0 8d 87 25 be 2f d6 18 3e ec c7 d1 ba c7 99 a8 bd
       -0.1616499 0.14925455 -0.0016005016 -0.08232456
0000c0 fa 8c 4c be 38 41 8a 3d a8 8a 02 3d 43 bd 75 ba
       -0.19975653 0.06750721 0.031870514 -0.00093742105
0000d0 89 11 0f be a0 27 97 be 6d c9 b6 3d 77 2c 11 be
       -0.13971533 -0.2952242 0.08925138 -0.14177118
0000e0 62 3b 8f be 1d 27 7d 3e a1 76 81 bd 61 53 2a 3d
       -0.27974993 0.24721952 -0.06321455 0.041583423
0000f0 31 c9 86 be ab 78 e9 3d 78 ab c4 be 0b 62 95 3c
       -0.26325372 0.11399969 -0.3841207 0.018235227

flow.flow.transforms.4.alpha_prime f4 [4]
000000 2d ae ef 3d ef 30 44 3e 55 73 b1 be b2 14 87 3e
       0.11703143 0.19159292 -0.34658304 0.26382977

flow.flow.transforms.4.beta_prime f4 [4]
000000 03 23 5a 3e db 9f e4 bc 3b 82 5b 3e 87 3a cc 3c
       0.21302418 -0.027908256 0.21436398 0.024930252

flow.flow.transforms.5.x0 f4 [4, 16]
000000 04 78 71 bd ee a1 a9 be 57 30 9a be 9c 1a 4e 3d
       -0.058952346 -0.33131355 -0.30115005 0.050318345
000010 4b d8 a5 3e 33 e3 b7 3d 5d 9d 44 3e 49 b9 b9 be
       0.3239158 0.08978882 0.19200654 -0.36274174
000020 4f 6d 47 3e d3 f8 c3 3e 81 a7 9a be 29 7d 9d bc
       0.19475292 0.38275775 -0.3020592 -0.01922472
000030 c4 66 2f 3e 1e 58 54 3e 98 e6 f9 bd af 49 af 3e
       0.17129046 0.20736739 -0.122021854 0.34235904
000040 53 3b aa bd 2d 11 bd 3e 3c 9e 87 3e a9 f3 4a 3e
       -0.083120964 0.36927167 0.2648791 0.19819511
000050 92 0d 05 be 50 1d 1a bd 97 68 c3 3c 12 36 fd bc
       -0.12993458 -0.03762561 0.023853583 -0.030909572
000060 47 ea 01 be 54 14 1d 3e f1 af 02 be 0d 11 c8 3e
       -0.12687026 0.15339786 -0.12762429 0.3907551
000070 dc 75 20 bc e2 9d 50 3b b5 c4 d3 be 5c a5 4d be
       -0.009793725 0.0031832387 -0.41361013 -0.20082611
000080 8e 8b 88 bd 63 6a be bd 56 f3 48 3e b5 78 dc 3e
       -0.06667243 -0.092976354 0.19624075 0.43060842
000090 63 06 38 be 51 5b 57 be 90 ec a5 3e d3 68 bf be
       -0.17971186 -0.21030928 0.32407045 -0.37384662
0000a0 59 85 cb 3d af c2 90 3e 67 8d c1 be 57 f1 c0 3e
       0.099375434 0.28273532 -0.37803194 0.37684128
0000b0 e3 34 81 bd 90 f4 2b 3e fb 20 b8 be a3 2d a8 bd
       -0.063089155 0.16792512 -0.35962662 -0.082118295
0000c0 23 31 8d 3e aa 28 48 be bc 19 3f be 96 ed 51 3d
       0.2757655 -0.19546762 -0.1866216 0.05125197
0000d0 3b f6 35 3d 4a c2 41 3e 1b 4a 7d be a9 2b 03 3e
       0.044424277 0.18921772 -0.247353 0.12809624
0000e0 51 bd 32 bd e0 63 39 be ab 4e 06 3e ec df 22 be
       -0.043637577 -0.18104506 0.13115947 -0.15905732
0000f0 b2 8e 4e 3e 28 d9 ac 3d 33 4a 46 3e dc b8 34 bd
       0.20171621 0.08439857 0.19364242 -0.04412161

flow.flow.transforms.5.alpha_prime f4 [4]
000000 b4 93 8d be ab fb 0e 3d e0 1f 55 3e 33 7f 21 be
       -0.2765175 0.034907978 0.2081294 -0.15771179

flow.flow.transforms.5.beta_prime f4 [4]
000000 c3 d3 25 3d 8c 2c 5a 3e 66 5e a5 bc 45 45 88 3c
       0.040485155 0.21306056 -0.020186614 0.016634593

flow.flow.transforms.6.x0 f4 [4, 16]
000000 08 d7 5b bc 63 79 f1 be 5b 66 90 bd 01 95 d5 3e
       -0.013417967 -0.47162923 -0.07050773 0.41715243
000010 98 38 50 3d 6e 91 aa 3d 4f a5 df 3e 52 be fa be
       0.050835222 0.0832852 0.43680808 -0.48973328
000020 6c d1 40 3e 98 e3 fc 3e 89 17 df be 53 9b 5b 3d
       0.18829888 0.4939239 -0.43572643 0.053614926
000030 34 48 d8 bb 93 ce b2 3e 9d c6 c4 bc 93 c9 2a 3e
       -0.006600404 0.3492323 -0.024020487 0.16678457
000040 80 ee a3 bd cd ea a9 3e 42 db 53 3e 67 6e 50 3e
       -0.08004475 0.3318695 0.20689109 0.20354615
000050 96 c4 00 be 81 a7 56 be 52 85 17 3d 53 4d 87 ba
       -0.12574992 -0.20962335 0.03699238 -0.0010322727
000060 0c 52 ef bd 64 e9 b7 3d 18 6d 1a be a8 27 af 3e
       -0.11685571 0.089800626 -0.15080678 0.34209943
000070 0c a7 65 bd 4c 2e 74 3c 36 ea b6 be 99 ad 44 be
       -0.05606751 0.014903616 -0.35725564 -0.19206847
000080 d8 27 67 be 20 78 ba 3e 04 96 27 3e 6e 21 9a be
       -0.22573793 0.36419773 0.1636582 -0.3010363
000090 79 64 fb 3e a0 f3 60 be 7b 09 d3 3e 93 fd b6 3e
       0.49100092 -0.21967936 0.4121817 0.35740337
0000a0 24 83 7f be 62 96 6a be 88 1a 92 3e 19 62 d3 bd
       -0.2495237 -0.22908929 0.28535867 -0.10321445
0000b0 5c fe 88 be da 70 84 3c 07 d9 de be f9 2d d0 3e
       -0.2675656 0.016167093 -0.43524954 0.40660074
0000c0 92 e9 88 3e d5 67 86 be 9c ab 35 be bc 7c 12 3d
       0.267407 -0.26251093 -0.17741245 0.035763487
0000d0 08 9d bc bd da 3f 9e 3e d7 b7 3a be 6c df 96 3c
       -0.09209639 0.3090809 -0.18234192 0.018417083
0000e0 34 90 9a 3c 69 10 81 be 7d a7 4a 3e b2 0c 52 be
       0.01886759 -0.25207832 0.19790454 -0.20512655
0000f0 10 ee 7c 3e c9 f3 9a bd f9 12 61 3e 87 06 2a be
       0.24700189 -0.075660296 0.21979894 -0.16604052

flow.flow.transforms.6.alpha_prime f4 [4]
000000 23 5b de 3d 5d a5 86 be b3 70 31 bb 38 70 61 be
       0.10857227 -0.26298037 -0.002707523 -0.22015464

flow.flow.transforms.6.beta_prime f4 [4]
000000 0f e5 7b 3e 15 36 a9 3e c6 ce dd bd e4 6f 7e bd
       0.24599098 0.33049074 -0.108304545 -0.062118426

flow.flow.transforms.7.x0 f4 [4, 16]
000000 0e 1c 65 3e d6 5f b3 3d f5 d6 a3 3e 5d ea 7f be
       0.22373983 0.08758514 0.31999937 -0.24991746
000010 6a 64 2d be 83 8b 09 3e c9 38 75 3e 50 c1 bf 3d
       -0.16932836 0.13432126 0.23947443 0.09363043
000020 98 b3 df 3c e6 62 94 be 37 a3 cc 3e 26 02 67 be
       0.027307317 -0.28981704 0.39968273 -0.22559413
000030 91 d5 72 be 24 57 5d 3d 1e b7 6a 3e be 46 a3 bd
       -0.23714282 0.054038182 0.22921416 -0.079724774
000040 c0 98 97 3d 4d bf 30 bd 69 68 86 be fc bc 25 be
       0.074021816 -0.04315119 -0.26251534 -0.16185373
000050 7e a2 31 be 8b 41 7b 3e 13 d8 54 be aa af 6b 3d
       -0.17347142 0.24536721 -0.20785551 0.057540573
000060 21 b4 e6 bc ae 74 49 be 7e 57 bd 3e 0f 73 c2 be
       -0.028162064 -0.19673416 0.36980814 -0.37978408
000070 f1 ae af bd f1 8a 49 3e fe 55 a5 3e bd 1e 23 bc
       -0.08578289 0.19681908 0.3229217 -0.009956059
000080 23 86 a1 3d 38 46 84 be 3e 44 bc be 26 94 29 bd
       0.07886913 -0.25834823 -0.36770815 -0.04140105
000090 6e 0e 3a bd a3 9f 65 be 35 ed b5 ba 57 a1 7a 3e
       -0.045423917 -0.22424178 -0.0013879897 0.24475609
0000a0 09 8b 60 3e b8 66 04 be 39 d6 94 be 80 6f 86 be
       0.21928038 -0.12929809 -0.2906969 -0.26256943
0000b0 12 bc be 3e 26 fd e2 be 0b c8 9c 3e dd 55 47 bd
       0.3725286 -0.44333762 0.3062137 -0.04866587
0000c0 5d d9 7f 3e 31 5c 80 be da 41 1e be af 16 71 3d
       0.24985261 -0.25070336 -0.15454808 0.058859523
0000d0 76 30 4f 3d 3c 2a 95 3e 2a 54 04 be be 2c ac 3d
       0.050583325 0.29133785 -0.12922731 0.084069714
0000e0 4e 50 8d 3e 42 4b 73 be bf be ca 3d ca b5 64 be
       0.2760033 -0.23759177 0.09899663 -0.22334972
0000f0 5a 2b 44 3e ff a1 a0 3d ac 29 4e 3e 74 f0 bb bd
       0.19157162 0.07843398 0.20133084 -0.09176722

flow.flow.transforms.7.alpha_prime f4 [4]
000000 1e 4b 31 3e 20 0f 55 3e 7d 09 7a 3d fe 8f b2 be
       0.17313811 0.20806551 0.061044205 -0.34875482

flow.flow.transforms.7.beta_prime f4 [4]
000000 82 de 1a 3e 12 7d 6f bc 8f 74 39 be b7 02 8c 3e
       0.15123942 -0.014617221 -0.1811087 0.2734582

flow.flow.transforms.8.x0 f4 [4, 16]
000000 0e ef 91 3d 49 6d 4f be 9f 51 78 be 52 6a a5 3e
       0.07125674 -0.20256533 -0.24249886 0.32307678
000010 a3 ac bd 3e 52 b2 bd 3d 6d ab 4c 3e b1 66 a3 be
       0.37045774 0.092625275 0.19987269 -0.31914285
000020 f8 f7 b0 3d 27 d7 9c 3e 3a df 7a be 7e 6b 1b 3c
       0.08641046 0.30632898 -0.24499217 0.009486077
000030 a6 db 51 bc ce 0e 41 3e 98 1c 17 3d 7a e6 89 3e
       -0.012808716 0.18853304 0.036892503 0.26933652
000040 d1 b9 6c be e7 4a ed be 17 0c a6 be 17 6a 5d 3e
       -0.23117758 -0.46346208 -0.324311 0.21622501
000050 2e 96 1d be c1 28 c3 3e f2 98 55 be ed 97 8d be
       -0.1538932 0.3811703 -0.20859125 -0.27654973
000060 fe f0 ad 3d fc 14 0e be 49 cd e9 bd a9 31 42 be
       0.08493231 -0.13875192 -0.11416108 -0.18964256
000070 33 28 63 be f2 fd 96 bd ef 79 5c bc 46 9e b3 3e
       -0.22183304 -0.07372655 -0.013456806 0.3508169
000080 67 ac ae 3e db 90 06 be 26 94 4b be f7 3b 2a 3d
       0.34115908 -0.13141195 -0.19880733 0.041561093
000090 13 7e ac 3e c6 19 24 bc 29 e6 8e 3e d9 50 95 be
       0.33689937 -0.0100159105 0.27909973 -0.29163244
0000a0 20 ad d9 3e 0a be 2a be ed fd 8b be a5 60 8b 3e
       0.42514896 -0.16674057 -0.27342167 0.2722217
0000b0 ae 4b 9c 3e 7c 48 34 3c 4c 49 90 be 43 d8 fb bd
       0.3052649 0.01100361 -0.2818092 -0.12297108
0000c0 99 52 96 3e 61 60 88 be 83 af 4d be 92 cf 7d bd
       0.29359892 -0.2663603 -0.20086484 -0.061965533
0000d0 bf bb 39 3d b0 27 aa 3e 7c e7 48 be 35 d6 0a 3e
       0.045345064 0.33233404 -0.19619554 0.13558276
0000e0 d5 68 b2 3e cc f7 9c be f3 79 de 3d ec 69 97 be
       0.34845605 -0.30657804 0.10863104 -0.29573
0000f0 68 6c 7e 3e b3 eb 04 bc 59 79 c3 3d d1 0d 22 be
       0.24846041 -0.008112836 0.095446296 -0.15825583

flow.flow.transforms.8.alpha_prime f4 [4]
000000 ae 54 4e be 62 ab b5 3d 9c 78 5b 3e eb eb 27 be
       -0.2014949 0.08870579 0.21432728 -0.1639859

flow.flow.transforms.8.beta_prime f4 [4]
000000 b1 40 88 3e d9 da c8 bd ef 79 62 be d2 6a 78 bd
       0.26611856 -0.09807367 -0.22116826 -0.060648747

flow.flow.transforms.9.x0 f4 [4, 16]
000000 f7 8b 80 be bb e2 05 be 76 f3 95 be 90 9e 90 be
       -0.25106785 -0.13074772 -0.29287308 -0.28245974
000010 6c 57 9d be 2b 03 ab 3e 39 4e c7 be 4e a1 8c 3e
       -0.3073076 0.33400854 -0.38926867 0.27466816
000020 99 8f ac 3d e9 3b ca be 5e 32 50 be b9 ef 72 be
       0.084258266 -0.39498833 -0.20331714 -0.2372426
000030 96 a4 86 be 1c c1 12 3e e8 d8 5d 3e 70 a6 f2 3d
       -0.26297444 0.14331478 0.21664774 0.11848152
000040 dc 50 e2 bc e1 7d 9a 3e 13 ca 59 3e b5 c7 3d 3e
       -0.027626447 0.30174163 0.21268491 0.18533213
000050 65 ca 1b be e7 3a 11 be 77 90 cd 3a 6d 20 36 3d
       -0.15213926 -0.14182626 0.0015683313 0.044464517
000060 40 18 07 be ff b7 91 3d 18 39 2b be 48 97 9b 3e
       -0.13192844 0.071151726 -0.16720998 0.30388856
000070 99 2f f8 bb 71 71 5b 3c 8e 67 b8 be 91 d7 df bd
       -0.0075740335 0.013393746 -0.36016506 -0.10929788
000080 5f 78 c5 3e 6c cb fb 3d ad bc ea bd 95 0a a3 bd
       0.38568398 0.12294659 -0.11461768 -0.07961003
000090 2a 34 af 3e 11 f2 6f 3e 95 82 73 3e 7f 45 2d be
       0.34219486 0.23432185 0.23780282 -0.16921042
0000a0 ef d3 e6 3e 3b ac 34 be a3 3b 35 bc c8 ac bd 3b
       0.45083568 -0.17643826 -0.011061582 0.0057884194
0000b0 82 73 9d 3e a7 cd 9d bd da 9e 25 bd d1 15 65 3e
       0.30752188 -0.07705241 -0.040434696 0.22371604
0000c0 ce 5d 85 3e 82 ce 79 be c0 ac 1a be 0e 27 34 3d
       0.2604813 -0.24395183 -0.15104961 0.043982558
0000d0 ff 09 4a 3d 09 5d 8e 3e 5f 12 c0 bd e7 7d 05 3e
       0.04932594 0.27805355 -0.09378504 0.13036309
0000e0 81 7e a1 3e 65 dd 7a be 66 84 f6 3d bb 48 54 be
       0.31541827 -0.24498518 0.12036972 -0.2073087
0000f0 2f 61 16 3e 90 5b 87 3d 7f f7 5f 3e 03 db fd bd
       0.1468551 0.06609261 0.21871756 -0.12395289

flow.flow.transforms.9.alpha_prime f4 [4]
000000 64 ea be 3d 28 01 67 be 5c 25 d2 3d 45 a8 b6 3d
       0.0932205 -0.22559035 0.10261032 0.089188136

flow.flow.transforms.9.beta_prime f4 [4]
000000 68 1c b7 3d 6b 84 81 3e 81 a8 62 bd 5c 61 80 3e
       0.08940965 0.2529634 -0.05533648 0.2507428
