saved_experiments/ood_loc/GPN/1/model_8.pt (torch, 759609 bytes, 36 tensors)

input_encoder.0.weight f4 [64, 2879]
-0.0010363816 -0.03056917 0.000114229624 -0.015347883 -0.00046788662 0.000107495696 0.0031235374 -0.0007126898
0.0022670147 -0.0011854614 0.0017688214 0.0040756594 -0.001301961 -0.0022640768 3.220354e-05 -0.0010103717
0.0044881986 0.005404639 0.0037860444 0.002178465 0.0045056944 -0.041906863 -0.038764287 -0.00219858
-0.033596758 0.0045154938 -0.040681742 -0.019612094 -0.0017867235 0.0048146145 -0.0022138036 -0.0012542563
0.00037188342 0.0013466384 0.001133733 0.000120363606 0.0027417545 -0.0043474045 -0.0029790597 0.005276927
-0.0006005048 -0.0010209708 0.0019136007 -0.030592723 0.00043488143 0.03986603 -0.00033306438 -0.008668939
-0.0024158943 -0.014275345 -0.038369294 -0.03951925 -0.0023060432 -0.0021150622 -0.024116157 -0.030685147
0.002641793 0.0048073237 -0.000963703 0.005454227 0.00013781327 0.00047866447 -0.0061806845 -0.009123465
-0.00030770173 -0.0023279036 0.026800748 0.0027387016 0.00021240063 -0.010696923 -0.03488201 -0.0038852356
0.0021598237 -0.0010792975 0.0017897034 0.00034954667 0.0032682195 0.0014560695 0.005360969 -0.03956075
-0.031222949 -0.001859808 0.0009703349 -0.010624546 -0.00046384998 -0.0042738533 0.00027982402 -0.036302347
-0.0064877034 -0.002496342 0.002661094 -0.03601033 -0.045917977 0.00039395777 -0.04418025 -0.04402464
-0.03253348 0.00062379695 -0.0023170712 -0.0009142966 0.003756662 0.0030348767 -0.032181107 -0.004599314
-0.0022918188 0.0011466452 -0.0036704615 0.0022028256 -0.002048379 -0.0013977065 0.0046832515 -0.0019255602
0.00021585054 -0.0022720555 0.0019928154 -0.024842964 -0.022725847 0.00096224167 -0.020011216 0.0020733413
0.004288254 -0.002852183 0.00047508773 -0.03766132 -0.045028836 -0.0013440563 0.00020994671 -0.0025185957
0.0014265266 -0.0024078782 -0.0015768884 -0.0028859212 -0.0017888552 -0.035825066 0.0016758854 -0.002695964
-0.044326756 -0.003777505 -0.04994814 0.005239474 -0.03424501 -0.011600696 -0.0026759491 -0.039405763
-0.0012901485 -0.019009437 -0.0012453926 0.0011313205 0.0014388781 0.0011175384 -0.0012035487 0.00089726644
0.0029544923 0.0017147403 -0.0036717928 -0.05073601 0.005041082 -0.0031951768 0.003769435 -0.042017654
0.0025541885 0.00062229956 -0.005583024 0.002367862 -0.0009935459 -0.015605113 0.0007113101 0.0011625034
-0.0010108899 -0.0019745387 0.00525273 0.0036422266 -0.00046050356 -0.026885675 0.0031329226 -0.03906292
-0.0031832207 0.001573961 -0.046148524 -0.04121325 -0.037789997 -0.001516548 -0.026991203 -0.020371975
-0.045279622 -0.032772847 -0.04218349 0.003981142 0.004024733 0.0017141156 -0.0011690179 7.545459e-05
-0.00042448833 -0.01888459 0.0029757216 0.00096286205 -0.0007153717 0.002394991 6.440445e-05 -0.0023837532
-0.019569548 -0.0002539339 -0.039012242 -0.01906441 -0.008178098 -0.019556083 -0.0040580253 0.004506841
-0.003639285 -0.0049598794 -0.0034312306 0.00017909333 -0.0072628735 0.0048295218 0.004333482 0.0009624357
-0.0023750423 -0.013046956 -0.016472276 -0.04462864 0.0019425306 0.00048119714 0.00018336417 -0.006052554
-0.027286652 0.0023397463 -0.0015244866 -0.0018222318 0.0020922022 0.00027673232 -0.0016022264 0.0032005329
-0.00065509416 0.0013961054 -0.00011467666 0.0009644466 0.0033145852 0.001342075 -0.0023602815 0.0036620405
-0.0025905082 -0.004142077 0.003123078 -0.0139190415 -0.0055514453 -0.01506562 -0.0016633857 -0.03056907
-0.00084645033 -0.0398446 0.00032280723 -0.00496049 -0.001851239 -0.014398433 0.0032184229 -0.00045285645
00000000: 32d7 87ba 326c fabc 908e ef38 b075 7bbc
00000010: ae4e f5b9 506f e138 43b4 4c3b ced3 3aba
00000020: 3292 143b 7c61 9bba ccd7 e73a 1c8d 853b
00000030: 90a6 aaba e860 14bb 4a12 0738 736e 84ba
00000040: bd11 933b 6619 b13b 491f 783b 94c4 0e3b
00000050: 81a4 933b 88a6 2bbd 4dc7 1ebd 0d16 10bb
00000060: c19c 09bd b5f6 933b e6a1 26bd 8ba9 a0bc
00000070: 7e30 eaba eac3 9d3b 7615 11bb dc65 a4ba
00000080: 59f9 c239 b081 b03a c499 943a b86b fc38
00000090: 02af 333b ac74 8ebb 543c 43bb 12ea ac3b
000000a0: 326b 1dba 18d2 85ba c9d1 fa3a 979d fabc
000000b0: cc00 e439 904a 233d 259f aeb9 2a08 0ebc
000000c0: fb53 1ebb 23e3 69bc 1f29 1dbd f0de 21bd
000000d0: fc20 17bb db9c 0abb 3f8f c5bc 6b5f fbbc
000000e0: ef21 2d3b c186 9d3b 03a1 7cba 5fb9 b23b
000000f0: f881 1039 42f5 fa39 5787 cabb 967a 15bc
00000100: 0753 a1b9 be8f 18bb 3e8d db3c ca7b 333b
00000110: dcb7 5e39 2642 2fbc 70e0 0ebd 709f 7ebb
00000120: d48b 0d3b 3777 8dba 7b94 ea3a 5c43 b739
00000130: a02f 563b 96d9 be3a 11ab af3b 740a 22bd
00000140: 45c7 ffbc cdc4 f3ba 135e 7e3a 9312 2ebc
00000150: e430 f3b9 ae0b 8cbb 58b5 9239 c5b1 14bd
00000160: cd96 d4bb ab99 23bb c065 2e3b 917f 13bd
00000170: 7d14 3cbd 1e8c ce39 5af6 34bd 2e53 34bd
00000180: d441 05bd 4e86 233a 01da 17bb 68ad 6fba
00000190: 5432 763b c8e4 463b 56d0 03bd d8b5 96bb
000001a0: 5732 16bb 074b 963a 208c 70bb 485d 103b
000001b0: 193e 06bb 3f33 b7ba f675 993b 1463 fcba
000001c0: f055 6239 c4e6 14bb e599 023b 7983 cbbc
000001d0: 8e2b babc f23e 7c3a 90ee a3bc e5e0 073b
000001e0: 7b84 8c3b b1eb 3abb 3215 f939 c242 1abd
000001f0: 2870 38bd 0c2b b0ba 2425 5c39 060f 25bb
00000200: 4afa ba3a 7ecd 1dbb 98af ceba b921 3dbb
00000210: 0578 eaba 4ebd 12bd 62a9 db3a c5ae 30bb
00000220: f98f 35bd 0490 77bb 6c96 4cbd e5af ab3b
00000230: 7f44 0cbd d810 3ebc fa5e 2fbb f067 21bd
00000240: 331a a9ba aeb9 9bbc 713c a3ba d148 943a
00000250: bd98 bc3a 5e7a 923a 65c0 9dba 8836 6b3a
00000260: 28a0 413b 23c1 e03a 76a2 70bb 90d0 4fbd
00000270: a92f a53b 2c66 51bb a008 773b b41a 2cbd
00000280: 2c64 273b d121 233a cdf1 b6bb 222e 1b3b
00000290: de39 82ba 96ac 7fbc 3677 3a3a 245f 983a
000002a0: d67f 84ba 4367 01bb 181f ac3b 6cb2 6e3b
000002b0: be6f f1b9 593f dcbc b851 4d3b 7100 20bd
000002c0: 959d 50bb 5e4d ce3a 3c06 3dbd 3acf 28bd
000002d0: afc9 1abd e8c6 c6ba a81c ddbc 21e3 a6bc
000002e0: 2077 39bd d23c 06bd 98c8 2cbd 3d74 823b
000002f0: e8e1 833b 2dac e03a bb39 99ba 603d 9e38
00000300: dc8d deb9 dbb3 9abc 5304 433b 9468 7c3a
00000310: c887 3bba 48f5 1c3b e010 8738 be38 1cbb
00000320: 5150 a0bc 6e22 85b9 4dcb 1fbd f72c 9cbc
00000330: 6efd 05bc 1434 a0bc 2ff9 84bb 1fae 933b
00000340: 1281 6ebb 7c86 a2bb 7fde 60bb 00cb 3b39
00000350: 66fd edbb f740 9e3b e2ff 8d3b f74b 7c3a
00000360: 99a6 1bbb e6c2 55bc def0 86bc 85cc 36bd
00000370: 839c fe3a 3049 fc39 7245 4039 8154 c6bb
00000380: 4288 dfbc 6e56 193b 48d1 c7ba f4d7 eeba
00000390: 541d 093b 6216 9139 cc01 d2ba 08c0 513b
000003a0: a0ba 2bba 86fd b63a 907e f0b8 ead2 7c3a
000003b0: 8339 593b 90e8 af3a f4ae 1abb d8fe 6f3b
000003c0: 84c5 29bb 43ba 87bb 8eac 4c3b b10c 64bc
000003d0: e6e8 b5bb cad5 76bc f605 daba fc6b fabc
000003e0: 52e4 5dba 1734 23bd 743e a939 9b8b a2bb
000003f0: 46a5 f2ba 68e7 6bbc 2dec 523b 5d6d edb9

input_encoder.0.bias f4 [64]
-0.052156188 0.027614988 -0.045106396 -0.05637279 -0.045889646 0.01845943 -0.021705667 -0.0071637267
-0.0012245199 -0.054649014 0.008372314 -0.052735366 -0.03789546 0.011568024 0.004141595 -0.05240785
-0.02965381 0.021955568 -0.05372921 0.026235923 0.014461137 -0.03980397 -0.007227176 0.017679915
0.038775634 -0.05751174 -0.03522941 -0.05513716 0.02871564 0.003623961 -0.05129227 -0.03413176
-0.044874415 -0.023940282 0.012941494 -0.05215518 0.031832065 -0.029534612 -0.0031380218 -0.061434634
0.025409535 -0.055993907 -0.009975724 0.027692566 -0.029765712 -0.06288111 0.0095624365 0.022951337
0.020898148 -0.04537318 -0.026342997 -0.05056949 0.0119317295 -0.04706294 0.021348793 0.025382128
0.042475022 0.0011076737 -0.024575414 -0.003812516 -0.00086216145 -0.059862155 -0.051278908 0.006947704
00000000: baa1 55bd d438 e23c 7cc1 38bd 28e7 66bd
00000010: c8f6 3bbd 3b38 973c 15d0 b1bc b2bd eabb
00000020: 1280 a0ba a5d7 5fbd 082c 093c 0a01 58bd
00000030: 4538 1bbd cf87 3d3c 38b6 873b 9da9 56bd
00000040: 8cec f2bc 2adc b33c 2913 5cbd b8ec d63c
00000050: 68ee 6c3c 7d09 23bd f2d1 ecbb 78d5 903c
00000060: 33d3 1e3d 6e91 6bbd b74c 10bd 81d7 61bd
00000070: 103d eb3c fa7f 6d3b d817 52bd bfcd 0bbd
00000080: 3cce 37bd 691e c4bc 8f08 543c aca0 55bd
00000090: 5762 023d 92f2 f1bc 45a7 4dbb e2a2 7bbd
000000a0: a827 d03c de59 65bd 3871 23bc 85db e23c
000000b0: 39d7 f3bc d0c7 80bd c4ab 1c3c 7104 bc3c
000000c0: 9832 ab3c 3ad9 39bd 45cd d7bc f421 4fbd
000000d0: 4d7d 433c 12c5 40bd aae3 ae3c 2eee cf3c
000000e0: 4afa 2d3d 5d2f 913a 6152 c9bc 68db 79bb
000000f0: ad02 62ba 0532 75bd d509 52bd 91a9 e33b

latent_encoder.weight f4 [16, 64]
-0.023996381 0.02644164 0.024626445 0.02641733 -0.014879806 -0.23080723 -0.024638359 -0.037901167
-0.2682698 -0.04572278 -0.25505924 -0.0465499 -0.00037753646 0.21307139 -0.2753873 0.0014281488
0.08914641 -0.08574024 -0.04423485 0.15139958 0.23366882 -0.13311398 0.15866327 -0.18469475
0.2475827 0.003617225 -0.06108226 0.00838202 -0.2835459 -0.1352385 -0.00020563585 0.09966046
-0.034756027 -0.08793648 0.3178863 -0.03131519 0.29918918 -0.08329279 0.06491941 -0.039386205
-0.16842175 -0.0057520694 0.010928796 -0.089587405 -0.3279644 0.043585513 0.13537188 0.06518712
0.103609525 -0.048848696 -0.15939781 0.11161172 0.14099202 -0.0004447339 -0.18623836 0.15942298
0.2995471 -0.25479838 0.0023278478 0.2970483 0.21735923 -0.07814832 -0.049218226 0.06977496
-0.02952497 0.34839898 -0.08573283 0.034279883 0.011202434 -0.011555154 0.19989018 -0.32219434
-0.19400027 0.0645874 -0.1745105 0.12585992 -0.000888466 -0.18980119 0.17591563 -0.037348617
-0.1553073 -0.29809952 0.024510743 -0.050533444 -0.12588723 -0.04262222 -0.1185855 -0.31679422
-0.24877144 -0.06345169 -0.060691804 0.0126732085 -0.12885551 0.085727245 -0.0044594677 0.024878185
0.048203148 -0.09634396 0.17288165 -0.045426495 -0.065048695 0.05988967 0.2051338 -0.03924901
-0.30795977 0.04894811 0.24877131 0.068966605 -0.018887416 0.095559575 0.21249273 0.32887465
0.19834149 -0.053053286 -0.2783606 -0.048907205 -0.25370976 -0.003228704 -0.15102096 0.24227655
-0.19022688 -0.12853748 -0.00057414453 -0.20034647 0.32284597 0.026964394 0.04253002 -0.2838227
-0.10090921 -0.013160187 0.10809168 -0.11445025 -0.081210196 -0.14981401 -0.14266421 0.21716411
0.092291445 0.06777657 0.23439462 0.08013046 9.023596e-05 -0.10970644 -0.065371566 0.06084433
0.12664203 0.06005306 0.032497477 0.027653651 0.009426062 0.032697022 0.047637947 0.07396108
-0.0656455 -0.0056444593 0.039507367 -0.063200764 0.014940351 0.18851241 -0.00017929566 -0.12610249
0.035812106 0.089738846 0.010639247 0.024535295 -0.20849892 0.11672567 0.34393904 0.001430583
0.16556188 0.037037 0.01439309 -0.13387729 6.334472e-05 -0.072793394 0.30745122 -0.09381932
0.2580003 -0.10315655 0.2189772 0.028450837 -0.0060434313 -0.0004017476 -0.105595514 -0.12344336
-0.044102725 0.0012258496 -0.0036113667 -0.010421526 0.092375144 0.009199428 0.036160346 0.07089888
0.039963607 -0.065706514 -0.01933459 0.00050886616 -0.06393196 -0.11226797 -0.05517608 -0.028290058
-0.034236945 0.00947472 -0.026098255 0.042223286 0.00011745513 0.051123947 -0.19990629 -0.06477052
0.0048769517 0.0105194105 -0.021128643 0.065535866 0.0637576 -0.07773948 0.010338975 -0.059892844
0.10163627 -0.05374576 0.0057837465 0.0721511 -0.12616773 -0.104568765 0.0012971398 0.19784054
-0.058532737 -0.0018985386 0.020279901 0.0023207944 0.11304794 -0.16775548 -0.11983428 0.0016604597
-0.062880844 -0.07196699 -0.042051256 -0.039136305 -0.13344628 0.145151 -0.1038869 -0.07844757
-0.08191263 -0.15224382 -0.12628514 0.14156999 0.07006578 0.0026981472 -0.13358244 -0.01766752
0.11845339 -0.06646991 -0.0008579747 0.05977351 -0.008778499 0.0017934936 0.022417102 0.02345575
00000000: 0f94 c4bc 239c d83c 66bd c93c 2869 d83c
00000010: 6eca 73bc bb58 6cbe 62d6 c9bc 413e 1bbd
00000020: a95a 89be cf47 3bbd 2097 82be 1cab 3ebd
00000030: 16f0 c5b9 632f 5a3e 90ff 8cbe b930 bb3a
00000040: 6592 b63d 9498 afbd 9a2f 35bd 7e08 1b3e
00000050: e146 6f3e 084f 08be a078 223e 9f20 3dbe
00000060: 5286 7d3e f70e 6d3b 6431 7abd bd54 093c
00000070: ee2c 91be f67b 0abe f49f 57b9 c91a cc3d
00000080: 565c 0ebd 0b18 b4bd fec1 a23e 5b44 00bd
00000090: 532f 993e 6995 aabd 78f4 843d 6e53 21bd
000000a0: c076 2cbe db7b bcbb b10e 333c 9a79 b7bd
000000b0: f3ea a7be b986 323d ed9e 0a3e d380 853d
000000c0: 3b31 d43d 9215 48bd 2e39 23be af94 e43d
000000d0: 3660 103e 2c2b e9b9 45b5 3ebe c73f 233e
000000e0: 3d5e 993e ef74 82be ce8e 183b b716 983e
000000f0: 6b93 5e3e 3a0c a0bd 0d99 49bd 2de6 8e3d
00000100: 5ade f1bc 5a61 b23e b294 afbd 1069 0c3d
00000110: 6a8a 373c d451 3dbc 03b0 4c3e a8f6 a4be
00000120: 02a8 46be 6646 843d e1b2 32be 6ce1 003e
00000130: f2e7 68ba 3e5b 42be 3a23 343e ddfa 18bd
00000140: e008 1fbe 80a0 98be c1ca c83c 28fc 4ebd
00000150: 95e8 00be a394 2ebd f4dc f2bd da32 a2be
00000160: f1bd 7ebe f6f2 81bd f897 78bd 4aa3 4f3c
00000170: b3f2 03be c491 af3d ba20 92bb 56cd cb3c
00000180: aa70 453d fb4f c5bd e307 313e 2211 3abd
00000190: 4038 85bd df4e 753d 980e 523e 92c3 20bd
000001a0: e7ac 9dbe d07d 483d e8bd 7e3e 5d3e 8d3d
000001b0: c8b9 9abc bdb4 c33d b297 593e 4262 a83e
000001c0: 081a 4b3e 674e 59bd 4885 8ebe ec52 48bd
000001d0: 3fe6 81be aa98 53bb 3da5 1abe 5817 783e
000001e0: d6ca 42be 549f 03be 3082 16ba a027 4dbe
000001f0: 114c a53e 6fe4 dc3c f533 2e3d 3551 91be
00000200: 7da9 cebd d39d 57bc 2c5f dd3d e564 eabd
00000210: 8851 a6bd d868 19be 9116 12be 4560 5e3e
00000220: 4c03 bd3d 71ce 8a3d 2505 703e 701b a43d
00000230: 103d bd38 c5ad e0bd 87e1 85bd e737 793d
00000240: 73ae 013e 33fa 753d 131c 053d e989 e23c
00000250: c56f 1a3c 50ed 053d 0220 433d e878 973d
00000260: 2671 86bd 28f5 b8bb 7ad2 213d 676f 81bd
00000270: 60c8 743c 6609 413e 5001 3cb9 0321 01be
00000280: b7af 123d 00c9 b73d 3c50 2e3c 3efe c83c
00000290: be80 55be de0d ef3d c718 b03e 6682 bb3a
000002a0: 0e89 293e 1cb4 173d ffd0 6b3c 2117 09be
000002b0: f0d7 8438 b414 95bd 3f6a 9d3e 5824 c0bd
000002c0: 9e18 843e be43 d3bd 8f3b 603e bb11 e93c
000002d0: fa07 c6bb a6a1 d2b9 7642 d8bd dfcf fcbd
000002e0: 0fa5 34bd b0ac a03a aeac 6cbb 0cbf 2abc
000002f0: 2e2f bd3d 33b9 163c df1c 143d 6f33 913d
00000300: e1b0 233d 2391 86bd 9363 9ebc 6e65 053a
00000310: c2ee 82bd c0ec e5bd 5000 62bd 8dc0 e7bc
00000320: 0a3c 0cbd db3b 1b3c 02cc d5bc 53f2 2c3d
00000330: 3e52 f638 5867 513d 3cb4 4cbe 68a6 84bd
00000340: d6ce 9f3b 9b59 2c3c fa15 adbc ab37 863d
00000350: 5893 823d e035 9fbd ce64 293c 3352 75bd
00000360: ad26 d03d 8424 5cbd 9585 bd3b f5c3 933d
00000370: 1d32 01be 2628 d6bd ca04 aa3a b696 4a3e
00000380: 06c0 6fbd 62d8 f8ba 0922 a63c 7818 183b
00000390: ae85 e73d 18c8 2bbe ad6b f5bd c8a3 d93a
000003a0: acc7 80bd 6e63 93bd f03d 2cbd 644d 20bd
000003b0: 24a6 08be 77a2 143e a8c2 d4bd 1fa9 a0bd
000003c0: cfc1 a7bd cee5 1bbe e450 01be b9f7 103e
000003d0: a67e 8f3d 66d3 303b d6c9 08be 7abb 90bc
000003e0: b197 f23d 6021 88bd b5e9 60ba 11d5 743d
000003f0: b2d3 0fbc a913 eb3a 12a4 b73c 4626 c03c

latent_encoder.bias f4 [16]
-0.04979162 -0.025150638 -0.09878317 0.11454633 -0.09685641 -0.08981833 -0.030709295 0.0029928414
0.06622632 0.0059920247 -0.05826347 0.009656825 0.046121553 0.08443813 -0.0025959779 -0.09686117
00000000: 4cf2 4bbd b608 cebc d54e cabd 4497 ea3d
00000010: a75c c6bd acf2 b7bd 0f92 fbbc 8c23 443b
00000020: aaa1 873d bf58 c43b ada5 6ebd a937 1e3c
00000030: f4e9 3c3d e6ed ac3d 4821 2abb 265f c6bd

flow.flow.mean f4 [4, 16]
0.0 0.0 0.0 0.0 0.0 0.0 0.0 0.0
0.0 0.0 0.0 0.0 0.0 0.0 0.0 0.0
0.0 0.0 0.0 0.0 0.0 0.0 0.0 0.0
0.0 0.0 0.0 0.0 0.0 0.0 0.0 0.0
0.0 0.0 0.0 0.0 0.0 0.0 0.0 0.0
0.0 0.0 0.0 0.0 0.0 0.0 0.0 0.0
0.0 0.0 0.0 0.0 0.0 0.0 0.0 0.0
0.0 0.0 0.0 0.0 0.0 0.0 0.0 0.0
00000000: 0000 0000 0000 0000 0000 0000 0000 0000
00000010: 0000 0000 0000 0000 0000 0000 0000 0000
00000020: 0000 0000 0000 0000 0000 0000 0000 0000
00000030: 0000 0000 0000 0000 0000 0000 0000 0000
00000040: 0000 0000 0000 0000 0000 0000 0000 0000
00000050: 0000 0000 0000 0000 0000 0000 0000 0000
00000060: 0000 0000 0000 0000 0000 0000 0000 0000
00000070: 0000 0000 0000 0000 0000 0000 0000 0000
00000080: 0000 0000 0000 0000 0000 0000 0000 0000
00000090: 0000 0000 0000 0000 0000 0000 0000 0000
000000a0: 0000 0000 0000 0000 0000 0000 0000 0000
000000b0: 0000 0000 0000 0000 0000 0000 0000 0000
000000c0: 0000 0000 0000 0000 0000 0000 0000 0000
000000d0: 0000 0000 0000 0000 0000 0000 0000 0000
000000e0: 0000 0000 0000 0000 0000 0000 0000 0000
000000f0: 0000 0000 0000 0000 0000 0000 0000 0000

flow.flow.cov f4 [4, 16, 16]
1.0 0.0 0.0 0.0 0.0 0.0 0.0 0.0
0.0 0.0 0.0 0.0 0.0 0.0 0.0 0.0
0.0 1.0 0.0 0.0 0.0 0.0 0.0 0.0
0.0 0.0 0.0 0.0 0.0 0.0 0.0 0.0
0.0 0.0 1.0 0.0 0.0 0.0 0.0 0.0
0.0 0.0 0.0 0.0 0.0 0.0 0.0 0.0
0.0 0.0 0.0 1.0 0.0 0.0 0.0 0.0
0.0 0.0 0.0 0.0 0.0 0.0 0.0 0.0
0.0 0.0 0.0 0.0 1.0 0.0 0.0 0.0
0.0 0.0 0.0 0.0 0.0 0.0 0.0 0.0
0.0 0.0 0.0 0.0 0.0 1.0 0.0 0.0
0.0 0.0 0.0 0.0 0.0 0.0 0.0 0.0
0.0 0.0 0.0 0.0 0.0 0.0 1.0 0.0
0.0 0.0 0.0 0.0 0.0 0.0 0.0 0.0
0.0 0.0 0.0 0.0 0.0 0.0 0.0 1.0
0.0 0.0 0.0 0.0 0.0 0.0 0.0 0.0
0.0 0.0 0.0 0.0 0.0 0.0 0.0 0.0
1.0 0.0 0.0 0.0 0.0 0.0 0.0 0.0
0.0 0.0 0.0 0.0 0.0 0.0 0.0 0.0
0.0 1.0 0.0 0.0 0.0 0.0 0.0 0.0
0.0 0.0 0.0 0.0 0.0 0.0 0.0 0.0
0.0 0.0 1.0 0.0 0.0 0.0 0.0 0.0
0.0 0.0 0.0 0.0 0.0 0.0 0.0 0.0
0.0 0.0 0.0 1.0 0.0 0.0 0.0 0.0
0.0 0.0 0.0 0.0 0.0 0.0 0.0 0.0
0.0 0.0 0.0 0.0 1.0 0.0 0.0 0.0
0.0 0.0 0.0 0.0 0.0 0.0 0.0 0.0
0.0 0.0 0.0 0.0 0.0 1.0 0.0 0.0
0.0 0.0 0.0 0.0 0.0 0.0 0.0 0.0
0.0 0.0 0.0 0.0 0.0 0.0 1.0 0.0
0.0 0.0 0.0 0.0 0.0 0.0 0.0 0.0
0.0 0.0 0.0 0.0 0.0 0.0 0.0 1.0
00000000: 0000 803f 0000 0000 0000 0000 0000 0000
00000010: 0000 0000 0000 0000 0000 0000 0000 0000
00000020: 0000 0000 0000 0000 0000 0000 0000 0000
00000030: 0000 0000 0000 0000 0000 0000 0000 0000
00000040: 0000 0000 0000 803f 0000 0000 0000 0000
00000050: 0000 0000 0000 0000 0000 0000 0000 0000
00000060: 0000 0000 0000 0000 0000 0000 0000 0000
00000070: 0000 0000 0000 0000 0000 0000 0000 0000
00000080: 0000 0000 0000 0000 0000 803f 0000 0000
00000090: 0000 0000 0000 0000 0000 0000 0000 0000
000000a0: 0000 0000 0000 0000 0000 0000 0000 0000
000000b0: 0000 0000 0000 0000 0000 0000 0000 0000
000000c0: 0000 0000 0000 0000 0000 0000 0000 803f
000000d0: 0000 0000 0000 0000 0000 0000 0000 0000
000000e0: 0000 0000 0000 0000 0000 0000 0000 0000
000000f0: 0000 0000 0000 0000 0000 0000 0000 0000
00000100: 0000 0000 0000 0000 0000 0000 0000 0000
00000110: 0000 803f 0000 0000 0000 0000 0000 0000
00000120: 0000 0000 0000 0000 0000 0000 0000 0000
00000130: 0000 0000 0000 0000 0000 0000 0000 0000
00000140: 0000 0000 0000 0000 0000 0000 0000 0000
00000150: 0000 0000 0000 803f 0000 0000 0000 0000
00000160: 0000 0000 0000 0000 0000 0000 0000 0000
00000170: 0000 0000 0000 0000 0000 0000 0000 0000
00000180: 0000 0000 0000 0000 0000 0000 0000 0000
00000190: 0000 0000 0000 0000 0000 803f 0000 0000
000001a0: 0000 0000 0000 0000 0000 0000 0000 0000
000001b0: 0000 0000 0000 0000 0000 0000 0000 0000
000001c0: 0000 0000 0000 0000 0000 0000 0000 0000
000001d0: 0000 0000 0000 0000 0000 0000 0000 803f
000001e0: 0000 0000 0000 0000 0000 0000 0000 0000
000001f0: 0000 0000 0000 0000 0000 0000 0000 0000
00000200: 0000 0000 0000 0000 0000 0000 0000 0000
00000210: 0000 0000 0000 0000 0000 0000 0000 0000
00000220: 0000 803f 0000 0000 0000 0000 0000 0000
00000230: 0000 0000 0000 0000 0000 0000 0000 0000
00000240: 0000 0000 0000 0000 0000 0000 0000 0000
00000250: 0000 0000 0000 0000 0000 0000 0000 0000
00000260: 0000 0000 0000 803f 0000 0000 0000 0000
00000270: 0000 0000 0000 0000 0000 0000 0000 0000
00000280: 0000 0000 0000 0000 0000 0000 0000 0000
00000290: 0000 0000 0000 0000 0000 0000 0000 0000
000002a0: 0000 0000 0000 0000 0000 803f 0000 0000
000002b0: 0000 0000 0000 0000 0000 0000 0000 0000
000002c0: 0000 0000 0000 0000 0000 0000 0000 0000
000002d0: 0000 0000 0000 0000 0000 0000 0000 0000
000002e0: 0000 0000 0000 0000 0000 0000 0000 803f
000002f0: 0000 0000 0000 0000 0000 0000 0000 0000
00000300: 0000 0000 0000 0000 0000 0000 0000 0000
00000310: 0000 0000 0000 0000 0000 0000 0000 0000
00000320: 0000 0000 0000 0000 0000 0000 0000 0000
00000330: 0000 803f 0000 0000 0000 0000 0000 0000
00000340: 0000 0000 0000 0000 0000 0000 0000 0000
00000350: 0000 0000 0000 0000 0000 0000 0000 0000
00000360: 0000 0000 0000 0000 0000 0000 0000 0000
00000370: 0000 0000 0000 803f 0000 0000 0000 0000
00000380: 0000 0000 0000 0000 0000 0000 0000 0000
00000390: 0000 0000 0000 0000 0000 0000 0000 0000
000003a0: 0000 0000 0000 0000 0000 0000 0000 0000
000003b0: 0000 0000 0000 0000 0000 803f 0000 0000
000003c0: 0000 0000 0000 0000 0000 0000 0000 0000
000003d0: 0000 0000 0000 0000 0000 0000 0000 0000
000003e0: 0000 0000 0000 0000 0000 0000 0000 0000
000003f0: 0000 0000 0000 0000 0000 0000 0000 803f

flow.flow.transforms.0.x0 f4 [4, 16]
-0.30442464 0.22646415 -0.07009972 -0.15750073 -0.0027335978 0.1252445 -0.0006006343 0.20032233
-0.15426427 0.27606708 -0.42432562 0.27042532 0.0077740788 -0.008460092 -0.040892247 0.0055794986
0.19364889 0.26963088 -0.1310861 -0.097742714 0.27983096 0.025074689 -0.282576 -0.065537065
0.22215387 -0.14102678 0.084797196 -0.25519946 -0.019485123 -0.05961961 0.27686936 -0.010754512
0.064714596 0.26599646 0.11013309 0.04550804 0.10827678 0.16495644 0.23938656 -0.10951834
-0.094515674 0.32590595 -0.12367227 0.0029947972 -0.20741269 -0.15430237 -0.022056479 0.0883786
-0.14863372 0.10962353 -0.2037935 0.015363168 0.0891984 -0.43031272 -0.37798786 0.103639
-0.30273324 -0.24795814 -0.2533789 0.33720627 -0.061335467 0.10821091 0.3952734 -0.09694366
00000000: 8cdd 9bbe 38e6 673e 7190 8fbd df47 21be
00000010: 2926 33bb 1840 003e e373 1dba 4c21 4d3e
00000020: 74f7 1dbe aa58 8d3e 3541 d9be 3075 8a3e
00000030: b3bd fe3b 339c 0abc a17e 27bd 3ad4 b63b
00000040: e54b 463e 0f0d 8a3e 6f3b 06be 552d c8bd
00000050: 0146 8f3e 6f69 cd3c cdad 90be 4c38 86bd
00000060: 4e7c 633e 5369 10be 27aa ad3d 81a9 82be
00000070: 449f 9fbc b133 74bd d2c1 8d3e b133 30bc
00000080: 1689 843d b030 883e 758d e13d a366 3a3d
00000090: 37c0 dd3d 57ea 283e c021 753e 274b e0bd
000000a0: 6f91 c1bd 25dd a63e e347 fdbd 5c44 443b
000000b0: fe63 54be 7101 1ebe caaf b4bc d7ff b43d
000000c0: 7033 18be 4d82 e03d 3eaf 50be ccb5 7b3c
000000d0: a7ad b63d f351 dcbe a087 c1be af40 d43d
000000e0: daff 9abe bde8 7dbe e1ba 81be 4da6 ac3e
000000f0: e63a 7bbd ae9d dd3d 4661 ca3e 668a c6bd

flow.flow.transforms.0.alpha_prime f4 [4]
-0.048323296 0.1739427 -0.09941978 0.09011148
00000000: a6ee 45bd 091e 323e 999c cbbd 5e8c b83d

flow.flow.transforms.0.beta_prime f4 [4]
-0.25131777 0.14161493 0.04252062 0.20944656
00000000: b9ac 80be 8103 113e 1a2a 2e3d 2979 563e

flow.flow.transforms.1.x0 f4 [4, 16]
0.12662663 0.14316304 -0.13590921 -0.143172 0.17361163 -0.14052784 -0.03761804 0.29539278
-0.11994352 -0.08014219 -0.46722624 0.32488364 0.11087433 -0.018654585 0.2472098 0.07543906
-0.40310386 -0.32614478 0.12330305 -0.15202072 -0.042078786 0.124218106 -0.20279042 -0.12571695
-0.30441776 0.07634473 0.19288707 -0.31731075 -0.06069105 -0.25940862 0.050749764 0.08299823
0.22976716 0.03696032 -0.19395283 -0.29056224 -0.29148436 0.069492385 0.25476736 0.2968765
0.04452613 -0.2801092 0.2337621 0.13894306 0.061904166 0.4171706 -0.28530854 -0.4369454
-0.020327594 -0.06575167 0.036831167 0.05663091 -0.15829283 0.21232866 0.25420207 -0.223138
0.083005786 0.037740007 0.17152345 -0.23242375 0.05097037 -0.049678847 -0.3912971 0.020519754
00000000: 69aa 013e 5599 123e c92b 0bbe ae9b 12be
00000010: 3fc7 313e 88e6 0fbe 6015 1abd b93d 973e
00000020: f3a4 f5bd 9721 a4bd 4738 efbe 2657 a63e
00000030: 1512 e33d 80d1 98bc 9124 7d3e cb7f 9a3d
00000040: a163 cebe 73fc a6be 4f86 fc3d 52ab 1bbe
00000050: ce5a 2cbd 1066 fe3d 4ba8 4fbe f2bb 00be
00000060: a5dc 9bbe a05a 9c3d 3084 453e 8e76 a2be
00000070: 2e97 78bd 35d1 84be fcde 4f3d fafa a93d
00000080: 1548 6b3e b463 173d 929b 46be 93c4 94be
00000090: 703d 95be 0652 8e3d de70 823e 3200 983e
000000a0: 0861 363d 796a 8fbe 555f 6f3e 1747 0e3e
000000b0: 398f 7d3d 6397 d53e f613 92be 4fb7 dfbe
000000c0: 0e86 a6bc d0a8 86bd 47dc 163d d0f5 673d
000000d0: 8417 22be af6c 593e c626 823e 4a7e 64be
000000e0: f0fe a93d 4495 1a3d d8a3 2f3e 7e00 6ebe
000000f0: 4fc6 503d 0c7c 4bbd 1858 c8be 0b19 a83c

flow.flow.transforms.1.alpha_prime f4 [4]
0.09513151 -0.088216506 0.10603001 0.021858035
00000000: 4fd4 c23d dbaa b4bd 4326 d93d 9f0f b33c

flow.flow.transforms.1.beta_prime f4 [4]
-0.09786067 -0.038454816 0.059523385 -0.1864886
00000000: 2d6b c8bd cc82 1dbd cbce 733d def6 3ebe

flow.flow.transforms.2.x0 f4 [4, 16]
0.14288056 -0.29125205 -0.08830286 0.15490551 -0.35972065 0.025306998 -0.08790791 -0.24569103
0.29005763 -0.1530315 0.28210172 -0.34586433 -0.05049443 0.1960031 -0.29842985 -0.1441024
-0.08584764 -0.14434229 0.18209608 0.042144395 0.124981664 0.12128204 -0.15657347 0.27563077
-0.11102197 -0.19758691 -0.304452 -0.21160437 -0.2886083 -0.015677748 0.13019234 0.11093645
0.12745394 0.21646328 0.07800998 0.050747693 0.13964601 0.10150685 0.24977726 -0.1038621
-0.059247177 0.22981404 -0.23293567 0.092464924 -0.15969846 -0.17397353 -0.07760082 0.1003404
-0.028376076 -0.11693436 0.025324944 0.050573297 -0.11224669 0.22412482 0.3608168 -0.011801531
0.19022074 0.16649407 0.10664069 -0.25038767 0.07062054 -0.006543912 -0.24017127 0.10922809
00000000: 484f 123e fd1e 95be 21d8 b4bd 8d9f 1e3e
00000010: 4e2d b8be 9f50 cf3c 1009 b4bd 6e96 7bbe
00000020: 6f82 943e 4ab4 1cbe a36f 903e 2115 b1be
00000030: 3fd3 4ebd 09b5 483e cccb 98be 948f 13be
00000040: e3d0 afbd 77ce 13be 6577 3a3e 9a9f 2c3d
00000050: 63f6 ff3d b862 f83d cc54 20be 7a1f 8d3e
00000060: 7d5f e3bd 3954 4abe 22e1 9bbe d1ae 58be
00000070: 78c4 93be 9f6e 80bc 2451 053e a632 e33d
00000080: 4983 023e 8da8 5d3e b2c3 9f3d d0dc 4f3d
00000090: 5dff 0e3e d3e2 cf3d 9cc5 7f3e a7b5 d4bd
000000a0: 2bad 72bd 5f54 6b3e b086 6ebe 405e bd3d
000000b0: fe87 23be 1e26 32be 2eed 9ebd 457f cd3d
000000c0: f274 e8bc 487b efbd 4276 cf3c f225 4f3d
000000d0: 98e1 e5bd fa80 653e fbbc b83e 355b 41bc
000000e0: 3ac9 423e 6c7d 2a3e 6f66 da3d d032 80be
000000f0: 80a1 903d 506e d6bb 75ef 75be fab2 df3d

flow.flow.transforms.2.alpha_prime f4 [4]
-0.2771346 0.10618172 0.050525535 0.059159204
00000000: 96e4 8dbe cd75 d93d ddf3 4e3d ec50 723d

flow.flow.transforms.2.beta_prime f4 [4]
0.35801968 0.08022556 0.20199028 -0.17745233
00000000: 5b4e b73e 4c4d a43d 8ad6 4e3e 10b6 35be

flow.flow.transforms.3.x0 f4 [4, 16]
0.17549163 -0.14646773 -0.08362651 0.17596895 -0.36531928 0.13713962 -0.04473603 -0.23261024
0.22997388 -0.25059426 0.27597585 -0.33661506 -0.107781604 0.20001742 -0.18779922 -0.014147588
-0.15831818 -0.14525181 -0.16626447 -0.30217475 -0.21457948 0.032478347 0.18999891 -0.221041
0.07303533 -0.17228006 0.18070282 0.24808367 -0.22352421 0.031490717 0.0490789 0.07838734
0.013958974 0.22571245 0.06982972 0.053894833 0.119018994 0.08635552 0.19910593 -0.06677167
-0.030628433 0.27962378 -0.21893217 0.11242531 -0.09629835 -0.15738511 -0.043512173 0.09593738
-0.15022665 -0.027773963 -0.13174085 0.02519208 0.07957349 -0.29077742 -0.35052356 0.28428823
-0.22568677 -0.13684218 -0.3320303 0.33824384 0.09330595 0.11100138 0.3085048 -0.024407413
00000000: 14b4 333e a3fb 15be 6044 abbd 3431 343e
00000010: 210b bbbe 546e 0c3e 213d 37bd 6131 6ebe
00000020: 467e 6b3e e44d 80be b54c 8d3e cf58 acbe
00000030: 9abc dcbd 5ed1 4c3e 704e 40be 49cb 67bc
00000040: 291e 22be e4bc 14be 3c41 2abe a6b6 9abe
00000050: b9ba 5bbe 0408 053d 138f 423e 9258 62be
00000060: 8c93 953d 2f6a 30be 290a 393e a509 7e3e
00000070: 88e3 64be 69fc 003d f506 493d 8b89 a03d
00000080: 2eb4 643c 2a21 673e e202 8f3d d4c0 5c3d
00000090: 3bc0 f33d 2adb b03d 6de2 4b3e 96bf 88bd
000000a0: 7be8 fabc d92a 8f3e c12f 60be 3e3f e63d
000000b0: 1238 c5bd 9029 21be d239 32bd d17a c43d
000000c0: 04d5 19be 3986 e3bc 13e7 06be 9f5f ce3c
000000d0: 6df7 a23d c7e0 94be d377 b3be 3a8e 913e
000000e0: 6f1a 67be 5b20 0cbe e0ff a9be 4c2e ad3e
000000f0: 3117 bf3d b154 e33d 57f4 9d3e 0ef2 c7bc

flow.flow.transforms.3.alpha_prime f4 [4]
-0.31789482 -0.017912365 -0.09420308 -0.2851654
00000000: 1cc3 a2be f4bc 92bc 8bed c0bd 3301 92be

flow.flow.transforms.3.beta_prime f4 [4]
-0.0035141925 -0.031554244 0.11571338 -0.020253407
00000000: 5e4e 66bb 063f 01bd 23fb ec3d 79ea a5bc

flow.flow.transforms.4.x0 f4 [4, 16]
0.1911461 -0.3166758 -0.016074663 0.13942215 -0.123692214 0.10984515 -0.062599964 -0.24098617
0.21539018 -0.24487971 0.31501907 -0.36369538 -0.1408678 0.1546711 -0.18804361 -0.13361518
-0.3002703 -0.32357603 -0.07174549 -0.0333378 0.08489178 0.13279389 0.045804568 -0.114565454
-0.09774671 -0.17867199 0.19210109 0.0032055108 0.41369984 0.11969214 -0.04993725 0.16034229
0.04223378 0.19381571 0.06756143 -0.07945707 0.097859584 0.20988853 0.2434437 -0.11986011
0.034419402 0.32387328 -0.25576994 0.14790802 -0.097439505 -0.18053213 -0.022742633 0.096709765
0.0833474 -0.14034696 -0.06431452 0.0956963 -0.13411182 0.20397258 0.18849242 -0.24624908
-0.008021611 0.16200645 -0.016575336 -0.26448557 0.10677738 -0.004689737 -0.38133767 0.061872166
00000000: cebb 433e 5523 a2be 03af 83bc aec4 0e3e
00000010: 5852 fdbd 7ef6 e03d 6934 80bd 14c5 76be
00000020: 3e8f 5c3e bfc1 7abe 2e4a a13e 4836 babe
00000030: a63f 10be 1a62 1e3e 818e 40be 6bd2 08be
00000040: 07bd 99be c2ab a5be 4def 92bd 388d 08bd
00000050: bedb ad3d 1ffb 073e 929d 3b3d 4ba1 eabd
00000060: 6d2f c8bd caf5 36be 26b6 443e 8c13 523b
00000070: 77d0 d33e 2721 f53d 008b 4cbd c530 243e
00000080: 54fd 2c3d a077 463e a65d 8a3d 63ba a2bd
00000090: 9b6a c83d 05ed 563e 4e49 793e 3879 f5bd
000000a0: 5cfb 0c3d b8d2 a53e 47f4 82be 3375 173e
000000b0: 5d8e c7bd 6add 38be c24e babc c50f c63d
000000c0: 0bb2 aa3d 1db7 0fbe 55b7 83bd 6cfc c33d
000000d0: 9c54 09be 30de 503e 2804 413e b828 7cbe
000000e0: 136d 03bc 05e5 253e 00c9 87bc a76a 87be
000000f0: 19ae da3d 5eac 99bb b13e c3be ab6d 7d3d

flow.flow.transforms.4.alpha_prime f4 [4]
-0.12400648 -0.21643163 -0.15784723 -0.017081456
00000000: 1cf7 fdbd 41a0 5dbe b4a2 21be 69ee 8bbc

flow.flow.transforms.4.beta_prime f4 [4]
0.2762703 0.14563365 -0.025509063 -0.22329201
00000000: 4d73 8d3e fd20 153e 62f8 d0bc a9a6 64be

flow.flow.transforms.5.x0 f4 [4, 16]
0.17898545 -0.298178 -0.045061804 0.17735712 -0.35631904 0.094630994 -0.08909182 -0.24933034
0.2573287 -0.22974999 0.28152224 -0.30519173 -0.095230125 0.2329201 -0.31705898 -0.02043864
-0.29505697 -0.30772227 0.13971007 0.04067177 -0.03643734 0.16627169 0.057825774 -0.16938797
-0.09006984 -0.2338239 0.14678378 -0.00930791 0.37033594 0.13433202 -0.19988939 0.039770186
-0.25916582 -0.14822271 0.07489063 -0.21329367 -0.09100137 0.17986076 -0.269781 -0.11460146
0.3188748 -0.329223 -0.21014771 -0.26684612 -0.1438652 0.502866 -0.21454045 -0.13164361
-0.015147516 -0.2648895 0.16944577 0.13422793 -0.2495028 0.29640257 -0.08755648 -0.34867275
-0.066023275 0.12401505 0.10001008 -0.47269723 -0.02848085 0.028309114 0.0696574 0.099239856
00000000: f647 373e c9aa 98be ba92 38bd 1b9d 353e
00000010: 736f b6be e5cd c13d c675 b6bd 7450 7fbe
00000020: 96c0 833e 9543 6bbe af23 903e 1742 9cbe
00000030: 0308 c3bd 9b82 6e3e 8e55 a2be ef6e a7bc
00000040: b511 97be c68d 9dbe 2810 0f3e 7197 263d
00000050: 523f 15bd 2043 2a3e b8da 6c3d 0a74 2dbe
00000060: 8976 b8bd 886f 6fbe 7d4e 163e 3480 18bc
00000070: ac9c bd3e 558e 093e ceaf 4cbe 10e6 223d
00000080: 62b1 84be b2c7 17be 4260 993d a869 5abe
00000090: ed5e babd 6b2d 383e bc20 8abe 2cb4 eabd
000000a0: 8f43 a33e eb8f a8be f630 57be 0ea0 88be
000000b0: 6651 13be d4bb 003f 7eb0 5bbe 95cd 06be
000000c0: 492d 78bc 999f 87be 3183 2d3e 0c73 093e
000000d0: a97d 7fbe 14c2 973e d050 b3bd 3c85 b2be
000000e0: 3637 87bd 9afb fd3d 16d2 cc3d 5f05 f2be
000000f0: ac50 e9bc 84e8 e73c 8aa8 8e3d 443e cb3d

flow.flow.transforms.5.alpha_prime f4 [4]
-0.10925042 -0.25286585 0.16389996 0.12153519
00000000: afbe dfbd a277 81be 64d5 273e 71e7 f83d

flow.flow.transforms.5.beta_prime f4 [4]
0.21835375 0.15357828 0.0007374205 0.027850589
00000000: 2098 5f3e a043 1d3e 744f 413a eb26 e43c

flow.flow.transforms.6.x0 f4 [4, 16]
0.0059385807 0.33801737 -0.030453393 -0.15126447 0.08325948 0.2138364 -0.004215249 0.19933282
-0.29651663 0.34828302 -0.20836742 0.45727178 0.21439537 -0.16291223 -0.0708374 -0.088825546
-0.32746926 -0.32958055 -0.17026599 -0.02088748 -0.14371794 -0.059241645 0.2506659 0.11693778
-0.16762605 -0.31574908 0.1978075 -0.19104494 0.47286347 0.076715454 -0.27411732 0.32305175
0.030767888 0.1763415 0.06574278 0.023771025 0.089465834 0.08642718 0.21738434 -0.067128256
-0.05401194 0.23928334 -0.22551394 0.0882786 -0.10258704 -0.09121659 -0.06253179 0.082899354
-0.15771118 0.021016767 -0.16511495 0.00056257297 0.018566264 -0.2783967 -0.35944468 0.2831096
-0.22749461 -0.1474344 -0.3532609 0.35685703 0.04020459 0.0323625 0.3143611 0.005061207
00000000: 6d98 c23b 9d10 ad3e 6579 f9bc 13e5 1abe
00000010: f283 aa3d eef7 5a3e 1220 8abb e71d 4c3e
00000020: 07d1 97be 2752 b23e 455e 55be 871f ea3e
00000030: 768a 5b3e 77d2 26be 3313 91bd 2bea b5bd
00000040: 0daa a7be c8be a8be 355a 2ebe 381c abbc
00000050: cc2a 13be 5ea7 72bd 4857 803e 137d ef3d
00000060: 2aa6 2bbe dda9 a1be 0d8e 4a3e 49a1 43be
00000070: 291b f23e fe1c 9d3d 1b59 8cbe 0a67 a53e
00000080: f00c fc3c de92 343e 27a4 863d 74bb c23c
00000090: dd39 b73d bc00 b13d 009a 5e3e 8a7a 89bd
000000a0: a03b 5dbd b106 753e 20ed 66be 69cb b43d
000000b0: 2719 d2bd c3cf babd ab10 80bd 23c7 a93d
000000c0: 0a7f 21be 5b2b ac3c e513 29be a279 133a
000000d0: 4718 983c 038a 8ebe 2209 b8be bef3 903e
000000e0: 59f4 68be 0bf9 16be 9dde b4be f7b5 b63e
000000f0: 91ad 243d 8a8e 043d f0f3 a03e 7bd8 a53b

flow.flow.transforms.6.alpha_prime f4 [4]
0.20194069 0.10220412 -0.16812162 -0.3267382
00000000: 8ac9 4e3e 6550 d13d 1328 2cbe 3b4a a7be

flow.flow.transforms.6.beta_prime f4 [4]
0.16226208 0.18698733 0.21982968 0.17315732
00000000: 0828 263e 9b79 3f3e 081b 613e 2750 313e

flow.flow.transforms.7.x0 f4 [4, 16]
0.18418346 -0.34497195 -0.23558901 0.0088298265 -0.041990172 0.11552419 0.10486118 -0.02869967
-0.080490276 -0.23997314 0.051670436 -0.23696135 -0.24911268 0.089179456 -0.4029393 -0.2667269
-0.26732802 -0.28231177 0.06754453 0.04278142 0.026218578 0.04260423 0.023623474 -0.099135116
-0.045681316 -0.11444217 0.122302726 0.11345574 0.37110725 0.17041215 -0.16684605 -0.0042108116
-0.009254199 -0.394725 0.1645637 0.16356231 -0.059703384 0.045003977 0.043875113 -0.27147162
0.0055099963 -0.30081102 0.26057193 -0.21500804 0.3887066 0.41245735 0.10636431 -0.070341446
-0.14031726 0.010132531 -0.15992495 0.016630813 0.041924886 -0.3301071 -0.35734782 0.29936922
-0.24775627 -0.17245717 -0.39928135 0.33270448 0.062457778 -0.041527916 0.22561333 -0.004256307
00000000: 979a 3c3e 2aa0 b0be 3f3e 71be faaa 103c
00000010: e3fd 2bbd f297 ec3d 75c1 d63d 921b ebbc
00000020: 16d8 a4bd 85bb 75be 61a4 533d ffa5 72be
00000030: 6517 7fbe b8a3 b63d 0f4e cebe 6e90 88be
00000040: 38df 88be 2b8b 90be c954 8a3d 923b 2f3d
00000050: 58c8 d63c c681 2e3d 0486 c13c 5a07 cbbd
00000060: 551c 3bbd a860 eabd da79 fa3d 7c5b e83d
00000070: c501 be3e 8680 2e3e b1d9 2abe d9fa 89bb
00000080: ed9e 17bc 6519 cabe 6383 283e e17c 273e
00000090: 898b 74bd 1756 383d 64b6 333d 54fe 8abe
000000a0: 338d b43b e703 9abe af69 853e 112b 5cbe
000000b0: 8d04 c73e 9c2d d33e 88d5 d93d 2d0f 90bd
000000c0: 54af 0fbe ea02 263c 5ec3 23be 583d 883c
000000d0: 6eb9 2b3d cc03 a9be 4bf6 b6be ec46 993e
000000e0: d2b3 7dbe 9d98 30be 9b6e ccbe 3e58 aa3e
000000f0: bad3 7f3d 2d19 2abd 2e07 673e 7e78 8bbb

flow.flow.transforms.7.alpha_prime f4 [4]
0.1761155 -0.27021542 0.17867702 -0.33346444
00000000: 9f57 343e ad59 8abe 1cf7 363e dabb aabe

flow.flow.transforms.7.beta_prime f4 [4]
0.26253968 0.115505494 0.04737217 0.07098786
00000000: 9a6b 863e 258e ec3d 5209 423d 1562 913d

flow.flow.transforms.8.x0 f4 [4, 16]
-0.26565006 0.07733048 0.14084543 0.10060696 0.23491322 0.19913085 0.12692271 0.028211208
-0.2834911 -0.06933099 -0.048848223 0.2680204 0.39716473 0.060545523 0.24231187 0.15822047
0.19684748 0.30418572 0.18828492 0.117799856 -0.009990541 -0.09760578 -0.035836894 0.13650686
-0.19512053 0.23916641 -0.33874837 0.17751946 -0.20912224 -0.16193052 0.09944102 0.10071022
0.08113628 0.20836093 0.121164575 0.030909443 0.11204877 0.15879399 0.2250043 -0.14857109
-0.116975896 0.2857903 -0.25371575 0.08554791 -0.128028 -0.13264294 -0.0771992 0.10933258
-0.07821867 0.0857839 -0.17660749 -0.019743087 0.057851005 -0.2174167 -0.34176192 0.15289581
-0.20224589 -0.1854853 -0.38736293 0.32975534 0.082158715 0.06087672 0.32051614 -0.09352067
00000000: 4903 88be 715f 9e3d c939 103e 060b ce3d
00000010: 178d 703e f5e8 4b3e 07f8 013e 311b e73c
00000020: bf25 91be 68fd 8dbd 1315 48bd f839 893e
00000030: 2d59 cb3e 95fe 773d 9a20 783e 8c04 223e
00000040: 6392 493e 3bbe 9b3e c3cd 403e 0d41 f13d
00000050: 5eaf 23bc 8ae5 c7bd b5c9 12bd 74c8 0b3e
00000060: adcd 47be 0ae8 743e 6d70 adbe a9c7 353e
00000070: 2424 56be 1dd1 25be bca7 cb3d 2941 ce3d
00000080: c72a a63d 915c 553e 2225 f83d cd35 fd3c
00000090: d379 e53d e49a 223e 8767 663e 0523 18be
000000a0: 0f91 efbd 1b53 923e 08e7 81be be33 af3d
000000b0: c619 03be 8dd3 07be 9d1a 9ebd c2e9 df3d
000000c0: 1c31 a0bd 78af af3d 98d8 34be 41bc a1bc
000000d0: 2df5 6c3d 7ca2 5ebe 6bfb aebe b890 1c3e
000000e0: 8c19 4fbe dcef 3dbe 6f54 c6be b1d5 a83e
000000f0: d442 a83d de59 793d b11a a43e c487 bfbd

flow.flow.transforms.8.alpha_prime f4 [4]
0.22540547 -0.046439126 0.029930675 -0.08617259
00000000: b1d0 663e f436 3ebd 2d31 f53c 417b b0bd

flow.flow.transforms.8.beta_prime f4 [4]
0.13201226 -0.21691905 0.19287598 0.27938318
00000000: 392e 073e 0720 5ebe 4881 453e 500b 8f3e

flow.flow.transforms.9.x0 f4 [4, 16]
-0.09811566 0.19023006 -0.047993094 0.012152004 0.13182203 0.076844394 0.044296242 0.21135543
-0.18282974 0.23052149 -0.40540606 0.33524665 0.28998262 -0.064000346 0.15208414 0.047663867
-0.39139694 -0.30428526 0.17348443 -0.1949715 -0.20172043 -0.2379298 -0.36241296 0.3135418
0.3717208 -0.2868392 -0.23218025 -0.32384062 0.3560573 -0.21123004 -0.3781171 -0.2984784
0.15288205 0.30014637 0.18848431 0.03336379 0.24114579 0.28220448 0.08861218 0.09340549
-0.09501156 0.36249343 -0.049838096 0.11935593 -0.3271178 0.04023462 -0.20536932 0.12195196
0.040856212 -0.076266676 0.17760405 0.07294357 0.008450193 0.31205392 0.41121802 -0.23184119
0.023885092 0.30056405 0.19135432 -0.16940314 0.0017266544 -0.06336387 -0.15463816 0.11186093
00000000: ddf0 c8bd abcb 423e 6894 44bd 3319 473c
00000010: 5bfc 063e 9860 9d3d fa6f 353d 8f6d 583e
00000020: b837 3bbe d30d 6c3e 6291 cfbe 73a5 ab3e
00000030: 9a78 943e 9d12 83bd f2bb 1b3e 303b 433d
00000040: 2e65 c8be 47cb 9bbe e7a5 313e 9ca6 47be
00000050: cd8f 4ebe dfa3 73be 318e b9be 8d88 a03e
00000060: 3052 be3e 96dc 92be a9c0 6dbe 70ce a5be
00000070: 244d b63e b04c 58be 9198 c1be 29d2 98be
00000080: 1d8d 1c3e c9ac 993e 0802 413e 78a8 083d
00000090: ecee 763e 1b7d 903e 4d7a b53d 614b bf3d
000000a0: 6c95 c2bd bd98 b93e 0823 4cbd e270 f43d
000000b0: fc7b a7be 0fcd 243d 564c 52be f3c1 f93d
000000c0: d858 273d b431 9cbd d6dd 353e 7063 953d
000000d0: ae72 0a3c 88c5 9f3e 2b8b d23e c767 6dbe
000000e0: abaa c33c 88e3 993e 63f2 433e 0478 2dbe
000000f0: e850 e23a ebc4 81bd 7759 1ebe 5817 e53d

flow.flow.transforms.9.alpha_prime f4 [4]
0.16460493 0.20483623 0.18567853 -0.11738609
00000000: 328e 283e 97c0 513e 8322 3e3e 1e68 f0bd

flow.flow.transforms.9.beta_prime f4 [4]
-0.24518181 0.23576939 0.23489317 -0.28923059
00000000: f110 7bbe 886d 713e d687 703e 0816 94be
