saved_experiments/ood_loc/GPN/1/model_3.pt (torch, 759609 bytes, 36 tensors)

input_encoder.0.weight f4 [64, 2879]
0	0xb74a8a14	-1.2072287e-05
1	0x372def14	1.0367268e-05
2	0x381aa2ec	3.6868194e-05
3	0x38eb98fd	0.000112341695
4	0xb833c888	-4.2863685e-05
5	0xb8125db4	-3.489638e-05
6	0x38228747	3.8749797e-05
7	0x380547a1	3.177638e-05
8	0x3844c11e	4.6909896e-05
9	0x380cb93a	3.3551107e-05
10	0xb7ae0281	-2.0743582e-05
11	0xb7981a7a	-1.8132141e-05
12	0x37883910	1.6239035e-05
13	0xb58903b4	-1.0208373e-06
14	0xb824527b	-3.9177463e-05
15	0xb78b1e35	-1.6584157e-05
16	0xb725785a	-9.862788e-06
17	0x36bf276a	5.696832e-06
18	0x38610a01	5.3653497e-05
19	0xb7b5a06b	-2.1651582e-05
20	0xb7c63583	-2.3628358e-05
21	0xb83a047d	-4.4350036e-05
22	0xbb289d92	-0.0025728685
23	0xb6a69240	-4.9642113e-06
24	0x39cb4611	0.0003877138
25	0x389bb699	7.4249874e-05
26	0xb92feded	-0.00016777935
27	0xb882c284	-6.2351144e-05
28	0xb79d733f	-1.8769524e-05
29	0x37a52f7b	1.9691643e-05
30	0xb63c1e84	-2.8031945e-06
31	0xb79126e2	-1.7303453e-05
32	0xb7576228	-1.2837852e-05
33	0x37e70679	2.754036e-05
34	0xb8ad83d4	-8.273838e-05
35	0xb75290f5	-1.2550726e-05
36	0xb6f63876	-7.337944e-06
37	0xb7361790	-1.0853531e-05
38	0xb7981596	-1.8129864e-05
39	0xb768481d	-1.3845068e-05
40	0x37e11f45	2.6836651e-05
41	0x38892c4f	6.540922e-05
42	0x37ef95fe	2.8560866e-05
43	0xb8008b34	-3.064722e-05
44	0x37a5974a	1.9739982e-05
45	0x371e2e4c	9.428313e-06
46	0xb707def1	-8.098535e-06
47	0xb77d8b04	-1.5112342e-05
48	0xb77925fa	-1.4850399e-05
49	0xb83552fa	-4.323104e-05
50	0x38970e7b	7.202938e-05
51	0x38d5c8ca	0.00010194031
52	0xb78ec291	-1.7018321e-05
53	0x384d2926	4.891413e-05
54	0xb8222cd3	-3.8665556e-05
55	0x380c839f	3.3501183e-05
56	0xb83772f5	-4.3737662e-05
57	0x37c5514e	2.352209e-05
58	0xb60efc3a	-2.1306464e-06
59	0x376522c5	1.3657559e-05
60	0x37ef621c	2.8536706e-05
61	0xb80ded8f	-3.3838263e-05
62	0xb700e48f	-7.68261e-06
63	0xb7a36b4e	-1.9481082e-05
64	0xb853e647	-5.0520783e-05
65	0xb8050284	-3.1712014e-05
66	0xb8ac5db0	-8.21905e-05
67	0xb8bfd1c4	-9.1466616e-05
68	0x36d5c394	6.370663e-06
69	0xb8077bd0	-3.2301818e-05
70	0xb90ee9db	-0.00013629293
71	0x389f6e82	7.6022945e-05
72	0x37301205	1.0494613e-05
73	0x37a981f8	2.0206891e-05
74	0x361e0b08	2.3550256e-06
75	0xb86228ac	-5.3920478e-05
76	0xb7d0ff00	-2.4914276e-05
77	0xb8a9ba0e	-8.093203e-05
78	0xb7d49336	-2.534092e-05
79	0x38ce94b5	9.850544e-05
80	0x38b543d0	8.6433836e-05
81	0xb781b1d8	-1.5460813e-05
82	0x3781004f	1.5378142e-05
83	0xb926f538	-0.00015922345
84	0x38867571	6.411493e-05
85	0xb940f566	-0.00018401965
86	0x37811dba	1.539184e-05
87	0x38f485b7	0.00011659733
88	0x378dc812	1.6901675e-05
89	0xb78bb500	-1.6654376e-05
90	0xb85e9ccd	-5.3074957e-05
91	0xb88e5ffa	-6.788965e-05
92	0x398f9eba	0.00027393346
93	0x38a222e6	7.731262e-05
94	0xb7dddd67	-2.6448351e-05
95	0xbbd7a55c	-0.0065809917
96	0xb92e0a6d	-0.00016597817
97	0xb8048ea0	-3.1604082e-05
98	0x3820c26e	3.832805e-05
99	0xb7a445c4	-1.958281e-05
100	0x381fac26	3.806888e-05
101	0xb6c712a2	-5.9328313e-06
102	0xb8948eb2	-7.083769e-05
103	0xb8839ae7	-6.2754196e-05
104	0x38041471	3.149029e-05
105	0xb84d31f3	-4.8922328e-05
106	0x3700be90	7.673763e-06
107	0xb8009927	-3.0660212e-05
108	0x3849bc3e	4.809745e-05
109	0x37b962e4	2.2099768e-05
110	0x379a26e3	1.8376339e-05
111	0xb696baee	-4.49211e-06
112	0xb87bb37e	-6.001023e-05
113	0x355b7f30	8.176894e-07
114	0xb78f30c8	-1.7069644e-05
115	0x38e62001	0.00010973216
116	0x38ad0e6c	8.251969e-05
117	0x37c7086a	2.3726567e-05
118	0xb76bbb5f	-1.4050717e-05
119	0x37e7d6bd	2.7637341e-05
120	0xb80d9704	-3.3757664e-05
121	0x36b3333a	5.3405793e-06
122	0x37ef22eb	2.850728e-05
123	0x37f2e874	2.8956892e-05
124	0x38ccd9c4	9.76804e-05
125	0x37ab03d5	2.0386573e-05
126	0xb73c16e0	-1.1210999e-05
127	0x37ad536a	2.066205e-05
128	0x37f8b4b4	2.964805e-05
129	0x37d0c110	2.4885434e-05
130	0x372b1a1c	1.0198473e-05
131	0x34b95920	3.4523782e-07
132	0x3677f91c	3.695087e-06
133	0x39a85787	0.0003210867
134	0xb818d0f8	-3.643424e-05
135	0x38597689	5.1847226e-05
136	0xbc5a72e9	-0.013333061
137	0x380e1cee	3.388238e-05
138	0xbd061fe5	-0.03274526
139	0x387e1041	6.0573457e-05
140	0x38f620fa	0.000117363365
141	0x383ac4e1	4.4529213e-05
142	0x3825790b	3.9451796e-05
143	0x39b4bb87	0.00034471994
144	0x38457a4c	4.7082358e-05
145	0xb8472cc9	-4.7487007e-05
146	0x3684349c	3.940031e-06
147	0xb6d10819	-6.229628e-06
148	0x38228082	3.8743492e-05
149	0xb8cefd48	-9.870023e-05
150	0x34ee7200	4.44139e-07
151	0x34a8b180	3.1421587e-07
152	0xb7e24f14	-2.6978123e-05
153	0xb736e4f6	-1.09013545e-05
154	0xb84ca1a5	-4.8787933e-05
155	0xb8bf9db6	-9.136966e-05
156	0xb8832737	-6.253871e-05
157	0x37895b31	1.6374137e-05
158	0xb7e61469	-2.742764e-05
159	0xb90fa3be	-0.00013698541
160	0xb81e9f95	-3.7818758e-05
161	0x379a2a35	1.8377885e-05
162	0x385890c2	5.163323e-05
163	0x380b0a83	3.3149972e-05
164	0x373e17e7	1.1330448e-05
165	0x38c9b2eb	9.617753e-05
166	0xb683e446	-3.9306788e-06
167	0xb7e1d6c2	-2.6922095e-05
168	0xb64cdee8	-3.0528117e-06
169	0xb7d27d85	-2.50924e-05
170	0xb846132d	-4.7224738e-05
171	0xb8110c16	-3.458195e-05
172	0x37101a95	8.589258e-06
173	0x38a853a0	8.0264406e-05
174	0xb7da81e6	-2.6048114e-05
175	0x3996215e	0.0002863509
176	0xb8ad374c	-8.259583e-05
177	0x3853ec5b	5.0526443e-05
178	0xb9ea1f3d	-0.00044655232
179	0xb8b28945	-8.51327e-05
180	0x39949799	0.0002834171
181	0x37464712	1.1818267e-05
182	0xb7131483	-8.7666585e-06
183	0xb783446f	-1.5648284e-05
184	0xbc15f1d9	-0.009151899
185	0x383f94b4	4.567644e-05
186	0x383e0b48	4.5310037e-05
187	0xb6c3b1c4	-5.8321475e-06
188	0x37974b96	1.80358e-05
189	0xb6d39e26	-6.306701e-06
190	0x37d77b85	2.5687516e-05
191	0xb7200529	-9.537945e-06
192	0x3763a261	1.3568061e-05
193	0xb86f4c5d	-5.705316e-05
194	0x37e85a7f	2.7698696e-05
195	0x383c1097	4.4838143e-05
196	0x3689f1c4	4.1110634e-06
197	0x377867d8	1.480613e-05
198	0x36a1e300	4.8246e-06
199	0xb8f0bcad	-0.000114792354
200	0x38351a91	4.3178505e-05
201	0xb8192d9e	-3.6520527e-05
202	0xb9b299c0	-0.00034065358
203	0x373b6e18	1.1171702e-05
204	0x3718b710	9.102529e-06
205	0x384b9210	4.8535003e-05
206	0x37f4d430	2.9185874e-05
207	0x381c971b	3.7334026e-05
208	0xb8733022	-5.7980542e-05
209	0x37b98860	2.2117223e-05
210	0xb64c7602	-3.0467058e-06
211	0x3846db12	4.7410904e-05
212	0x381d5e30	3.7519436e-05
213	0x385f9cd0	5.3313386e-05
214	0xb7557789	-1.2723621e-05
215	0xb6f6a0cc	-7.3500905e-06
216	0x378f0086	1.7047172e-05
217	0xb7de4801	-2.6497992e-05
218	0xb9061bff	-0.00012789665
219	0xbb803a3f	-0.0039131935
220	0xb7c220db	-2.3141902e-05
221	0x388c9dfe	6.7051486e-05
222	0x374ed52c	1.232819e-05
223	0xb927d2c3	-0.00016004876
224	0x3852b322	5.0234732e-05
225	0xb809dfeb	-3.2871885e-05
226	0xb5d1ae90	-1.5622518e-06
227	0x36ee56d8	7.1030627e-06
228	0x37700341	1.4305872e-05
229	0xb7dc300b	-2.6248415e-05
230	0x36efbd0b	7.1447625e-06
231	0xb8dcd3dc	-0.000105298794
232	0x3788a1d9	1.628783e-05
233	0x37912940	1.7304556e-05
234	0xb71d34f5	-9.370259e-06
235	0xb7aa7697	-2.0320802e-05
236	0xb84a6c9d	-4.8261707e-05
237	0x36a03644	4.774689e-06
238	0x37b3d988	2.1439759e-05
239	0x38492a3d	4.7961472e-05
240	0x38062d39	3.1990206e-05
241	0xb737cd2e	-1.0955422e-05
242	0x38b10d5a	8.4425046e-05
243	0xb7c6fe0a	-2.3721735e-05
244	0xb8834b1f	-6.260559e-05
245	0x37b32443	2.1355349e-05
246	0xb87fddf1	-6.1003437e-05
247	0x3899a0a4	7.32553e-05
248	0xb7bf4015	-2.2798815e-05
249	0xb947033e	-0.00018979327
250	0xb8403761	-4.5827943e-05
251	0xb7f2858d	-2.8910838e-05
252	0xb78f65f8	-1.7094411e-05
253	0x38303e9a	4.2019972e-05
254	0xb8932ed5	-7.0182294e-05
255	0x3850ad71	4.9752594e-05

input_encoder.0.bias f4 [64]
0	0xbd6ac0b5	-0.057312686
1	0xbd5bf8be	-0.053704016
2	0xbd31505b	-0.043289524
3	0xbd4604aa	-0.04834429
4	0x3d1ba158	0.037995666
5	0x3c88441c	0.01663404
6	0xbce0cf94	-0.027442731
7	0xbb927b1e	-0.004470243
8	0xbc8ff2cb	-0.017571827
9	0x3d0659a5	0.032800335
10	0xbd597a10	-0.053094923
11	0x3c8e3b19	0.017362164
12	0xbd504078	-0.050842732
13	0xbcce185c	-0.0251581
14	0x3ca97e08	0.02068998
15	0x3aefd4c0	0.0018297657
16	0xbd662807	-0.056190517
17	0x3bfc88e0	0.0077067465
18	0xbb3eaa84	-0.0029093334
19	0xbd641321	-0.055682305
20	0xbc3a14e9	-0.011357524
21	0x3b3100f7	0.0027008632
22	0xbd51ee52	-0.05125267
23	0x3b9e0b09	0.004823093
24	0xbd5a673c	-0.05332111
25	0xbce5e5dd	-0.028063709
26	0xbd782cdc	-0.060589656
27	0xbd30cc7c	-0.04316376
28	0xbbb062d4	-0.005382875
29	0xbd345665	-0.044027705
30	0xbabc3466	-0.0014358878
31	0x3bdd5fd3	0.006755808
32	0xbd5c25f6	-0.05374714
33	0xbd634f8e	-0.05549579
34	0x3b869c12	0.0041079605
35	0x3caf739b	0.02141743
36	0x3c93c8e1	0.018040122
37	0xbd3d92dc	-0.046282634
38	0x3c024514	0.00795104
39	0xbd5aaa20	-0.0533849
40	0xbd489e8f	-0.04897934
41	0x3b972241	0.0046122377
42	0xbd34a5ab	-0.044103306
43	0xbd59f5f5	-0.05321308
44	0x3ceab2fb	0.028649798
45	0xba50a575	-0.00079592253
46	0xbd5f6deb	-0.054548185
47	0x3b2b3cb8	0.002612872
48	0xbc02c9ca	-0.007982681
49	0x3cb6cf7e	0.022315737
50	0xbcdc4f2b	-0.026893219
51	0xbbd6590b	-0.0065413765
52	0x3d0dc2b9	0.03460953
53	0x3ad08576	0.0015908915
54	0xbd52fc47	-0.05151012
55	0xbb15bb86	-0.0022847368
56	0x3c231138	0.009952836
57	0xbd508998	-0.05091247
58	0x3cbd9b9d	0.023145491
59	0xbd3c590b	-0.045983355
60	0x3c2f5af6	0.010702839
61	0xbd74399c	-0.059625253
62	0xbd56de4a	-0.052458085
63	0xbb1718c8	-0.0023055542

latent_encoder.weight f4 [16, 64]
0	0x3d9a84c8	0.07544857
1	0x37930956	1.7528113e-05
2	0x3cdbd852	0.026836548
3	0xbd66b920	-0.056328893
4	0xbdb6fb8d	-0.08934698
5	0xbc2c029f	-0.010498672
6	0x3e19a03c	0.15002531
7	0x3e12ab04	0.1432305
8	0x3ddc8800	0.107681274
9	0x3d11b99d	0.035577405
10	0xbdb143aa	-0.08655484
11	0xbdc678ce	-0.096910104
12	0xbdd70e56	-0.10500781
13	0x3e453ac8	0.19260705
14	0xbd7eed07	-0.062237766
15	0xbc889499	-0.01667242
16	0x3dee3e34	0.11632958
17	0x3d73a625	0.05948462
18	0xbde3aaee	-0.111165866
19	0x3daf36c8	0.085553706
20	0x3e3236e7	0.17403756
21	0x3d3fc1b1	0.046815578
22	0x3c19f207	0.009396083
23	0x3e4ccdc0	0.20000362
24	0x3c705614	0.01466896
25	0x3d9b66ef	0.075879924
26	0xb9008984	-0.0001225826
27	0x3d286fa2	0.041122086
28	0xbd0570fd	-0.032578457
29	0x3cdcba09	0.026944177
30	0x3e17cf17	0.14825092
31	0x3d1f1f4d	0.03884821
32	0x389c3aaa	7.449587e-05
33	0x38a65caf	7.9327605e-05
34	0x3e33151e	0.17488524
35	0x3e18354c	0.14864081
36	0xbb135c7f	-0.0022485552
37	0x3aced41f	0.001577977
38	0x3e22b538	0.15889442
39	0xbc1cdaf9	-0.0095736915
40	0xbe0b7bce	-0.13621446
41	0x3dcd4daf	0.100245826
42	0xb8102f3c	-3.4376266e-05
43	0x3b987862	0.0046530226
44	0x3da60984	0.08107284
45	0xbe039ca6	-0.12852725
46	0x3df9b903	0.12193491
47	0x3cf3af9c	0.029746823
48	0x3dc930da	0.09823771
49	0x3d8ef8b7	0.06981032
50	0x3d29d7b8	0.04146549
51	0x3d3c2497	0.045933332
52	0x3e19937a	0.14997664
53	0x3dc60538	0.09668964
54	0x379d9430	1.8784864e-05
55	0x3762faa0	1.3529003e-05
56	0x3d3c8b19	0.04603109
57	0x3cc313a7	0.023813082
58	0x3ddf4bb7	0.10903113
59	0x3dc10d23	0.09426334
60	0x3d4b695f	0.049661037
61	0x3e280504	0.16408163
62	0xbd688375	-0.056765992
63	0x3ccca7ff	0.02498245
64	0x3da925e9	0.08259184
65	0x38f2e78e	0.0001158259
66	0xbcb1d584	-0.021708257
67	0xbd4b59e2	-0.049646266
68	0xbe21af7f	-0.15789603
69	0xbe1ba59b	-0.15199892
70	0xbd63cf04	-0.055617347
71	0xbd1b0de3	-0.03785504
72	0xbb368162	-0.0027848114
73	0x3e1bec16	0.15226778
74	0xbc6f64aa	-0.0146114025
75	0xbe31a17f	-0.17346762
76	0x3d00a0c2	0.03140331
77	0xbdbc75c7	-0.09202152
78	0xbd0c445d	-0.034244884
79	0xbdd7feb1	-0.105466254
80	0xbae3766c	-0.0017354018
81	0x3e010e8f	0.1260321
82	0xbe43dc14	-0.19126922
83	0x3d84f8a8	0.0649274
84	0xbd1d6b3a	-0.038432337
85	0xbd55ae08	-0.052167922
86	0x3b96d0d2	0.00460253
87	0x3d44e5ae	0.048070602
88	0xbc0fa80e	-0.008768095
89	0xbc90361e	-0.01760393
90	0xba5bf83d	-0.00083911774
91	0xbe3dfd05	-0.1855355
92	0xbe83831c	-0.25685966
93	0x3d2d5911	0.04232127
94	0x3ba83316	0.005133043
95	0xbe2c46dd	-0.16823907
96	0x384fdfea	4.9561182e-05
97	0x38013164	3.0801995e-05
98	0x3d0eba8f	0.034845885
99	0x3dbcb1f0	0.092136264
100	0xbe4af545	-0.19820125
101	0xbceafdac	-0.028685413
102	0x3e01c468	0.1267258
103	0xbb1d35af	-0.0023988297
104	0xbd0e52c8	-0.034746915
105	0xbd770582	-0.060307987
106	0xb77fa719	-1.523809e-05
107	0x3d10c2ca	0.035342015
108	0x3d6ab9f8	0.05730626
109	0xbe2cce45	-0.1687556
110	0x3cd47930	0.025936693
111	0xbe80f3b9	-0.25185946
112	0x3e08e3bd	0.13368125
113	0x3e1284e6	0.14308509
114	0xbe6eeaa1	-0.23331691
115	0xbe2b6dea	-0.16741148
116	0xbe7c74c7	-0.24653922
117	0xba458cd9	-0.00075359415
118	0x3811c45a	3.475356e-05
119	0xb64bd580	-3.037363e-06
120	0xbe31dbd5	-0.17369016
121	0x3dc10478	0.094246805
122	0xbc357f46	-0.011077708
123	0xbe7cdc95	-0.2469352
124	0x3dcc47a8	0.09974605
125	0xbd7d89f0	-0.061899126
126	0xbd01bfff	-0.031677242
127	0xbdc7f9d4	-0.09764448
128	0xb92b1efc	-0.00016319373
129	0x37f87b48	2.9621311e-05
130	0xbdb59418	-0.08866137
131	0x3c4bcd94	0.01243915
132	0x3dce6fc9	0.10079915
133	0x3e18f236	0.14936146
134	0xbd9903b7	-0.07471412
135	0xbc47115e	-0.012150137
136	0xbe3aa6e8	-0.18227732
137	0x3dc69899	0.096970744
138	0x3cf5c762	0.0300023
139	0x3c50b82a	0.012739221
140	0x3bd9e638	0.0066497587
141	0x3dad015a	0.084475234
142	0x3d6d82bf	0.057986017
143	0x3c797adc	0.015227046
144	0xbbd7fe60	-0.006591603
145	0xbd231bc0	-0.039821386
146	0x3e03c876	0.12869439
147	0x3c413d00	0.011794329
148	0xbdae6323	-0.085150026
149	0x3e3c95df	0.18416546
150	0x3c224e55	0.009906371
151	0xbe1a1729	-0.15047897
152	0xbc84ea27	-0.016224934
153	0x3e414a0e	0.18875906
154	0x36e5d9d4	6.8500904e-06
155	0x3e74f6b2	0.23922232
156	0x3d8b41f6	0.067996904
157	0xbe2087ea	-0.15676847
158	0xbddf5ef3	-0.10906782
159	0x3e76e980	0.2411251
160	0x384486da	4.685563e-05
161	0xb9a600a1	-0.00031662456
162	0xbe32650f	-0.17421363
163	0xbe2fe1db	-0.17176001
164	0x3e0c50f4	0.13702756
165	0x3d83353d	0.06406639
166	0xbcfe7794	-0.031062879
167	0xb8a08b19	-7.6553035e-05
168	0xbddad09d	-0.10684321
169	0xbe084221	-0.13306476
170	0x388fbb13	6.853617e-05
171	0xbc08177f	-0.008306383
172	0xbdc1db4b	-0.09465655
173	0x3e13e692	0.14443424
174	0x3ca33aa0	0.019925416
175	0x3e120bcb	0.14262311
176	0xbd979e1c	-0.07403204
177	0xbe3cf329	-0.18452133
178	0x3e2be37b	0.16785996
179	0x3e6ec375	0.23316748
180	0xbdab6418	-0.08368701
181	0xbe2eba63	-0.17063288
182	0xb7d002ab	-2.4796775e-05
183	0xb7ba3679	-2.2198294e-05
184	0x3dcd76fa	0.100324586
185	0x3d3d0a83	0.046152603
186	0x3cb469f6	0.022023182
187	0x3e17ede8	0.14836848
188	0xbbe3562d	-0.006937763
189	0x3cd9f1c2	0.026604537
190	0x3b6e51d6	0.0036364696
191	0x3e85ec8d	0.26157036
192	0xba7c1af1	-0.00096170517
193	0xb864f921	-5.4591455e-05
194	0x3eb52ed3	0.35387287
195	0xbc5b128b	-0.01337112
196	0xbe958abc	-0.29207408
197	0xbeb97136	-0.36219186
198	0x3e9eec65	0.3103973
199	0xbea77eae	-0.32713836
200	0x3ecee586	0.40409487
201	0xbebc1e4e	-0.3674187
202	0x3ce09d1d	0.027418667
203	0xbe7be57c	-0.2459926
204	0x39ef2f8f	0.00045621066
205	0x3e9eb610	0.30998278
206	0xbebc2802	-0.36749274
207	0xbeacce20	-0.3375101
208	0x3cb2d951	0.02183214
209	0xbeaca3a4	-0.33718598
210	0xbdbbc033	-0.091675185
211	0x3b6efa59	0.0036465137
212	0x3e5718ce	0.21005556
213	0x3e91cfca	0.28478843
214	0xbbb0c067	-0.00539403
215	0x3bbfa051	0.0058479686
216	0x3c0b2fb4	0.00849526
217	0x3e90bcd9	0.2826908
218	0xb8d327b7	-0.000100686615
219	0x3e19d30a	0.15021911
220	0xbe52b327	-0.20576154
221	0x3ec3eda4	0.38267243
222	0xbdd1ac41	-0.10237933
223	0xbe1eaff6	-0.15496811
224	0x38a44835	7.833579e-05
225	0xb88e74e6	-6.792862e-05
226	0x3de83786	0.11338715
227	0x3e86adfb	0.26304612
228	0xbe6f0bb5	-0.2334431
229	0x3d537526	0.051625393
230	0xbe9ce900	-0.30646515
231	0xbabfae0d	-0.0014624015
232	0x3b800958	0.003907364
233	0x3eb2010e	0.3476643
234	0x38a6d3a7	7.95492e-05
235	0x3da52c29	0.080650635
236	0xbeae5869	-0.34051827
237	0xbe9ee5a3	-0.31034574
238	0x3c536a7f	0.012903809
239	0xbe957d81	-0.29197314
240	0xbe9a5caa	-0.30148822
241	0xbe436ea4	-0.19085175
242	0x3c92ed12	0.01793531
243	0x3e6a6fa2	0.22894147
244	0x3debf77a	0.11521812
245	0x3ec0ac31	0.37631372
246	0xb823fadb	-3.9095856e-05
247	0x370260a0	7.771101e-06
248	0xbec04380	-0.37551498
249	0xbdea2472	-0.11432733
250	0xbee69174	-0.45032847
251	0x3ec1fb0d	0.3788685
252	0xbede00d9	-0.43360022
253	0x3de2765a	0.1105773
254	0xb8b49b6a	-8.612017e-05
255	0x3cc6f1f8	0.024285302

latent_encoder.bias f4 [16]
0	0xbd89ead2	-0.067342415
1	0xbba0706d	-0.0048962147
2	0x3d016d72	0.031598516
3	0x3d1135ce	0.035451703
4	0xbcb71f69	-0.022353845
5	0x3dac2401	0.08405305
6	0xbdedff64	-0.116209775
7	0xbd8ebc61	-0.06969524
8	0xbd1c34fb	-0.038136464
9	0x3cbd65e4	0.023119874
10	0xbcc0e1cf	-0.023545174
11	0xbd603ab9	-0.054743502
12	0x3d3a1e3c	0.04543899
13	0x3cecbd76	0.028898936
14	0x3d65cc59	0.056103084
15	0x3dca3e43	0.09875157

flow.flow.mean f4 [4, 16]
0	0x00000000	0.0
1	0x00000000	0.0
2	0x00000000	0.0
3	0x00000000	0.0
4	0x00000000	0.0
5	0x00000000	0.0
6	0x00000000	0.0
7	0x00000000	0.0
8	0x00000000	0.0
9	0x00000000	0.0
10	0x00000000	0.0
11	0x00000000	0.0
12	0x00000000	0.0
13	0x00000000	0.0
14	0x00000000	0.0
15	0x00000000	0.0
16	0x00000000	0.0
17	0x00000000	0.0
18	0x00000000	0.0
19	0x00000000	0.0
20	0x00000000	0.0
21	0x00000000	0.0
22	0x00000000	0.0
23	0x00000000	0.0
24	0x00000000	0.0
25	0x00000000	0.0
26	0x00000000	0.0
27	0x00000000	0.0
28	0x00000000	0.0
29	0x00000000	0.0
30	0x00000000	0.0
31	0x00000000	0.0
32	0x00000000	0.0
33	0x00000000	0.0
34	0x00000000	0.0
35	0x00000000	0.0
36	0x00000000	0.0
37	0x00000000	0.0
38	0x00000000	0.0
39	0x00000000	0.0
40	0x00000000	0.0
41	0x00000000	0.0
42	0x00000000	0.0
43	0x00000000	0.0
44	0x00000000	0.0
45	0x00000000	0.0
46	0x00000000	0.0
47	0x00000000	0.0
48	0x00000000	0.0
49	0x00000000	0.0
50	0x00000000	0.0
51	0x00000000	0.0
52	0x00000000	0.0
53	0x00000000	0.0
54	0x00000000	0.0
55	0x00000000	0.0
56	0x00000000	0.0
57	0x00000000	0.0
58	0x00000000	0.0
59	0x00000000	0.0
60	0x00000000	0.0
61	0x00000000	0.0
62	0x00000000	0.0
63	0x00000000	0.0

flow.flow.cov f4 [4, 16, 16]
0	0x3f800000	1.0
1	0x00000000	0.0
2	0x00000000	0.0
3	0x00000000	0.0
4	0x00000000	0.0
5	0x00000000	0.0
6	0x00000000	0.0
7	0x00000000	0.0
8	0x00000000	0.0
9	0x00000000	0.0
10	0x00000000	0.0
11	0x00000000	0.0
12	0x00000000	0.0
13	0x00000000	0.0
14	0x00000000	0.0
15	0x00000000	0.0
16	0x00000000	0.0
17	0x3f800000	1.0
18	0x00000000	0.0
19	0x00000000	0.0
20	0x00000000	0.0
21	0x00000000	0.0
22	0x00000000	0.0
23	0x00000000	0.0
24	0x00000000	0.0
25	0x00000000	0.0
26	0x00000000	0.0
27	0x00000000	0.0
28	0x00000000	0.0
29	0x00000000	0.0
30	0x00000000	0.0
31	0x00000000	0.0
32	0x00000000	0.0
33	0x00000000	0.0
34	0x3f800000	1.0
35	0x00000000	0.0
36	0x00000000	0.0
37	0x00000000	0.0
38	0x00000000	0.0
39	0x00000000	0.0
40	0x00000000	0.0
41	0x00000000	0.0
42	0x00000000	0.0
43	0x00000000	0.0
44	0x00000000	0.0
45	0x00000000	0.0
46	0x00000000	0.0
47	0x00000000	0.0
48	0x00000000	0.0
49	0x00000000	0.0
50	0x00000000	0.0
51	0x3f800000	1.0
52	0x00000000	0.0
53	0x00000000	0.0
54	0x00000000	0.0
55	0x00000000	0.0
56	0x00000000	0.0
57	0x00000000	0.0
58	0x00000000	0.0
59	0x00000000	0.0
60	0x00000000	0.0
61	0x00000000	0.0
62	0x00000000	0.0
63	0x00000000	0.0
64	0x00000000	0.0
65	0x00000000	0.0
66	0x00000000	0.0
67	0x00000000	0.0
68	0x3f800000	1.0
69	0x00000000	0.0
70	0x00000000	0.0
71	0x00000000	0.0
72	0x00000000	0.0
73	0x00000000	0.0
74	0x00000000	0.0
75	0x00000000	0.0
76	0x00000000	0.0
77	0x00000000	0.0
78	0x00000000	0.0
79	0x00000000	0.0
80	0x00000000	0.0
81	0x00000000	0.0
82	0x00000000	0.0
83	0x00000000	0.0
84	0x00000000	0.0
85	0x3f800000	1.0
86	0x00000000	0.0
87	0x00000000	0.0
88	0x00000000	0.0
89	0x00000000	0.0
90	0x00000000	0.0
91	0x00000000	0.0
92	0x00000000	0.0
93	0x00000000	0.0
94	0x00000000	0.0
95	0x00000000	0.0
96	0x00000000	0.0
97	0x00000000	0.0
98	0x00000000	0.0
99	0x00000000	0.0
100	0x00000000	0.0
101	0x00000000	0.0
102	0x3f800000	1.0
103	0x00000000	0.0
104	0x00000000	0.0
105	0x00000000	0.0
106	0x00000000	0.0
107	0x00000000	0.0
108	0x00000000	0.0
109	0x00000000	0.0
110	0x00000000	0.0
111	0x00000000	0.0
112	0x00000000	0.0
113	0x00000000	0.0
114	0x00000000	0.0
115	0x00000000	0.0
116	0x00000000	0.0
117	0x00000000	0.0
118	0x00000000	0.0
119	0x3f800000	1.0
120	0x00000000	0.0
121	0x00000000	0.0
122	0x00000000	0.0
123	0x00000000	0.0
124	0x00000000	0.0
125	0x00000000	0.0
126	0x00000000	0.0
127	0x00000000	0.0
128	0x00000000	0.0
129	0x00000000	0.0
130	0x00000000	0.0
131	0x00000000	0.0
132	0x00000000	0.0
133	0x00000000	0.0
134	0x00000000	0.0
135	0x00000000	0.0
136	0x3f800000	1.0
137	0x00000000	0.0
138	0x00000000	0.0
139	0x00000000	0.0
140	0x00000000	0.0
141	0x00000000	0.0
142	0x00000000	0.0
143	0x00000000	0.0
144	0x00000000	0.0
145	0x00000000	0.0
146	0x00000000	0.0
147	0x00000000	0.0
148	0x00000000	0.0
149	0x00000000	0.0
150	0x00000000	0.0
151	0x00000000	0.0
152	0x00000000	0.0
153	0x3f800000	1.0
154	0x00000000	0.0
155	0x00000000	0.0
156	0x00000000	0.0
157	0x00000000	0.0
158	0x00000000	0.0
159	0x00000000	0.0
160	0x00000000	0.0
161	0x00000000	0.0
162	0x00000000	0.0
163	0x00000000	0.0
164	0x00000000	0.0
165	0x00000000	0.0
166	0x00000000	0.0
167	0x00000000	0.0
168	0x00000000	0.0
169	0x00000000	0.0
170	0x3f800000	1.0
171	0x00000000	0.0
172	0x00000000	0.0
173	0x00000000	0.0
174	0x00000000	0.0
175	0x00000000	0.0
176	0x00000000	0.0
177	0x00000000	0.0
178	0x00000000	0.0
179	0x00000000	0.0
180	0x00000000	0.0
181	0x00000000	0.0
182	0x00000000	0.0
183	0x00000000	0.0
184	0x00000000	0.0
185	0x00000000	0.0
186	0x00000000	0.0
187	0x3f800000	1.0
188	0x00000000	0.0
189	0x00000000	0.0
190	0x00000000	0.0
191	0x00000000	0.0
192	0x00000000	0.0
193	0x00000000	0.0
194	0x00000000	0.0
195	0x00000000	0.0
196	0x00000000	0.0
197	0x00000000	0.0
198	0x00000000	0.0
199	0x00000000	0.0
200	0x00000000	0.0
201	0x00000000	0.0
202	0x00000000	0.0
203	0x00000000	0.0
204	0x3f800000	1.0
205	0x00000000	0.0
206	0x00000000	0.0
207	0x00000000	0.0
208	0x00000000	0.0
209	0x00000000	0.0
210	0x00000000	0.0
211	0x00000000	0.0
212	0x00000000	0.0
213	0x00000000	0.0
214	0x00000000	0.0
215	0x00000000	0.0
216	0x00000000	0.0
217	0x00000000	0.0
218	0x00000000	0.0
219	0x00000000	0.0
220	0x00000000	0.0
221	0x3f800000	1.0
222	0x00000000	0.0
223	0x00000000	0.0
224	0x00000000	0.0
225	0x00000000	0.0
226	0x00000000	0.0
227	0x00000000	0.0
228	0x00000000	0.0
229	0x00000000	0.0
230	0x00000000	0.0
231	0x00000000	0.0
232	0x00000000	0.0
233	0x00000000	0.0
234	0x00000000	0.0
235	0x00000000	0.0
236	0x00000000	0.0
237	0x00000000	0.0
238	0x3f800000	1.0
239	0x00000000	0.0
240	0x00000000	0.0
241	0x00000000	0.0
242	0x00000000	0.0
243	0x00000000	0.0
244	0x00000000	0.0
245	0x00000000	0.0
246	0x00000000	0.0
247	0x00000000	0.0
248	0x00000000	0.0
249	0x00000000	0.0
250	0x00000000	0.0
251	0x00000000	0.0
252	0x00000000	0.0
253	0x00000000	0.0
254	0x00000000	0.0
255	0x3f800000	1.0

flow.flow.transforms.0.x0 f4 [4, 16]
0	0x3dab926a	0.08377536
1	0xbd1f8cc2	-0.038952596
2	0xbde90690	-0.11378205
3	0x3eadd39e	0.33950514
4	0x3e2fa82d	0.17153998
5	0x3d66a390	0.05630833
6	0xbcb32810	-0.02186969
7	0x3e12bff4	0.14331037
8	0x3dc122ce	0.094304666
9	0xbe3a22de	-0.18177363
10	0x3e86b4fb	0.26309952
11	0xbd9d9f56	-0.076964065
12	0xbd5f4fe8	-0.054519564
13	0xbe38713c	-0.18011945
14	0xbe3e544e	-0.18586847
15	0x3b94e069	0.0045433533
16	0x3e475891	0.19467379
17	0x3dcac49e	0.09900783
18	0xbdf7cdcc	-0.120997995
19	0xbe71f21f	-0.23627518
20	0x3d9de187	0.077090316
21	0xbd31934f	-0.043353375
22	0x3e8a1b87	0.26974127
23	0x3e0b3289	0.13593496
24	0x3e3ebf78	0.18627727
25	0x3dc2bf9c	0.09509203
26	0xbe5a6dfa	-0.21331015
27	0x3e427ae2	0.18992189
28	0xbe394dab	-0.18096034
29	0xbee2ae7b	-0.44273743
30	0xbc8b2bf9	-0.016988741
31	0xbea10a23	-0.31453046
32	0xbe0ccb36	-0.13749394
33	0xbe2241a6	-0.15845355
34	0x3e3ef060	0.18646383
35	0xbcd2ac6a	-0.025716979
36	0x3db46f1c	0.08810255
37	0x3e68975c	0.22713989
38	0xbd4b174f	-0.049582776
39	0xbe21d63e	-0.15804383
40	0xbd87fe72	-0.066403285
41	0x3e4ac39f	0.19801186
42	0xbbc8388f	-0.006110258
43	0xbd93cbc1	-0.07216597
44	0x3e3bd885	0.18344314
45	0x3e61a782	0.22036555
46	0x3bfb0a7d	0.0076611624
47	0x3e8591fe	0.26087946
48	0x3e148d43	0.14507012
49	0xbe5e45a9	-0.2170626
50	0xbec0338a	-0.3753932
51	0xbc888684	-0.016665705
52	0x3eb189ee	0.34675545
53	0x3ea0e951	0.31428006
54	0x3e1b05c8	0.15138924
55	0x3e86a302	0.2629624
56	0x3e3d3d7c	0.18480486
57	0xbeb66bcb	-0.35629115
58	0xbdd9da95	-0.10637394
59	0x3ea1a172	0.31568485
60	0xbedb4012	-0.4282232
61	0x3dd8b208	0.10580832
62	0x3da317b2	0.07963504
63	0xbd9feed0	-0.07809222

flow.flow.transforms.0.alpha_prime f4 [4]
0	0xbdd994e5	-0.106241025
1	0x3dc5e269	0.09662325
2	0x3e8e819e	0.27833265
3	0x3e2f71c7	0.17133246

flow.flow.transforms.0.beta_prime f4 [4]
0	0x3e915394	0.28384078
1	0xbc165c0b	-0.009177218
2	0xbe46ef9e	-0.19427344
3	0xbd39e8a0	-0.045387864

flow.flow.transforms.1.x0 f4 [4, 16]
0	0x3daeb14b	0.0852991
1	0xbde2b538	-0.11069721
2	0x3c1a3956	0.009413084
3	0x3eb9a040	0.36255074
4	0x3e9810a3	0.29700193
5	0x3e3727d0	0.17886281
6	0xbcef3214	-0.029198684
7	0x3e6efa61	0.233377
8	0x3e295469	0.16536106
9	0xbe7fbfb0	-0.24975467
10	0x3d68a597	0.056798544
11	0xbd80f013	-0.062957905
12	0xbc8323ce	-0.016008284
13	0xbe3a981c	-0.18222088
14	0xbe78da18	-0.24301946
15	0x3d2cb836	0.042167865
16	0x3c37491f	0.011186867
17	0xbe1850cd	-0.14874573
18	0xbe093c1d	-0.13401838
19	0x3c2331ae	0.009960575
20	0xbe2e56ce	-0.17025301
21	0xbe90212d	-0.2815031
22	0x3e2558d6	0.1614717
23	0x3db4df82	0.08831693
24	0x3e067b39	0.13132943
25	0xbe325b25	-0.17417581
26	0xbd13b963	-0.03606547
27	0xbd578dfe	-0.05262565
28	0xbe2106b8	-0.15725219
29	0xbe9f600d	-0.31127968
30	0x3d728364	0.059207335
31	0xbe79179d	-0.24325414
32	0x3e2dbfe8	0.16967738
33	0x3d95858a	0.07300861
34	0xbd4007c4	-0.046882406
35	0xbebb0962	-0.36530596
36	0xbdca13d7	-0.098670654
37	0xbee85f43	-0.4538518
38	0x3ec17abb	0.37788948
39	0x3e101cc3	0.14073472
40	0xbd434124	-0.047669545
41	0xbeacca82	-0.3374825
42	0xbd4f07ce	-0.050544553
43	0x3eb0ee0d	0.34556618
44	0xbec92701	-0.3928757
45	0xbea20ce8	-0.31650472
46	0xbdb0e59b	-0.08637544
47	0xbec95ab2	-0.39327008
48	0x3e26bd3f	0.16283129
49	0x3d9caf91	0.07650674
50	0x3d02dd1b	0.031949144
51	0x3ec247fe	0.3794555
52	0x3de4310d	0.11142168
53	0x3e8e688e	0.27814144
54	0xbdb1b0af	-0.08676278
55	0x3e0bcefa	0.13653174
56	0xbe134014	-0.14379913
57	0xbe8e6c44	-0.27816975
58	0xbc49231c	-0.012276437
59	0xbda95043	-0.08267262
60	0xbcff3bd9	-0.031156467
61	0x3da38a59	0.07985372
62	0xbe16d27d	-0.14728732
63	0xbe22837f	-0.15870474

flow.flow.transforms.1.alpha_prime f4 [4]
0	0xbe81d463	-0.2535735
1	0x3dbcfe36	0.092281744
2	0xbea56a3f	-0.32307622
3	0x3de7450c	0.112924665

flow.flow.transforms.1.beta_prime f4 [4]
0	0xbd8394d7	-0.06424873
1	0xbe1bb85d	-0.15207048
2	0xbdb51de9	-0.088435955
3	0xbe6510b6	-0.22369656

flow.flow.transforms.2.x0 f4 [4, 16]
0	0xbeae01a2	-0.3398562
1	0xbe1b690c	-0.15176791
2	0x3e677566	0.22603378
3	0x3d76ea6c	0.060282156
4	0x3cd2e9d4	0.025746264
5	0x3cc9c55e	0.024630245
6	0x3e8a3c77	0.26999256
7	0xbde4c19f	-0.11169743
8	0x3e5b4261	0.2141204
9	0x3ea135f5	0.31486478
10	0xbdb73be0	-0.08946967
11	0xbe80987b	-0.25116333
12	0x3e992df1	0.29917863
13	0x3e4ae84f	0.19815181
14	0x3ea0e4e1	0.3142462
15	0xbe6f54f6	-0.23372254
16	0x3caa76d6	0.020808619
17	0xbe5369d3	-0.20645837
18	0x3e8cfb5b	0.2753552
19	0x3e8456b5	0.25847402
20	0x3e8f1dd4	0.27952445
21	0x3ef7d95f	0.48408028
22	0xbecc1f08	-0.39867425
23	0xbe665936	-0.22494969
24	0xbea64066	-0.32471007
25	0x3e3beb26	0.18351421
26	0xbda49031	-0.08035315
27	0xbe0f8dfd	-0.14019008
28	0x3e65bd8d	0.22435589
29	0x3ea48d42	0.3213902
30	0xbd86742f	-0.06565129
31	0x3ecf46a6	0.40483588
32	0x3db0231e	0.08600448
33	0xbdac86da	-0.084241584
34	0x3da4b107	0.08041578
35	0xbe953cb9	-0.2914789
36	0xbe2f8632	-0.17141035
37	0xbebed0da	-0.37268716
38	0x3e817d8f	0.25291106
39	0x3e0bc855	0.1365064
40	0xbd339fe9	-0.043853674
41	0xbe9a794d	-0.3017067
42	0xbca17e5a	-0.01971357
43	0x3e9f7fb6	0.31152123
44	0xbeb2570a	-0.3483203
45	0xbe15c6c5	-0.14626606
46	0xbdd75e41	-0.105160244
47	0xbe429159	-0.19000758
48	0x3dfe069f	0.124036066
49	0x3ec912ac	0.39272058
50	0xbe938d4b	-0.28818735
51	0x3ec15e9c	0.37767494
52	0x3e10fd56	0.1415914
53	0xbde7cda2	-0.11318518
54	0x3e6eee8e	0.23333189
55	0x3e1eb2a0	0.15497828
56	0x3d507b06	0.050898574
57	0xbd83a5b8	-0.06428093
58	0x3f0a565a	0.5403801
59	0xbe2c1e7c	-0.16808504
60	0xbeacb9b9	-0.33735445
61	0xbe94bb65	-0.2904922
62	0xbdbcbf26	-0.09216146
63	0x3d81fb03	0.06346705

flow.flow.transforms.2.alpha_prime f4 [4]
0	0xbd866e47	-0.065640025
1	0x3b00dbf4	0.0019662352
2	0xbe848289	-0.2588084
3	0x3d79c9f8	0.060983628

flow.flow.transforms.2.beta_prime f4 [4]
0	0xbe3a5a2f	-0.18198465
1	0x3def7d3f	0.11693811
2	0x3e71cef3	0.23614101
3	0xbe47bdde	-0.19506022

flow.flow.transforms.3.x0 f4 [4, 16]
0	0x3e177429	0.14790405
1	0xbe010a8b	-0.12601678
2	0x3cb17eb6	0.021666866
3	0x3edb0a00	0.42781067
4	0x3e819b27	0.25313684
5	0x3ddf46f7	0.10902207
6	0xbd96cb15	-0.073629536
7	0x3e3523ef	0.17689489
8	0x3dd9463c	0.10609099
9	0xbe649199	-0.22321166
10	0x3e705d09	0.2347299
11	0xbd58fe6b	-0.052977007
12	0xbdb44e43	-0.0880399
13	0xbe41d90b	-0.18930452
14	0xbe86ffe5	-0.26367107
15	0x3d3e256e	0.046422414
16	0x3c1a2253	0.009407598
17	0xbe1afaf2	-0.1513479
18	0x3e73ca0a	0.2380754
19	0x3e7bd95b	0.24594633
20	0x3e61ad8e	0.22038862
21	0x3ed99339	0.42495134
22	0xbeabfea3	-0.3359271
23	0xbe5eb4af	-0.21748613
24	0xbe7e12c2	-0.24811843
25	0x3d8a7eb0	0.06762445
26	0xbe1882a8	-0.14893591
27	0xbd6641c7	-0.056215074
28	0x3e52f322	0.2060056
29	0x3e9a28cf	0.3010926
30	0xbdcbbc39	-0.0994801
31	0x3eb87dac	0.3603338
32	0x3e5303fa	0.20606986
33	0x3ec6efc5	0.38854805
34	0x3b8c580f	0.0042829583
35	0x3d9c51b0	0.07632768
36	0xbeddafeb	-0.43298277
37	0x3db0d1d7	0.08633774
38	0x3e671846	0.22567853
39	0xbe47a381	-0.19495966
40	0x3d152a9c	0.03641759
41	0x3dddcdcc	0.10830268
42	0x3dd8c030	0.10583532
43	0xbc635abe	-0.013876615
44	0xbeb3bb39	-0.35103777
45	0xbee6d7d8	-0.4508655
46	0xbd90bd5a	-0.07067366
47	0x3e3cff5a	0.18456784
48	0xbd9858ce	-0.07438813
49	0xbdcc90bd	-0.09988544
50	0x3e0bbc96	0.13646159
51	0xbe707b0b	-0.23484437
52	0xbe47ccfc	-0.19511789
53	0xbda1e5cf	-0.07905161
54	0xbce3f92c	-0.027828775
55	0xbe3829b7	-0.17984663
56	0xbb501b7a	-0.0031754659
57	0x3e0c50c3	0.13702683
58	0xbe830c1d	-0.2559518
59	0xbe1ef597	-0.15523373
60	0x3e03f11a	0.12884942
61	0x3dee5f5c	0.11639282
62	0x3e91acc5	0.28452125
63	0x3e19efe8	0.15032923

flow.flow.transforms.3.alpha_prime f4 [4]
0	0xbe2c0d46	-0.16801938
1	0xbd0f5d12	-0.03500087
2	0xbdf63e72	-0.12023629
3	0xbe9c4a93	-0.30525646

flow.flow.transforms.3.beta_prime f4 [4]
0	0x3e7caca0	0.24675226
1	0x3e8d88d0	0.27643442
2	0xbb05b30e	-0.0020400914
3	0x3eabc93a	0.3355196

flow.flow.transforms.4.x0 f4 [4, 16]
0	0x3db6ae04	0.089199096
1	0xbcfb3d27	-0.030668808
2	0xbe152e4d	-0.14568444
3	0x3ec2b61a	0.38029557
4	0x3e569859	0.20956554
5	0x3d8036a1	0.0626042
6	0xbbbad8ab	-0.0057020984
7	0x3de3075f	0.1108539
8	0x3db06077	0.08612149
9	0xbe2d33d5	-0.16914304
10	0x3e006613	0.12538938
11	0xbd9330e2	-0.07187058
12	0xbd1dbf37	-0.038512435
13	0xbe46da12	-0.19419125
14	0xbe81dbd5	-0.2536303
15	0x3c653481	0.013989569
16	0x3deb3f69	0.11486704
17	0xbd16af56	-0.036788307
18	0xbda977a8	-0.08274776
19	0xbe646b22	-0.22306493
20	0xbe3503e0	-0.1767726
21	0xbeacba12	-0.3373571
22	0x3e334252	0.17505768
23	0x3cd00d25	0.025396893
24	0x3e0fb127	0.14032422
25	0xbe104b09	-0.14091124
26	0xbe188e16	-0.14897951
27	0xb9fae8d8	-0.00047857198
28	0xbdbf2966	-0.09334068
29	0xbd814536	-0.06312029
30	0x3dedfab8	0.116200864
31	0xbe617cad	-0.22020216
32	0x3e142554	0.14467365
33	0xbe360613	-0.17775755
34	0x3e3812be	0.179759
35	0xbe2e2c2a	-0.17009035
36	0x3e98b398	0.2982452
37	0x3e34887b	0.17630188
38	0xbdb75822	-0.08952357
39	0xbdd65813	-0.104660176
40	0x3d8fa134	0.07013169
41	0x3ea79608	0.32731652
42	0xbdc47955	-0.09593455
43	0xbe9a47a9	-0.30132797
44	0x3e9b208a	0.30298263
45	0xbcea3ce1	-0.028593482
46	0xbe8076b3	-0.2509056
47	0x3e1bac09	0.15202345
48	0x3e910423	0.2832347
49	0xbe502256	-0.20325598
50	0xbecaf595	-0.3964049
51	0xbd87ffe3	-0.066406034
52	0x3e9356cc	0.28777158
53	0xbd5b61d6	-0.0535601
54	0xbe3b4405	-0.18287666
55	0xbe45be58	-0.19310892
56	0xbe660b9c	-0.22465366
57	0xbece0026	-0.40234488
58	0xbde8834f	-0.1135317
59	0xbdf7c753	-0.12098565
60	0xbd8aad47	-0.06771331
61	0xbee40dc5	-0.44541755
62	0x3dbb06c4	0.0913215
63	0xbe10b674	-0.141321

flow.flow.transforms.4.alpha_prime f4 [4]
0	0xbe1ccad1	-0.15311743
1	0x3e3d653b	0.18495648
2	0x3e554b14	0.20829421
3	0xbcc5da45	-0.02415193

flow.flow.transforms.4.beta_prime f4 [4]
0	0x3e75a6b3	0.23989372
1	0x3b92e15f	0.0044824327
2	0x3e21a345	0.15784939
3	0xbd9cbf7b	-0.076537095

flow.flow.transforms.5.x0 f4 [4, 16]
0	0x3dbee382	0.093207374
1	0xbbe47fb7	-0.0069732326
2	0xbe39c333	-0.18140869
3	0x3ea18f99	0.3155487
4	0x3e39d1ba	0.1814641
5	0x3da55883	0.08073523
6	0xbd1117cd	-0.03542309
7	0x3df05ea9	0.11736805
8	0x3e237d06	0.15965661
9	0xbe1259ec	-0.14292115
10	0x3e33e4cd	0.1756775
11	0xbce2d3d0	-0.02768889
12	0xbe080c4b	-0.1328594
13	0xbe3b755e	-0.18306491
14	0xbe7eeec0	-0.24895763
15	0xbd318bc2	-0.043346174
16	0x3da909cd	0.082538225
17	0xbe468d52	-0.19389847
18	0x3e4f037e	0.20216176
19	0x3e6eb84f	0.23312496
20	0x3e267de2	0.16258958
21	0x3ea98f18	0.33116984
22	0xbeb57d92	-0.35447365
23	0xbe6b1396	-0.2295669
24	0xbe53ddf4	-0.20690137
25	0x3e52d897	0.20590435
26	0xbdb014ad	-0.085976936
27	0xbd4f89b5	-0.050668437
28	0x3e3cb7f7	0.18429552
29	0x3e93a291	0.28834966
30	0x3c87ddb8	0.016585216
31	0x3eb2cea4	0.3492328
32	0x3e02b20b	0.1276323
33	0x3e1de2df	0.15418576
34	0x3b9293d4	0.004473189
35	0xbe9c970a	-0.30583984
36	0x3d0e2f35	0.03471299
37	0xbec9ebf3	-0.39437827
38	0x3e8b3645	0.27189842
39	0x3e1bcb83	0.15214352
40	0x3cc5f8b4	0.024166442
41	0xbe9ae9cf	-0.30256507
42	0xbdf5ccbd	-0.12001941
43	0x3ea76ccf	0.32700202
44	0xbe30281d	-0.17202802
45	0xbecd5841	-0.40106395
46	0xbd8e91f4	-0.06961432
47	0xbe227b88	-0.15867436
48	0x3e78a46b	0.2428147
49	0xbd1ca1a3	-0.038240086
50	0xbe70e039	-0.23523034
51	0x3ec3a699	0.3821304
52	0x3e6258c1	0.2210417
53	0x3e44fb46	0.19236478
54	0x3df925ff	0.1216545
55	0x3e4bc4db	0.19899313
56	0x3e1fc1f7	0.15601335
57	0x3dd09c18	0.101860225
58	0x3f026582	0.5093614
59	0x3c902fd8	0.017600939
60	0xbdf4709a	-0.119355395
61	0xbd9f48c1	-0.077775486
62	0xbe1fc837	-0.1560372
63	0xbe4801f0	-0.19531989

flow.flow.transforms.5.alpha_prime f4 [4]
0	0xbe82e212	-0.25563103
1	0xbde7e23a	-0.11322446
2	0xbe18531a	-0.1487545
3	0x3dc9a9b6	0.09846823

flow.flow.transforms.5.beta_prime f4 [4]
0	0xbb569faa	-0.0032748976
1	0x3dbb46a9	0.09144337
2	0x3e082086	0.13293657
3	0xbe49e829	-0.19717468

flow.flow.transforms.6.x0 f4 [4, 16]
0	0xbdf9588b	-0.12175091
1	0xbe2f28cd	-0.17105408
2	0x3e69f801	0.22848512
3	0xbf02d2a5	-0.5110267
4	0xbd43a8a1	-0.04776824
5	0xbe84592d	-0.25849286
6	0x3e3c73f6	0.1840361
7	0xbc8c7621	-0.017146172
8	0xbe7e57d4	-0.24838191
9	0x3da6cb88	0.08144289
10	0xbecee0ed	-0.4040598
11	0x3e2ede4c	0.17076987
12	0x3d9d928b	0.076939665
13	0x3e3056ef	0.17220663
14	0x3db5115b	0.08841201
15	0x3e35b9fa	0.17746726
16	0xbe1a59fc	-0.15073389
17	0xbd8fa2c7	-0.07013469
18	0x3e52e069	0.20593418
19	0x3e8a349c	0.26993263
20	0x3e497695	0.19674142
21	0x3e8072d7	0.25087616
22	0xbe951590	-0.29118013
23	0xbe541675	-0.20711692
24	0xbe9ab397	-0.3021514
25	0xbb875e3e	-0.0041311076
26	0x3dfe10ff	0.124055855
27	0x3e3305cc	0.1748268
28	0x3e8c4767	0.27398226
29	0x3e72c761	0.2370887
30	0xbcf1947a	-0.029489744
31	0x3e91fd1a	0.28513414
32	0xbe0c67f3	-0.13711528
33	0xbd317159	-0.043320987
34	0x3d9bf0e0	0.07614303
35	0x3e8c3738	0.2738588
36	0x3dea45d6	0.114391014
37	0xbced8fb9	-0.028999196
38	0xbe9fa107	-0.31177542
39	0xbdc5ab89	-0.09651858
40	0xbdf248f9	-0.11830325
41	0x3d320c71	0.043468896
42	0x3d8c3398	0.06845778
43	0xbe4a9708	-0.19784176
44	0x3e4a833b	0.19776623
45	0x3e6b7381	0.2299328
46	0xbdbd2726	-0.092359826
47	0x3de14f4c	0.11001453
48	0xbc8b0ce6	-0.016973924
49	0xbe3785a1	-0.17922069
50	0x3dd499c4	0.10380891
51	0xbe910377	-0.28322956
52	0xbe869c1a	-0.2629097
53	0xbe7d7a2a	-0.24753633
54	0xbae2f500	-0.0017315447
55	0xbe7aa3ae	-0.24476501
56	0x3d5ee748	0.054419786
57	0x3e5c15e1	0.21492721
58	0xbe981d3d	-0.29709807
59	0xbe4119e2	-0.1885753
60	0x3e2b2e79	0.16716947
61	0x3e1887c3	0.14895539
62	0x3ec8357f	0.39103314
63	0x3e5e092c	0.21683186

flow.flow.transforms.6.alpha_prime f4 [4]
0	0x3e449b29	0.19199814
1	0xbce21b9a	-0.027601052
2	0x3e809fd8	0.2512195
3	0xbe8dc98b	-0.27692828

flow.flow.transforms.6.beta_prime f4 [4]
0	0xbe4d9148	-0.20074952
1	0x3d584be2	0.052806742
2	0xbd359d9d	-0.044339765
3	0x3eb1ecb5	0.34750906

flow.flow.transforms.7.x0 f4 [4, 16]
0	0x3dccf836	0.1000828
1	0xbdc33f0e	-0.09533511
2	0x3e8561a1	0.26051047
3	0xbef3852c	-0.4756254
4	0x3d4cc159	0.04998908
5	0x3dd7a3c1	0.105292805
6	0x3e6317ca	0.22177044
7	0xbda272e0	-0.07932067
8	0x3e21a650	0.157861
9	0x3eb900a0	0.3613329
10	0xbe127bb3	-0.14305
11	0x3e89ee61	0.2693968
12	0x3ca73dd9	0.020415233
13	0x3e73d485	0.23811539
14	0x3eda2b55	0.42611185
15	0x3e930805	0.28717056
16	0x3ddc4b24	0.107565194
17	0xbe3f3b66	-0.18675002
18	0x3e3a3eef	0.1818807
19	0x3d3bd7dc	0.045860156
20	0x3e3fe8b3	0.18741111
21	0x3ec745d0	0.3892045
22	0xbeb55dc5	-0.35423103
23	0xbe49f268	-0.19721377
24	0xbe894954	-0.26813757
25	0x3e7025db	0.2345194
26	0xbde31b0d	-0.11089144
27	0xbdd0e148	-0.10199219
28	0x3e53a732	0.20669249
29	0x3e9df864	0.3085357
30	0x3c94e852	0.018177185
31	0x3ea1ed83	0.3162652
32	0x3cb1e9c7	0.021717919
33	0x3cb2d5ea	0.021830518
34	0xbe40e28d	-0.18836422
35	0xbe8f41bd	-0.27979842
36	0x3e17de05	0.14830787
37	0xbeb68568	-0.35648656
38	0x3e82453e	0.25443453
39	0xbd20e607	-0.03928187
40	0xbd7596d6	-0.0599583
41	0xbe93c734	-0.28862917
42	0xbdee50d8	-0.116365135
43	0x3e42bae6	0.19016609
44	0xbea26c8c	-0.3172344
45	0xbeb1b1ff	-0.34706113
46	0xbe09eb7e	-0.1346874
47	0xbecb734c	-0.39736402
48	0xbe32d1db	-0.17462866
49	0x3e24a716	0.16079363
50	0x3e6294b0	0.22127032
51	0x3e94c322	0.29055125
52	0xbd5de670	-0.05417484
53	0x3e84cc6f	0.2593722
54	0x3e607a90	0.21921754
55	0x3e7c5700	0.24642563
56	0x3dde822b	0.10864671
57	0xbead7e1b	-0.33885273
58	0xbde81604	-0.11332324
59	0x3eafb739	0.34319475
60	0xbe2453cc	-0.16047591
61	0x3ca7928d	0.020455623
62	0xbdf309d6	-0.118671104
63	0xbec3801c	-0.38183677

flow.flow.transforms.7.alpha_prime f4 [4]
0	0xbddb053c	-0.10694358
1	0xbcaa162c	-0.020762525
2	0xbe1bf99e	-0.1523194
3	0xbca7c405	-0.020479212

flow.flow.transforms.7.beta_prime f4 [4]
0	0xbe4ac5aa	-0.19801965
1	0x3e8425ef	0.2581019
2	0x3dd16be8	0.102256596
3	0xbe1e3f51	-0.15453841

flow.flow.transforms.8.x0 f4 [4, 16]
0	0xbe2c0f28	-0.16802657
1	0xbb4e0047	-0.003143327
2	0x3e6921fc	0.2276687
3	0xbe7a5e7c	-0.24450105
4	0xbee1af75	-0.44079176
5	0xbe8e053f	-0.27738377
6	0x3e90a2bf	0.28249165
7	0x3d448482	0.04797793
8	0x3df59278	0.11990827
9	0x3dc9583f	0.09831285
10	0xbe864f37	-0.2623231
11	0xbddbdaa4	-0.10735062
12	0xbe0270a1	-0.12738277
13	0xbe03bb93	-0.12864523
14	0x3ecf7279	0.40517023
15	0xbe865a09	-0.26240566
16	0xbc97462d	-0.01846608
17	0xbdcda24c	-0.10040721
18	0x3da8489a	0.08216973
19	0x3e08aebd	0.13347907
20	0x3d4af5ad	0.0495507
21	0x3e45ec7c	0.19328493
22	0xbe196b96	-0.14982447
23	0xbcb3730c	-0.021905445
24	0xbd9ec136	-0.07751696
25	0x3d3d1ee7	0.04617205
26	0xbcc95314	-0.024575748
27	0xbd3e9419	-0.046527956
28	0x3cded380	0.02720046
29	0x3e026782	0.12734798
30	0x3d2deb8c	0.042460963
31	0x3e17c55d	0.14821382
32	0xbe03628b	-0.1283056
33	0xbd4e03c0	-0.050296545
34	0x3de2528a	0.11050899
35	0x3e2a0459	0.16603221
36	0x3d98093b	0.074236356
37	0x3e88f3b9	0.26748446
38	0xbe91ed0d	-0.28501168
39	0xbe215923	-0.15756659
40	0x3cfb9254	0.030709423
41	0x3e4d12bc	0.20026678
42	0xbdb74aa1	-0.08949781
43	0xbbeb0cad	-0.007173142
44	0x3e640002	0.22265628
45	0x3e3a043f	0.18165682
46	0x3dae9ee6	0.08526401
47	0x3e5b0adf	0.21390866
48	0xbe0adf92	-0.13561848
49	0xbe4cf13c	-0.20013899
50	0x3ce4cdfe	0.027930256
51	0xbdf4b3eb	-0.11948379
52	0xbe6e88ab	-0.23294322
53	0xbdb52e38	-0.08846706
54	0xbd6ab747	-0.057303693
55	0xbd8ad68f	-0.06779205
56	0x3e02ad54	0.12761432
57	0x3d563507	0.052296665
58	0xbe847e1d	-0.25877467
59	0xbe3c4a66	-0.18387756
60	0x3e1f3c40	0.15550327
61	0x3defc6ce	0.11707841
62	0x3d98be7c	0.07458207
63	0x3e3046bd	0.17214485

flow.flow.transforms.8.alpha_prime f4 [4]
0	0x3e652494	0.22377235
1	0xbe8d36bb	-0.2758082
2	0x3d4dafca	0.050216474
3	0xbe0ad842	-0.13559058

flow.flow.transforms.8.beta_prime f4 [4]
0	0x3d644fb4	0.055740073
1	0x3ea47dab	0.32127127
2	0xbe29cb6e	-0.16581509
3	0x3e831117	0.25598976

flow.flow.transforms.9.x0 f4 [4, 16]
0	0xbdce2641	-0.1006589
1	0xbc87ee41	-0.0165931
2	0x3e44f476	0.1923388
3	0xbe679cca	-0.22618404
4	0xbe7f0d7e	-0.2490749
5	0xbd68ae2e	-0.056806736
6	0xbd8a78ce	-0.06761323
7	0xbe98898d	-0.29792443
8	0xbe5b19e2	-0.21396592
9	0x3dde20be	0.10846089
10	0xbeabe9fe	-0.3357696
11	0x3d4e9bae	0.050441436
12	0x3ddad71c	0.1068556
13	0x3e7eb217	0.24872623
14	0x3ebe8dd7	0.3721759
15	0x3e05dc0a	0.1307222
16	0x3d4e64c4	0.050389066
17	0xbca89545	-0.02057899
18	0xbe5164a4	-0.20448548
19	0xbd95d322	-0.07315661
20	0xbde83065	-0.113373555
21	0xbebdf7d9	-0.37103155
22	0x3e6b7ca1	0.22996761
23	0x3e3b1b0c	0.18272036
24	0x3e205ddd	0.15660806
25	0xbe83f99c	-0.25776374
26	0x3cbfd68c	0.023417734
27	0xbd042799	-0.032264326
28	0xbe35be23	-0.17748313
29	0xbecbd4c6	-0.3981077
30	0x3c1cef3a	0.00957852
31	0xbe9004f2	-0.28128773
32	0x3e3a2c77	0.18181024
33	0x3e12b8d0	0.14328313
34	0xbe054459	-0.13014354
35	0xbe608f6e	-0.21929714
36	0x3c3fdb4c	0.011709999
37	0xbeb8943e	-0.360506
38	0x3e834a13	0.25642452
39	0x3e1055ce	0.14095232
40	0xba019726	-0.00049434823
41	0xbe88b0c6	-0.26697367
42	0xbc1b73b6	-0.009488037
43	0x3e63a068	0.22229159
44	0xbea04176	-0.31299943
45	0xbeb12aa2	-0.3460284
46	0xbd38abd7	-0.045085754
47	0xbeb1c871	-0.34723237
48	0xbe3a3820	-0.18185472
49	0x3de1832d	0.11011348
50	0x3dac6a9b	0.08418771
51	0xbe0eeaab	-0.13956706
52	0x3eb0c0a3	0.3452197
53	0xbea09701	-0.31365207
54	0x3d1dac91	0.03849465
55	0x3e9e5a28	0.3092816
56	0x3e9790df	0.29602715
57	0xbec9a5bb	-0.39384255
58	0xbd53b3ec	-0.05168526
59	0xbe177dfa	-0.1479415
60	0xbddc342b	-0.10752138
61	0xbeec331b	-0.4613274
62	0xbe5abfca	-0.21362224
63	0xbec103a6	-0.37698096

flow.flow.transforms.9.alpha_prime f4 [4]
0	0x3de72b69	0.11287577
1	0x3e6a2f3a	0.22869578
2	0xbe7de847	-0.24795638
3	0xbdd17451	-0.10227264

flow.flow.transforms.9.beta_prime f4 [4]
0	0xbdc71eb2	-0.097226515
1	0xbb724e3e	-0.0036972906
2	0x3dbe182d	0.09281955
3	0xbe0a4b2b	-0.13505237
