saved_experiments/classification/GPN/1/model_10.pt (torch, 764793 bytes, 36 tensors)

input_encoder.0.weight f4 [64, 2879]
0	0x3e12544d	0.1428997
1	0xbe1588c2	-0.1460295
2	0xbd0db954	-0.03460057
3	0xbe29cfe5	-0.16583212
4	0x3d495ad6	0.049158894
5	0xbe660368	-0.22462237
6	0xbe290e44	-0.16509348
7	0xbc5582ed	-0.013031703
8	0xbe24232b	-0.1602904
9	0x3e33bd79	0.17552747
10	0xbd5f40a9	-0.054505024
11	0x3d76b612	0.06023223
12	0xbd7efa1c	-0.06225024
13	0x3e7dfb24	0.24802834
14	0xbe0dd3f7	-0.1385039
15	0xbe8d750c	-0.27628362
16	0xbe285450	-0.16438413
17	0xbe4e647a	-0.20155516
18	0x3e8f7f6a	0.28026897
19	0x3dd56101	0.10418893
20	0xbc0620c3	-0.008186522
21	0xbe815839	-0.2526262
22	0xbd9c737c	-0.076392144
23	0xbc024906	-0.00795198
24	0xbe251606	-0.16121683
25	0xbd13a3f8	-0.036045045
26	0xbd035005	-0.032058734
27	0xbe33c3e3	-0.17555194
28	0x3e9823b7	0.29714748
29	0xbe49bc5c	-0.1970076
30	0x3e9a4353	0.3012949
31	0x3c341a40	0.010992587
32	0x3e45de21	0.19323017
33	0xbddef03b	-0.10885664
34	0xbe1929e9	-0.14957394
35	0xbcd67f5c	-0.026183777
36	0x3edff2ce	0.43739933
37	0x3e44a898	0.19204938
38	0xbda52699	-0.080640025
39	0xbe803fe8	-0.25048757
40	0x3d488fd2	0.048965283
41	0x3e2b9f87	0.16760074
42	0xbe2a98bb	-0.16659825
43	0xbbbd62ca	-0.005779599
44	0x3e62f5c8	0.2216407
45	0x3e4516a1	0.19246913
46	0x3cbdcaa9	0.023167925
47	0xbda0cd3a	-0.07851644
48	0xbe0f4fa2	-0.13995221
49	0x3dc3de57	0.09563892
50	0xbd1ce50f	-0.038304385
51	0xbd0ee8dc	-0.03489004
52	0x3ebe3a73	0.37153968
53	0xbcc5851d	-0.024111325
54	0x3d5b24a5	0.053501744
55	0xbe84a39d	-0.25906077
56	0x3bd8acdb	0.006612403
57	0xbe0a3db7	-0.13500105
58	0x3da0f173	0.07858553
59	0x3e7a46f3	0.24441127
60	0x3e4e2375	0.20130713
61	0xbddd30b5	-0.10800306
62	0xbc907491	-0.017633708
63	0xbd9dd4ba	-0.0770659
64	0x3e63681a	0.2220768
65	0x3de138e6	0.10997181
66	0x3e7cf4c5	0.24702747
67	0x3cb243f7	0.021760924
68	0x3e2143dc	0.15748543
69	0x3e96a055	0.294192
70	0xbd1b1c1f	-0.037868615
71	0xbd169dc4	-0.03677155
72	0x3b929e04	0.0044744033
73	0x3df218f5	0.118211664
74	0x3e5ee6c4	0.21767718
75	0x3e38470c	0.17995852
76	0x3f0f19a8	0.55898523
77	0xbe156a7b	-0.145914
78	0xbe445f1c	-0.19176906
79	0xbe9b86f0	-0.30376387
80	0xbec3d9a0	-0.38251972
81	0x3e4dead0	0.20109105
82	0xbe03c0e0	-0.12866545
83	0xbe3c084e	-0.18362543
84	0x3cb7da46	0.022442948
85	0xbd128dae	-0.035779648
86	0x3e50e2c0	0.20398998
87	0x3d8e2069	0.069397755
88	0xbdd0f36c	-0.10202679
89	0xbe86de39	-0.26341417
90	0xbb5bfecd	-0.003356862
91	0x3e25ec2f	0.16203378
92	0x3e0a9532	0.13533476
93	0x3e112768	0.14175189
94	0x3b1bef0b	0.0023793604
95	0xbdc72ae7	-0.0972498
96	0xbe2fb772	-0.17159823
97	0xbe1bbb46	-0.15208158
98	0xbe8ee6f7	-0.27910587
99	0x3e3ebeb8	0.18627441
100	0x3cfceceb	0.03087469
101	0x3e9e0a6e	0.30867332
102	0xbba1ec49	-0.0049414975
103	0x3e4db167	0.20087205
104	0x3ec825df	0.39091393
105	0x3ea229aa	0.31672412
106	0x3e91bd61	0.28464797
107	0x3d5b6c30	0.053569973
108	0xbdc81aac	-0.09770712
109	0x3e33264e	0.17495081
110	0xbcad8fde	-0.021186765
111	0xbe394d56	-0.18095908
112	0x3ce8ea63	0.028432077
113	0x3de22285	0.1104174
114	0xbe40a32a	-0.18812242
115	0x3d912739	0.07087559
116	0xbe563826	-0.20919856
117	0x3e34a773	0.17642002
118	0xbe58e05a	-0.21179333
119	0x3e936b7a	0.28792936
120	0x3c910801	0.017704012
121	0x3d294f8e	0.041335635
122	0x3de24117	0.11047571
123	0xbec9d9c0	-0.39423943
124	0xbea12c0c	-0.31478918
125	0xbdd26646	-0.10273413
126	0x3d56c8d7	0.05243763
127	0x3d870c53	0.065941475
128	0x3e83126f	0.256
129	0x3e83efcd	0.2576889
130	0x3ea3a651	0.31962827
131	0xbd4cd9ea	-0.050012507
132	0xbdd8041a	-0.10547657
133	0xbe5018c9	-0.20321955
134	0x3e085ab4	0.1331585
135	0x3e0c0573	0.13673954
136	0xbe34766e	-0.17623302
137	0xbdaa0f0a	-0.0830365
138	0xbdaed4cc	-0.085366815
139	0x3caf103f	0.021370051
140	0xbe1b7a9c	-0.1518349
141	0xbe5212ab	-0.20514934
142	0x3de9327e	0.11386584
143	0x3d592a00	0.05301857
144	0xbd0d7afe	-0.034541123
145	0xbd1330b4	-0.03593512
146	0x3e5f94fe	0.2183418
147	0xbdb8c3a9	-0.09021694
148	0x3e23b3b3	0.15986519
149	0xbd3ddf27	-0.046355393
150	0x3f06d9b1	0.5267592
151	0xbdc116b6	-0.0942816
152	0x3ef5c497	0.4800155
153	0xbe482c1a	-0.19548073
154	0xbe0525c3	-0.13002686
155	0xbd77c299	-0.060488317
156	0xbed8a3a2	-0.42312342
157	0xbd01c5ef	-0.031682905
158	0xbdf7585c	-0.120774
159	0xbe729db3	-0.2369297
160	0x3cd6a6da	0.026202608
161	0xbe7a91e8	-0.24469721
162	0xbe733514	-0.23750716
163	0xbe5dfecd	-0.2167923
164	0xbeb5e15a	-0.35523492
165	0x3d4887df	0.0489577
166	0xbebe62f7	-0.3718488
167	0x3ed78909	0.42096737
168	0xbe0a98a4	-0.1353479
169	0x3dd20d69	0.10256464
170	0x3cdb5306	0.026772987
171	0xbdead8f3	-0.11467161
172	0x3e95e201	0.2927399
173	0x3d6542ee	0.055972032
174	0xbda2bc93	-0.07946124
175	0xbe093064	-0.13397366
176	0x3d78f904	0.060784355
177	0x3e8ee478	0.27908683
178	0x3d57e9a5	0.052713055
179	0xbcc3913f	-0.02387297
180	0x3e2b9097	0.16754375
181	0xbe135191	-0.14386584
182	0x3dbe792e	0.09300457
183	0x3d35ed02	0.04441548
184	0xba2ea740	-0.00066624954
185	0x3e1a3316	0.1505855
186	0x3ba11532	0.0049158568
187	0xbd82d35a	-0.06387968
188	0xbcede6dc	-0.029040746
189	0x3daf30ea	0.085542515
190	0x3d0c57d3	0.034263443
191	0xbe1eb083	-0.15497021
192	0xbdf8fae5	-0.12157229
193	0xbce1acc7	-0.027548207
194	0x3e859ac7	0.26094648
195	0x3d320e75	0.04347082
196	0x3d9b5650	0.07584822
197	0x3ea444f0	0.32083845
198	0xbe7cd1dc	-0.2468943
199	0x3e006be9	0.12541164
200	0x3b8af1d4	0.004240254
201	0xbe008a36	-0.12552723
202	0x3e1bedb9	0.15227403
203	0xbe8a717a	-0.270397
204	0x3db7e772	0.089796916
205	0xbe7d7d4c	-0.24754828
206	0x3ea96392	0.3308378
207	0xbead9c18	-0.33908153
208	0x3eb8936e	0.3604998
209	0x3e87d3d9	0.26528814
210	0x3e8a51ab	0.27015433
211	0x3d96f5f9	0.07371134
212	0xbecb2e30	-0.39683676
213	0xbe17186c	-0.1475541
214	0xbe49446a	-0.19655004
215	0xba7b0464	-0.00095755444
216	0xbe1a676c	-0.15078515
217	0x3ebc8bd0	0.36825418
218	0x3ba208a4	0.0049448777
219	0xbe72fab1	-0.23728444
220	0xbe34a0d4	-0.17639476
221	0xbe631beb	-0.22178619
222	0x3bf6f32d	0.007536313
223	0xbe6e2991	-0.23258044
224	0xbe03a51e	-0.12855956
225	0xbdba1738	-0.0908646
226	0xbe65d994	-0.2244628
227	0x3e585b1b	0.21128504
228	0x3f0b4f32	0.5441772
229	0x3d5cf85c	0.05394779
230	0xbea29ce1	-0.31760314
231	0xbe42afbe	-0.19012353
232	0x3dee4faf	0.11636292
233	0x3e86ee09	0.2635348
234	0xbe15100f	-0.14556907
235	0xbec93f0e	-0.3930592
236	0x3cdd35f8	0.027003273
237	0xbecfcc33	-0.4058548
238	0xbc812c16	-0.015768092
239	0x3d8c2ff7	0.06845086
240	0xbea286d9	-0.31743506
241	0x3dbcc995	0.09218136
242	0xbde27721	-0.11057878
243	0xbe4ff3a8	-0.20307791
244	0x3de31bc1	0.11089278
245	0xbdf3590c	-0.11882219
246	0xbd1ea66f	-0.038732942
247	0xbe89bd93	-0.26902446
248	0xbe8356f7	-0.25652286
249	0xbe3ac896	-0.1824058
250	0x3d7c3fc2	0.06158424
251	0x3d07f93e	0.03319668
252	0x3ea64c1f	0.3247995
253	0xbdd56448	-0.10419518
254	0xbd305868	-0.04305306
255	0xbe1205f1	-0.14260079

input_encoder.0.bias f4 [64]
0	0x3bd831c0	0.0065977275
1	0xbc94d7be	-0.01816928
2	0xbd7acc7a	-0.06123016
3	0xbc7847dc	-0.015153851
4	0x3b256c27	0.0025241466
5	0x3d1fb569	0.038991366
6	0xba8be90e	-0.0010674314
7	0x3cc9bd6e	0.02462646
8	0x3c30f9f5	0.010801782
9	0xbd623546	-0.055226587
10	0x3cfda306	0.030961525
11	0x3d12cbf0	0.03583902
12	0xbb8c272e	-0.0042771315
13	0xbd49733c	-0.04918216
14	0x3ce25a1d	0.02763086
15	0xbc894af1	-0.016759368
16	0x3c909001	0.017646791
17	0x3d06ba17	0.032892313
18	0xbd54d029	-0.05195633
19	0xbd5e467a	-0.05426643
20	0x3c8c6491	0.017137798
21	0xbd522a6e	-0.051309995
22	0xbd51837a	-0.051150776
23	0xbd559487	-0.0521436
24	0x3cb47b4f	0.022031454
25	0xbcd81762	-0.026378337
26	0xbd42088e	-0.04737144
27	0x3cef1cf6	0.029188614
28	0x3ce16a42	0.027516488
29	0xbc535fd0	-0.012901261
30	0xbd6e5ed6	-0.05819591
31	0x3d0d00a5	0.034424443
32	0x3baaf367	0.005217004
33	0xbc3668cf	-0.011133387
34	0x3cd96bf5	0.026540736
35	0x3bd79646	0.0065791933
36	0x3c8311fe	0.01599979
37	0x3b518986	0.003197284
38	0xba6f9bf8	-0.00091403676
39	0xbd712258	-0.058870643
40	0xbc5d3819	-0.013502144
41	0xbd348008	-0.044067413
42	0xbc0c8835	-0.008577396
43	0x3c74bcf5	0.014937629
44	0x3c7ecfdf	0.01555249
45	0xbd3696d3	-0.04457743
46	0x3c85cfd9	0.016334461
47	0x3cbe9d4a	0.02326836
48	0xbd576dc2	-0.052594908
49	0xbba5a27a	-0.005054769
50	0xbb61aad0	-0.0034434088
51	0x3c248e10	0.010043636
52	0x3cf58560	0.029970825
53	0xbd698a75	-0.05701681
54	0xbd4f74d6	-0.050648533
55	0x3c78c2e4	0.015183184
56	0xbd68acea	-0.05680553
57	0xbd7ad5e5	-0.061239142
58	0xbcb007d8	-0.021488115
59	0xbd26bef8	-0.040709466
60	0x3c30e256	0.01079615
61	0x3ca2a09b	0.019851973
62	0x3c700609	0.014649876
63	0x3d142352	0.036166497

latent_encoder.weight f4 [16, 64]
0	0xbea11d7a	-0.314678
1	0x3981f51d	0.0002478742
2	0x3cef7cfe	0.029234406
3	0xbe3e0b33	-0.1855896
4	0x3db959d3	0.09050336
5	0x3eaa098c	0.3321041
6	0xbe34c440	-0.17652988
7	0x3e9fc48c	0.3120464
8	0xbe5eb04a	-0.21746936
9	0xbb76b9ed	-0.0037647441
10	0x3ecab7b5	0.39593282
11	0x3e8974a4	0.26846802
12	0xbc013dd4	-0.007888276
13	0xbb4f0d6c	-0.0031593693
14	0x3e7220aa	0.23645273
15	0xba0ab626	-0.00052914245
16	0x3e8cd738	0.2750795
17	0x3ec0b641	0.3763905
18	0x3b020b5f	0.0019843203
19	0x3cbe9626	0.023264956
20	0xbde41d80	-0.11138439
21	0xbdd19c1e	-0.10234855
22	0xbd8cf97d	-0.068835236
23	0xb91941cc	-0.00014615728
24	0x3e712869	0.23550572
25	0xbe132a5c	-0.14371628
26	0x3a633af4	0.00086681475
27	0x3cb8deee	0.022567239
28	0x3e315aa8	0.17319739
29	0xbd94069d	-0.07227824
30	0x3c305d89	0.010764488
31	0x3de37db1	0.11107958
32	0xbe2c41e7	-0.16822015
33	0x3db261d4	0.087100655
34	0x3eb7ca65	0.35896602
35	0x3d32f366	0.043689154
36	0xbe3009ac	-0.1719119
37	0x3e76d562	0.24104837
38	0x3dc43d5e	0.09582017
39	0x3dfc31de	0.12314199
40	0xbdfa98a9	-0.12236149
41	0x3c2b2c8f	0.010447635
42	0xbe0343fc	-0.12818903
43	0x3e16d327	0.14728986
44	0xbdd73d2f	-0.10509717
45	0xbac3fc80	-0.001495257
46	0xbe5a051a	-0.21291009
47	0xbdacf961	-0.08446003
48	0xbd4fe33d	-0.05075382
49	0xbdfe8804	-0.12428287
50	0xbde804bd	-0.11329029
51	0x3e42ebca	0.19035259
52	0x3eef086c	0.46686113
53	0xbce1023f	-0.027466891
54	0xbd33733a	-0.04381106
55	0x3e0ca34c	0.13734168
56	0x3d860104	0.065431625
57	0xbd386a53	-0.045023274
58	0x3e0a835a	0.13526669
59	0xba40c0dd	-0.00073529576
60	0x3e5fcece	0.21856233
61	0x3e0da4c9	0.13832392
62	0x3d604e03	0.054761898
63	0x3e1992b5	0.1499737
64	0xbe081eeb	-0.13293044
65	0xbaf9e571	-0.0019065571
66	0x3d55bb59	0.05218062
67	0x3d85a4fa	0.065256074
68	0xbdcecdc6	-0.10097842
69	0xbee6a5d0	-0.4504838
70	0xbea4acd4	-0.32163107
71	0xbd837b06	-0.06419949
72	0xbe48816c	-0.1958062
73	0xbcb69584	-0.022288091
74	0xbe4b3832	-0.19845656
75	0x3e1ac91e	0.15115783
76	0x3e88bfde	0.26708883
77	0xbcd5eb6f	-0.02611324
78	0xbe304638	-0.17214286
79	0x3ab8b7d4	0.0014092871
80	0xbd4e8e0f	-0.050428446
81	0xbe5a942f	-0.2134559
82	0xbd0d0f22	-0.03443826
83	0x3c7b31d3	0.015331703
84	0xbe3679e9	-0.17819943
85	0xbd1ee82a	-0.038795628
86	0x3b4f2c49	0.003161209
87	0x3e11e7f3	0.14248638
88	0x3d851f0b	0.065000616
89	0x3e00fe24	0.12596947
90	0x39feb4f4	0.00048581476
91	0xbd1ee5f8	-0.038793534
92	0xbecea3fe	-0.4035949
93	0xbeefc14f	-0.4682717
94	0x3e0e5003	0.1389771
95	0x3dc86107	0.097841315
96	0xbe897e40	-0.26854134
97	0xbea9323b	-0.33046135
98	0xbe887672	-0.26652867
99	0xbe4e493f	-0.20145129
100	0xbe7940db	-0.24341147
101	0xbe6a2fa3	-0.22869734
102	0xbe0a0423	-0.1347814
103	0x3d390b85	0.045177
104	0x3d2ffbcd	0.042964745
105	0x3cf598fa	0.029980171
106	0xbeecdef0	-0.46263838
107	0x3e8d9c1a	0.2765816
108	0xbddb12be	-0.10696934
109	0xbacd6a9f	-0.0015672034
110	0xbe7f7b64	-0.24949414
111	0x3df40d7e	0.11916636
112	0xbc734dc0	-0.01485008
113	0xbdb521aa	-0.088443115
114	0x3ed00e03	0.4063569
115	0xbea0f971	-0.3144031
116	0xbecc59aa	-0.39912158
117	0x3e2f5dd8	0.17125642
118	0xbd40fa6a	-0.047113813
119	0x3e9040c9	0.28174427
120	0x3d3e6b7d	0.046489228
121	0x3d7917a3	0.060813557
122	0xbe780819	-0.24221839
123	0xb917e6f5	-0.0001448652
124	0x3dca13a3	0.09867027
125	0x3e45f37a	0.1933116
126	0xbed0cbe4	-0.40780556
127	0xbf0773a8	-0.5291085
128	0x3d82274c	0.063551515
129	0xb9269c30	-0.00015889178
130	0xbc07c217	-0.008286021
131	0xbe3b5eb9	-0.18297853
132	0x3dee897b	0.11647316
133	0x3e0e41e8	0.13892329
134	0x3ebdb9dd	0.37055865
135	0xbecb8763	-0.3975173
136	0xbc5f4178	-0.013626449
137	0xbdf04391	-0.11731637
138	0xbdd86b98	-0.10567397
139	0x3e62b558	0.2213949
140	0x3ee4c93c	0.4468478
141	0x3d59f874	0.05321546
142	0xbe59311a	-0.21210137
143	0x3a42d0c2	0.000743162
144	0xbec06ddf	-0.37583825
145	0xbe97ef53	-0.29674777
146	0x3d87e60b	0.06635674
147	0xbe184272	-0.14869097
148	0xbe4a6368	-0.19764483
149	0x3d9fa002	0.07794191
150	0x3d3d16d3	0.046164345
151	0xbce97866	-0.028499793
152	0x3e8e2f57	0.27770492
153	0xbe9331cc	-0.2874893
154	0xbadc6b86	-0.0016816712
155	0xbe8771b8	-0.26453948
156	0xbdb273c3	-0.08713486
157	0x3eae9d6a	0.34104472
158	0xbcac1b77	-0.02100919
159	0xbee2a83e	-0.44268984
160	0x3eac62d9	0.33669165
161	0x3eb0aa62	0.34504992
162	0xbda86d50	-0.08223975
163	0x3e0683a0	0.13136148
164	0xbdee2c86	-0.11629586
165	0xbdd3be49	-0.103390284
166	0x3decc971	0.115618594
167	0xbdc84464	-0.097786695
168	0xbe83006a	-0.25586253
169	0x3ccd08ed	0.02502867
170	0x3e9d5b12	0.30733544
171	0x3e82acc5	0.25522438
172	0xbe578e37	-0.21050344
173	0x38e78dcc	0.0001104135
174	0xbdf6688e	-0.12031661
175	0xbeab548d	-0.33462945
176	0xbb866dea	-0.0041024582
177	0xbe2e86d5	-0.17043622
178	0x3d9d8c18	0.076927364
179	0xbe19b697	-0.15011059
180	0xbe311e31	-0.17296673
181	0x3cd8a9b0	0.0264481
182	0x3da6f4f1	0.081521876
183	0x3eb3a655	0.3508784
184	0xbd3ef218	-0.046617597
185	0xbca566ca	-0.020190615
186	0x3ca99088	0.0206988
187	0x3aae2ba5	0.0013288154
188	0xbeb4929a	-0.35268098
189	0x3ef9e3c5	0.48806587
190	0x3d61896b	0.055062693
191	0x3e651a96	0.22373423
192	0x3e46aac1	0.19401075
193	0xb89893f6	-7.275485e-05
194	0xbca836bb	-0.02053391
195	0xbe365493	-0.178057
196	0xbdb48acd	-0.08815537
197	0x3ed01a24	0.40644944
198	0x3ef17a59	0.47163656
199	0x3e245f8c	0.16052073
200	0x3d85eacc	0.065389246
201	0x3b3815cc	0.0028089164
202	0x3ebee892	0.37286812
203	0xbd056c5d	-0.032574046
204	0x3dd952b1	0.10611475
205	0x3cb160b4	0.021652557
206	0x3ed9a3f9	0.42507914
207	0x3a45b69a	0.00075421634
208	0x3dacfe51	0.084469445
209	0x3d4c0ec6	0.049818777
210	0x3a7a429e	0.000954667
211	0x3b0d948f	0.002160344
212	0x3de0a124	0.10968235
213	0x3d09052e	0.033452205
214	0x3d0dd19d	0.03462373
215	0xbb241885	-0.002503903
216	0x3e445255	0.19172032
217	0xbe8f7a21	-0.28022864
218	0xbbe5f584	-0.007017793
219	0x3c877003	0.016532904
220	0x3e69116e	0.22760555
221	0x3e8fcbb0	0.2808509
222	0xbdef0a44	-0.1167188
223	0xbe616756	-0.22012076
224	0x3f0761e6	0.52883756
225	0x3e9bfc08	0.30465722
226	0x3ea88284	0.32912076
227	0x3ed203d1	0.41018537
228	0x3e51f159	0.20502223
229	0x3ef3621a	0.47535783
230	0x3e43451c	0.19069332
231	0x3d688efc	0.056776986
232	0xbdacb632	-0.084331885
233	0xbc7fb03c	-0.015605982
234	0x3f09adb1	0.5378066
235	0xbd9ef9ed	-0.07762513
236	0x3d6d2d3b	0.057904463
237	0x39fd3876	0.00048297987
238	0x3e651cc9	0.22374262
239	0xbe920b6a	-0.28524333
240	0xbcdca7bf	-0.026935456
241	0x3dcc9c36	0.09990732
242	0xbe9b692c	-0.30353677
243	0x3da5f72c	0.08103785
244	0x3e5905ce	0.2119362
245	0x3d2f7ac3	0.042841684
246	0x3a9ad276	0.001181199
247	0xbcd04995	-0.025425712
248	0x3d0cc36b	0.034366053
249	0x3a8deded	0.0010828354
250	0x3ee9bdaa	0.45652515
251	0x38f4379e	0.00011645186
252	0xbd9328b1	-0.07185496
253	0x3de4d5aa	0.11173566
254	0x3ed2d080	0.41174698
255	0x3ef61595	0.4806334

latent_encoder.bias f4 [16]
0	0xbdddfc11	-0.108390935
1	0x3dfd5b2f	0.123709075
2	0xbcebf193	-0.028801715
3	0xbe43cdb9	-0.19121446
4	0xbda71bb4	-0.08159581
5	0xbb9e6588	-0.004833881
6	0x3d04179a	0.03224907
7	0x3d5cca4a	0.053903855
8	0xbde09d66	-0.10967521
9	0xbc1cbae5	-0.0095660435
10	0x3c9c3d2e	0.019072141
11	0xbbb13a7a	-0.0054085823
12	0xbd2ee9cc	-0.042703435
13	0x3c520d71	0.0128205875
14	0xbd52f4e2	-0.05150307
15	0xbcd7b14c	-0.026329659

flow.flow.mean f4 [7, 16]
0	0x00000000	0.0
1	0x00000000	0.0
2	0x00000000	0.0
3	0x00000000	0.0
4	0x00000000	0.0
5	0x00000000	0.0
6	0x00000000	0.0
7	0x00000000	0.0
8	0x00000000	0.0
9	0x00000000	0.0
10	0x00000000	0.0
11	0x00000000	0.0
12	0x00000000	0.0
13	0x00000000	0.0
14	0x00000000	0.0
15	0x00000000	0.0
16	0x00000000	0.0
17	0x00000000	0.0
18	0x00000000	0.0
19	0x00000000	0.0
20	0x00000000	0.0
21	0x00000000	0.0
22	0x00000000	0.0
23	0x00000000	0.0
24	0x00000000	0.0
25	0x00000000	0.0
26	0x00000000	0.0
27	0x00000000	0.0
28	0x00000000	0.0
29	0x00000000	0.0
30	0x00000000	0.0
31	0x00000000	0.0
32	0x00000000	0.0
33	0x00000000	0.0
34	0x00000000	0.0
35	0x00000000	0.0
36	0x00000000	0.0
37	0x00000000	0.0
38	0x00000000	0.0
39	0x00000000	0.0
40	0x00000000	0.0
41	0x00000000	0.0
42	0x00000000	0.0
43	0x00000000	0.0
44	0x00000000	0.0
45	0x00000000	0.0
46	0x00000000	0.0
47	0x00000000	0.0
48	0x00000000	0.0
49	0x00000000	0.0
50	0x00000000	0.0
51	0x00000000	0.0
52	0x00000000	0.0
53	0x00000000	0.0
54	0x00000000	0.0
55	0x00000000	0.0
56	0x00000000	0.0
57	0x00000000	0.0
58	0x00000000	0.0
59	0x00000000	0.0
60	0x00000000	0.0
61	0x00000000	0.0
62	0x00000000	0.0
63	0x00000000	0.0
64	0x00000000	0.0
65	0x00000000	0.0
66	0x00000000	0.0
67	0x00000000	0.0
68	0x00000000	0.0
69	0x00000000	0.0
70	0x00000000	0.0
71	0x00000000	0.0
72	0x00000000	0.0
73	0x00000000	0.0
74	0x00000000	0.0
75	0x00000000	0.0
76	0x00000000	0.0
77	0x00000000	0.0
78	0x00000000	0.0
79	0x00000000	0.0
80	0x00000000	0.0
81	0x00000000	0.0
82	0x00000000	0.0
83	0x00000000	0.0
84	0x00000000	0.0
85	0x00000000	0.0
86	0x00000000	0.0
87	0x00000000	0.0
88	0x00000000	0.0
89	0x00000000	0.0
90	0x00000000	0.0
91	0x00000000	0.0
92	0x00000000	0.0
93	0x00000000	0.0
94	0x00000000	0.0
95	0x00000000	0.0
96	0x00000000	0.0
97	0x00000000	0.0
98	0x00000000	0.0
99	0x00000000	0.0
100	0x00000000	0.0
101	0x00000000	0.0
102	0x00000000	0.0
103	0x00000000	0.0
104	0x00000000	0.0
105	0x00000000	0.0
106	0x00000000	0.0
107	0x00000000	0.0
108	0x00000000	0.0
109	0x00000000	0.0
110	0x00000000	0.0
111	0x00000000	0.0

flow.flow.cov f4 [7, 16, 16]
0	0x3f800000	1.0
1	0x00000000	0.0
2	0x00000000	0.0
3	0x00000000	0.0
4	0x00000000	0.0
5	0x00000000	0.0
6	0x00000000	0.0
7	0x00000000	0.0
8	0x00000000	0.0
9	0x00000000	0.0
10	0x00000000	0.0
11	0x00000000	0.0
12	0x00000000	0.0
13	0x00000000	0.0
14	0x00000000	0.0
15	0x00000000	0.0
16	0x00000000	0.0
17	0x3f800000	1.0
18	0x00000000	0.0
19	0x00000000	0.0
20	0x00000000	0.0
21	0x00000000	0.0
22	0x00000000	0.0
23	0x00000000	0.0
24	0x00000000	0.0
25	0x00000000	0.0
26	0x00000000	0.0
27	0x00000000	0.0
28	0x00000000	0.0
29	0x00000000	0.0
30	0x00000000	0.0
31	0x00000000	0.0
32	0x00000000	0.0
33	0x00000000	0.0
34	0x3f800000	1.0
35	0x00000000	0.0
36	0x00000000	0.0
37	0x00000000	0.0
38	0x00000000	0.0
39	0x00000000	0.0
40	0x00000000	0.0
41	0x00000000	0.0
42	0x00000000	0.0
43	0x00000000	0.0
44	0x00000000	0.0
45	0x00000000	0.0
46	0x00000000	0.0
47	0x00000000	0.0
48	0x00000000	0.0
49	0x00000000	0.0
50	0x00000000	0.0
51	0x3f800000	1.0
52	0x00000000	0.0
53	0x00000000	0.0
54	0x00000000	0.0
55	0x00000000	0.0
56	0x00000000	0.0
57	0x00000000	0.0
58	0x00000000	0.0
59	0x00000000	0.0
60	0x00000000	0.0
61	0x00000000	0.0
62	0x00000000	0.0
63	0x00000000	0.0
64	0x00000000	0.0
65	0x00000000	0.0
66	0x00000000	0.0
67	0x00000000	0.0
68	0x3f800000	1.0
69	0x00000000	0.0
70	0x00000000	0.0
71	0x00000000	0.0
72	0x00000000	0.0
73	0x00000000	0.0
74	0x00000000	0.0
75	0x00000000	0.0
76	0x00000000	0.0
77	0x00000000	0.0
78	0x00000000	0.0
79	0x00000000	0.0
80	0x00000000	0.0
81	0x00000000	0.0
82	0x00000000	0.0
83	0x00000000	0.0
84	0x00000000	0.0
85	0x3f800000	1.0
86	0x00000000	0.0
87	0x00000000	0.0
88	0x00000000	0.0
89	0x00000000	0.0
90	0x00000000	0.0
91	0x00000000	0.0
92	0x00000000	0.0
93	0x00000000	0.0
94	0x00000000	0.0
95	0x00000000	0.0
96	0x00000000	0.0
97	0x00000000	0.0
98	0x00000000	0.0
99	0x00000000	0.0
100	0x00000000	0.0
101	0x00000000	0.0
102	0x3f800000	1.0
103	0x00000000	0.0
104	0x00000000	0.0
105	0x00000000	0.0
106	0x00000000	0.0
107	0x00000000	0.0
108	0x00000000	0.0
109	0x00000000	0.0
110	0x00000000	0.0
111	0x00000000	0.0
112	0x00000000	0.0
113	0x00000000	0.0
114	0x00000000	0.0
115	0x00000000	0.0
116	0x00000000	0.0
117	0x00000000	0.0
118	0x00000000	0.0
119	0x3f800000	1.0
120	0x00000000	0.0
121	0x00000000	0.0
122	0x00000000	0.0
123	0x00000000	0.0
124	0x00000000	0.0
125	0x00000000	0.0
126	0x00000000	0.0
127	0x00000000	0.0
128	0x00000000	0.0
129	0x00000000	0.0
130	0x00000000	0.0
131	0x00000000	0.0
132	0x00000000	0.0
133	0x00000000	0.0
134	0x00000000	0.0
135	0x00000000	0.0
136	0x3f800000	1.0
137	0x00000000	0.0
138	0x00000000	0.0
139	0x00000000	0.0
140	0x00000000	0.0
141	0x00000000	0.0
142	0x00000000	0.0
143	0x00000000	0.0
144	0x00000000	0.0
145	0x00000000	0.0
146	0x00000000	0.0
147	0x00000000	0.0
148	0x00000000	0.0
149	0x00000000	0.0
150	0x00000000	0.0
151	0x00000000	0.0
152	0x00000000	0.0
153	0x3f800000	1.0
154	0x00000000	0.0
155	0x00000000	0.0
156	0x00000000	0.0
157	0x00000000	0.0
158	0x00000000	0.0
159	0x00000000	0.0
160	0x00000000	0.0
161	0x00000000	0.0
162	0x00000000	0.0
163	0x00000000	0.0
164	0x00000000	0.0
165	0x00000000	0.0
166	0x00000000	0.0
167	0x00000000	0.0
168	0x00000000	0.0
169	0x00000000	0.0
170	0x3f800000	1.0
171	0x00000000	0.0
172	0x00000000	0.0
173	0x00000000	0.0
174	0x00000000	0.0
175	0x00000000	0.0
176	0x00000000	0.0
177	0x00000000	0.0
178	0x00000000	0.0
179	0x00000000	0.0
180	0x00000000	0.0
181	0x00000000	0.0
182	0x00000000	0.0
183	0x00000000	0.0
184	0x00000000	0.0
185	0x00000000	0.0
186	0x00000000	0.0
187	0x3f800000	1.0
188	0x00000000	0.0
189	0x00000000	0.0
190	0x00000000	0.0
191	0x00000000	0.0
192	0x00000000	0.0
193	0x00000000	0.0
194	0x00000000	0.0
195	0x00000000	0.0
196	0x00000000	0.0
197	0x00000000	0.0
198	0x00000000	0.0
199	0x00000000	0.0
200	0x00000000	0.0
201	0x00000000	0.0
202	0x00000000	0.0
203	0x00000000	0.0
204	0x3f800000	1.0
205	0x00000000	0.0
206	0x00000000	0.0
207	0x00000000	0.0
208	0x00000000	0.0
209	0x00000000	0.0
210	0x00000000	0.0
211	0x00000000	0.0
212	0x00000000	0.0
213	0x00000000	0.0
214	0x00000000	0.0
215	0x00000000	0.0
216	0x00000000	0.0
217	0x00000000	0.0
218	0x00000000	0.0
219	0x00000000	0.0
220	0x00000000	0.0
221	0x3f800000	1.0
222	0x00000000	0.0
223	0x00000000	0.0
224	0x00000000	0.0
225	0x00000000	0.0
226	0x00000000	0.0
227	0x00000000	0.0
228	0x00000000	0.0
229	0x00000000	0.0
230	0x00000000	0.0
231	0x00000000	0.0
232	0x00000000	0.0
233	0x00000000	0.0
234	0x00000000	0.0
235	0x00000000	0.0
236	0x00000000	0.0
237	0x00000000	0.0
238	0x3f800000	1.0
239	0x00000000	0.0
240	0x00000000	0.0
241	0x00000000	0.0
242	0x00000000	0.0
243	0x00000000	0.0
244	0x00000000	0.0
245	0x00000000	0.0
246	0x00000000	0.0
247	0x00000000	0.0
248	0x00000000	0.0
249	0x00000000	0.0
250	0x00000000	0.0
251	0x00000000	0.0
252	0x00000000	0.0
253	0x00000000	0.0
254	0x00000000	0.0
255	0x3f800000	1.0

flow.flow.transforms.0.x0 f4 [7, 16]
0	0xbd3a23cd	-0.0454443
1	0x3d720e07	0.05909541
2	0x3ec77b82	0.38961416
3	0x3e4afed1	0.19823767
4	0x3ef1d824	0.47235215
5	0x3edb7a1a	0.42866594
6	0xbe7622ed	-0.2403676
7	0xbde30211	-0.110843785
8	0x3ea448bb	0.3208674
9	0xbea0594c	-0.31318128
10	0xbdfc2e2d	-0.12313495
11	0xbdd42386	-0.10358338
12	0x3ec62a0e	0.3870396
13	0xbf07114a	-0.52760756
14	0xbd3f1346	-0.04664924
15	0xbed6bf72	-0.41942936
16	0x3d8b2784	0.067946464
17	0x3e7f09a3	0.2490602
18	0x3d8a39a9	0.06749279
19	0xbe2ee19e	-0.17078254
20	0xbe5d2d5f	-0.21599339
21	0x3dc9c4af	0.098519675
22	0x3e82f085	0.25574127
23	0x3c9dfb16	0.019284766
24	0x3e0edbb0	0.13950992
25	0x3edd0326	0.43166465
26	0x3d83908c	0.064240545
27	0xbde9ee71	-0.11422432
28	0x3e474a70	0.1946199
29	0xbe3aa4db	-0.1822695
30	0x3d094f00	0.033522606
31	0x3d47a939	0.048745368
32	0x3d5bfc71	0.053707544
33	0x3eb9d2e7	0.36293718
34	0x3ea676c6	0.32512492
35	0xbe42c4d1	-0.19020392
36	0xbe186d50	-0.1488545
37	0xbe80c359	-0.25149038
38	0x3dbca07c	0.092102975
39	0x3e904a72	0.28181797
40	0xbda39c0f	-0.0798875
41	0x3e76b098	0.24090803
42	0xbe7c8595	-0.24660333
43	0xbe788e4a	-0.24273029
44	0x3e55aac0	0.20865917
45	0xbea4f38e	-0.32217067
46	0xbeb3cdf9	-0.35118082
47	0x3dcafb7d	0.09911249
48	0x3e893be4	0.26803505
49	0xbe614975	-0.22000678
50	0xbedd2062	-0.4318877
51	0x3ea5a84e	0.3235497
52	0x3ca79b0a	0.02045967
53	0x3e02e2c4	0.12781817
54	0xbdaeff8a	-0.08544834
55	0xbe556c51	-0.208421
56	0xbb3998b8	-0.0028319787
57	0x3e5c6e91	0.21526553
58	0x3efa6580	0.48905563
59	0x3e5cf2b6	0.21576962
60	0xbebc866a	-0.368213
61	0x3f0c6ec6	0.54856527
62	0x3eac379a	0.3363617
63	0xbd141496	-0.036152445
64	0xbe229b1b	-0.1587948
65	0x3e0b2b22	0.13590673
66	0xbe6bb509	-0.23018278
67	0xbe6bf44f	-0.23042415
68	0x3cdd8918	0.02704291
69	0x3dd3186e	0.10307394
70	0xbde7f59c	-0.11326143
71	0xbe6de67f	-0.23232459
72	0xbd836172	-0.064150706
73	0xbe1bb149	-0.15204348
74	0x3e3ad040	0.18243504
75	0x3e01f36a	0.12690511
76	0xbd075667	-0.033041384
77	0x3db33aa0	0.08751416
78	0x3de2fe6d	0.11083684
79	0xbdd47dfc	-0.10375592
80	0x3e6b9ff6	0.23010239
81	0xbe90e3d2	-0.28298813
82	0x3cf27af6	0.029599648
83	0xbea6e3d8	-0.32595706
84	0x3d22ee05	0.039777774
85	0x3e380f19	0.1797451
86	0xbe1c4ab7	-0.15262876
87	0xbe1f11ea	-0.15534177
88	0x3e1b2f88	0.1515485
89	0xbe750fd2	-0.23931816
90	0xbe371373	-0.17878513
91	0x3ebcd2bc	0.36879528
92	0x3e82b156	0.25525922
93	0xbe89c915	-0.26911226
94	0x3ecb1984	0.39667904
95	0xbe2bb8a7	-0.16769658
96	0x3ea77f43	0.3271428
97	0x3d5982bd	0.053103197
98	0x3d8b6fec	0.06808457
99	0x3d85076c	0.06495556
100	0x3e3bfea0	0.1835885
101	0xbe4ff1d3	-0.20307092
102	0x3e151703	0.1455956
103	0x3ec095bb	0.37614235
104	0x3e246f8a	0.16058174
105	0x3ed58406	0.41702288
106	0xbed0d9c6	-0.40791148
107	0xbebc6128	-0.36792874
108	0xbde35b2b	-0.11101373
109	0x3e289c7e	0.16465947
110	0xbda57276	-0.08078472
111	0x3e2644ff	0.16237257

flow.flow.transforms.0.alpha_prime f4 [7]
0	0xbc91d1e6	-0.017800283
1	0x3e431f7f	0.19054984
2	0xbe82e686	-0.255665
3	0xbe43521a	-0.19074288
4	0xbdaab7c6	-0.08335833
5	0x3e2972b9	0.1654767
6	0x3cc2d3ca	0.02378263

flow.flow.transforms.0.beta_prime f4 [7]
0	0x3dbb174b	0.09135302
1	0xbd17cf84	-0.037063137
2	0x3e3481fd	0.17627712
3	0x3e901278	0.2813909
4	0x3e734c80	0.23759651
5	0x3dccdf85	0.100035705
6	0x3e743881	0.2384968

flow.flow.transforms.1.x0 f4 [7, 16]
0	0xbea15c95	-0.31515947
1	0xbe3610a1	-0.17779781
2	0x3e6a9929	0.22909988
3	0x3df7c285	0.120976485
4	0x3ea9f931	0.3319793
5	0x3e43c651	0.1911862
6	0xbe1a050f	-0.15040992
7	0x3db3bc8f	0.08776199
8	0x3e6d3758	0.23165643
9	0xbe253171	-0.16132142
10	0xbe432f35	-0.19060977
11	0x3dc6fcb7	0.0971617
12	0x3e4e2e58	0.20134866
13	0xbedabc46	-0.42721766
14	0xbe119c04	-0.14219671
15	0xbe79889d	-0.2436852
16	0xbc92d954	-0.017925896
17	0x3d02b40c	0.031909987
18	0xbd949133	-0.07254257
19	0xbedf2fa8	-0.43591046
20	0xbe4b1d44	-0.19835383
21	0x3e0acf10	0.1355555
22	0x3e23701a	0.15960732
23	0x3db3eb14	0.08785072
24	0x3dee5fe9	0.11639387
25	0x3ea35503	0.31900796
26	0x3cdd57ec	0.027019463
27	0xbd3f7310	-0.04674059
28	0x3e20c296	0.15699229
29	0xbe086f5a	-0.13323727
30	0xbd16b54e	-0.036794
31	0xbe1c2a31	-0.1525047
32	0xbd98f59c	-0.07468721
33	0xbed6c54b	-0.41947398
34	0xbeab41a6	-0.33448523
35	0xbd472574	-0.048619702
36	0x3e6a5587	0.22884189
37	0x3ea0f42c	0.31436288
38	0x3daa0b06	0.08302884
39	0xbde2f08a	-0.110810354
40	0x3d8b4e98	0.068021
41	0xbe70f960	-0.23532629
42	0xbd999a24	-0.07500103
43	0xbdcb295c	-0.09919998
44	0xbe9a3edf	-0.30126092
45	0x3ed3b976	0.41352433
46	0x3e6ead2b	0.23308246
47	0xbda7148d	-0.081582166
48	0xbea391c3	-0.31947145
49	0x3e59d990	0.212744
50	0x3e3de963	0.18546061
51	0xbdfa857e	-0.12232493
52	0x3c5b0d8c	0.013369929
53	0xbb3aaee2	-0.0028485586
54	0x3dbbf763	0.09178045
55	0x3d92c983	0.071673416
56	0xbd80d3aa	-0.06290372
57	0xbe9e2834	-0.30890048
58	0xbeba3631	-0.3636947
59	0xbd6b1916	-0.05739697
60	0x3d81d98a	0.063403204
61	0xbed60233	-0.41798553
62	0xbe9b68a7	-0.3035328
63	0xbb1ccb99	-0.0023925065
64	0x3e5db611	0.21651484
65	0x3e24b7fd	0.16085811
66	0x3eb9ce5e	0.36290258
67	0x3e8a961b	0.27067646
68	0x3e07fc26	0.13279781
69	0x3b30bc42	0.002696768
70	0x3e968fd1	0.29406598
71	0x3ec541fe	0.3852691
72	0x3e59227c	0.21204561
73	0x3e7df790	0.24801469
74	0xbe7ec466	-0.24879608
75	0xbeab9b64	-0.3351699
76	0x3e08ac0e	0.13346884
77	0x3ccea33d	0.025224322
78	0xbec10240	-0.3769703
79	0x3dda9840	0.10673571
80	0x3c831cc8	0.016004935
81	0x3e8bae34	0.27281344
82	0x3c65fc49	0.0140372
83	0x3d497e68	0.049192816
84	0x3eb5ec77	0.3553197
85	0xbd48b246	-0.04899814
86	0xbe994eca	-0.29942924
87	0xbe05250f	-0.13002418
88	0x3ea8204e	0.32837147
89	0x3de6b25e	0.112644896
90	0x3e4f4d03	0.20244221
91	0x3eb34a53	0.35017642
92	0x3e0c8bc9	0.13725199
93	0x3e340b06	0.1758233
94	0xbd579136	-0.05262872
95	0x3e3da9c4	0.18521792
96	0x3c594869	0.013261893
97	0xbe55578b	-0.20834176
98	0xbdaf40d2	-0.08557285
99	0xbc49f55e	-0.0123265665
100	0xbdcb7c66	-0.099358365
101	0x3ea72837	0.3264787
102	0xbe2ef41f	-0.17085312
103	0xbe605df1	-0.21910836
104	0x3de62a23	0.11238506
105	0xbdb15913	-0.08659568
106	0x3dfda98b	0.123858534
107	0x3efb3b49	0.49068668
108	0x3caeac51	0.021322401
109	0x3adde282	0.0016928467
110	0x3dfe5644	0.124187976
111	0xbd420121	-0.047364358

flow.flow.transforms.1.alpha_prime f4 [7]
0	0xbe5c2c48	-0.21501267
1	0x3e579a84	0.21055037
2	0x3d967d65	0.07348136
3	0x3d8886f3	0.066663645
4	0x3e216428	0.15760863
5	0x3db57e34	0.08861962
6	0xbde3e712	-0.111280575

flow.flow.transforms.1.beta_prime f4 [7]
0	0x3de8b520	0.11362672
1	0xbd32637b	-0.043551903
2	0xbe51f3a6	-0.20503101
3	0xbe4b9b63	-0.19883494
4	0x3da15cfe	0.07879065
5	0xbe36a814	-0.17837554
6	0xbe998c0b	-0.29989657

flow.flow.transforms.2.x0 f4 [7, 16]
0	0xbeba308b	-0.3636516
1	0xbda41f7c	-0.08013818
2	0x3dbe1483	0.09281256
3	0x3c1e6695	0.009668012
4	0x3f06c054	0.5263722
5	0x3d7c0745	0.06153037
6	0xbdc906c8	-0.098157465
7	0xbe5992e4	-0.2124744
8	0x3ee72f68	0.45153356
9	0xbeb9bca7	-0.36276743
10	0xbeaa7ddb	-0.33299145
11	0xbdd56bdc	-0.10420963
12	0x3e3fd610	0.18734002
13	0xbf16a444	-0.588444
14	0xbe9218fa	-0.2853468
15	0xbf05c775	-0.5225747
16	0x3d9c259c	0.07624361
17	0xbe35dbc2	-0.17759612
18	0x3c09c2b3	0.008408236
19	0x3f044489	0.51667076
20	0x3ed2b70b	0.41155276
21	0xbc760143	-0.015014949
22	0xbd20fe34	-0.039304927
23	0xbd1522e1	-0.036410216
24	0xbe62a01c	-0.2213139
25	0xbecc415a	-0.3989361
26	0x3bd0c0dc	0.006370647
27	0x3c56c64c	0.013108801
28	0xbea41cc0	-0.32053185
29	0x3eaf5f80	0.34252548
30	0x3e1b02a3	0.15137725
31	0x3e28a033	0.16467361
32	0xbd094593	-0.033513617
33	0x3eb0fe36	0.34568948
34	0x3e882727	0.2659237
35	0xbe28036c	-0.16407555
36	0xbe0437e6	-0.12911949
37	0xbe3ed7f9	-0.18637075
38	0x3d00d799	0.03145561
39	0x3e81e09c	0.25366676
40	0xbd75d751	-0.060019795
41	0x3e4f97f7	0.20272814
42	0xbe816ce8	-0.252784
43	0xbe81e90e	-0.2537312
44	0x3e3fd620	0.18734026
45	0xbea1c3dc	-0.3159474
46	0xbeaa9f93	-0.3332487
47	0x3e3a39bf	0.18186091
48	0x3e94f814	0.2909552
49	0xbea41cc9	-0.3205321
50	0xbee73049	-0.45154026
51	0x3eb4f612	0.35343987
52	0x3c1a4c78	0.009417646
53	0x3e61f4a8	0.22065985
54	0x3d0abd13	0.03387172
55	0xbe0525d8	-0.13002717
56	0x3df9d7da	0.121993735
57	0x3e6a1e21	0.22863056
58	0x3f006bc0	0.50164413
59	0x3e0ca4b4	0.13734704
60	0xbed81ce1	-0.42209533
61	0x3f1b0c8f	0.6056604
62	0x3e0a1dc8	0.13487923
63	0xbd9601d2	-0.07324566
64	0x3d9616eb	0.0732859
65	0xbea9965e	-0.33122534
66	0x3e336390	0.17518449
67	0x3e4de219	0.2010578
68	0x3e0e981d	0.13925214
69	0xbeb68280	-0.3564644
70	0xbe4433e5	-0.19160421
71	0xbe747d39	-0.23875894
72	0x3e5591fd	0.20856471
73	0x3e74f7f2	0.23922709
74	0xbe55474d	-0.2082798
75	0xbe46376d	-0.19357081
76	0x3e16046d	0.14650126
77	0x3ea68354	0.3252207
78	0x3ec2b0ef	0.38025615
79	0xbead1e20	-0.33812046
80	0xbe05f905	-0.13083275
81	0x3e5522f5	0.20814116
82	0xbeb4b009	-0.35290554
83	0xbe925e27	-0.28587458
84	0xbed05b73	-0.4069477
85	0xbe4724e3	-0.19447665
86	0xbe9399cb	-0.28828272
87	0x3ee533ce	0.44766086
88	0xbee76639	-0.45195177
89	0x3ebbea2e	0.36702102
90	0x3ea2dc89	0.3180888
91	0xbe2ee738	-0.1708039
92	0x3c83f891	0.016109737
93	0xbe29e980	-0.1659298
94	0xbedf57a7	-0.4362156
95	0x3e93a180	0.28834152
96	0x3e98b3e1	0.29824737
97	0xbadef425	-0.0017010017
98	0x3b930c47	0.0044875476
99	0x3d59301a	0.05302439
100	0x3e278fdc	0.16363472
101	0xbe5e14b2	-0.21687582
102	0x3e5a31fa	0.21308127
103	0x3e9377e2	0.288024
104	0x3de5d66a	0.11222537
105	0x3eb9c8cf	0.36286017
106	0xbed4c7fe	-0.41558832
107	0xbea7efb3	-0.32800063
108	0xbdc8757c	-0.09788033
109	0x3e354f60	0.1770606
110	0xbe01d537	-0.12678991
111	0x3e80ea4b	0.2517875

flow.flow.transforms.2.alpha_prime f4 [7]
0	0x3d99f539	0.07517476
1	0xbe194051	-0.14965941
2	0xbeba8398	-0.36428523
3	0xbe8ce3f5	-0.27517667
4	0x3d8646ab	0.065564476
5	0xbe33701d	-0.17523237
6	0xbea22165	-0.31666103

flow.flow.transforms.2.beta_prime f4 [7]
0	0x3e373b84	0.17893797
1	0x3e74832f	0.23878168
2	0x3b8ff629	0.0043933582
3	0x3e24a4e1	0.16078521
4	0x3d67f854	0.05663331
5	0xbde53ce3	-0.11193254
6	0x3dd58836	0.10426371

flow.flow.transforms.3.x0 f4 [7, 16]
0	0xbe8ee790	-0.27911043
1	0x3e7de703	0.24795155
2	0x3e6e5132	0.23273161
3	0x3ebdc75d	0.37066165
4	0x3eb6fee6	0.35741347
5	0x3f0409cf	0.51577467
6	0xbe3aa09c	-0.1822533
7	0x3e571b8b	0.210066
8	0x3ce9ec10	0.028554946
9	0xbed70076	-0.4199254
10	0x3e4600c6	0.19336233
11	0xbddbb9a5	-0.10728768
12	0x3e5738cc	0.2101776
13	0xbdb92e3f	-0.09042024
14	0xbed519a5	-0.41621128
15	0x3e0c6322	0.13709691
16	0xbdd2a726	-0.10285787
17	0xbe98aa9c	-0.29817665
18	0x3e02089e	0.126986
19	0x3eed23ae	0.46316284
20	0x3ec90f8e	0.3926968
21	0x3d25998b	0.040429633
22	0xbe7c3d29	-0.24632706
23	0xbcd436be	-0.02590501
24	0xbe874d45	-0.2642614
25	0xbed1f7a7	-0.41009256
26	0x3df5e582	0.12006666
27	0x3e4b7289	0.1986791
28	0xbe89fb20	-0.26949406
29	0x3e2886dc	0.16457695
30	0x3b8f3371	0.004370146
31	0x3e1e8968	0.15482104
32	0xbd0286a5	-0.03186669
33	0x3ec4041b	0.38284382
34	0x3e90ac45	0.2825643
35	0xbe3ea06e	-0.18615887
36	0xbdeeaaa6	-0.11653642
37	0xbe7662ea	-0.2406117
38	0x3dd13385	0.10214905
39	0x3e13d5d2	0.14437035
40	0xbdc39156	-0.09549205
41	0x3e519ae9	0.2046925
42	0xbe70b3c5	-0.23506077
43	0xbe75de0b	-0.24010484
44	0x3e13a853	0.1441968
45	0xbea3e247	-0.32008573
46	0xbe698063	-0.22802882
47	0x3e2857da	0.16439763
48	0x3e532f66	0.2062355
49	0xbef27ef2	-0.47362477
50	0xbe36acdd	-0.1783938
51	0x3eb2856e	0.34867424
52	0x3ca2b524	0.019861765
53	0x3deedecf	0.11663591
54	0x3e1f79ee	0.15573856
55	0xbe71f5c0	-0.23628902
56	0xbdde1f76	-0.108458444
57	0x3eb93a43	0.36177263
58	0x3e4c4b1c	0.19950527
59	0xbc8f038c	-0.017457746
60	0xbf089d09	-0.53364617
61	0x3eb06403	0.34451303
62	0x3ed81007	0.42199728
63	0x3e148d15	0.14506944
64	0xbe3a66e6	-0.18203315
65	0x3e02cefc	0.12774271
66	0xbe6423c7	-0.22279273
67	0xbe8fe02e	-0.28100723
68	0x3d6129b9	0.05497143
69	0x3e13a35b	0.14417784
70	0xbe1767fd	-0.14785762
71	0xbe4d7387	-0.20063601
72	0xbc4f3c42	-0.012648644
73	0xbe089a5b	-0.13340132
74	0x3e3d3a7f	0.18479346
75	0x3dbf8b1a	0.093527034
76	0xbd618b39	-0.055064414
77	0x3d7c79d1	0.06163961
78	0x3e2411a7	0.16022359
79	0xbe097d7b	-0.13426773
80	0x3d94d188	0.072665274
81	0xbe2f6a65	-0.1713043
82	0x3e47215f	0.19446324
83	0x3c35f5f9	0.011106008
84	0xbe16fdf2	-0.1474531
85	0x3b7bf74c	0.003844696
86	0x3e201245	0.1563197
87	0x3e403c5d	0.18773027
88	0xbccb1bf1	-0.024793597
89	0x3e450087	0.19238482
90	0x3e5601e0	0.20899153
91	0xbe079d02	-0.13243487
92	0x3df9f521	0.12204958
93	0xbd342d0d	-0.043988276
94	0xbe8d8a83	-0.2764474
95	0xbdaf0c2e	-0.08547245
96	0x3e9793bd	0.29604903
97	0x3bbfda7a	0.005854902
98	0x3d94fc30	0.072746634
99	0x3da640fd	0.08117864
100	0x3e1a6dac	0.15080899
101	0xbe2058b0	-0.15658832
102	0x3e192f18	0.14959371
103	0x3ea5ba26	0.32368582
104	0x3de88301	0.11353112
105	0x3e725573	0.23665409
106	0xbec5e751	-0.38653043
107	0xbeb3310a	-0.3499835
108	0xbe387938	-0.18014991
109	0x3e2c8982	0.1684933
110	0xbe00a60f	-0.12563346
111	0x3e5a56a2	0.2132211

flow.flow.transforms.3.alpha_prime f4 [7]
0	0xbe156006	-0.14587411
1	0xbeb02f2e	-0.34410995
2	0xbe352069	-0.17688145
3	0xbe820631	-0.2539535
4	0x3d259201	0.040422443
5	0xbdfef693	-0.12449374
6	0xbe8d387f	-0.27582166

flow.flow.transforms.3.beta_prime f4 [7]
0	0xbdc40049	-0.09570367
1	0x3e8add30	0.27121878
2	0x3d685728	0.056723744
3	0xbdd45655	-0.10368029
4	0x3e43c6bd	0.19118781
5	0x3e62eaae	0.22159836
6	0x3dd69768	0.10478097

flow.flow.transforms.4.x0 f4 [7, 16]
0	0xbe8fb38a	-0.28066665
1	0xbe46c181	-0.19409753
2	0x3e5fde83	0.21862225
3	0x3dacf7ee	0.08445726
4	0x3ea3b52c	0.3197416
5	0x3e732d3f	0.23747729
6	0xbe271dc8	-0.16319954
7	0x3d521462	0.05128897
8	0x3e667510	0.22505593
9	0xbe3f9e90	-0.1871283
10	0xbe369d31	-0.17833401
11	0x3d0b6622	0.03403295
12	0x3e382313	0.1798213
13	0xbec317c2	-0.38104063
14	0xbe2874fa	-0.16450873
15	0xbe866aea	-0.26253444
16	0xbdb21395	-0.08695141
17	0x3e15895f	0.14603184
18	0xbd4311d4	-0.047624424
19	0xbed6cd14	-0.41953337
20	0xbe78b941	-0.24289419
21	0x3db442ec	0.08801827
22	0x3dd0599e	0.10173343
23	0x3d1ec76b	0.0387644
24	0x3d8ca8c5	0.06868128
25	0x3eacca57	0.33748123
26	0x3d1e5dc6	0.038663648
27	0x3d576f75	0.052596528
28	0x3dd7c903	0.10536387
29	0xbe2d7e03	-0.16942601
30	0x3a37d482	0.0007012562
31	0xbe923864	-0.28558648
32	0xbe0ee0b2	-0.13952902
33	0xbedaa67f	-0.4270515
34	0xbebc4fff	-0.36779782
35	0x3e56b7bc	0.20968527
36	0x3e0b71c2	0.13617614
37	0xbd66fe0f	-0.056394633
38	0xbe2b4308	-0.16724789
39	0xbe527dca	-0.20555797
40	0xbe30b7a6	-0.17257556
41	0xbe8b3099	-0.27185515
42	0x3e8aa21f	0.27076814
43	0x3ea45371	0.3209491
44	0xbab83fb2	-0.0014057069
45	0x3dff8e8c	0.124783605
46	0x3d84cab6	0.064839765
47	0xbe0eb3d3	-0.13935785
48	0xbe8f59f2	-0.2799831
49	0x3d87b2d5	0.066259064
50	0x3e2dbc57	0.16966377
51	0xbd67ec77	-0.056621995
52	0x3dff1082	0.124543205
53	0xbcf3fb8e	-0.029783037
54	0xbd8f1a93	-0.069874905
55	0x3e11dbb8	0.14243972
56	0xbe024d41	-0.12724783
57	0xbe9d971c	-0.3077935
58	0xbe33edcc	-0.17571181
59	0x3d04a94d	0.03238802
60	0x3c95b78f	0.018276004
61	0xbe9e821c	-0.3095864
62	0xbe70d5cc	-0.23519057
63	0xbd83542d	-0.0641254
64	0xbe28e8c6	-0.16495046
65	0x3e079343	0.1323977
66	0xbe6eea03	-0.23331456
67	0xbe7fc5d9	-0.24977817
68	0xbc7258c1	-0.014791668
69	0x3df32432	0.11872138
70	0xbde2011a	-0.11035366
71	0xbe6854f6	-0.2268866
72	0xbac8ffee	-0.0015335062
73	0xbe1a1358	-0.15046442
74	0x3e475315	0.19465287
75	0x3d830946	0.06398253
76	0xbd435587	-0.047688987
77	0x3dcf8ddc	0.101344794
78	0x3e15284f	0.14566158
79	0xbdce850f	-0.10083973
80	0x3e6145dc	0.21999305
81	0x3e3ebc17	0.18626438
82	0x3e4504a2	0.19240049
83	0x3dc2283b	0.094803296
84	0x3c048e87	0.008090622
85	0xbe5f2331	-0.21790768
86	0xbe68ea07	-0.22745524
87	0xbe5534d9	-0.20820941
88	0x3e0956fe	0.13412091
89	0x3e1375e7	0.14400445
90	0xbeb5bfec	-0.35497987
91	0xbe1a547f	-0.15071295
92	0x3e10d63a	0.14144221
93	0x3ec18624	0.37797654
94	0x3eb13c51	0.3461633
95	0x3dab98dd	0.08378766
96	0x3ea098c2	0.31366545
97	0x3ce0531c	0.02738338
98	0x3d847a71	0.06468666
99	0x3dde7b64	0.10863379
100	0x3cb63cb0	0.022245735
101	0xbe508d57	-0.20366417
102	0x3e55fcd0	0.20897222
103	0x3ebb2107	0.36548635
104	0x3e1a8418	0.15089452
105	0x3ed346ee	0.41265053
106	0xbecc52b3	-0.39906844
107	0xbebc1c0f	-0.36740157
108	0xbe4930c1	-0.19647504
109	0x3e307ad2	0.17234352
110	0xbc229664	-0.009923551
111	0x3e8a9812	0.27069145

flow.flow.transforms.4.alpha_prime f4 [7]
0	0xbe6d8b79	-0.23197736
1	0x3e2a69a3	0.1664186
2	0x3e80eb1a	0.25179368
3	0xb94af732	-0.00019356309
4	0xbd291546	-0.041280054
5	0xbdd6853a	-0.1047463
6	0xbdfc27f9	-0.12312312

flow.flow.transforms.4.beta_prime f4 [7]
0	0x3e8d8f88	0.27648568
1	0xbc35371c	-0.011060502
2	0xbe41c595	-0.18923028
3	0xbeb94410	-0.3618474
4	0x3e9fbee8	0.31200337
5	0xbe36a86b	-0.17837684
6	0x3cc844bb	0.024446836

flow.flow.transforms.5.x0 f4 [7, 16]
0	0x3e06feb7	0.13183104
1	0x3dd31f71	0.10308731
2	0xbe6b5035	-0.22979815
3	0xbe4e0be2	-0.2012172
4	0xbe2e22a7	-0.17005406
5	0xbdece8a9	-0.11567814
6	0x3d694a82	0.05695582
7	0xbd81d7c7	-0.063399844
8	0xbe65010f	-0.22363685
9	0x3d8d6053	0.06903138
10	0x3e369d44	0.1783343
11	0xbca6155f	-0.020273862
12	0xbe60e476	-0.21962151
13	0x3eb85634	0.36003268
14	0x3db23208	0.08700949
15	0x3de1f694	0.11033359
16	0xbdb7e7a8	-0.08979732
17	0x3e7c6b77	0.2465037
18	0xbbcdc0b1	-0.006279074
19	0xbead8472	-0.3389011
20	0xbea184e3	-0.31546697
21	0xbd43d21b	-0.047807794
22	0x3e5545fd	0.2082748
23	0x3e51f21c	0.20502514
24	0x3dffc6da	0.124891
25	0x3ece5c46	0.40304774
26	0xbb984c73	-0.0046477853
27	0xbd4ba9eb	-0.049722593
28	0x3e83639d	0.25661936
29	0xbe7c5ada	-0.24644032
30	0xbe43e123	-0.19128852
31	0xbe9ae57b	-0.30253205
32	0xbdfb194d	-0.12260685
33	0xbe3ce202	-0.1844559
34	0xbebf385f	-0.37347695
35	0x3e5ea802	0.21743777
36	0x3e7e9b85	0.24864013
37	0x3ebc7fee	0.36816353
38	0x3d8a21d1	0.06744731
39	0xbe05e68e	-0.13076231
40	0xbe28d05d	-0.16485734
41	0xbe92b224	-0.28651536
42	0xbd191eb5	-0.0373828
43	0x3d79a63f	0.06094956
44	0xbea57e22	-0.32322794
45	0x3df4a528	0.119455636
46	0x3e7858c4	0.24252611
47	0x3bc988e9	0.006150354
48	0x3ec6fe8f	0.38866088
49	0xbe73cec6	-0.23809347
50	0xbeeafb78	-0.4589498
51	0x3ec4ffa9	0.38476303
52	0x3e0cb419	0.13740577
53	0xbd2977ae	-0.0413739
54	0xbda06727	-0.07832175
55	0xbe3308fe	-0.17483899
56	0x3cc0543c	0.023477666
57	0x3ea2a977	0.31769916
58	0x3e6bd497	0.23030315
59	0x3eb093dc	0.34487808
60	0xbde32ee8	-0.11092931
61	0x3f173b5e	0.5907496
62	0x3ecef6fe	0.40422815
63	0x3ddfcddf	0.10927939
64	0xbdf2539b	-0.11832353
65	0xbda0f590	-0.07859337
66	0xbe4136f4	-0.18868619
67	0x3ecf26ac	0.40459192
68	0x3e843145	0.2581884
69	0xbe523e4f	-0.20531581
70	0xbe35747e	-0.1772022
71	0x3f104752	0.56358826
72	0x3e8e7899	0.27826384
73	0x3ebd891f	0.37018678
74	0xbead7d88	-0.33884835
75	0xbb9e6c24	-0.0048346687
76	0x3d9eaea7	0.07748156
77	0xbe8a6fdc	-0.27038467
78	0x3da2eede	0.079557166
79	0xbe77c2b3	-0.24195366
80	0xbe98e20a	-0.29859954
81	0xbe2e8388	-0.17042363
82	0xbe8e163e	-0.27751344
83	0xbd86dce5	-0.06585101
84	0x3e976709	0.29570797
85	0xbd8b5e20	-0.06805062
86	0x3e43feaf	0.19140123
87	0xbe6325dc	-0.22182411
88	0x3e7429fa	0.23844138
89	0xbe5ad994	-0.21372062
90	0xbe318a28	-0.17337859
91	0x3b8db40e	0.0043244427
92	0x3e106320	0.14100313
93	0x3dc61d56	0.09673564
94	0x3ea0c9df	0.31404015
95	0x3daf0c5d	0.0854728
96	0xbe9dcf94	-0.30822432
97	0x3c8e136e	0.01734325
98	0xbce08c2b	-0.027410587
99	0xbde3a508	-0.111154616
100	0xbd4c76b4	-0.04991789
101	0x3e46de4b	0.19420736
102	0xbe36ac4a	-0.1783916
103	0xbe3587d2	-0.17727593
104	0xbe71030e	-0.23536322
105	0xbe5db7ef	-0.21652196
106	0x3e938425	0.28811756
107	0x3e9b74b5	0.30362478
108	0x3e0007bf	0.12502955
109	0xbdf23065	-0.11825637
110	0xbce1c6da	-0.02756064
111	0xbbfaf58c	-0.007658666

flow.flow.transforms.5.alpha_prime f4 [7]
0	0x3dd1249c	0.10212061
1	0xbdde2c6c	-0.108483166
2	0x3df1c429	0.11804993
3	0x3db08fbe	0.08621167
4	0x3de3cec8	0.11123425
5	0x3d5fca8f	0.054636534
6	0x3e2ca765	0.16860731

flow.flow.transforms.5.beta_prime f4 [7]
0	0xbe450370	-0.19239593
1	0xbe3914e9	-0.18074383
2	0xbe084092	-0.13305882
3	0x3e8cba68	0.27485967
4	0x3cb83a47	0.022488726
5	0xbe1c6df0	-0.15276313
6	0xbe4989bf	-0.19681452

flow.flow.transforms.6.x0 f4 [7, 16]
0	0xbd5ddd74	-0.054166272
1	0xbe50ef1a	-0.2040371
2	0x3eabdb4b	0.33565745
3	0x3e0ef9de	0.13962504
4	0x3df81a5c	0.12114403
5	0x3e650b58	0.22367609
6	0xbe6080bb	-0.21924107
7	0x3d8cf03d	0.06881759
8	0x3e8ad0e7	0.27112505
9	0xbe569ef1	-0.20959069
10	0xbe72e451	-0.23719908
11	0xbcec2f3f	-0.028831122
12	0x3d836f5d	0.06417725
13	0xbef68f65	-0.48156276
14	0xbe9234f4	-0.28556025
15	0xbed3ca05	-0.41365066
16	0xbcfa7586	-0.030573618
17	0x3e5081f2	0.2036207
18	0xbd4d127d	-0.05006646
19	0xbe9a19e3	-0.30097875
20	0xbe913efc	-0.28368366
21	0x3db8096e	0.089861736
22	0x3e347223	0.17621665
23	0x3de3af6b	0.11117443
24	0x3db43223	0.08798625
25	0x3eb9cb88	0.36288095
26	0xbd87f415	-0.06638352
27	0xbcf0c727	-0.029391838
28	0x3e4a6920	0.19766665
29	0xbe56d3fb	-0.20979302
30	0xbd261a3a	-0.040552355
31	0xbe7f44a5	-0.2492853
32	0xbd287b6b	-0.041133326
33	0x3e9f2e87	0.31090185
34	0x3e89e77a	0.26934415
35	0xbd92ae5f	-0.07162165
36	0xbe1f6859	-0.15567149
37	0xbe731dc0	-0.23741817
38	0x3d3dd785	0.046348114
39	0x3e96b58c	0.29435384
40	0xbdb4e208	-0.088321745
41	0x3e0c8f27	0.13726483
42	0xbe57385c	-0.21017593
43	0xbe457859	-0.1928419
44	0x3e1f5773	0.15560703
45	0xbeaa2044	-0.33227742
46	0xbeacfbf0	-0.33785963
47	0x3e04be0f	0.12963127
48	0x3d30c70d	0.04315858
49	0xbee2a9a9	-0.44270065
50	0xbee3690f	-0.4441609
51	0x3e97bc83	0.2963601
52	0x3dddb3a9	0.10825283
53	0x3e398c11	0.18119837
54	0xbcb2f6e6	-0.021846246
55	0xbe07e602	-0.13271335
56	0xbdf59528	-0.1199134
57	0x3dce75e2	0.10081078
58	0x3f023f4d	0.5087784
59	0x3e759317	0.23981892
60	0xbebd16da	-0.36931497
61	0x3f15a864	0.5846007
62	0x3eb944c1	0.36185268
63	0xbdc92ddf	-0.09823202
64	0x3e7b1419	0.24519385
65	0xbe28d905	-0.16489036
66	0x3eadf718	0.3397758
67	0x3e4cd177	0.2000178
68	0x3e006232	0.12537459
69	0xbdd9c62c	-0.106335014
70	0x3e3fe25c	0.18738693
71	0x3ec6be07	0.38816854
72	0x3d191e6c	0.03738253
73	0x3e80080a	0.25006133
74	0xbe81812d	-0.25293866
75	0xbe4148d2	-0.18875435
76	0xbe1a9974	-0.150976
77	0x3e019b7b	0.12656967
78	0xbeb14dba	-0.34629613
79	0x3e766015	0.2406009
80	0x3d7e009f	0.06201231
81	0xbe01aeec	-0.12664384
82	0x3ddde082	0.10833837
83	0x3dd24810	0.10267651
84	0xbdeab629	-0.114605255
85	0xbd52488d	-0.05133872
86	0x3e474a04	0.19461828
87	0x3e157b53	0.14597826
88	0xbdf02579	-0.11725897
89	0x3dc705c6	0.09717898
90	0x3dc037ff	0.093856804
91	0xbd8c8df5	-0.06863014
92	0x3d9870ea	0.07443412
93	0xbc62fa35	-0.013853599
94	0xbe665562	-0.22493508
95	0xbd5ea2f8	-0.054354638
96	0xbe378e3f	-0.17925356
97	0x3cecaf2f	0.028892128
98	0xbe6c64ca	-0.23085323
99	0xbd4aadc5	-0.049482126
100	0x3df36d20	0.11886048
101	0xb9925c26	-0.00027915946
102	0xbe1a6c1a	-0.150803
103	0xbe4cae94	-0.19988471
104	0xbea71782	-0.32635123
105	0xbeb4d155	-0.35315958
106	0x3edae682	0.42753989
107	0xbd473fab	-0.048644703
108	0x3d250e90	0.04029709
109	0xbd60247f	-0.054722305
110	0x3c8ef275	0.017449597
111	0xbe9ed322	-0.31020457

flow.flow.transforms.6.alpha_prime f4 [7]
0	0xbd8781eb	-0.06616577
1	0x3e640390	0.22266984
2	0xbe3ebf74	-0.18627721
3	0xbe73fd53	-0.23827104
4	0x3e5de31b	0.21668665
5	0xbe98efcd	-0.29870453
6	0x3c96ff29	0.018432217

flow.flow.transforms.6.beta_prime f4 [7]
0	0x3d41bc1b	0.047298532
1	0x3dc0b798	0.09410018
2	0x3c833505	0.016016493
3	0x3e48e477	0.19618402
4	0xbda401e0	-0.0800817
5	0x3eb19c08	0.34689355
6	0xbe8c2710	-0.27373552

flow.flow.transforms.7.x0 f4 [7, 16]
0	0xbe83d1af	-0.25745913
1	0xbe533b0e	-0.20627996
2	0x3e354540	0.17702198
3	0x3dca70b6	0.09884779
4	0x3e8fb448	0.2806723
5	0x3e894c45	0.26816002
6	0xbe0d1e03	-0.1378098
7	0x3cf349c4	0.02969826
8	0x3e104fef	0.14092992
9	0xbe6afe99	-0.22948684
10	0xbe0056d4	-0.12533122
11	0x3e030066	0.1279312
12	0x3e504328	0.20338118
13	0xbecbc8fb	-0.39801773
14	0xbe3bba0f	-0.18332694
15	0xbe5ec377	-0.21754251
16	0xbd8bba74	-0.068226725
17	0xbe9a4495	-0.3013045
18	0x3da73fa7	0.081664376
19	0x3ef4b3e0	0.47793484
20	0x3ebf40ae	0.37354034
21	0x3d3acb3d	0.04560398
22	0xbe616749	-0.22012056
23	0xbcadff89	-0.021240013
24	0xbe637ac8	-0.22214806
25	0xbecc745a	-0.3993252
26	0x3dabcbf3	0.083885096
27	0x3e2765f5	0.16347487
28	0xbe95d434	-0.2926346
29	0x3e1bfbdd	0.15232797
30	0x3d926f2e	0.07150112
31	0x3e045e09	0.12926497
32	0xbd185c36	-0.037197314
33	0x3eb1d47a	0.3473242
34	0x3e5ca3fb	0.21546929
35	0xbe2e2e88	-0.17009938
36	0xbe178294	-0.14795905
37	0xbe694e80	-0.22783852
38	0x3d620076	0.05517622
39	0x3e87e640	0.26542854
40	0xbd40564c	-0.0469573
41	0x3e4bcbad	0.19901915
42	0xbe86d251	-0.26332334
43	0xbe501f6e	-0.2032449
44	0x3e31afc3	0.17352204
45	0xbeaead5a	-0.34116632
46	0xbeb4bf88	-0.35302377
47	0x3e3f59bc	0.18686575
48	0xbe8f3994	-0.27973616
49	0x3dc3e27b	0.09564682
50	0x3e081f25	0.1329313
51	0xbe22908d	-0.15875454
52	0x3ded371b	0.11582776
53	0x3d003102	0.031296737
54	0xbd710bf6	-0.058849297
55	0x3e0449f3	0.12918834
56	0xbdd0d2b6	-0.1019644
57	0xbe8e761b	-0.27824482
58	0xbe1e6ffa	-0.15472403
59	0xbd4a998f	-0.04946285
60	0x3dc02a6e	0.09383093
61	0xbe6c0d6d	-0.23051997
62	0xbe3b1f57	-0.18273674
63	0xbda262ee	-0.079290256
64	0xbe11b182	-0.1422787
65	0x3e114a6e	0.14188549
66	0xbe427a2b	-0.18991916
67	0xbe51600b	-0.20446794
68	0x3d08f6a6	0.033438347
69	0x3da5248f	0.080636136
70	0xbdb9672e	-0.09052883
71	0xbdbb8028	-0.09155303
72	0x3c5d2f01	0.013499976
73	0xbdfd4912	-0.12367453
74	0x3e099b57	0.13438164
75	0x3d040b62	0.032237418
76	0xbd67d98d	-0.056603957
77	0x3de66157	0.11249035
78	0x3de98012	0.114013806
79	0xbda7d71f	-0.08195328
80	0x3e01ca6e	0.12674877
81	0xbe1cda7c	-0.1531772
82	0x3e28d0dc	0.16485924
83	0x3e2d8ea8	0.1694895
84	0xbc42014d	-0.01184113
85	0xbe116cb3	-0.14201622
86	0x3e5a83de	0.21339366
87	0x3e3931d8	0.1808542
88	0xbdab023d	-0.08350036
89	0x3e2be4f6	0.1678656
90	0x3e0eba99	0.13938369
91	0xbde6fe69	-0.11278994
92	0x3d9f4121	0.07776094
93	0xbcb7d050	-0.022438198
94	0xbe9981d2	-0.29981858
95	0xbb9069a8	-0.0044071265
96	0xbe09eae1	-0.13468505
97	0x3db564db	0.08857127
98	0xbe0603f2	-0.13087443
99	0xbbd4e370	-0.006496839
100	0xbe446e71	-0.19182755
101	0x3e5fadd9	0.21843661
102	0xbea1774c	-0.3153633
103	0xbeace275	-0.33766523
104	0xbead8a96	-0.33894795
105	0xbdf407fa	-0.11915584
106	0x3ed89e5c	0.4230832
107	0x3e556534	0.20839387
108	0x3e38cb5b	0.18046324
109	0xbe5af976	-0.21384224
110	0xbe2b78c8	-0.16745293
111	0xbe874691	-0.26421025

flow.flow.transforms.7.alpha_prime f4 [7]
0	0xbdb8b3d2	-0.09018673
1	0xbec86ffa	-0.3914793
2	0x3d6e15eb	0.05812637
3	0x3e9b9279	0.30385187
4	0xbe017c15	-0.1264499
5	0x3d274172	0.040833898
6	0x3acbf0ac	0.0015559397

flow.flow.transforms.7.beta_prime f4 [7]
0	0x3e926b8d	0.2859768
1	0x3ea2e17a	0.3181265
2	0x3e847a67	0.25874636
3	0xbed0eb54	-0.4080454
4	0x3e1244ae	0.14284012
5	0x3e99279f	0.2991304
6	0xbde816da	-0.113324836
