saved_experiments/classification/GPN/1/model_9.pt (torch, 764793 bytes, 36 tensors)

input_encoder.0.weight f4 [64, 2879]
5.454662e-06 -1.39662325e-05 6.649979e-06 3.799505e-08 8.5003785e-06 7.877846e-06 -1.2743554e-05 -3.3610331e-06
4.3230543e-06 3.3932956e-06 -1.3314949e-05 1.2486903e-05 -3.1922987e-06 -1.1522588e-05 6.3762946e-07 -7.4641703e-06
1.1076811e-05 -7.1498966e-06 1.4753563e-05 9.663501e-06 7.948073e-06 -7.846677e-06 1.3567642e-05 -1.0199775e-05
-2.6748416e-05 -6.1347832e-06 -6.213633e-05 7.677332e-06 -7.687995e-06 7.073405e-06 6.0054144e-06 6.102698e-06
6.415541e-06 8.98086e-06 5.6418776e-07 1.7957429e-05 1.029865e-05 -7.399412e-06 1.1844078e-05 -8.962523e-06
-1.1678953e-05 1.9236995e-06 9.9327535e-06 -7.2945772e-06 -3.5000498e-06 -5.0098142e-06 -1.0445653e-05 0.00030678636
1.5491756e-05 6.8322634e-06 -2.8184422e-07 9.7530765e-06 5.849606e-07 -1.4203719e-05 -1.5033766e-07 9.976692e-06
7.4654054e-08 -5.7832085e-06 -8.563023e-06 1.0149878e-05 -1.9152272e-05 -5.6800295e-06 1.4419082e-05 3.8888766e-06
3.9833976e-06 1.7564958e-05 6.9592306e-06 -4.3763794e-07 2.893681e-06 1.3272104e-05 1.3516872e-05 9.6002705e-06
-9.376489e-06 -1.5033894e-05 5.9256126e-06 3.874609e-06 9.830136e-06 6.2114677e-06 -1.8979745e-06 -1.960832e-06
-5.831981e-06 -7.393306e-06 -9.790324e-06 -5.607035e-08 1.5297883e-05 1.0637338e-05 -2.012419e-06 -2.2278523e-06
1.9280492e-06 -2.047333e-06 -1.927286e-05 1.22549345e-05 9.679945e-06 -5.717102e-06 6.7967644e-06 1.7278517e-06
-1.5523228e-06 1.0123131e-08 1.0812655e-05 -1.202388e-05 -2.1539804e-06 5.73304e-06 8.915065e-06 -7.85227e-06
8.87008e-06 1.4322731e-05 -1.8487646e-05 -1.617899e-05 -3.3880133e-07 -7.3186925e-06 -6.3341326e-06 -3.7119362e-06
-1.1057542e-05 -1.8411483e-06 -1.9275376e-07 2.263127e-06 7.3459896e-06 8.776537e-06 -2.8117747e-06 5.180727e-06
2.5274167e-06 8.187853e-06 2.9358112e-06 1.17403615e-05 -8.956829e-06 -1.9212988e-05 -1.1376462e-05 -7.028935e-06
-6.0299417e-06 8.077854e-06 -7.783497e-06 -1.454148e-05 1.1496892e-05 -2.3829134e-06 -1.627738e-05 -4.6322075e-06
1.6352025e-05 1.8546754e-05 -8.090277e-06 -6.360222e-06 3.0780043e-06 -1.927331e-05 1.7550243e-05 1.6143202e-05
-1.6759515e-05 1.8414839e-06 -1.34607e-05 -7.426537e-06 -1.7364839e-05 -1.1208803e-05 1.5517576e-06 1.3708393e-05
-1.0326339e-05 -6.525169e-06 -7.849794e-06 2.760975e-06 -3.9841125e-06 -7.2301373e-06 -3.4133682e-06 -1.0886747e-06
-6.5805107e-06 -1.090559e-05 -1.4227951e-05 -1.3939923e-05 -1.2831333e-07 -8.797917e-06 -7.0408323e-06 -7.710289e-06
-3.5311396e-06 3.7657956e-06 6.477563e-06 9.395642e-06 -5.507335e-06 1.3999538e-05 -2.0879938e-06 -6.05453e-06
8.909017e-06 -5.852269e-06 4.967296e-06 1.7608185e-05 -1.887716e-05 1.4061221e-05 9.352672e-06 8.683937e-07
6.788614e-06 -1.634571e-05 -1.4694706e-07 -2.225932e-06 -1.3026211e-06 -1.3639508e-05 -7.766059e-06 -5.740275e-06
6.1120204e-06 -3.1625868e-06 -1.1921702e-06 9.569423e-06 2.38851e-06 -4.903964e-06 1.7308459e-05 -1.6552531e-07
-1.7328868e-05 -6.8777354e-06 1.2573717e-05 -1.7664886e-05 -5.5352175e-06 -5.059257e-06 1.2738243e-05 -1.3501357e-05
-4.809558e-06 4.6428e-06 5.8877486e-06 -9.914229e-07 1.6718772e-05 1.7069331e-05 5.5056908e-06 -8.738321e-06
-5.6399995e-07 8.28233e-06 6.901839e-06 1.76319e-05 -1.6944936e-05 -1.376771e-05 -1.74338e-05 -7.757208e-06
-9.949699e-06 -1.1971243e-05 9.414025e-06 -9.3772815e-06 -2.201954e-06 -1.2875548e-05 1.2768381e-05 -2.0884268e-06
-7.145961e-06 1.0378804e-05 3.8962885e-06 8.946092e-06 -9.510597e-06 -5.3270287e-07 1.6910308e-06 -3.1092331e-06
5.4941365e-06 1.04293085e-05 1.1793992e-05 -8.3323575e-06 -2.3039356e-06 -1.6403146e-06 7.4449654e-06 8.200829e-06
-2.5175877e-06 -8.98375e-06 3.528436e-06 1.2966512e-05 -9.374959e-06 1.3759372e-05 6.8507397e-06 4.5536763e-07
00000000: 3107 b736 8350 6ab7 e222 df36 0030 2333
00000010: d99c 0e37 172b 0437 26cd 55b7 1c8e 61b6
00000020: c10e 9136 60b8 6336 4563 5fb7 d77e 5137
00000030: 463b 56b6 2351 41b7 9029 2b35 bc74 fab6
00000040: 8ad6 3937 25e9 efb6 1286 7737 6c20 2237
00000050: b758 0537 39a5 03b7 94a0 6337 b31f 2bb7
00000060: c961 e0b7 63d9 cdb6 304f 82b8 e4cd 0037
00000070: b0fb 00b7 1658 ed36 1e82 c936 c7c5 cc36
00000080: 1445 d736 80ac 1637 b072 1735 49a3 9637
00000090: 5dc8 2c37 7748 f8b6 edb5 4637 be5d 16b7
000000a0: b9f0 43b7 e818 0136 daa4 2637 f1c3 f4b6
000000b0: 66e2 6ab6 fa19 a8b6 bd3f 2fb7 2bd8 a039
000000c0: 4bf4 8137 b240 e536 6050 97b4 25a1 2337
000000d0: 3006 1d35 824c 6eb7 806c 21b4 9161 2737
000000e0: 8051 a033 620d c2b6 e7a9 0fb7 6549 2a37
000000f0: 31a9 a0b7 1597 beb6 7ce9 7137 327d 8236
00000100: 20a9 8536 7658 9337 5683 e936 80f4 eab4
00000110: 1031 4236 41ab 5e37 86c6 6237 d910 2137
00000120: b74f 1db7 153a 7cb7 a0d4 c636 a302 8236
00000130: 1dec 2437 1a6c d036 e8bd feb5 d696 03b6
00000140: 56b0 c3b6 0414 f8b6 1f41 24b7 00d2 70b3
00000150: f453 8037 0577 3237 180d 07b6 3682 15b6
00000160: a263 0136 ea64 09b6 27ac a1b7 8b9a 4d37
00000170: 0c67 2237 88d5 bfb6 c30f e436 88e8 e735
00000180: 6859 d0b5 00ea 2d32 0068 3537 2cba 49b7
00000190: 1a8d 10b6 705e c036 ea91 1537 3ebd 03b7
000001a0: b4d0 1437 a94b 7037 eb15 9bb7 1eb8 87b7
000001b0: 80e4 b5b4 1793 f5b6 c989 d4b6 941a 79b6
000001c0: c883 39b7 601d f7b5 c0f7 4eb4 3ae0 1736
000001d0: 927d f636 f03e 1337 ecb1 3cb6 1bd6 ad36
000001e0: b09c 2936 905e 0937 da04 4536 78f8 4437
000001f0: 4a45 16b7 942b a1b7 88dd 3eb7 18da ebb6
00000200: ce54 cab6 1e86 0737 dd95 02b7 2ef7 73b7
00000210: c6e2 4037 24ea 1fb6 688b 88b7 5c6e 9bb6
00000220: b52b 8937 da94 9b37 7abb 07b7 e469 d5b6
00000230: b68f 4e36 1ead a1b7 dc38 9337 436b 8737
00000240: c996 8cb7 e828 f735 44d5 61b7 7831 f9b6
00000250: b5aa 91b7 710d 3cb7 fc45 d035 1afd 6537
00000260: 4a3f 2db7 c6f2 dab6 9cb2 03b7 3049 3936
00000270: 44af 85b6 689a f2b6 3811 65b6 941e 92b5
00000280: 28ce dcb6 27f7 36b7 96b4 6eb7 83df 69b7
00000290: 80c6 09b4 c49a 13b7 4a40 ecb6 705b 01b7
000002a0: 84f8 6cb6 e0b7 7c36 d859 d936 faa1 1d37
000002b0: a6cb b8b6 8fdf 6a37 761f 0cb6 0428 cbb6
000002c0: f077 1537 9c5e c4b6 bfac a636 4ab5 9337
000002d0: 645a 9eb7 7ce8 6b37 6ce9 1c37 901b 6935
000002e0: c0c9 e336 251e 89b7 80c8 1db4 3861 15b6
000002f0: b8d5 aeb5 3ed5 64b7 f84a 02b7 969c c0b6
00000300: db15 cd36 d43c 54b6 a802 a0b5 5c8c 2037
00000310: 4a4a 2036 bb8c a4b6 a231 9137 40bb 31b4
00000320: 765d 91b7 4cc7 e6b6 b4f3 5237 0e2f 94b7
00000330: 28bb b9b6 b0c2 a9b6 56b6 5537 e383 62b7
00000340: ca61 a1b6 59c9 9b36 608f c536 0811 85b5
00000350: 4a3f 8c37 1c30 8f37 86bd b836 ce9a 12b7
00000360: c865 17b5 56f4 0a37 5896 e736 38e8 9337
00000370: f924 8eb7 ddfb 66b7 cd3e 92b7 f424 02b7
00000380: a2ed 26b7 19d8 48b7 eef0 1d37 1e53 1db7
00000390: 48c5 13b6 0f04 58b7 c737 5637 e626 0cb6
000003a0: 56c7 efb6 a020 2e37 ddbc 8236 2c17 1637
000003b0: b48f 1fb7 10ff 0eb5 60f7 e235 38a8 50b6
000003c0: 465a b836 8af9 2e37 cfde 4537 34cb 0bb7
000003d0: 509d 1ab6 c828 dcb5 c4cf f936 4b96 0937
000003e0: d4f3 28b6 eab8 16b7 12ca 6c36 bf8a 5937
000003f0: 2449 1db7 0ed8 6637 68df e536 4079 f434

input_encoder.0.bias f4 [64]
-0.004238806 -0.039930027 0.0119354725 -0.0005998454 0.0054575037 0.01451568 0.01012999 0.012997805
-0.0025355592 -0.024498632 -0.012094321 0.040261365 0.0190251 -0.010476677 -0.059928168 0.029821156
-0.04762356 -0.08182859 -0.10144764 -0.018685633 0.0004917518 0.012246915 -0.017270435 -0.079379626
-0.056257263 -0.04912202 -0.072826415 0.01189184 -0.016926253 0.009264124 -0.048184693 -0.0048613623
0.008154258 -0.012802896 -0.04778868 0.016802937 -0.003451088 -0.00072406145 0.011830261 -0.028442211
-0.053449493 -0.022423593 -0.04846338 -0.011588757 -0.011171491 0.017495528 0.01252052 -0.052277528
-0.039730996 -0.0062248004 0.035740625 -0.082380846 0.0051325345 -0.02205495 0.003041136 -0.017613288
0.03439072 -0.031524837 -0.050530616 -0.074404426 0.034669533 -0.024295762 0.010641881 -0.09808102
00000000: afe5 8abb ab8d 23bd 008d 433c f23e 1dba
00000010: dcd4 b23b 2dd3 6d3c 42f8 253c bff4 543c
00000020: a02b 26bb 5bb1 c8bc 4227 46bc 1ae9 243d
00000030: 87da 9b3c 5ea6 2bbc 3d77 75bd 7f4b f43c
00000040: ec10 43bd bf95 a7bd c8c3 cfbd 9d12 99bc
00000050: e8e8 003a 49a7 483c ba7a 8dbc c991 a2bd
00000060: 046e 66bd 2c34 49bd 0426 95bd fed5 423c
00000070: eda8 8abc 8dc8 173c 505d 45bd 104c 9fbb
00000080: 7099 053c 3dc3 51bc 10be 43bd 50a6 893c
00000090: a62b 62bb f1ce 3dba b6d3 413c a4ff e8bc
000000a0: dbed 5abd afb1 b7bc 8a81 46bd c5de 3dbc
000000b0: a108 37bc c852 8f3c de22 4d3c f620 56bd
000000c0: f8bc 22bd 69f9 cbbb c364 123d 4ab7 a8bd
000000d0: d22e a83b 95ac b4bc cc4d 473b be49 90bc
000000e0: 49dd 0c3d 3020 01bd 31f9 4ebd 5961 98bd
000000f0: a401 0e3d e807 c7bc 495b 2e3c b4de c8bd

latent_encoder.weight f4 [16, 64]
5.0927843e-05 -4.919038e-05 0.036212936 0.07741435 0.13041757 -0.39989612 -0.09819214 0.2918683
0.22174016 0.022138776 0.12656516 -0.10982628 -0.18670546 -0.020380927 6.4413965e-05 -0.29776
-0.022374405 -0.05975616 -0.1366397 -0.32512343 0.08809687 -0.3231761 9.583963e-05 -0.047516398
-0.011262649 0.03819382 -0.044110905 0.30421263 -0.073272 -0.26339066 0.034572043 0.25446972
-0.18425335 0.09963063 0.010241164 0.15550065 0.14287096 0.060560476 -0.4492191 0.32407477
-0.105748035 0.19254634 -0.12931395 -0.21090391 0.16978969 0.32537282 0.18606871 -0.011891423
-0.043062437 0.43321177 -0.15009072 0.18255897 0.18398517 0.13477059 -0.3804328 -0.012814864
-0.5516397 0.031852692 0.029215088 -0.027972324 0.20883651 0.22309951 0.19262595 0.21462142
4.881423e-05 -3.9107497e-05 -0.27525482 -0.37619692 0.00471084 -0.12967677 -0.3919893 0.053594254
0.0017281165 -0.4297309 0.11373165 -0.3145158 -0.14707507 -0.1397701 0.0001902764 -0.011937658
-0.11557459 -0.021121688 -0.049972534 0.058795687 -0.19083937 0.28911707 0.00010551313 -0.12343536
-0.06342549 0.0535648 -0.0061942986 -0.08770695 -0.23420332 -0.42919046 -0.019076264 0.09266694
0.16723917 0.22959033 0.03195822 -0.31720647 0.18526272 -0.12927794 -0.2873186 0.025761915
0.042223047 0.024676494 -0.13035536 -0.31636035 0.098885305 -0.1235415 0.14021093 -0.012261072
-0.06805573 0.111897066 -0.26889116 0.09460061 -0.1180039 -0.09256735 -0.12819219 -0.18622594
-0.43419665 -0.26867363 0.11637718 -0.068438336 -0.08282737 -0.09219175 0.2180312 0.0026544991
9.359795e-06 8.823291e-05 -0.09230632 -0.016019408 0.07802571 0.13985775 0.040924083 -0.020531347
0.15232985 -0.026525233 0.445567 0.097066835 0.1302374 0.040487703 -8.7916e-05 0.063485816
-0.06435222 -0.056683842 -0.01656648 0.21244223 0.027151642 0.334561 6.443479e-06 -0.011609662
0.059226815 -0.032161236 -0.079289086 -0.002280733 0.32090053 -0.17239858 0.0213185 0.027181668
0.3014774 0.31064495 -0.047589477 -0.20271158 0.2032649 -0.090698875 0.3749738 0.32166594
-0.1581961 -0.049468264 -0.09370657 0.022631977 0.04373575 -0.2549231 0.19127637 -0.01900079
-0.05651605 0.21759768 0.09600279 -0.002507837 -0.048111804 0.036049128 0.15086327 -0.060681008
-0.065331325 0.09686221 -0.029023938 -0.13246652 0.20521976 0.050338462 0.09549837 0.1003407
-2.025266e-05 -8.284064e-05 0.5551574 0.6287568 -0.12462903 0.017119877 0.4582008 0.110394135
0.3578157 -0.075782776 -0.012617192 0.3310982 0.24189629 0.5392258 4.1904383e-05 0.22470509
0.0029040657 0.24397346 0.1388999 0.19106849 0.022985553 0.3936317 -5.3416177e-05 0.07325907
-0.010271036 -0.115216255 0.0036744343 0.42432985 0.20038523 0.10454368 -0.003334477 0.45938456
0.18054165 0.35253274 -0.03530971 0.37989673 0.39999023 0.38270196 0.06347836 0.36559108
-0.04402699 0.17366828 -0.10570806 0.24463364 -0.16623479 -0.08055386 0.37052312 0.022972742
-0.0625568 0.41633517 0.3994595 -0.17715323 0.44120398 -0.436104 0.13904844 0.577445
-0.0747184 0.46326473 -0.040239524 -0.35713306 0.42513978 -0.45519498 0.51643634 -0.1611631
00000000: 5b9b 5538 c551 4eb8 0454 143d 6a8b 9e3d
00000010: 2f8c 053e 2fbf ccbe f618 c9bd c36f 953e
00000020: da0f 633e 615c b53c 4c9a 013e 9aec e0bd
00000030: b72f 3fbe e7f5 a6bc fc15 8738 0074 98be
00000040: 874a b7bc e0c2 74bd 47eb 0bbe 9476 a6be
00000050: 226c b43d 5677 a5be 82fd c838 8ea0 42bd
00000060: f986 38bc 1f71 1c3d a3ad 34bd c2c1 9b3e
00000070: a10f 96bd 24db 86be 6a9b 0d3d db49 823e
00000080: e9ac 3cbe 250b cc3d 8eca 273c 903b 1f3e
00000090: c44c 123e 430e 783d 0c00 e6be 21ed a53e
000000a0: 6d92 d8bd de2a 453e e06a 04be 32f7 57be
000000b0: 59dd 2d3e 4497 a63e cc88 3e3e 3ed4 42bc
000000c0: 3d62 30bd efcd dd3e 62b1 19be bdf0 3a3e
000000d0: 9c66 3c3e 4d01 0a3e 17c8 c2be 6ff5 51bc
000000e0: 4238 0dbf f877 023d 7b54 ef3c 3726 e5bc
000000f0: 3dd9 553e 3374 643e bd3f 453e b8c5 5b3e
00000100: e1bd 4c38 5b07 24b8 33ee 8cbe e29c c0be
00000110: 645d 9a3b fdc9 04be d2b2 c8be a685 5b3d
00000120: f881 e23a b005 dcbe 24ec e83d 3708 a1be
00000130: d99a 16be e51f 0fbe ef84 4739 2b96 43bc
00000140: 5fb2 ecbd 6407 adbc 00b0 4cbd bfd3 703d
00000150: 656b 43be 2707 943e ee46 dd38 aecb fcbd
00000160: 39e5 81bd c466 5b3d 8bf9 cabb b49f b3bd
00000170: ffd2 6fbe dabe dbbe d345 9cbc 2ac8 bd3d
00000180: bf40 2b3e ba19 6b3e 9fe6 023d e368 a2be
00000190: 83b5 3d3e 7061 04be 6c1b 93be a70a d33c
000001a0: 13f2 2c3d 5c26 ca3c e07b 05be fcf9 a1be
000001b0: 6184 ca3d 5303 fdbd 7493 0f3e aae2 48bc
000001c0: cd60 8bbd 4a2a e53d 1aac 89be f7bd c13d
000001d0: 07ac f1bd f393 bdbd d044 03be 03b2 3ebe
000001e0: 064f debe 978f 89be 2957 ee3d 6629 8cbd
000001f0: 65a1 a9bd 07cf bcbd 9243 5f3e 1bf7 2d3b
00000200: 0308 1d37 af09 b938 190b bdbd 223b 83bc
00000210: f2cb 9f3d df36 0f3e 03a0 273d 5b31 a8bc
00000220: 5bfc 1b3e 724b d9bc 5c21 e43e faca c63d
00000230: f45c 053e 6fd6 253d 8b5f b8b8 da04 823d
00000240: 19cb 83bd 512d 68bd 6db6 87bc 758a 593e
00000250: 1f6d de3c 944b ab3e 1035 d836 7436 3ebc
00000260: d197 723d 80bb 03bd 5162 a2bd 5a78 15bb
00000270: 134d a43e 4189 30be 23a4 ae3c 17ac de3c
00000280: 3f5b 9a3e db0c 9f3e 2fed 42bd a093 4fbe
00000290: ad24 503e 55c0 b9bd 91fc bf3e 66b1 a43e
000002a0: 29fe 21be 3c9f 4abd 3be9 bfbd b266 b93c
000002b0: 4224 333d 4885 82be f4dd 433e 8ba7 9bbc
000002c0: 607d 67bd edd1 5e3e 1c9d c43d 865a 24bb
000002d0: e210 45bd 40a8 133d e77b 1a3e a68c 78bd
000002e0: 6ecc 85bd b25f c63d 9cc3 edbc 4ea5 07be
000002f0: 2125 523e b42f 4e3d a694 c33d 6d7f cd3d
00000300: 42e4 a9b7 bbba adb8 cc1e 0e3f 35f6 203f
00000310: 813d ffbd fc3e 8c3c 4c99 ea3e 5216 e23d
00000320: 9f33 b73e 0034 9bbd 57b8 4ebc b485 a93e
00000330: a9b3 773e b40a 0a3f 7dc2 2f38 1719 663e
00000340: 2352 3e3b 2ed4 793e c63b 0e3e 75a7 433e
00000350: 334c bc3c 188a c93e 2f0b 60b8 da08 963d
00000360: d947 28bc 80f6 ebbd c7ce 703b c341 d93e
00000370: c931 4d3e ff1a d63d 3e87 5abb 7434 eb3e
00000380: e9df 383e 2c7f b43e eaa0 10bd d381 c23e
00000390: 85cb cc3e 83f1 c33e f100 823d c12e bb3e
000003a0: a555 34bd 19d6 313e 787d d8bd 3e81 7a3e
000003b0: 7439 2abe 6cf9 a4bd 35b5 bd3e 5531 bc3c
000003c0: c81d 80bd e229 d53e f585 cc3e a867 35be
000003d0: 7de5 e13e 0649 dfbe b762 0e3e 6fd3 133f
000003e0: f605 99bd 0931 ed3e 33d2 24bd 25da b6be
000003f0: ecab d93e 510f e9be 2c35 043f f107 25be

latent_encoder.bias f4 [16]
0.0133765405 0.0833797 -0.04931161 -0.3495438 -0.029757971 0.08402241 -0.13187803 0.09949739
-0.09218349 -0.1817347 0.109132394 -0.11109442 0.1357762 -0.08412923 -0.15111764 -0.15406087
00000000: 4729 5b3c fac2 aa3d f9fa 49bd 68f7 b2be
00000010: fdc6 f3bc f113 ac3d 090b 07be 4ac5 cb3d
00000020: b3ca bcbd a918 3abe ce80 df3d 7985 e3bd
00000030: eb08 0b3e f24b acbd 95be 1abe 22c2 1dbe

flow.flow.mean f4 [7, 16]
0.0 0.0 0.0 0.0 0.0 0.0 0.0 0.0
0.0 0.0 0.0 0.0 0.0 0.0 0.0 0.0
0.0 0.0 0.0 0.0 0.0 0.0 0.0 0.0
0.0 0.0 0.0 0.0 0.0 0.0 0.0 0.0
0.0 0.0 0.0 0.0 0.0 0.0 0.0 0.0
0.0 0.0 0.0 0.0 0.0 0.0 0.0 0.0
0.0 0.0 0.0 0.0 0.0 0.0 0.0 0.0
0.0 0.0 0.0 0.0 0.0 0.0 0.0 0.0
0.0 0.0 0.0 0.0 0.0 0.0 0.0 0.0
0.0 0.0 0.0 0.0 0.0 0.0 0.0 0.0
0.0 0.0 0.0 0.0 0.0 0.0 0.0 0.0
0.0 0.0 0.0 0.0 0.0 0.0 0.0 0.0
0.0 0.0 0.0 0.0 0.0 0.0 0.0 0.0
0.0 0.0 0.0 0.0 0.0 0.0 0.0 0.0
00000000: 0000 0000 0000 0000 0000 0000 0000 0000
00000010: 0000 0000 0000 0000 0000 0000 0000 0000
00000020: 0000 0000 0000 0000 0000 0000 0000 0000
00000030: 0000 0000 0000 0000 0000 0000 0000 0000
00000040: 0000 0000 0000 0000 0000 0000 0000 0000
00000050: 0000 0000 0000 0000 0000 0000 0000 0000
00000060: 0000 0000 0000 0000 0000 0000 0000 0000
00000070: 0000 0000 0000 0000 0000 0000 0000 0000
00000080: 0000 0000 0000 0000 0000 0000 0000 0000
00000090: 0000 0000 0000 0000 0000 0000 0000 0000
000000a0: 0000 0000 0000 0000 0000 0000 0000 0000
000000b0: 0000 0000 0000 0000 0000 0000 0000 0000
000000c0: 0000 0000 0000 0000 0000 0000 0000 0000
000000d0: 0000 0000 0000 0000 0000 0000 0000 0000
000000e0: 0000 0000 0000 0000 0000 0000 0000 0000
000000f0: 0000 0000 0000 0000 0000 0000 0000 0000
00000100: 0000 0000 0000 0000 0000 0000 0000 0000
00000110: 0000 0000 0000 0000 0000 0000 0000 0000
00000120: 0000 0000 0000 0000 0000 0000 0000 0000
00000130: 0000 0000 0000 0000 0000 0000 0000 0000
00000140: 0000 0000 0000 0000 0000 0000 0000 0000
00000150: 0000 0000 0000 0000 0000 0000 0000 0000
00000160: 0000 0000 0000 0000 0000 0000 0000 0000
00000170: 0000 0000 0000 0000 0000 0000 0000 0000
00000180: 0000 0000 0000 0000 0000 0000 0000 0000
00000190: 0000 0000 0000 0000 0000 0000 0000 0000
000001a0: 0000 0000 0000 0000 0000 0000 0000 0000
000001b0: 0000 0000 0000 0000 0000 0000 0000 0000

flow.flow.cov f4 [7, 16, 16]
1.0 0.0 0.0 0.0 0.0 0.0 0.0 0.0
0.0 0.0 0.0 0.0 0.0 0.0 0.0 0.0
0.0 1.0 0.0 0.0 0.0 0.0 0.0 0.0
0.0 0.0 0.0 0.0 0.0 0.0 0.0 0.0
0.0 0.0 1.0 0.0 0.0 0.0 0.0 0.0
0.0 0.0 0.0 0.0 0.0 0.0 0.0 0.0
0.0 0.0 0.0 1.0 0.0 0.0 0.0 0.0
0.0 0.0 0.0 0.0 0.0 0.0 0.0 0.0
0.0 0.0 0.0 0.0 1.0 0.0 0.0 0.0
0.0 0.0 0.0 0.0 0.0 0.0 0.0 0.0
0.0 0.0 0.0 0.0 0.0 1.0 0.0 0.0
0.0 0.0 0.0 0.0 0.0 0.0 0.0 0.0
0.0 0.0 0.0 0.0 0.0 0.0 1.0 0.0
0.0 0.0 0.0 0.0 0.0 0.0 0.0 0.0
0.0 0.0 0.0 0.0 0.0 0.0 0.0 1.0
0.0 0.0 0.0 0.0 0.0 0.0 0.0 0.0
0.0 0.0 0.0 0.0 0.0 0.0 0.0 0.0
1.0 0.0 0.0 0.0 0.0 0.0 0.0 0.0
0.0 0.0 0.0 0.0 0.0 0.0 0.0 0.0
0.0 1.0 0.0 0.0 0.0 0.0 0.0 0.0
0.0 0.0 0.0 0.0 0.0 0.0 0.0 0.0
0.0 0.0 1.0 0.0 0.0 0.0 0.0 0.0
0.0 0.0 0.0 0.0 0.0 0.0 0.0 0.0
0.0 0.0 0.0 1.0 0.0 0.0 0.0 0.0
0.0 0.0 0.0 0.0 0.0 0.0 0.0 0.0
0.0 0.0 0.0 0.0 1.0 0.0 0.0 0.0
0.0 0.0 0.0 0.0 0.0 0.0 0.0 0.0
0.0 0.0 0.0 0.0 0.0 1.0 0.0 0.0
0.0 0.0 0.0 0.0 0.0 0.0 0.0 0.0
0.0 0.0 0.0 0.0 0.0 0.0 1.0 0.0
0.0 0.0 0.0 0.0 0.0 0.0 0.0 0.0
0.0 0.0 0.0 0.0 0.0 0.0 0.0 1.0
00000000: 0000 803f 0000 0000 0000 0000 0000 0000
00000010: 0000 0000 0000 0000 0000 0000 0000 0000
00000020: 0000 0000 0000 0000 0000 0000 0000 0000
00000030: 0000 0000 0000 0000 0000 0000 0000 0000
00000040: 0000 0000 0000 803f 0000 0000 0000 0000
00000050: 0000 0000 0000 0000 0000 0000 0000 0000
00000060: 0000 0000 0000 0000 0000 0000 0000 0000
00000070: 0000 0000 0000 0000 0000 0000 0000 0000
00000080: 0000 0000 0000 0000 0000 803f 0000 0000
00000090: 0000 0000 0000 0000 0000 0000 0000 0000
000000a0: 0000 0000 0000 0000 0000 0000 0000 0000
000000b0: 0000 0000 0000 0000 0000 0000 0000 0000
000000c0: 0000 0000 0000 0000 0000 0000 0000 803f
000000d0: 0000 0000 0000 0000 0000 0000 0000 0000
000000e0: 0000 0000 0000 0000 0000 0000 0000 0000
000000f0: 0000 0000 0000 0000 0000 0000 0000 0000
00000100: 0000 0000 0000 0000 0000 0000 0000 0000
00000110: 0000 803f 0000 0000 0000 0000 0000 0000
00000120: 0000 0000 0000 0000 0000 0000 0000 0000
00000130: 0000 0000 0000 0000 0000 0000 0000 0000
00000140: 0000 0000 0000 0000 0000 0000 0000 0000
00000150: 0000 0000 0000 803f 0000 0000 0000 0000
00000160: 0000 0000 0000 0000 0000 0000 0000 0000
00000170: 0000 0000 0000 0000 0000 0000 0000 0000
00000180: 0000 0000 0000 0000 0000 0000 0000 0000
00000190: 0000 0000 0000 0000 0000 803f 0000 0000
000001a0: 0000 0000 0000 0000 0000 0000 0000 0000
000001b0: 0000 0000 0000 0000 0000 0000 0000 0000
000001c0: 0000 0000 0000 0000 0000 0000 0000 0000
000001d0: 0000 0000 0000 0000 0000 0000 0000 803f
000001e0: 0000 0000 0000 0000 0000 0000 0000 0000
000001f0: 0000 0000 0000 0000 0000 0000 0000 0000
00000200: 0000 0000 0000 0000 0000 0000 0000 0000
00000210: 0000 0000 0000 0000 0000 0000 0000 0000
00000220: 0000 803f 0000 0000 0000 0000 0000 0000
00000230: 0000 0000 0000 0000 0000 0000 0000 0000
00000240: 0000 0000 0000 0000 0000 0000 0000 0000
00000250: 0000 0000 0000 0000 0000 0000 0000 0000
00000260: 0000 0000 0000 803f 0000 0000 0000 0000
00000270: 0000 0000 0000 0000 0000 0000 0000 0000
00000280: 0000 0000 0000 0000 0000 0000 0000 0000
00000290: 0000 0000 0000 0000 0000 0000 0000 0000
000002a0: 0000 0000 0000 0000 0000 803f 0000 0000
000002b0: 0000 0000 0000 0000 0000 0000 0000 0000
000002c0: 0000 0000 0000 0000 0000 0000 0000 0000
000002d0: 0000 0000 0000 0000 0000 0000 0000 0000
000002e0: 0000 0000 0000 0000 0000 0000 0000 803f
000002f0: 0000 0000 0000 0000 0000 0000 0000 0000
00000300: 0000 0000 0000 0000 0000 0000 0000 0000
00000310: 0000 0000 0000 0000 0000 0000 0000 0000
00000320: 0000 0000 0000 0000 0000 0000 0000 0000
00000330: 0000 803f 0000 0000 0000 0000 0000 0000
00000340: 0000 0000 0000 0000 0000 0000 0000 0000
00000350: 0000 0000 0000 0000 0000 0000 0000 0000
00000360: 0000 0000 0000 0000 0000 0000 0000 0000
00000370: 0000 0000 0000 803f 0000 0000 0000 0000
00000380: 0000 0000 0000 0000 0000 0000 0000 0000
00000390: 0000 0000 0000 0000 0000 0000 0000 0000
000003a0: 0000 0000 0000 0000 0000 0000 0000 0000
000003b0: 0000 0000 0000 0000 0000 803f 0000 0000
000003c0: 0000 0000 0000 0000 0000 0000 0000 0000
000003d0: 0000 0000 0000 0000 0000 0000 0000 0000
000003e0: 0000 0000 0000 0000 0000 0000 0000 0000
000003f0: 0000 0000 0000 0000 0000 0000 0000 803f

flow.flow.transforms.0.x0 f4 [7, 16]
0.16002688 0.09386146 0.13773584 -0.077054 -0.268028 -0.110876665 0.0033738336 0.1373219
-0.28323278 -0.015134058 0.0923035 -0.370914 -0.13926199 -0.2349817 -0.1856833 -0.46073762
0.24450971 0.019480856 -0.09855533 -0.5167368 0.23822717 -0.21444695 0.23470719 0.24425809
0.2143727 0.06318213 -0.25745532 0.15460615 0.3948786 -0.29428273 -0.14915247 -0.3367022
0.06474188 -0.18526083 0.054063734 -0.071327426 0.2839206 0.18911456 0.047580197 -0.025546977
-0.19068277 0.0783345 -0.20611346 0.010738401 -0.31586316 0.04595044 -0.2429117 -0.089539565
-0.003955262 0.061124224 0.02305194 -0.04366805 -0.10124238 -0.3434434 -0.13794953 0.036945604
-0.23596865 -0.005812884 -0.0053929305 -0.15086468 -0.05067971 0.009189391 0.007139071 -0.24430226
0.16556709 0.115189575 -0.09427802 -0.5059952 -0.025299855 0.19051415 -0.17395338 0.043919597
-0.14715204 -0.20654875 0.16248041 -0.14696202 0.22764035 -0.06104733 -0.06377097 -0.09248496
-0.40551424 -0.09437984 0.03773438 -0.61349076 -0.012922394 0.27080292 -0.24698032 -0.21746139
0.2956799 -0.18346216 0.12880902 0.10380535 0.5101319 0.09832217 0.088145114 -0.03718865
0.18097636 0.086520985 -0.021666743 0.2067838 0.039727345 0.26226082 0.3804238 0.23069696
-0.015028589 0.22547492 0.09409933 -0.15769613 0.15714619 -0.24038537 0.013610256 0.031607702
00000000: 16de 233e 703a c03d a00a 0d3e 7dce 9dbd
00000010: f73a 89be 4e13 e3bd 891b 5d3b 1d9e 0c3e
00000020: e303 91be d7f4 77bc 9e09 bd3d 71e8 bdbe
00000030: b29a 0ebe 0b9f 70be c323 3ebe cde5 ebbe
00000040: c160 7a3e 5196 9f3c 60d7 c9bd dd48 04bf
00000050: d3f1 733e fb97 5bbe 1557 703e cb1e 7a3e
00000060: 8484 5b3e a265 813d 2fd1 83be 1351 1e3e
00000070: 872d ca3e 3aac 96be 6dbb 18be 3b64 acbe
00000080: 6497 843d 04b5 3dbe ef71 5d3d 1d14 92bd
00000090: 0a5e 913e 3fa7 413e 74e3 423d e547 d1bc
000000a0: 5842 43be d76d a03d 680f 53be 1ef0 2f3c
000000b0: d1b8 a1be 8736 3c3d d8bd 78be 8560 b7bd
000000c0: 249b 81bb 655d 7a3d 6cd7 bc3c 45dd 32bd
000000d0: 2a58 cfbd d0d7 afbe a442 0dbe 4654 173d
000000e0: c4a1 71be 017a bebb 2eb7 b0bb 457c 1abe
000000f0: 8795 4fbd 198f 163c deee e93b 5f2a 7abe
00000100: 6b8a 293e 83e8 eb3d d614 c1bd e788 01bf
00000110: a441 cfbc 2416 433e d620 32be 09e5 333d
00000120: 06af 16be 8481 53be 4461 263e 367d 16be
00000130: 8d1a 693e c40c 7abd 5b9a 82bd c168 bdbd
00000140: 909f cfbe 384a c1bd 5e8f 1a3d bb0d 1dbf
00000150: 73b8 53bc aea6 8a3e 69e8 7cbe 33ae 5ebe
00000160: 5b63 973e 81dd 3bbe 83e6 033e e697 d43d
00000170: 0198 023f 225d c93d 6d85 b43d 2053 18bd
00000180: de51 393e ea31 b13d 747e b1bc 22bf 533e
00000190: 24b9 223d 0d47 863e e9c6 c23e d33b 6c3e
000001a0: 793a 76bc e6e2 663e 26b7 c03d 187b 21be
000001b0: eeea 203e 9527 76be 8dfd 5e3c 1477 013d

flow.flow.transforms.0.alpha_prime f4 [7]
-0.23668431 0.116981685 0.24854654 0.29740307 -0.031167476 -0.13342464 0.16526547
00000000: 5f5d 72be 1894 ef3d fc82 7e3e 3745 983e
00000010: ef52 ffbc 78a0 08be 5a3b 293e

flow.flow.transforms.0.beta_prime f4 [7]
0.18780048 0.014208598 0.08814988 -0.03941553 0.15399063 -0.23721924 -0.091889545
00000000: c54e 403e 2ecb 683c ed87 b43d 2e72 21bd
00000010: b8af 1d3e 9ae9 72be 9630 bcbd

flow.flow.transforms.1.x0 f4 [7, 16]
-0.36240968 -0.1476114 -0.22299899 0.037921682 0.42950955 -0.05760263 0.03456695 -0.009056262
0.19620629 -0.05431101 -0.06971734 0.32906842 -0.0037217925 -0.07778858 0.10125184 0.32967502
0.21059427 -0.32884595 0.083968855 0.45756257 -0.3532949 0.26085547 0.27039766 0.17495571
-0.34698835 0.21595109 -0.28639448 -0.20942514 0.21008702 0.42098048 0.2873255 -0.34488276
-0.256804 0.21001908 0.23962663 0.1026549 -0.3039053 -0.2182695 0.17546956 -0.06619455
0.25943857 0.19478072 0.31428 0.2250336 0.2852204 -0.12644233 0.2910951 0.2216443
-0.015462497 0.057514586 0.06988883 -0.055032663 -0.12940559 -0.3763019 -0.16120659 -0.052564587
-0.28122014 -0.027998632 -0.113908626 -0.10400567 -0.057549533 0.038301677 0.05318727 -0.27786997
0.074206695 -0.3556033 0.29580632 0.13823265 0.27676135 -0.119639486 0.014067591 -0.0809113
-0.15658593 0.29959136 0.05754338 0.24892712 -0.4661268 -0.029801354 0.2980791 0.3174086
-0.25720727 0.023548543 -0.077389605 -0.58598447 0.09040695 0.23648554 -0.26221463 0.047271088
0.22622822 -0.2570203 0.12067814 0.14188404 0.5037213 0.08088161 -0.113681406 0.31472802
0.2702811 0.08809949 0.2265646 0.15566935 -0.16694455 0.31642228 0.47083193 -0.13699618
0.19103315 0.15775944 0.009262661 0.1416241 -0.07714566 -0.31742853 0.22399941 -0.076466314
00000000: c38d b9be 7127 17be d959 64be c453 1b3d
00000010: ade8 db3e bcf0 6bbd 1396 0d3d b760 14bc
00000020: 4dea 483e 3975 5ebd f7c7 8ebd a87b a83e
00000030: 51e9 73bb 9e4f 9fbd 205d cf3d 2acb a83e
00000040: 06a6 573e 7f5e a8be ddf7 ab3d a445 ea3e
00000050: 12e3 b4be d98e 853e 9071 8a3e 9727 333e
00000060: 75a8 b1be 4822 5d3e 4ca2 92be 8b73 56be
00000070: 0d21 573e c18a d73e 541c 933e 7994 b0be
00000080: d07b 83be 3e0f 573e af60 753e bb3c d23d
00000090: 7a99 9bbe 0a82 5fbe 4bae 333e 0291 87bd
000000a0: 22d5 843e 9974 473e 4fe9 a03e 356f 663e
000000b0: 6908 923e 197a 01be 6b0a 953e b9f6 623e
000000c0: 6a56 7dbc 6a94 6b3d e021 8f3d ee69 61bd
000000d0: e682 04be a5aa c0be 5713 25be f74d 57bd
000000e0: 16fc 8fbe 635d e5bc ed48 e9bd ed00 d5bd
000000f0: 0fb9 6bbd 38e2 1c3d e5da 593d f944 8ebe
00000100: aef9 973d a311 b6be ed73 973e dc8c 0d3e
00000110: aab3 8d3e 8c05 f5bd c17b 663c d3b4 a5bd
00000120: 1058 20be 0a64 993e 9bb2 6b3d c0e6 7e3e
00000130: 2ca8 eebe f821 f4bc d39d 983e 6183 a23e
00000140: acb0 83be e0e8 c03c 717e 9ebd 1403 16bf
00000150: 4727 b93d 4429 723e ff40 86be 549f 413d
00000160: 5fa8 673e 2a98 83be 1a26 f73d 0d4a 113e
00000170: e1f3 003f 42a5 a53d ccd1 e8bd 0824 a13e
00000180: 4962 8a3e 816d b43d 8d00 683e c967 1f3e
00000190: 83f3 2abe 1a02 a23e e210 f13e ba48 0cbe
000001a0: 329e 433e b18b 213e 6bc2 173c e805 113e
000001b0: 8bfe 9dbd fe85 a2be 1a60 653e 5f9a 9cbd

flow.flow.transforms.1.alpha_prime f4 [7]
0.24130204 0.065508425 -0.0460505 -0.06677999 0.036150735 0.3380472 0.042515974
00000000: e217 773e 4829 863d 739f 3cbd f3c3 88bd
00000010: cb12 143d 8614 ad3e 3b25 2e3d

flow.flow.transforms.1.beta_prime f4 [7]
-0.35513607 0.08048861 0.14279774 -0.26513293 -0.09702282 0.06980206 -0.21062115
00000000: 65d4 b5be 36d7 a43d 9239 123e 81bf 87be
00000010: e6b3 c6bd 62f4 8e3d 12ad 57be

flow.flow.transforms.2.x0 f4 [7, 16]
0.306985 0.26686904 0.16046962 0.13670136 -0.3923622 -0.33292377 -0.070902966 -0.030516654
-0.31337896 0.14508314 0.15759078 -0.5175136 -0.2892605 -0.32901287 -0.029202158 -0.6116371
0.3097048 -0.30412006 0.2231068 0.49890465 0.46178433 0.24294448 0.2569193 -0.16501206
-0.45555678 0.3376675 -0.5324712 -0.20680764 -0.1276374 0.3598914 -0.015299149 -0.22651881
-0.20810957 0.15578422 0.21667992 0.061594304 -0.33783564 -0.412843 0.1673629 0.045633134
0.24860346 0.20855592 0.28809282 0.2272188 0.27515075 -0.10752466 0.30051854 0.23607782
-0.4243324 -0.26197064 -0.14847212 0.15118715 0.5725449 0.2726629 0.38748536 -0.2807166
0.17581141 0.17085671 0.26191425 0.49654162 -0.26288062 0.18822184 0.09359611 0.464199
0.0036176073 0.07860243 -0.06224376 -0.32384196 -0.008277428 0.07039706 -0.098485194 0.10774014
-0.10282704 -0.169459 0.12614088 -0.10832182 0.0951907 -0.09493982 -0.13932069 -0.15836541
-0.14582095 -0.013852453 -0.027802534 -0.2981337 0.066769846 0.22564898 -0.2147234 0.06609383
0.21804452 -0.16179094 0.09470065 0.2379652 0.45007727 0.009057867 -0.04468347 0.28584835
0.33830282 0.23721391 0.15301949 0.08226761 -0.33141825 0.43335155 0.51286966 -0.108500116
0.20664103 -0.02555838 -0.18439323 -0.15770458 -0.107988544 0.09255303 0.117436185 0.20234561
00000000: 232d 9d3e 0fa3 883e 2652 243e 71fb 0b3e
00000010: b3e3 c8be fc74 aabe 9335 91bd 10fe f9bc
00000020: 3573 a0be ad90 143e 7a5f 213e c57b 04bf
00000030: f419 94be 6074 a8be 5d39 efbc 4094 1cbf
00000040: a191 9e3e a0b5 9bbe 1c76 643e 6e70 ff3e
00000050: ff6e ec3e 70c6 783e ed8a 833e ecf8 28be
00000060: bd3e e9be c1e2 ac3e 0850 08bf 62c5 53be
00000070: 61b3 02be b043 b83e 48a9 7abc 8cf4 67be
00000080: ad1a 55be e685 1f3e 57e1 5d3e 4f4a 7c3d
00000090: cbf8 acbe 2860 d3be 2e61 2b3e cfe9 3a3d
000000a0: e891 7e3e af8f 553e e780 933e 0cac 683e
000000b0: 8fe0 8c3e e435 dcbd 91dd 993e 62be 713e
000000c0: 1942 d9be 0421 86be 1309 18be ced0 1a3e
000000d0: 4d92 123f 799a 8b3e 7b64 c63e 16ba 8fbe
000000e0: e807 343e 10f5 2e3e a019 863e b43a fe3e
000000f0: 4a98 86be 3abd 403e 51af bf3d 7eab ed3e
00000100: 6115 6d3b 50fa a03d 50f3 7ebd 9dce a5be
00000110: 0d9e 07bc 552c 903d 9bb2 c9bd dda6 dc3d
00000120: fc96 d2bd a986 2dbe 132b 013e d5d7 ddbd
00000130: 57f3 c23d cf6f c2bd 15aa 0ebe 8b2a 22be
00000140: 1652 15be 66f5 62bc 24c2 e3bc fba4 98be
00000150: a1be 883d 8710 673e 73e0 5bbe 345c 873d
00000160: 1047 5f3e 86ac 25be 6af2 c13d 26ad 733e
00000170: 8770 e63e 7367 143c 0406 37bd b75a 923e
00000180: 0736 ad3e 34e8 723e 24b1 1c3e ec7b a83d
00000190: a7af a9be 41e0 dd3e 6d4b 033f 4f35 debd
000001a0: b599 533e cf5f d1bc 94d1 3cbe 4f7d 21be
000001b0: 1929 ddbd 718c bd3d 6282 f03d b033 4f3e

flow.flow.transforms.2.alpha_prime f4 [7]
-0.29154065 -0.10634083 -0.27537945 -0.21683499 -0.31524378 0.2526256 0.15976676
00000000: d144 95be 39c9 d9bd 89fe 8cbe fe09 5ebe
00000010: a267 a1be 2558 813e e699 233e

flow.flow.transforms.2.beta_prime f4 [7]
0.3582362 0.0086368695 0.0034402627 0.06476822 0.025517376 -0.23052627 0.048740484
00000000: bc6a b73e a881 0d3c 0876 613b 33a5 843d
00000010: d109 d13c 140f 6cbe 1aa4 473d

flow.flow.transforms.3.x0 f4 [7, 16]
-0.23385648 -0.2565758 -0.27682713 0.024316026 0.4937728 0.034656975 -0.010426814 -0.017417962
0.20872909 -0.0033931003 -0.0681668 0.3101717 0.01803874 -0.0029060135 0.025057513 0.46636385
0.03425127 -0.2193547 -0.023023982 0.25315818 0.17546496 0.013442137 0.09299426 0.03609379
-0.19114627 0.079755194 -0.2808481 -0.022414561 -0.46851638 0.11775109 -0.06934085 -0.038132597
-0.15898813 0.16860892 0.18431593 0.09260371 -0.34106776 -0.4076854 0.1655812 0.082340956
0.19958405 0.16087244 0.28362986 0.15323015 0.25196782 -0.12031469 0.23606084 0.18291354
0.028264841 -0.3003177 -0.40166852 0.30856726 0.5468889 0.096667305 0.3918903 -0.2985719
0.14329137 0.23047951 0.16953906 0.2952532 -0.30286458 -0.25818232 0.10795296 0.49110043
-0.22587648 -0.28971505 0.057564095 0.34490153 0.13120425 -0.5155607 0.017618919 0.08684857
-0.2276157 0.03572269 0.06905436 0.1631117 -0.22276235 0.21708895 0.03768731 0.14150622
0.17111965 -0.09074779 0.027176656 0.47989476 0.016482262 -0.26995814 0.14309856 -0.047744833
-0.14783813 0.27058882 -0.09951579 -0.24862821 -0.58612174 -0.17149802 0.16270442 -0.26103163
-0.295826 -0.18130474 -0.0068754153 -0.16230384 0.1546688 -0.2853739 -0.33933553 -0.110772446
-0.100228384 0.03461707 -0.09306648 0.048238944 -0.09117208 0.11505111 -0.07627317 -0.035181552
00000000: 1378 6fbe e75d 83be 49bc 8dbe 6732 c73c
00000010: cacf fc3e 79f4 0d3d 3ad5 2abc 1db0 8ebc
00000020: 14bd 553e c75e 5ebb 099b 8bbd d3ce 9e3e
00000030: fbc5 933c d172 3ebb 6a45 cd3c 3ec7 ee3e
00000040: 0f4b 0c3d 859e 60be ca9c bcbc f39d 813e
00000050: 16ad 333e 693c 5c3c c673 be3d 15d7 133d
00000060: d9bb 43be b156 a33d 52cb 8fbe be9e b7bc
00000070: 61e1 efbe 7c27 f13d 9302 8ebd ed30 1cbd
00000080: c9cd 22be d1a7 2c3e 51bd 3c3e 04a7 bd3d
00000090: 6fa0 aebe 24bc d0be 1e8e 293e 60a2 a83d
000000a0: c35f 4c3e bfbb 243e ef37 913e 5de8 1c3e
000000b0: ed01 813e 8c67 f6bd efb9 713e b04d 3b3e
000000c0: ab8b e73c 3ec3 99be 7fa7 cdbe 87fc 9d3e
000000d0: e900 0c3f 82f9 c53d d8a5 c83e 6bde 98be
000000e0: f9ba 123e d202 6c3e a69b 2d3e 6d2b 973e
000000f0: 1111 9bbe 7930 84be 7116 dd3d 8471 fb3e
00000100: 2a4c 67be 8855 94be 54c8 6b3d ef96 b03e
00000110: 685a 063e c9fb 03bf 8d55 903c aadd b13d
00000120: 1714 69be f551 123d 5f6c 8d3d c106 273e
00000130: d01b 64be 914c 5e3e 025e 1a3d 02e7 103e
00000140: fd39 2f3e fad9 b9bd 94a1 de3c c4b4 f53e
00000150: cf05 873c f437 8abe 6e88 123e 1690 43bd
00000160: e162 17be 9e8a 8a3e efce cbbd 6598 7ebe
00000170: 130c 16bf 2d9d 2fbe fd9b 263e f0a5 85be
00000180: 8176 97be f3a7 39be 2a4b e1bb fa32 26be
00000190: 7f61 1e3e 871c 92be 63bd adbe aadc e2bd
000001a0: 8a44 cdbd a1ca 0d3d a399 bebd 3396 453d
000001b0: 6db8 babd eb9f eb3d 1c35 9cbd 881a 10bd

flow.flow.transforms.3.alpha_prime f4 [7]
-0.082073756 -0.19098495 -0.32910857 0.036376998 -0.0017076274 -0.31006423 -0.20316361
00000000: 4916 a8bd 8f91 43be eb80 a8be 0c00 153d
00000010: 78d2 dfba bdc0 9ebe 1f0a 50be

flow.flow.transforms.3.beta_prime f4 [7]
-0.28557345 0.3685726 0.1630444 0.12914997 -0.20267998 0.41008636 0.27859506
00000000: af36 92be 8cb5 bc3e 1cf5 263e e43f 043e
00000010: 578b 4fbe d7f6 d13e 03a4 8e3e

flow.flow.transforms.4.x0 f4 [7, 16]
0.29982203 0.027591666 0.3000318 0.09502608 -0.24077056 -0.49430326 0.031008383 0.09621276
-0.08600413 0.13629971 0.007705115 -0.5195284 -0.19852035 -0.30668065 -0.07576451 -0.65089166
0.026770907 -0.23616084 -0.037801888 0.25556478 0.1797764 0.012879279 0.09552273 0.027812008
-0.19313048 0.08067967 -0.28013816 -0.026295492 -0.48245174 0.10404654 -0.07487908 -0.035240777
0.031213375 -0.1445768 0.24409974 0.14127219 -0.4103678 -0.11830162 0.06292895 -0.05581612
0.3035671 0.25290087 0.017439837 0.33628154 0.4204604 -0.22369333 0.3327947 0.20001683
-0.02201068 -0.21885447 -0.026821839 0.28544378 0.095657036 0.35913 0.30543503 -0.021824917
0.4134501 0.22861417 0.1829035 0.44030213 -0.18621457 -0.082885966 -0.086852945 0.5190052
-0.15465365 -0.3069527 0.011571725 0.387664 0.18915074 0.0077986238 0.11030912 -0.1667275
0.07846263 0.25928915 -0.032675643 0.25808847 -0.21110834 -0.0054641007 0.24930246 0.33056852
-0.3390326 -0.07378981 0.016601281 -0.4202816 0.1781836 0.1816255 -0.20182519 0.03160525
0.23195858 -0.19906488 0.10819259 0.19673622 0.34128192 0.097952075 -0.07291594 0.21521512
0.2710527 0.21043138 0.14276756 0.03641663 -0.24674778 0.33223045 0.44364446 0.27853078
-0.05508012 0.055331293 0.15392682 -0.09979033 -0.0039579063 0.07195239 0.19356672 0.07854991
00000000: 4682 993e eb07 e23c c59d 993e 099d c23d
00000010: 8f8c 76be 5115 fdbe 4b05 fe3c 320b c53d
00000020: ef22 b0bd 2792 0b3e 307b fc3b d0ff 04bf
00000030: eb48 4bbe 3f05 9dbe 6c2a 9bbd d6a0 26bf
00000040: a94e db3c 26d4 71be 27d6 1abd 63d9 823e
00000050: 4e17 383e 9d03 533c 6ca1 c33d 02d6 e33c
00000060: ffc3 45be 623b a53d 456e 8fbe a569 d7bc
00000070: ea03 f7be 5a16 d53d 345a 99bd a258 10bd
00000080: 31b3 ff3c f10b 14be 48f5 793e a8a9 103e
00000090: ba1b d2be 1f48 f2bd e5e0 803d 729f 64bd
000000a0: 266d 9b3e 397c 813e fddd 8e3c 182d ac3e
000000b0: 9646 d73e dd0f 65be 1164 aa3e 36d1 4c3e
000000c0: be4f b4bc 631b 60be 79b9 dbbc b025 923e
000000d0: d6e7 c33d e3df b73e fb61 9c3e 2bca b2bc
000000e0: bbaf d33e d519 6a3e 0e4b 3b3e 486f e13e
000000f0: 08af 3ebe 1ec0 a9bd f5df b1bd 86dd 043f
00000100: 875d 1ebe e728 9dbe 5597 3d3c e57b c63e
00000110: bbb0 413e 998b ff3b bfe9 e13d 9dba 2abe
00000120: 04b1 a03d 8cc1 843e e5d6 05bd 2c24 843e
00000130: c92c 58be 330c b3bb 2549 7f3e 4740 a93e
00000140: ae95 adbe 1d1f 97bd 69ff 873c 262f d7be
00000150: c375 363e 09fc 393e 43ab 4ebe 8274 013d
00000160: 8d86 6d3e aad7 4bbe 1494 dd3d 3875 493e
00000170: 81bc ae3e 199b c83d f454 95bd 5a61 5c3e
00000180: 6bc7 8a3e 537b 573e a931 123e 9b29 153d
00000190: 73ab 7cbe 1c1a aa3e 5e25 e33e 969b 8e3e
000001a0: b19b 61bd 11a3 623d fe9e 1d3e df5e ccbd
000001b0: 53b1 81bb c65b 933d 5b36 463e c6de a03d

flow.flow.transforms.4.alpha_prime f4 [7]
-0.3556085 -0.33217207 -0.25296637 -0.3354302 0.24124108 0.05619509 0.08171449
00000000: 5112 b6be 7512 aabe cf84 81be 82bd abbe
00000010: e707 773e d32c 663d ed59 a73d

flow.flow.transforms.4.beta_prime f4 [7]
0.09121838 0.11450101 -0.2010432 0.21216144 -0.16622256 -0.23958151 -0.22446552
00000000: b4d0 ba3d 817f ea3d 45de 4dbe d940 593e
00000010: 3f36 2abe db54 75be 4ada 65be

flow.flow.transforms.5.x0 f4 [7, 16]
0.13058865 0.2562783 0.076157264 0.14944805 -0.38579258 -0.44631106 -0.037343815 0.023106255
-0.36166653 0.047402628 0.14232308 -0.5051687 -0.37777993 -0.3217145 -0.07629534 -0.57366776
0.070944875 -0.32007244 0.014446131 0.40654406 0.26350695 0.0076516755 0.15643102 0.010562536
-0.27962655 0.13057917 -0.41527024 0.016442478 -0.63042766 0.18765031 -0.051438212 0.019519113
-0.19010103 0.19843666 0.245519 0.15051116 -0.34355256 -0.49398842 0.19640502 0.059569374
0.26617157 0.25114828 0.15021169 0.21321398 0.31225926 -0.11873031 0.3266573 0.21479209
0.114695966 0.1098771 0.12075669 -0.10606363 -0.17021775 -0.4827713 -0.2579252 0.10331925
-0.37967488 -0.048761755 -0.102189265 -0.27002466 -0.039294835 0.060835805 0.026490506 -0.16919367
0.06918081 0.00048330333 -0.00678235 -0.37008825 -0.01234335 0.16675054 -0.13179967 0.03947237
-0.10789264 -0.1447916 0.12040931 -0.103363074 0.17568868 -0.06442356 -0.14691074 -0.11027914
0.12501183 0.15916969 0.19652916 0.49874288 -0.14649396 -0.35095543 0.021234665 -0.039948024
0.12621635 0.31918916 -0.2495201 -0.35515097 -0.39318746 0.17651501 0.22488064 0.084647
-0.35672802 -0.26346558 0.03384963 -0.11035825 0.16321693 -0.39311376 -0.38435286 -0.14777005
-0.08505064 0.08869314 -0.09990114 0.09683019 -0.1426355 0.1823654 -0.014172214 0.004055036
00000000: 08b9 053e e936 833e 57f8 9b3d e908 193e
00000010: 9b86 c5be e282 e4be d4f5 18bd 5449 bd3c
00000020: 5b2c b9be 4229 423d 24bd 113e bc52 01bf
00000030: 5f6c c1be c3b7 a4be bb40 9cbd e4db 12bf
00000040: 8c4b 913d 89e0 a3be 77af 6c3c 8b26 d03e
00000050: 62ea 863e e8ba fa3b 742f 203e 7d0e 2d3c
00000060: 362b 8fbe 8cb6 053e 4d9e d4be 60b2 863c
00000070: b563 21bf 6727 403e e0b0 52bd 8ce6 9f3c
00000080: d8a9 42be fb32 4b3e 5569 7b3e 991f 1a3e
00000090: 1fe6 afbe 0dec fcbe 661e 493e 04ff 733d
000000a0: a447 883e 8296 803e 18d1 193e c454 5a3e
000000b0: 72e0 9f3e e028 f3bd a03f a73e 75f2 5b3e
000000c0: b8e5 ea3d 3f07 e13d 494f f73d e337 d9bd
000000d0: 904d 2ebe cd2d f7be c60e 84be 0b99 d33d
000000e0: bf64 c2be 68ba 47bd 9b48 d1bd ac40 8abe
000000f0: 9ff3 20bd f72e 793d 9e02 d93c 1b41 2dbe
00000100: abae 8d3d e063 fd39 7a3e debb 357c bdbe
00000110: c33b 4abc a7c0 2a3e 7ef6 06be c8ad 213d
00000120: d1f6 dcbd 4044 14be 2899 f63d 05b0 d3bd
00000130: bce7 333e 80f0 83bd c56f 16be 08da e1bd
00000140: 1a03 003e 61fd 223e f13e 493e 3a5b ff3e
00000150: 8302 16be 6eb0 b3be 52f4 ad3c 8aa0 23bd
00000160: dc3e 013e c36c a33e 3282 7fbe 59d6 b5be
00000170: de4f c9be 5ac0 343e 1c47 663e 685b ad3d
00000180: 0ea5 b6be f6e4 86be e9a5 0a3d 8203 e2bd
00000190: 5722 273e 3546 c9be e6c9 c4be 0851 17be
000001a0: 082f aebd c0a4 b53d f898 ccbd e84e c63d
000001b0: 0a0f 12be ffbd 3a3e 9332 68bc 1ce0 843b

flow.flow.transforms.5.alpha_prime f4 [7]
-0.41868016 -0.027056724 -0.018952345 0.25305122 -0.15262714 -0.15787327 -0.15880035
00000000: 3f5d d6be 10a6 ddbc f341 9bbc ee8f 813e
00000010: 4a4a 1cbe 88a9 21be 8f9c 22be

flow.flow.transforms.5.beta_prime f4 [7]
0.4085299 0.16127275 0.1315388 0.042984653 0.12198549 0.01560162 0.05986971
00000000: d52a d13e af24 253e 1bb2 063e ad10 303d
00000010: 87d3 f93d f09d 7f3c f139 753d

flow.flow.transforms.6.x0 f4 [7, 16]
-0.33449984 -0.22006921 -0.34892726 0.010427811 0.59218764 0.1500167 -0.03285072 -0.052074414
0.3145203 -0.002600627 -0.10596558 0.5381612 0.09478733 0.14055794 0.10477927 0.53565365
-0.17103057 -0.1658635 0.3700069 0.28527278 0.25655904 -0.2944763 -0.18242113 -0.13538884
-0.26756364 0.16621642 0.4842811 0.24030963 0.4547141 0.20109832 0.24817646 0.18148854
0.37153333 -0.40320417 0.11018116 0.41019812 0.35787043 -0.20685774 -0.41794926 0.30640438
0.27930653 0.31806794 0.42625055 -0.38047612 0.31356722 0.19498567 -0.30224916 0.23784243
-0.35016102 -0.24451455 0.014373319 0.22091006 -0.09102051 0.29735312 0.33592656 -0.20558164
0.48540163 0.0641001 0.29044616 0.41399422 -0.2674839 -0.21492033 -0.0516852 0.40748912
-0.015437125 0.04609869 -0.036609598 -0.2149755 0.02836169 0.05807282 -0.07494967 0.087651975
-0.071630605 -0.14305076 0.09497668 -0.04655551 0.056396082 -0.080569796 -0.111395866 -0.095524006
0.13479966 -0.114404075 -0.05372406 0.59385115 0.043052953 -0.35163322 0.13575011 -0.022578849
-0.10107174 0.3372823 -0.07545319 -0.10421509 -0.6151629 -0.16080615 0.15249838 -0.22668761
-0.04778078 -0.33475977 0.22245245 -0.42937514 0.30011886 -0.43325585 -0.15475489 -0.1391152
0.08442824 0.012449787 -0.18600991 0.020106794 0.07723652 0.31466994 0.20343229 -0.2030511
00000000: 9043 abbe d359 61be 98a6 b2be 69d9 2a3c
00000010: 9c99 173f fa9d 193e 7a8e 06bd fb4b 55bd
00000020: ce08 a13e 486f 2abb 7b04 d9bd efc4 093f
00000030: dc1f c23d 6cee 0f3e 8496 d63d 9920 093f
00000040: a322 2fbe 1fd8 29be 8b71 bd3e 460f 923e
00000050: b55b 833e 99c5 96be 9bcc 3abe 5fa3 0abe
00000060: 1afe 88be a334 2a3e b1f3 f73e ba13 763e
00000070: 49d0 e83e b8ec 4d3e f821 7e3e 22d8 393e
00000080: 9e39 be3e c770 cebe a9a6 e13d 7d05 d23e
00000090: cb3a b73e 84d2 53be 72fd d5be 09e1 9c3e
000000a0: 4401 8f3e cdd9 a23e 833d da3e c4cd c2be
000000b0: e28b a03e 53aa 473e 67c0 9abe f78c 733e
000000c0: 4e48 b3be 0662 7abe 127e 6b3c 3f36 623e
000000d0: f668 babd ab3e 983e 91fe ab3e fe83 52be
000000e0: 9086 f83e ea46 833d 5cb5 943e 0df7 d33e
000000f0: a6f3 88be 1314 5cbe dcb3 53bd 6aa2 d03e
00000100: ffeb 7cbc fbd1 3c3d f2f3 15bd 8a22 5cbe
00000110: c656 e83c c4dd 6d3d 367f 99bd e182 b33d
00000120: 11b3 92bd e67b 12be 2283 c23d feb0 3ebd
00000130: 94ff 663d c701 a5bd 8423 e4bd 17a2 c3bd
00000140: ec08 0a3e af4c eabd c30d 5cbd a106 183f
00000150: 4b58 303d 4509 b4be 1402 0b3e 47f7 b8bc
00000160: b3fe cebd 44b0 ac3e 3487 9abd b96e d5bd
00000170: 517b 1dbf 5eaa 24be 8928 1c3e cc20 68be
00000180: c7b5 43bd a265 abbe 93ca 633e 0fd7 dbbe
00000190: 2ea9 993e b6d3 ddbe 1178 1ebe 3774 0ebe
000001a0: b7e8 ac3d 31fa 4b3c 6279 3ebe 01b7 a43c
000001b0: 2e2e 9e3d 6b1c a13e 8e50 503e a1ec 4fbe

flow.flow.transforms.6.alpha_prime f4 [7]
0.25960577 0.15555432 0.018027507 0.010357577 -0.36037973 -0.31530982 -0.10017209
00000000: 0ceb 843e a249 1f3e 6cae 933c d4b2 293c
00000010: b183 b8be 4a70 a1be 0627 cdbd

flow.flow.transforms.6.beta_prime f4 [7]
0.057178147 0.08624752 -0.0015797961 0.15919462 0.20949169 0.26459008 -0.0074879164
00000000: a233 6a3d 8aa2 b03d 2911 cfba ea03 233e
00000010: fd84 563e 5a78 873e 325d f5bb

flow.flow.transforms.7.x0 f4 [7, 16]
0.27788058 -0.13496806 0.14900279 -0.45016244 -0.3075473 0.19433078 0.19052836 0.10157346
0.1314036 -0.31139967 0.07913873 -0.3951681 -0.04862933 0.26233873 -0.04009538 0.086904325
0.3111831 -0.23419683 -0.08534734 -0.67322755 -0.38860798 0.2821742 -0.29576707 0.24873357
0.19391552 0.11871822 -0.1463304 0.24602534 0.5046559 0.0829642 0.09703071 -0.10531406
0.23676334 -0.26089942 -0.1826405 -0.20976017 0.19488172 0.23767684 -0.17484608 -0.0184225
-0.21641123 -0.18415636 -0.13946074 -0.019229269 -0.30157554 0.060509946 -0.2017856 -0.14113072
-0.14418165 -0.26428178 -0.0763341 0.35020444 0.45825517 0.31508735 0.33169377 -0.1001446
0.42956194 0.24345773 0.07822194 0.50327945 -0.19661385 -0.023520129 -0.030709937 0.57489604
0.07311389 -0.023117123 -0.050218657 -0.37732732 0.032302633 0.17383066 -0.1455255 0.045225907
-0.09798877 -0.18420248 0.09339672 -0.09413319 0.1858628 -0.001721652 -0.16490227 -0.10610579
0.25437444 0.09740379 -0.018910682 0.5746451 -0.033444267 -0.02355311 0.25640127 0.07597671
-0.26306862 0.21820575 -0.21397352 -0.07672085 -0.60453385 -0.23595972 0.14884156 -0.22867723
-0.4069147 -0.25924113 0.07584989 -0.22244209 0.16396822 -0.36567235 -0.29240334 -0.16457346
-0.05695143 0.075295225 -0.08989252 0.09194736 -0.08904937 0.26538357 -0.03705033 0.021715961
00000000: 5d46 8e3e 1135 0abe 3094 183e b17b e6be
00000010: d776 9dbe a6fe 463e de19 433e bf05 d03d
00000020: aa8e 063e c76f 9fbe 7d13 a23d 7953 cabe
00000030: 8c2f 47bd 4351 863e 0e3b 24bd e5fa b13d
00000040: 6453 9f3e 4bd1 6fbe 96ca aebd a458 2cbf
00000050: a0f7 c6be 2379 903e c86e 97be 03b4 7e3e
00000060: ca91 463e 8a22 f33d a3d7 15be 11ee 7b3e
00000070: 2131 013f 22e9 a93d 09b8 c63d e6ae d7bd
00000080: 1772 723e 9c94 85be 1c06 3bbe 5fcb 56be
00000090: 138f 473e 8f61 733e da0a 33be c8ea 96bc
000000a0: e89a 5dbe 7c93 3cbe ccce 0ebe b386 9dbc
000000b0: 1c68 9abe 47d9 773d e2a0 4ebe 9284 10be
000000c0: 5ba4 13be f14f 87be 0d55 9cbd ff4d b33e
000000d0: 6ca0 ea3e 2153 a13e c4d3 a93e 9d18 cdbd
000000e0: 8bef db3e fc4c 793e d332 a03d ecd6 003f
000000f0: 2455 49be 49ad c0bc 6893 fbbc 632c 133f
00000100: bcbc 953d 1f60 bdbc 14b2 4dbd 0c31 c1be
00000110: c44f 043d aa00 323e a304 15be cd3e 393d
00000120: 56ae c8bd 939f 3cbe c846 bf3d e7c8 c0bd
00000130: d152 3e3e 0ea9 e1ba 24dc 28be fe4d d9bd
00000140: 5e3d 823e a37b c73d 93ea 9abc f11b 133f
00000150: dbfc 08bd 74f2 c0bc 0747 833e ad99 9b3d
00000160: eeb0 86be 5471 5f3e e01b 5bbe d21f 9dbd
00000170: bbc2 1abf 6d9f 71be ec69 183e 5d2a 6abe
00000180: 2057 d0be 41bb 84be 3057 9b3d dcc7 63be
00000190: 49e7 273e 6839 bbbe e4b5 95be f285 28be
000001a0: e745 69bd 6234 9a3d 9219 b8bd e64e bc3d
000001b0: 845f b6bd 5be0 873e 16c2 17bd ace5 b13c

flow.flow.transforms.7.alpha_prime f4 [7]
0.0033166164 0.010419965 0.2718945 -0.22671586 0.0023757922 -0.11046602 -0.19372916
00000000: 975b 593b 80b8 2a3c c235 8b3e 3428 68be
00000010: 2eb3 1b3b 023c e2bd f060 46be

flow.flow.transforms.7.beta_prime f4 [7]
0.13412409 -0.16736251 -0.10688149 0.38052833 0.24395771 0.40219173 0.009035351
00000000: d357 093e 1461 2bbe afe4 dabd 9cd4 c23e
00000010: 0dd0 793e 13ec cd3e 0209 143c

flow.flow.transforms.8.x0 f4 [7, 16]
-0.26030552 -0.35856545 -0.34076732 0.11578208 0.4328517 0.2954607 0.1146172 -0.17693636
0.3809759 0.13416395 -0.14794248 0.6334036 -0.015235792 0.16625091 0.22597903 0.65594447
-0.13397355 0.4125878 0.11350565 -0.049998753 -0.39523086 0.32165352 -0.2634477 -0.070683286
0.24571925 -0.27678663 0.5028942 -0.087603234 -0.039946564 0.083221324 0.12438532 0.10817936
-0.14357138 0.11298571 0.16529028 0.102548115 -0.33824366 -0.40168762 0.11656331 0.07857344
0.1547559 0.18052855 0.27685893 0.21559493 0.24023597 -0.10590001 0.28997508 0.16802372
-0.12549795 -0.27233085 -0.014158753 0.2639514 0.4478371 0.3409837 0.31042123 -0.098004244
0.45935583 0.22311623 0.04878659 0.45869157 -0.25356296 -0.019993106 -0.107776575 0.52639467
-0.38573897 -0.16737527 0.052329876 0.40078703 0.014081421 -0.4547726 0.021735055 0.047369797
0.0251256 0.27123442 -0.037144326 0.16559415 -0.210917 -0.051274974 0.092463635 0.26165578
-0.29315302 -0.08245257 -0.04919661 -0.5412766 0.10705748 0.25861236 -0.2997294 -0.031484574
0.2502981 -0.14529257 0.12574674 0.20912483 0.42766634 0.17036517 -0.23635353 0.29582003
0.44647086 -0.0038534305 0.21634613 0.1599108 0.055119745 0.3208692 0.5101054 -0.26007175
0.24305011 -0.032828722 0.2628516 0.15194099 -0.25779375 -0.41410437 -0.0482384 0.3522525
00000000: c446 85be e495 b7be 0e79 aebe 281f ed3d
00000010: bd9e dd3e a046 973e 6cbc ea3d ce2e 35be
00000020: 460f c33e 4662 093e 3c7e 17be bd26 223f
00000030: 8b9f 79bc ae3d 2a3e 0c67 673e faeb 273f
00000040: 5d30 09be b53e d33e a675 e83d 7ecb 4cbd
00000050: b35b cabe c5af a43e 9ee2 86be 66c2 90bd
00000060: d49d 7b3e fab6 8dbe adbd 003f 5369 b3bd
00000070: 029f 23bd f16f aa3d bbbd fe3d 248d dd3d
00000080: 6004 13be 0d65 e73d db41 293e bf04 d23d
00000090: 462e adbe 00aa cdbe bfb8 ee3d 1deb a03d
000000a0: 5578 1e3e 7adc 383e 74c0 8d3e ebc4 5c3e
000000b0: 6b00 763e 1be2 d8bd 9d77 943e 690e 2c3e
000000c0: 8982 00be f36e 8bbe 1dfa 67bc a324 873e
000000d0: e84a e53e 6a95 ae3e 88ef 9e3e 73b6 c8bd
000000e0: b030 eb3e 9578 643e 73d4 473d 9fd9 ea3e
000000f0: 01d3 81be 95c8 a3bc f7b9 dcbd cdc1 063f
00000100: 947f c5be 6c64 2bbe da57 563d f533 cd3e
00000110: c3b5 663c f4d7 e8be b70d b23c d506 423d
00000120: 34d4 cd3c 3ddf 8a3e a624 18bd 8391 293e
00000130: a0fa 57be b505 52bd 935d bd3d bff7 853e
00000140: 2718 96be e5dc a8bd 6282 49bd 1a91 0abf
00000150: f440 db3d d768 843e 2276 99be f8f5 00bd
00000160: 1327 803e 93c7 14be c1c3 003e d224 563e
00000170: 15f7 da3e 3574 2e3e a906 72be b975 973e
00000180: d497 e43e d689 7cbb d789 5d3e a8bf 233e
00000190: 3ec5 613d f848 a43e 4496 023f 2028 85be
000001a0: 21e2 783e 6977 06bd 7c94 863e 6b96 1b3e
000001b0: 8bfd 83be 7d05 d4be a195 45bd 715a b43e

flow.flow.transforms.8.alpha_prime f4 [7]
-0.054152355 0.069836676 -0.09988743 -0.38484132 0.21649666 0.11195677 0.08645927
00000000: dcce 5dbd 8806 8f3d c891 ccbd ec09 c5be
00000010: 4db1 5d3e 9749 e53d 8f11 b13d

flow.flow.transforms.8.beta_prime f4 [7]
-0.123556204 -0.11569478 0.27798808 0.18042858 -0.14490256 -0.15149388 0.008744271
00000000: 090b fdbd 63f1 ecbd 7454 8e3e 45c2 383e
00000010: 5661 14be 3621 1bbe 2144 0f3c
