saved_experiments/classification/GPN/1/model_3.pt (torch, 764793 bytes, 36 tensors)

input_encoder.0.weight f4 [64, 2879]
000000 44 7c 36 3e 4b 4c 12 3e c1 46 1e 3e c8 df 17 3e
       0.17820841 0.14286916 0.15456678 0.1483146
000010 b6 af 86 be 8c 97 ee 3d 0b 48 81 3e 7e 9a 32 be
       -0.26305932 0.11649999 0.25250277 -0.17441747
000020 13 64 40 3d 4d 7d 0b be f6 d1 56 bc 21 9f 3c be
       0.04697044 -0.13622017 -0.013111582 -0.18420078
000030 21 53 a3 3e 62 1f 5a be ba 9e 80 3e 61 6d b2 3e
       0.3189936 -0.21301034 0.251211 0.34849074
000040 9f 51 ec bd 26 e6 37 3e 18 b4 84 3d f0 2e c3 3d
       -0.115390055 0.17958888 0.06479663 0.09530437
000050 85 b9 78 3d ea 77 8c 3d bc b4 e7 bc 46 9d 80 3d
       0.0607238 0.06858809 -0.028284423 0.062799975
000060 66 2a 34 bd bb 28 3a 3d e4 bc 12 be 74 8c bc 3d
       -0.043985747 0.045449 -0.14329869 0.09206477
000070 df 6f 04 be c0 ac 7e 3e 85 02 e9 bd 4b e7 4c 3e
       -0.129333 0.24870586 -0.11377434 0.20010106
000080 4a 4b 95 bd 36 6e 6e 3e f0 5d 63 3e d9 7a 37 3d
       -0.07289751 0.2328423 0.22203803 0.04479489
000090 a7 82 f9 bc 9a 3d 11 be 78 17 f3 bc f0 9f 5f 3e
       -0.030457808 -0.14183655 -0.029674277 0.21838355
0000a0 6a fc 36 bd 91 75 f3 bd df 65 2e 3d d4 ea 99 3c
       -0.044674315 -0.118876584 0.04257762 0.018788733
0000b0 5f a1 13 be 4e 45 bb bd 9a af 24 3e c7 b4 09 be
       -0.14417027 -0.09144078 0.16082612 -0.13447867
0000c0 9d e9 95 bd 48 16 80 bd e2 0d 02 3e 90 e6 02 bc
       -0.07319949 -0.0625425 0.12700608 -0.007989541
0000d0 56 3e 94 bd 59 5b 04 be 1a 17 27 bc 0f 98 41 3e
       -0.07238452 -0.12925471 -0.010198379 0.18905662
0000e0 90 f0 76 3e 27 58 a3 3e d7 f4 6b 3e b3 6e 34 be
       0.24115205 0.31903192 0.23042618 -0.17620353
0000f0 88 60 06 bd de e6 b2 bd e2 a7 42 3e 68 71 5b 3c
       -0.032806903 -0.08735441 0.19009355 0.013393737
000100 e2 64 41 be 51 57 27 3d 73 17 2c 3e a9 51 38 3e
       -0.1888614 0.040854756 0.1680582 0.17999901
000110 01 4b 58 be e7 4d fb bd 70 d9 c0 3d 60 ec 5b 3e
       -0.21122362 -0.12270718 0.09416473 0.21476889
000120 36 a1 92 3e 35 f2 63 be f2 59 71 3e 62 9c eb bd
       0.2863862 -0.22260363 0.23569468 -0.11504437
000130 08 83 a8 bd 33 41 8a 3e 27 c7 9e 3e 6d 3d ad 3e
       -0.08228117 0.27002868 0.31011316 0.33835927
000140 9c e5 a7 3e ef ac 88 bd 47 46 39 3d 37 59 3e 3e
       0.32792366 -0.066736095 0.045233037 0.1858872
000150 f7 4f 1a 3d 24 49 e6 bd 16 18 1e 3e f9 fa ff bc
       0.037673917 -0.11244419 0.15438876 -0.031247603
000160 4e 9a bf 3d dd 67 82 bd 0e 1b 54 be aa 39 28 be
       0.09355603 -0.063674666 -0.20713446 -0.16428247
000170 1e bf 98 be e3 e2 0b bd 1a ba d6 bd a8 31 30 bb
       -0.2983331 -0.034151923 -0.10484715 -0.0026885066
000180 ea e4 25 be 57 c1 1b 3e 85 f1 7b 3d c2 f1 63 3d
       -0.16200605 0.15210472 0.061509628 0.05565048
000190 d2 44 2e 3d 09 6f 8b be 4d a5 34 3e 0d 5b 2e 3e
       0.0425461 -0.2723315 0.17641182 0.1702692
0001a0 7b 51 24 be e2 a4 0e 3e 96 fc 1a 3e c9 17 18 bd
       -0.16046707 0.13930085 0.15135416 -0.03713206
0001b0 ef cf 89 3e 99 a9 59 be 02 c5 b5 3d d1 94 cc bd
       0.26916453 -0.21256103 0.08875467 -0.09989322
0001c0 c6 2b da bd 71 d4 8c 3d d4 b1 1c 3e 14 1e 89 3e
       -0.1065288 0.068764575 0.15302211 0.2678076
0001d0 98 32 82 3e bf 9b 08 be 56 af 58 3d bb d6 6b be
       0.25429225 -0.13340662 0.05290159 -0.23031132
0001e0 4c bc 81 bd 4a 37 cc 3d 58 ed 22 3d a9 5b 96 3e
       -0.06334743 0.09971483 0.03977713 0.29366806
0001f0 41 d7 79 3e 3d 73 75 bd 9e 2c 4c be 48 81 8a 3e
       0.24398519 -0.059924353 -0.19938895 0.2705176
000200 a9 9d 84 3c 36 04 31 3e 25 e6 38 be 38 0b 28 be
       0.01618846 0.17286763 -0.18056543 -0.1641053
000210 76 d7 24 3e 02 76 7b be 04 52 df 3b 57 ab 9b be
       0.16097817 -0.24556735 0.006815197 -0.3040416
000220 e6 a7 1c 3d a5 9b 29 3e b6 dd 85 bc 96 ce 12 3d
       0.038246058 0.1656328 -0.016341072 0.035841547
000230 34 98 93 3d 2a 0d 1c 3e 33 6a 08 3e 8d 03 f0 3d
       0.07206765 0.15239397 0.13321762 0.11719427
000240 86 7a 77 3d 40 66 a6 bc d0 9a 4e be f9 22 05 be
       0.06041958 -0.020312428 -0.20176244 -0.13001622
000250 34 a7 05 3e 69 d3 5f bc dd 97 3f be 33 e3 b2 bd
       0.13052064 -0.013661244 -0.18710275 -0.08734741
000260 af 45 72 be fa dc 85 3d 8d b6 ed 3d c1 3b 21 be
       -0.23659395 0.065362886 0.116070844 -0.1574545
000270 fc 13 5a be 40 ec a5 3e 26 d8 d8 bd b1 32 5b 3e
       -0.21296686 0.32406807 -0.10588102 0.21406056
000280 ee 9b 24 bd 24 dc 9d 3d 94 c2 36 be 6a 46 29 3e
       -0.04018777 0.07708004 -0.17847663 0.16530767
000290 3a 88 b0 3e 9c 23 17 3d 3e b0 b9 3e 63 cf db bd
       0.34478933 0.036899194 0.36267275 -0.10732915
0002a0 90 c3 eb 3d 86 a0 c6 3d 31 b2 cd bd 87 b0 9d bd
       0.1151191 0.09698586 -0.10043753 -0.076996855
0002b0 dc 29 0a 3e df 4e 0d be 38 0b 3d 3e b2 83 94 bd
       0.1349253 -0.13799618 0.18461311 -0.072516814
0002c0 c5 87 5f bd 6f 65 ea bd 88 00 b5 bd a1 9a 3a be
       -0.05457284 -0.11445128 -0.08837992 -0.18223049
0002d0 7d 1b 77 bd 26 e5 63 3e d7 02 25 bd 57 80 41 3e
       -0.06032895 0.22255382 -0.04028591 0.18896614
0002e0 54 13 67 3d 0b 19 37 3e ab 30 b2 3d 72 34 fe 3d
       0.056414917 0.17880647 0.08700689 0.12412347
0002f0 10 da ea 3c 7c b2 10 be 7c fe 12 3d 88 9d 55 3e
       0.028668433 -0.14130586 0.035887226 0.20860875
000300 b8 f5 5d 3e eb ba 9d 3d 53 bb d1 3d b6 99 aa 3e
       0.21675766 0.077016674 0.102408074 0.33320397
000310 ec 57 da 3c 79 08 38 be 2f da 9d 3e 34 bf 33 be
       0.026653253 -0.17971982 0.30830523 -0.17553407
000320 6d 33 71 3d e8 2d a0 3e 41 e1 da 3c 03 c1 6e 3e
       0.058886934 0.31285024 0.026718738 0.23315816
000330 fa f1 10 bd ae 4c 43 3d 36 63 29 bd fd 82 55 3e
       -0.035387017 0.04768055 -0.04135438 0.2085075
000340 ed 96 0e be 2d e6 d7 bc be 8c e3 bd c5 0d e1 3d
       -0.13924761 -0.026354874 -0.11110829 0.109889545
000350 e2 83 29 be 7f a7 fe bd 00 ae 97 bd 3a a6 cd 3d
       -0.16554216 -0.12434291 -0.07406235 0.10041471
000360 b4 6d 62 be 97 3b 65 bd 9b ad cf 3d 1a 25 cc 3d
       -0.22112161 -0.055965032 0.101405345 0.09968014
000370 fc 11 2f 3d 8d 8b 59 be a1 e6 1f be f0 b5 78 bd
       0.04274176 -0.2124464 -0.15615322 -0.060720384
000380 b6 ed 5d 3e d3 38 72 be 5f 22 91 3d e8 fd 32 be
       0.21672711 -0.23654489 0.07086634 -0.1747967
000390 d0 1c d4 bd 42 03 46 3e b2 7f 8b 3e 7a 35 51 3e
       -0.10357058 0.1933718 0.2724586 0.20430556
0003a0 d0 3e 27 3d 81 c0 01 3e 0b 01 9b 3e c6 8e 80 3e
       0.040831387 0.1267109 0.30274233 0.25108927
0003b0 ae 1b b2 3d 58 2a 19 3e a6 ea a7 3d db 73 f7 3c
       0.08696686 0.14957559 0.081990525 0.030206611
0003c0 2e 7f d6 3d 54 77 0a be 4f d1 25 be de 97 af 3d
       0.10473476 -0.13522083 -0.16193126 0.08573888
0003d0 31 e5 33 be b0 6d 13 be 35 8b d4 bd 72 91 1c 3e
       -0.17567898 -0.14397311 -0.10378114 0.15289858
0003e0 bd 80 29 3e 2a 50 43 be 5a 6a 58 be 0a 89 f2 3c
       0.16553016 -0.19073549 -0.2113432 0.029606361
0003f0 c9 5e e8 3c ec 57 9c be 8e 9c ef 3d 00 cb 9d 3e
       0.02836551 -0.3053583 0.11699782 0.3081894

input_encoder.0.bias f4 [64]
000000 e8 1d ce 3b 5c 6b a7 3c bb 62 4a 3c 18 b9 77 bd
       0.006290186 0.020436935 0.012352641 -0.060479254
000010 66 ef 2c bd ea ce 2e 3c 84 15 cc 3c 6d ac 44 bd
       -0.042220496 0.010669449 0.024912603 -0.048016
000020 c4 33 4a bd 87 9d 66 3c 12 62 fc ba e8 59 7a bd
       -0.049365774 0.014075643 -0.0019255301 -0.061120898
000030 fb d2 a8 3c 75 88 ca 3c 0b e8 51 bd 51 9e af 3c
       0.020608416 0.02472327 -0.051246684 0.021437796
000040 9a 4b 5f 3c be 84 70 bd 32 5c 5f bd da 70 17 3c
       0.013628865 -0.058720343 -0.054531284 0.0092432145
000050 c6 58 2c 3c f4 98 16 3c d7 7e 77 bd f7 75 9b 3c
       0.010519212 0.00919174 -0.0604237 0.018977148
000060 50 85 47 bd 4d 07 62 bd 14 82 21 bd 35 52 b2 3c
       -0.04871112 -0.055182744 -0.039430693 0.021767715
000070 62 b2 17 3c e2 e3 55 3c ec a7 62 bd e2 bb 3e 3b
       0.009258838 0.01305482 -0.055335924 0.0029103686
000080 0c 3d f5 3a 5f 24 70 3c a3 26 92 3c 7a 85 9c 3c
       0.001871021 0.014657109 0.017840689 0.019106615
000090 07 8a 7d 3c 10 54 97 3c 8b 35 22 bd 52 5b 83 bd
       0.015474803 0.018472701 -0.039601844 -0.06413902
0000a0 fd 77 63 bd 01 68 04 3d bb 32 6c bd 5d dd fa 3b
       -0.05553435 0.03232575 -0.057665568 0.007655783
0000b0 8a c3 cf 3c e7 a1 6a bd 61 f2 3e bd 4b 4f 43 bd
       0.025361795 -0.05728331 -0.04661787 -0.04768304
0000c0 f2 11 c7 3c ef 1f 7d 3c 95 fe 8f 3c 93 dd 24 3c
       0.02430055 0.015449508 0.017577449 0.010062593
0000d0 08 f5 8a 3c ab 57 a6 3c 6c 5f 1f bd cc 71 c4 3c
       0.016962543 0.020305475 -0.03890936 0.023980044
0000e0 ba 63 b0 bb 8e 49 f2 3c b5 4d 81 3c 77 c1 bb 3c
       -0.005382982 0.02957609 0.015784124 0.0229194
0000f0 3b 66 8b 3b 99 64 e4 bb 5e 10 04 bd 65 5b 31 bd
       0.00425413 -0.00697 -0.03224217 -0.04330005

latent_encoder.weight f4 [16, 64]
000000 0c 41 e2 3d e7 85 8c 3c c8 fb e7 3d 13 97 e1 3b
       0.11047563 0.017153693 0.1132732 0.0068844645
000010 a0 11 a2 bc 0e 82 bb 3c b0 8a d5 ba fe 57 8a 3b
       -0.019783795 0.022889163 -0.0016291942 0.0042219153
000020 3a 18 f6 bc 50 9e b8 bd 66 88 3a be 63 4a 37 3d
       -0.030040849 -0.09014571 -0.18216094 0.044748675
000030 7e 93 3e 3e 2c e0 61 3e 9d a5 4c bd 39 d3 6f be
       0.18610951 0.22058171 -0.04996263 -0.23420419
000040 75 a3 53 be f2 e0 6a 3c 73 00 66 bd b2 72 8e be
       -0.20667823 0.014335858 -0.056152772 -0.2782188
000050 02 10 12 3e 2e be 28 be 96 a4 ac 3d 40 7d 9d 3e
       0.14263919 -0.16478798 0.0842983 0.3075962
000060 36 ec 6c 3d 53 86 3d 3c a0 c1 71 bd e1 84 6b 3e
       0.057842456 0.01156767 -0.059022546 0.22999908
000070 b7 70 4a be 26 66 f6 3d 16 b0 03 3d ef 4f 9b bd
       -0.1976956 0.12031202 0.03215035 -0.075836055
000080 c8 4b cb bc 44 85 19 bd f1 19 c4 be fe 2f 9c bd
       -0.024816409 -0.037480608 -0.38301042 -0.07626341
000090 ae 97 62 3e 7a e6 96 bc 28 09 51 bb 61 e2 04 bc
       0.22128174 -0.018420447 -0.0031896327 -0.008110614
0000a0 b1 cd 9d bc 26 19 40 3e b4 7a 12 3e f6 1c a4 bd
       -0.01926312 0.18759593 0.1430462 -0.08013336
0000b0 b3 2d 8a 3e f3 0c f9 bb dd 93 f2 bc 43 60 1a 3e
       0.2698799 -0.0076004206 -0.029611522 0.15075783
0000c0 b1 bb bd 3e 84 34 4a be 8a 0e be be ec a8 9f be
       0.3705726 -0.19746596 -0.37120467 -0.31183565
0000d0 16 32 fa 3e 8f 49 c9 bd f5 3e ae bc 5c 70 14 3e
       0.48866338 -0.09828483 -0.021270255 0.14495987
0000e0 53 3b 38 3e b0 ef a0 be 68 b6 00 3e d3 f3 80 3e
       0.1799138 -0.31432867 0.12569582 0.25186023
0000f0 a0 1b 8d be 25 15 2c 3c 23 fd 6a 3c e6 43 17 bb
       -0.2756014 0.010503088 0.014342579 -0.0023081242
000100 04 f9 d8 bc 63 2f 71 bd 22 da 04 be 3a 03 8b bb
       -0.026485927 -0.058883082 -0.12973836 -0.004242328
000110 09 e0 ba 3d 2d 2c 80 be fe 9d 54 3e a0 3b 81 bd
       0.091247626 -0.25033703 0.20763394 -0.06310201
000120 90 48 c7 3c 5c d1 46 be 15 19 36 3d 17 87 19 bc
       0.024326593 -0.19415802 0.044457514 -0.009370587
000130 9e 57 10 be 64 59 2e bd e1 b9 87 bc 53 98 50 3e
       -0.14095923 -0.04256572 -0.016568126 0.20370607
000140 fa b0 3b be 88 f5 f5 bc a5 02 2b 3e c2 54 82 3e
       -0.1832923 -0.030024305 0.16700228 0.2545529
000150 f0 83 58 bc 79 62 32 be 07 d1 11 bd 05 33 13 be
       -0.01321505 -0.17420377 -0.035599735 -0.14374931
000160 96 bf 00 bd df 82 b1 3d 53 48 ce 3d 09 3e 9c 3e
       -0.03143271 0.0866754 0.100723885 0.3051608
000170 dc 4a 8a ba ab ad 11 be e7 a0 ad 3c d9 5b ab 3e
       -0.0010550874 -0.14226405 0.021194888 0.33468512
000180 76 fc 78 be 39 77 5c bd 26 25 e0 3d 5d 1b 5c be
       -0.24315056 -0.053824637 0.109445855 -0.21494813
000190 62 34 49 be c5 33 76 3e 5e 8e 1c 3d dc f3 34 3b
       -0.19648889 0.24043186 0.03822171 0.0027611172
0001a0 e2 23 88 3c f1 39 e6 bd ec e4 7a bd aa c2 90 bb
       0.016618673 -0.1124152 -0.061253473 -0.004417737
0001b0 04 d5 2b 3e b0 7a ab bb c8 50 3e 3d bb ed 28 bd
       0.16780478 -0.0052331313 0.046463758 -0.041242342
0001c0 c3 a0 ea bd fe 6e ff bc fe 85 24 bb 82 5c a4 3e
       -0.11456444 -0.031180855 -0.002510428 0.32101828
0001d0 e4 15 dd bd c6 e9 2e be 32 c3 46 3e 89 b6 26 3e
       -0.10795191 -0.17081365 0.19410399 0.16280569
0001e0 19 63 2d 3e 87 83 1a 3e 0d aa 60 3e c7 a1 40 be
       0.16932334 0.15089236 0.21939869 -0.18811713
0001f0 4a a2 8b 3e a9 3d 10 3e e5 19 03 3e 96 f1 8d bd
       0.27272254 0.14086021 0.12802847 -0.069308445
000200 79 1e 43 be f7 e4 3f bd c0 dd c4 3d 93 98 db bb
       -0.19054593 -0.046849217 0.09612608 -0.006701538
000210 63 70 88 be e5 6a 52 3e e8 42 8b be 06 d2 32 be
       -0.26648244 0.2054859 -0.27199483 -0.1746293
000220 67 da f7 bc c6 e4 3e 3e 47 85 0c be 5f a0 4d bd
       -0.03025551 0.18641958 -0.13722716 -0.05020177
000230 8f 92 37 3e 8c 6f 1c 3d 7d 47 07 3d 97 45 c4 bd
       0.17927001 0.038192317 0.03302716 -0.09583586
000240 90 08 e8 bc 01 48 f9 bd 79 16 06 3d 27 55 6c be
       -0.028324395 -0.12171937 0.032736275 -0.23079358
000250 f4 0b cd be 2d 34 19 be 52 84 92 bd 3e 16 44 3e
       -0.40048182 -0.1496131 -0.07154144 0.1914911
000260 79 7b ab 3d af 37 97 bd 9e 64 9d bd e5 48 66 be
       0.0837316 -0.07383668 -0.07685207 -0.22488745
000270 6d b4 38 bd 0e 7c 9c 3e 4a 5c 82 bc a1 be 4b be
       -0.045093942 0.30563396 -0.015913147 -0.19896938
000280 73 44 16 3e 00 ee 16 3c 30 65 92 be 78 2d ae 3c
       0.14674549 0.009212017 -0.28592825 0.021261916
000290 2b 19 1a 3e 1a be 9f be 5e 3e 8d 3d 39 f2 c1 ba
       0.15048663 -0.31199723 0.06896661 -0.001479692
0002a0 c1 0e 81 bc 2b b9 6c 3e 80 d7 53 3d 18 81 e9 bc
       -0.015754106 0.23117511 0.05171919 -0.02850394
0002b0 0a fe 79 be 29 c4 07 3c e7 38 9b 3d a8 ad de 3a
       -0.24413314 0.008286514 0.07579213 0.001698901
0002c0 be 93 20 3e 30 d1 19 be 95 8b 85 be 65 06 af be
       0.15681359 -0.15021205 -0.26083055 -0.34184566
0002d0 06 0b a8 3e 35 18 5a 3e aa cf 9e bd 23 2e dd bc
       0.3282091 0.21298297 -0.077544525 -0.026999539
0002e0 f9 a2 81 3d 96 4d 8c be 19 51 1e be 23 a3 57 3e
       0.06329913 -0.27402943 -0.15460624 0.21058325
0002f0 5d c0 53 be 3d 43 89 bd 2b 81 48 bd 99 60 8c bd
       -0.2067885 -0.06702278 -0.04895131 -0.06854362
000300 04 af 2c bd 3d 58 bb bd 9e 01 cc 3c 24 97 28 3d
       -0.042159095 -0.091476895 0.024903115 0.041159764
000310 81 a5 31 bb ed 8e 11 bc c9 dd 3c 3e f1 5f d8 3c
       -0.0027106705 -0.008884174 0.1844398 0.026412936
000320 13 2a c7 bd fa 13 e6 bd b1 d7 e8 3d 2c d3 75 3c
       -0.09724822 -0.11234279 0.11369265 0.015003961
000330 d9 0d 3c 3e 2d 88 94 3e 0b e6 41 bd f2 3a e6 3d
       0.18364657 0.29010144 -0.047338527 0.11241712
000340 7a 4c 83 be 1d 53 23 bd e7 bc 67 bd a2 04 51 3e
       -0.25644284 -0.039874185 -0.056576636 0.20411924
000350 c6 e3 31 be 83 53 b8 be c0 2c da bc df 19 85 3e
       -0.17372045 -0.36001214 -0.026632667 0.259963
000360 f5 a6 c6 3c 42 1f 0f 3e 99 87 9a 3d 13 aa 7e 3e
       0.024249533 0.13976768 0.075453945 0.24869566
000370 1d 8a fa 3d 6f 5e 6f 3d a9 4d 78 bd 88 c4 77 3d
       0.12233374 0.05843967 -0.060620937 0.06049016
000380 01 8c b9 3c e7 20 82 3e be e4 af bd 87 34 7e be
       0.022649767 0.25415727 -0.08588551 -0.24824725
000390 a7 35 02 3e 5e 3f 7a 3d f3 25 62 3d f5 6e 18 3c
       0.12715779 0.061095588 0.055211972 0.009303798
0003a0 db 8b 96 bc c5 6c 28 3e 92 ac 89 bb 78 12 74 bc
       -0.018377235 0.16447742 -0.00420148 -0.014896981
0003b0 d7 db 5d 3e d5 b8 49 bb b1 34 0c bd c6 62 86 bd
       0.21665893 -0.0030780334 -0.034229938 -0.06561808
0003c0 41 d6 4b 3e d6 33 2e bd 7d 57 b3 be 29 a4 fe 3d
       0.1990595 -0.042529903 -0.35027686 0.12433655
0003d0 89 8a b5 3e b2 5d 89 bd 0f 93 27 3e 50 5a 92 3e
       0.35457256 -0.06707324 0.16364692 0.28584528
0003e0 5d 6b 94 3d f0 5d ba bd b1 2f 04 3e 5e 9c 42 3e
       0.072470404 -0.090999484 0.12908818 0.19004962
0003f0 cc a2 d5 3c 1d fb 35 3e d4 af 6f 3d db 73 e4 bd
       0.026078604 0.17771573 0.058517292 -0.1115491

latent_encoder.bias f4 [16]
000000 ac 88 86 ba 8f fc 04 bd 02 58 89 3d fc ae c0 bc
       -0.001026412 -0.03246742 0.06706239 -0.023520939
000010 98 d2 d6 3d 83 2d 87 bd d7 2a ff 3b ad 96 1f 3d
       0.10489386 -0.066004775 0.0077870893 0.038962055
000020 dc 12 0d 3d 7c 35 e4 3d e3 07 c8 bd 38 df dd bc
       0.034441814 0.11143014 -0.09767129 -0.027083978
000030 0e d7 df 3c 62 83 ea 3c 1e 64 7d 3c 9d e9 de 3d
       0.027324226 0.028627101 0.015465764 0.10884402

flow.flow.mean f4 [7, 16]
000000 00 00 00 00 00 00 00 00 00 00 00 00 00 00 00 00
       0.0 0.0 0.0 0.0
000010 00 00 00 00 00 00 00 00 00 00 00 00 00 00 00 00
       0.0 0.0 0.0 0.0
000020 00 00 00 00 00 00 00 00 00 00 00 00 00 00 00 00
       0.0 0.0 0.0 0.0
000030 00 00 00 00 00 00 00 00 00 00 00 00 00 00 00 00
       0.0 0.0 0.0 0.0
000040 00 00 00 00 00 00 00 00 00 00 00 00 00 00 00 00
       0.0 0.0 0.0 0.0
000050 00 00 00 00 00 00 00 00 00 00 00 00 00 00 00 00
       0.0 0.0 0.0 0.0
000060 00 00 00 00 00 00 00 00 00 00 00 00 00 00 00 00
       0.0 0.0 0.0 0.0
000070 00 00 00 00 00 00 00 00 00 00 00 00 00 00 00 00
       0.0 0.0 0.0 0.0
000080 00 00 00 00 00 00 00 00 00 00 00 00 00 00 00 00
       0.0 0.0 0.0 0.0
000090 00 00 00 00 00 00 00 00 00 00 00 00 00 00 00 00
       0.0 0.0 0.0 0.0
0000a0 00 00 00 00 00 00 00 00 00 00 00 00 00 00 00 00
       0.0 0.0 0.0 0.0
0000b0 00 00 00 00 00 00 00 00 00 00 00 00 00 00 00 00
       0.0 0.0 0.0 0.0
0000c0 00 00 00 00 00 00 00 00 00 00 00 00 00 00 00 00
       0.0 0.0 0.0 0.0
0000d0 00 00 00 00 00 00 00 00 00 00 00 00 00 00 00 00
       0.0 0.0 0.0 0.0
0000e0 00 00 00 00 00 00 00 00 00 00 00 00 00 00 00 00
       0.0 0.0 0.0 0.0
0000f0 00 00 00 00 00 00 00 00 00 00 00 00 00 00 00 00
       0.0 0.0 0.0 0.0
000100 00 00 00 00 00 00 00 00 00 00 00 00 00 00 00 00
       0.0 0.0 0.0 0.0
000110 00 00 00 00 00 00 00 00 00 00 00 00 00 00 00 00
       0.0 0.0 0.0 0.0
000120 00 00 00 00 00 00 00 00 00 00 00 00 00 00 00 00
       0.0 0.0 0.0 0.0
000130 00 00 00 00 00 00 00 00 00 00 00 00 00 00 00 00
       0.0 0.0 0.0 0.0
000140 00 00 00 00 00 00 00 00 00 00 00 00 00 00 00 00
       0.0 0.0 0.0 0.0
000150 00 00 00 00 00 00 00 00 00 00 00 00 00 00 00 00
       0.0 0.0 0.0 0.0
000160 00 00 00 00 00 00 00 00 00 00 00 00 00 00 00 00
       0.0 0.0 0.0 0.0
000170 00 00 00 00 00 00 00 00 00 00 00 00 00 00 00 00
       0.0 0.0 0.0 0.0
000180 00 00 00 00 00 00 00 00 00 00 00 00 00 00 00 00
       0.0 0.0 0.0 0.0
000190 00 00 00 00 00 00 00 00 00 00 00 00 00 00 00 00
       0.0 0.0 0.0 0.0
0001a0 00 00 00 00 00 00 00 00 00 00 00 00 00 00 00 00
       0.0 0.0 0.0 0.0
0001b0 00 00 00 00 00 00 00 00 00 00 00 00 00 00 00 00
       0.0 0.0 0.0 0.0

flow.flow.cov f4 [7, 16, 16]
000000 00 00 80 3f 00 00 00 00 00 00 00 00 00 00 00 00
       1.0 0.0 0.0 0.0
000010 00 00 00 00 00 00 00 00 00 00 00 00 00 00 00 00
       0.0 0.0 0.0 0.0
000020 00 00 00 00 00 00 00 00 00 00 00 00 00 00 00 00
       0.0 0.0 0.0 0.0
000030 00 00 00 00 00 00 00 00 00 00 00 00 00 00 00 00
       0.0 0.0 0.0 0.0
000040 00 00 00 00 00 00 80 3f 00 00 00 00 00 00 00 00
       0.0 1.0 0.0 0.0
000050 00 00 00 00 00 00 00 00 00 00 00 00 00 00 00 00
       0.0 0.0 0.0 0.0
000060 00 00 00 00 00 00 00 00 00 00 00 00 00 00 00 00
       0.0 0.0 0.0 0.0
000070 00 00 00 00 00 00 00 00 00 00 00 00 00 00 00 00
       0.0 0.0 0.0 0.0
000080 00 00 00 00 00 00 00 00 00 00 80 3f 00 00 00 00
       0.0 0.0 1.0 0.0
000090 00 00 00 00 00 00 00 00 00 00 00 00 00 00 00 00
       0.0 0.0 0.0 0.0
0000a0 00 00 00 00 00 00 00 00 00 00 00 00 00 00 00 00
       0.0 0.0 0.0 0.0
0000b0 00 00 00 00 00 00 00 00 00 00 00 00 00 00 00 00
       0.0 0.0 0.0 0.0
0000c0 00 00 00 00 00 00 00 00 00 00 00 00 00 00 80 3f
       0.0 0.0 0.0 1.0
0000d0 00 00 00 00 00 00 00 00 00 00 00 00 00 00 00 00
       0.0 0.0 0.0 0.0
0000e0 00 00 00 00 00 00 00 00 00 00 00 00 00 00 00 00
       0.0 0.0 0.0 0.0
0000f0 00 00 00 00 00 00 00 00 00 00 00 00 00 00 00 00
       0.0 0.0 0.0 0.0
000100 00 00 00 00 00 00 00 00 00 00 00 00 00 00 00 00
       0.0 0.0 0.0 0.0
000110 00 00 80 3f 00 00 00 00 00 00 00 00 00 00 00 00
       1.0 0.0 0.0 0.0
000120 00 00 00 00 00 00 00 00 00 00 00 00 00 00 00 00
       0.0 0.0 0.0 0.0
000130 00 00 00 00 00 00 00 00 00 00 00 00 00 00 00 00
       0.0 0.0 0.0 0.0
000140 00 00 00 00 00 00 00 00 00 00 00 00 00 00 00 00
       0.0 0.0 0.0 0.0
000150 00 00 00 00 00 00 80 3f 00 00 00 00 00 00 00 00
       0.0 1.0 0.0 0.0
000160 00 00 00 00 00 00 00 00 00 00 00 00 00 00 00 00
       0.0 0.0 0.0 0.0
000170 00 00 00 00 00 00 00 00 00 00 00 00 00 00 00 00
       0.0 0.0 0.0 0.0
000180 00 00 00 00 00 00 00 00 00 00 00 00 00 00 00 00
       0.0 0.0 0.0 0.0
000190 00 00 00 00 00 00 00 00 00 00 80 3f 00 00 00 00
       0.0 0.0 1.0 0.0
0001a0 00 00 00 00 00 00 00 00 00 00 00 00 00 00 00 00
       0.0 0.0 0.0 0.0
0001b0 00 00 00 00 00 00 00 00 00 00 00 00 00 00 00 00
       0.0 0.0 0.0 0.0
0001c0 00 00 00 00 00 00 00 00 00 00 00 00 00 00 00 00
       0.0 0.0 0.0 0.0
0001d0 00 00 00 00 00 00 00 00 00 00 00 00 00 00 80 3f
       0.0 0.0 0.0 1.0
0001e0 00 00 00 00 00 00 00 00 00 00 00 00 00 00 00 00
       0.0 0.0 0.0 0.0
0001f0 00 00 00 00 00 00 00 00 00 00 00 00 00 00 00 00
       0.0 0.0 0.0 0.0
000200 00 00 00 00 00 00 00 00 00 00 00 00 00 00 00 00
       0.0 0.0 0.0 0.0
000210 00 00 00 00 00 00 00 00 00 00 00 00 00 00 00 00
       0.0 0.0 0.0 0.0
000220 00 00 80 3f 00 00 00 00 00 00 00 00 00 00 00 00
       1.0 0.0 0.0 0.0
000230 00 00 00 00 00 00 00 00 00 00 00 00 00 00 00 00
       0.0 0.0 0.0 0.0
000240 00 00 00 00 00 00 00 00 00 00 00 00 00 00 00 00
       0.0 0.0 0.0 0.0
000250 00 00 00 00 00 00 00 00 00 00 00 00 00 00 00 00
       0.0 0.0 0.0 0.0
000260 00 00 00 00 00 00 80 3f 00 00 00 00 00 00 00 00
       0.0 1.0 0.0 0.0
000270 00 00 00 00 00 00 00 00 00 00 00 00 00 00 00 00
       0.0 0.0 0.0 0.0
000280 00 00 00 00 00 00 00 00 00 00 00 00 00 00 00 00
       0.0 0.0 0.0 0.0
000290 00 00 00 00 00 00 00 00 00 00 00 00 00 00 00 00
       0.0 0.0 0.0 0.0
0002a0 00 00 00 00 00 00 00 00 00 00 80 3f 00 00 00 00
       0.0 0.0 1.0 0.0
0002b0 00 00 00 00 00 00 00 00 00 00 00 00 00 00 00 00
       0.0 0.0 0.0 0.0
0002c0 00 00 00 00 00 00 00 00 00 00 00 00 00 00 00 00
       0.0 0.0 0.0 0.0
0002d0 00 00 00 00 00 00 00 00 00 00 00 00 00 00 00 00
       0.0 0.0 0.0 0.0
0002e0 00 00 00 00 00 00 00 00 00 00 00 00 00 00 80 3f
       0.0 0.0 0.0 1.0
0002f0 00 00 00 00 00 00 00 00 00 00 00 00 00 00 00 00
       0.0 0.0 0.0 0.0
000300 00 00 00 00 00 00 00 00 00 00 00 00 00 00 00 00
       0.0 0.0 0.0 0.0
000310 00 00 00 00 00 00 00 00 00 00 00 00 00 00 00 00
       0.0 0.0 0.0 0.0
000320 00 00 00 00 00 00 00 00 00 00 00 00 00 00 00 00
       0.0 0.0 0.0 0.0
000330 00 00 80 3f 00 00 00 00 00 00 00 00 00 00 00 00
       1.0 0.0 0.0 0.0
000340 00 00 00 00 00 00 00 00 00 00 00 00 00 00 00 00
       0.0 0.0 0.0 0.0
000350 00 00 00 00 00 00 00 00 00 00 00 00 00 00 00 00
       0.0 0.0 0.0 0.0
000360 00 00 00 00 00 00 00 00 00 00 00 00 00 00 00 00
       0.0 0.0 0.0 0.0
000370 00 00 00 00 00 00 80 3f 00 00 00 00 00 00 00 00
       0.0 1.0 0.0 0.0
000380 00 00 00 00 00 00 00 00 00 00 00 00 00 00 00 00
       0.0 0.0 0.0 0.0
000390 00 00 00 00 00 00 00 00 00 00 00 00 00 00 00 00
       0.0 0.0 0.0 0.0
0003a0 00 00 00 00 00 00 00 00 00 00 00 00 00 00 00 00
       0.0 0.0 0.0 0.0
0003b0 00 00 00 00 00 00 00 00 00 00 80 3f 00 00 00 00
       0.0 0.0 1.0 0.0
0003c0 00 00 00 00 00 00 00 00 00 00 00 00 00 00 00 00
       0.0 0.0 0.0 0.0
0003d0 00 00 00 00 00 00 00 00 00 00 00 00 00 00 00 00
       0.0 0.0 0.0 0.0
0003e0 00 00 00 00 00 00 00 00 00 00 00 00 00 00 00 00
       0.0 0.0 0.0 0.0
0003f0 00 00 00 00 00 00 00 00 00 00 00 00 00 00 80 3f
       0.0 0.0 0.0 1.0

flow.flow.transforms.0.x0 f4 [7, 16]
000000 bd 45 21 3e 67 bb 69 be 15 5a ab 3d 3d 5c 22 3e
       0.1574926 -0.22825395 0.08366791 0.15855499
000010 6a 6d ff bd af c4 d3 bd 44 67 df bc 65 73 78 3d
       -0.12472041 -0.10340249 -0.02727092 0.060656924
000020 4b 54 20 3e f3 fb c0 3e e9 63 80 be 46 d6 7e be
       0.15657155 0.37692222 -0.25076225 -0.24886426
000030 4b 0b b7 bd f7 d5 81 be e0 e8 04 be 57 91 5f be
       -0.08937701 -0.25358555 -0.1297946 -0.21832787
000040 7f ae 7f be e0 75 67 3e a2 ae 2c be 82 a4 b1 be
       -0.24968909 0.2260356 -0.16863492 -0.34695822
000050 13 2b 43 be ea 60 4d 3e 5c 02 a3 3e 38 a5 22 3e
       -0.190594 0.20056501 0.31837738 0.15883338
000060 88 6a 1b 3e ac d9 5f be 18 7d 87 3e 8d 06 c0 3e
       0.15177357 -0.21860379 0.26462626 0.37504998
000070 9f f9 4b 3e 8d c4 0b be 5b 83 98 be a4 8b 3e 3d
       0.19919442 -0.13649197 -0.29787716 0.04651989
000080 d9 3f 95 3d b5 3d 50 be db ed 51 3e 11 94 9a bd
       0.072875686 -0.2033604 0.20500891 -0.07547773
000090 8e 07 f5 3d 4d 49 df bd de f7 46 be 91 6c 4f 3e
       0.119643316 -0.10902653 -0.19430491 0.20256259
0000a0 07 d1 39 bc bb e5 77 3e 56 8a c2 bd 23 42 1b 3d
       -0.01134134 0.24208729 -0.09499042 0.03790487
0000b0 d4 3e 60 bd 2f 63 ab 3d df 1d 61 3e be 1a 0d 3c
       -0.054747418 0.08368527 0.21984051 0.008612333
0000c0 c2 99 93 3e 80 ab 47 3e a0 f8 b9 3d 4e 01 ce 3e
       0.28828245 0.19499016 0.090806246 0.4023537
0000d0 9c 06 d4 bd 16 af c2 3e 70 f2 d4 bc c5 77 f0 3c
       -0.10352823 0.38024205 -0.02599451 0.029353986
0000e0 95 63 bf be fd 80 7d 3e 46 63 c8 3d bd b0 92 bd
       -0.37380663 0.24756236 0.0978456 -0.071626164
0000f0 cd 60 89 3e 16 1f 87 be 6f b2 1d 3e 4b 3b a6 be
       0.26831666 -0.26390904 0.15400098 -0.32467112
000100 e1 d7 98 bd f4 05 51 be d2 5a a5 3e 22 66 2f 3e
       -0.07463051 -0.20412427 0.32295853 0.17128804
000110 8e e7 9c 3e 99 4b db 3d 4d b0 4d be 55 41 a2 3e
       0.30645412 0.107077785 -0.20086785 0.3169047
000120 3f d0 b1 3e e4 26 97 3c 31 1d 64 3e 13 68 2e be
       0.34729192 0.018451162 0.2227676 -0.17031889
000130 dc f0 89 be 59 96 96 3c 9e 06 bd bd fb 3c d0 bd
       -0.26941574 0.018382238 -0.09229778 -0.10167881
000140 77 d0 6b be c3 f9 57 be 60 de 7c 3c 9c de 60 be
       -0.23028742 -0.2109137 0.015433878 -0.21959919
000150 dc ae 5d 3e 33 0f ef be e1 37 63 be 31 e1 3d 3e
       0.21648735 -0.46691284 -0.22189285 0.18542935
000160 27 87 19 3e 58 e8 62 3c 5f 67 35 3d dd a4 37 be
       0.14992963 0.01384934 0.044288035 -0.17933984
000170 77 6b 00 be 30 02 a8 bc c1 03 7c be 7e e5 ef 3d
       -0.12540995 -0.020508856 -0.24610807 0.11713694
000180 76 7e 9d be e8 0c 76 3e 7e dc c5 3e 3f f2 ba be
       -0.30760545 0.24028361 0.38644785 -0.36512944
000190 35 2b c4 be 4b 74 cd 3e a2 3e 9c be 7d 6b a2 3e
       -0.38314214 0.40127787 -0.30516535 0.31722632
0001a0 38 92 8a be 7e 76 76 be 24 97 84 3e 20 d7 c2 bd
       -0.2706468 -0.24068639 0.2589656 -0.09513688
0001b0 06 0d b5 be bf c6 5b 3e 70 fd 91 3e 2a 8a ea be
       -0.353615 0.21462534 0.2851367 -0.45808536

flow.flow.transforms.0.alpha_prime f4 [7]
000000 4f 60 d3 3d 45 ec 05 bc 3f 78 67 3e 7e bf 33 bc
       0.10321104 -0.008174007 0.22604464 -0.010970948
000010 a6 d0 64 3e 78 0e 44 3e 83 49 40 3e
       0.22345218 0.19146144 0.18778042

flow.flow.transforms.0.beta_prime f4 [7]
000000 b4 a6 1f 3e 04 77 2a 3d cd 20 90 bd f6 c5 d2 bd
       0.15590936 0.04161741 -0.07037506 -0.10291664
000010 08 16 80 3e f1 dc 43 be f3 b9 32 3e
       0.25016809 -0.19127251 0.17453746

flow.flow.transforms.1.x0 f4 [7, 16]
000000 1e fc 4b 3e 17 43 24 be 9d 5c 3d 3e e6 b6 16 bc
       0.19920394 -0.16041218 0.1849236 -0.00919888
000010 7b 70 9e 3d 80 f7 81 3d 6d 3a e1 3d 7f f5 d0 bd
       0.07736298 0.06346035 0.10997472 -0.10203075
000020 21 85 ac 3d 87 8d c3 3e 3f 5a a1 3d 3a 12 16 3e
       0.0842383 0.38193914 0.07878541 0.1465539
000030 32 fe 84 3e 80 da 80 3d 23 8f 60 3e fc c8 90 be
       0.25975186 0.062916756 0.21929602 -0.2827834
000040 e4 50 a9 be 2b 53 88 3e 05 0c 8d be 8a 61 61 3e
       -0.33069527 0.26625952 -0.27548233 0.22009864
000050 e7 37 52 be 33 bf 56 3e cc 0d 13 bd 41 45 87 3e
       -0.20529138 0.20971374 -0.03590183 0.26420024
000060 f3 91 ce 3d c3 1c 93 3c 28 4e 82 3d cf 10 e6 3d
       0.10086431 0.01795805 0.06362563 0.11233675
000070 7e c3 6c be c4 2f 30 be 7c 63 67 bd d0 6e 56 be
       -0.2312145 -0.17205721 -0.05649136 -0.20940709
000080 4a e6 86 be 3f 5a 85 3e 7d db 9c be 3e b5 0b 3e
       -0.26347572 0.26045415 -0.30636206 0.13643357
000090 ab 68 82 be d3 20 50 3e dc 5e af 3e 76 a1 ab be
       -0.2547048 0.20325021 0.3425206 -0.33521622
0000a0 02 88 74 be ec 71 00 be d6 49 bc bd 50 e5 8a 3d
       -0.23880008 -0.12543458 -0.091937706 0.06782019
0000b0 ea 45 b1 3d 05 58 95 be a6 74 fc bd 79 f4 fa bd
       0.08655913 -0.29168716 -0.123269364 -0.12253661
0000c0 03 d4 59 be 5a 29 d8 bd 51 8c fe bc bb 56 ee bc
       -0.21272282 -0.10554762 -0.031072767 -0.02909409
0000d0 88 2e 49 3e db 76 d3 be 64 54 32 be 65 49 87 3e
       0.19646657 -0.41301617 -0.17415005 0.26423183
0000e0 a7 00 99 3e 0c 9d 34 bd 02 11 38 bb 54 96 90 bd
       0.2988331 -0.044095084 -0.002808631 -0.07059923
0000f0 4b 91 59 be 23 75 58 3e 4c df 4a bd c8 06 d2 3e
       -0.21246831 0.21138434 -0.04952936 0.410208
000100 67 4e 54 3e 87 c8 3c be 05 20 a1 3e 47 6b af 3d
       0.20733033 -0.1843587 0.3146974 0.085653834
000110 dc cf a4 3e 26 a3 b6 3d ad 65 5e be 09 45 37 3e
       0.32189834 0.08917837 -0.21718474 0.17897429
000120 02 02 26 3e d4 36 be 3d b6 57 c1 bb 65 f4 5d 3d
       0.16211703 0.092878014 -0.0059003485 0.05418815
000130 f3 03 c4 bd c0 e6 50 3d 7e c9 37 3e db 57 2b 3e
       -0.09571066 0.05100131 0.17947957 0.16732733
000140 f0 f5 7f 3e 03 52 82 3d 9c 0d be b9 3d 58 45 3e
       0.24996161 0.06363299 -0.00036249764 0.19271941
000150 1c 8e 13 be 30 5d 78 3e 39 3f 52 3e 42 42 6d be
       -0.14409679 0.24254298 0.2053193 -0.23169807
000160 50 50 8e be 0d 39 cb 3d 99 07 ff bd 53 7d b3 bd
       -0.2779565 0.09922991 -0.12452621 -0.08764138
000170 67 89 fb bd ef b2 1d 3b e9 94 39 3e 9d 2c f9 bd
       -0.12282067 0.0024062952 0.18123211 -0.121667124
000180 c3 56 0b be b6 f1 87 bd 90 ca 15 be 94 84 09 3e
       -0.13607316 -0.066378996 -0.14628053 0.13429481
000190 99 c9 e8 3d b2 6d e1 3d c4 68 9c 3e 37 96 0a be
       0.11366577 0.11007251 0.3054868 -0.13533865
0001a0 94 30 07 be ec 15 6f bd db ef 7f be d4 ee d6 3c
       -0.13202125 -0.058370516 -0.24993841 0.026236929
0001b0 7b 10 4e be 12 d3 8f bd 5b 82 14 be 42 f8 77 3d
       -0.20123474 -0.0702268 -0.14502852 0.06053949

flow.flow.transforms.1.alpha_prime f4 [7]
000000 20 87 19 be d2 c6 a4 3d 3f 50 fe 3d 9c cb 6f be
       -0.14992952 0.080457345 0.124176495 -0.23417515
000010 bc 64 40 be e1 43 80 be 74 17 41 bd
       -0.18788427 -0.25051787 -0.047141507

flow.flow.transforms.1.beta_prime f4 [7]
000000 94 1b cb 3c 63 12 47 3e eb b5 82 3e ee 38 dd bd
       0.024793424 0.19440608 0.25529417 -0.10801874
000010 fe 6a a5 3d 32 13 9e 3c a1 cb c8 3d
       0.08077048 0.019296262 0.09804464

flow.flow.transforms.2.x0 f4 [7, 16]
000000 cc 1b a2 3d be 80 83 3e 67 02 2f be 15 89 92 bd
       0.07915458 0.2568416 -0.1709076 -0.071550526
000010 a9 ed 51 be ef 14 7b 3e 1a ad ae bc c2 78 be bc
       -0.20500816 0.24519704 -0.021322776 -0.023250941
000020 5a 5d 51 3e 78 42 53 be 3b 6a 82 3c 33 f1 24 be
       0.20445767 -0.20630825 0.015919795 -0.16107635
000030 c4 02 37 be 73 bf 6c be 62 77 59 be cb b7 df 3e
       -0.17872149 -0.23119907 -0.21236947 0.4369491
000040 35 59 89 bd 84 3a 42 be 39 4d 74 3e 0b 82 a9 3d
       -0.06706468 -0.18967634 0.23857583 0.08276757
000050 7f f2 b0 3e e5 62 ae 3d de 9f 81 be f2 3e 82 3e
       0.3456001 0.085149564 -0.2531728 0.25438648
000060 72 df 8d bd b0 42 71 be c1 d2 73 3d 9a fe 30 3e
       -0.069273844 -0.23560596 0.059527162 0.17284623
000070 cd e1 7d be 97 06 3b 3e b6 3b 6d 3e 6d c0 2f be
       -0.24793167 0.18264233 0.23167309 -0.17163248
000080 c8 19 11 3d 1a 01 8e be d9 d6 6d 3e e7 79 6f be
       0.035424978 -0.27735215 0.23226489 -0.23386346
000090 7f 05 6c 3e 22 af 80 be 35 ab ab be 96 ef 32 bc
       0.23048972 -0.25133616 -0.33529058 -0.01092138
0000a0 02 a2 38 3e 6d 70 68 3e b9 4c 47 3c ea 5f 40 be
       0.18030551 0.22699137 0.012164288 -0.18786588
0000b0 3d 99 56 be 3d 8b 79 3e 71 c3 35 3c bd 66 2c be
       -0.20956893 0.24369521 0.01109396 -0.16836067
0000c0 24 1d b0 3e 1e ba 2b be 00 f9 3c be c3 b3 00 3e
       0.34397233 -0.16770217 -0.18454361 0.12568574
0000d0 fd da e0 3d b8 c1 9b 3e 7a d7 81 bd 16 89 8f be
       0.10979269 0.30421233 -0.06339927 -0.28034276
0000e0 79 69 b9 be 73 02 72 be ff 44 50 be 6f 77 3d be
       -0.36213282 -0.23633747 -0.2033882 -0.18502592
0000f0 0c 9d 2f be 5f 2f 85 be 56 f1 fc 3d 6a 98 b9 be
       -0.17149752 -0.26012704 0.12350719 -0.36249095
000100 cc d5 50 3e dc 05 49 be fa 3e 16 3e 7f f8 6d 3c
       0.20394057 -0.19631141 0.14672461 0.014524578
000110 2f 2a 9d 3e b9 1f 4c 3c 91 91 67 be 9f 4d 37 3e
       0.30696246 0.012458735 -0.22614123 0.17900704
000120 9e ef 55 3e 44 07 38 3e 10 97 49 3e 82 21 8e 3d
       0.20892188 0.17971522 0.19686532 0.06939985
000130 bc 4a 43 bd 32 bd 2c 3e f4 b4 56 3e 4a f3 a9 bd
       -0.047678694 0.16869047 0.20967466 -0.08298357
000140 6b 8f 92 3d 6d f9 4a 3e 7a 42 9a be 2e 5c b3 be
       0.07156261 0.19821711 -0.30128843 -0.35031265
000150 92 ad 67 be 20 ca 64 3d d6 b4 52 be 5a df ac 3e
       -0.22624806 0.055856824 -0.20576796 0.33764154
000160 aa 67 fa 3d 15 84 1f 3e 13 ca a2 bd a2 8e 0f be
       0.122268036 0.15577729 -0.07948699 -0.14019254
000170 7a dc 49 3e e6 8d 05 3e 2b ff 87 bd 59 b3 25 be
       0.19713011 0.13042411 -0.06640466 -0.16181697
000180 13 75 07 3e c0 1c ac be 19 1d a9 3e 21 db 1c be
       0.13228254 -0.33615685 0.33030012 -0.15317966
000190 8f 77 bb 3e 91 6a 37 3e e6 d0 75 be 48 6b 5c bd
       0.36614653 0.17911746 -0.2400547 -0.05381325
0001a0 1f de 94 3e ee 75 56 be c7 58 29 3e 1e 1f 81 3e
       0.29075715 -0.20943424 0.16537772 0.25219053
0001b0 d1 c1 89 3e 12 70 76 be 8a 81 80 be df 98 9f be
       0.26905683 -0.24066189 -0.2509883 -0.3117132

flow.flow.transforms.2.alpha_prime f4 [7]
000000 de ff 3e 3e d6 30 4f be 28 0f 72 3e d6 ce 78 3e
       0.18652293 -0.20233473 0.23638594 0.24297652
000010 40 4a a6 bd f4 4e 14 3d d9 13 95 bd
       -0.08119631 0.036208108 -0.07279176

flow.flow.transforms.2.beta_prime f4 [7]
000000 90 f0 1b bd 52 ff 63 be e2 d3 22 bd 88 bf f4 3c
       -0.038071215 -0.22265366 -0.03975285 0.029876485
000010 57 6f 3a 3e 8b 4a 55 bd aa 88 d1 bd
       0.18206535 -0.052073043 -0.10231145

flow.flow.transforms.3.x0 f4 [7, 16]
000000 00 cb 44 3e 6f 08 99 bd e5 b5 3a 3e e3 5a ac 3d
       0.19218063 -0.07472312 0.1823345 0.08415773
000010 64 78 37 be e3 d5 c6 3d b9 60 82 be 50 fa 0f bd
       -0.17917019 0.097087644 -0.2546442 -0.035150826
000020 fd a4 2f be 8f c7 da bd 2e c8 8e bd 1a fc 76 3e
       -0.17152782 -0.10682594 -0.06971775 0.24119607
000030 04 1d 81 3e 1b 7a 29 be 08 31 3f bd 6f be 61 be
       0.2521745 -0.16550486 -0.04667762 -0.22045301
000040 be d8 69 be 7b 04 da bd 8e 01 46 3e 04 b2 51 be
       -0.22836587 -0.10645386 0.1933653 -0.20478064
000050 0a 98 b8 3e 7e 47 70 be 7b 2d 16 3e 36 48 ce bd
       0.36053497 -0.23464772 0.14665787 -0.10072367
000060 f7 fc c6 3d 05 6f d9 bd a7 88 db 3d 18 b8 be 3a
       0.09716218 -0.106168784 0.10719424 0.0014550714
000070 eb 0a 02 be ae eb 51 3e 1f b4 97 3e 27 8f fd 3b
       -0.12699477 0.20500061 0.2962961 0.0077380124
000080 26 49 a9 bd fe e7 a9 3e a1 8a 22 be 13 3e 67 3e
       -0.08265905 0.33184808 -0.15873195 0.22582273
000090 63 2b a9 bd 3a 48 22 3e 88 b5 cc 3e 90 bd e5 bc
       -0.082602285 0.15847865 0.39982247 -0.028044492
0000a0 0c 16 2b be 23 1c 91 bd a4 85 7e ba 53 b3 5e bd
       -0.16707629 -0.07085445 -0.0009709245 -0.054370236
0000b0 e3 76 d6 3d d2 83 83 be 2f 06 a9 be 37 54 7d 3d
       0.104718946 -0.25686508 -0.3301253 0.06184789
0000c0 3f d6 ac be 26 a0 9b bd 86 1b aa be 57 81 dc 3e
       -0.33757207 -0.07598905 -0.33224124 0.43067428
0000d0 e1 0b 1d 3e e7 59 72 be 65 e3 ee 3e cd c5 be be
       0.15336563 -0.23667108 0.46657863 -0.37260285
0000e0 ae 27 cd 3d ad 33 40 3e b1 23 9d 3e 0e 6e a3 be
       0.10017334 0.18769713 0.30691293 -0.31919903
0000f0 63 87 9e 3e 5f 17 a2 3e 0a ce 6d be 3f 47 de bd
       0.30962667 0.31658456 -0.23223129 -0.10853433
000100 de 55 32 3e ce 27 4f 3d 07 c9 70 be 48 06 ff bd
       0.17415568 0.05057507 -0.23514186 -0.1245237
000110 33 e1 7b 3e ec ea a3 3e 39 09 69 3e 86 22 39 3e
       0.24597625 0.3201517 0.22757424 0.18079576
000120 43 90 49 3e cc a3 6a bd b2 fb 1d 3e a4 2e 75 be
       0.19683938 -0.057285115 0.15428045 -0.23943573
000130 ee 17 e7 3d 62 29 9f 3e d3 60 3e 3e 7e 6b ad 3e
       0.11283861 0.3108626 0.18591623 0.33871073
000140 b8 11 92 be 79 c4 ac be d8 c8 a4 bd c6 8f 4a 3e
       -0.28529143 -0.33743647 -0.080461204 0.19781408
000150 45 35 19 bd 1d 32 45 3e dd 00 60 be 8a bf 70 3e
       -0.037404317 0.19257398 -0.2187533 0.23510566
000160 9e de a9 3e c1 df 80 3e e0 5d c5 3b 70 6a a1 3e
       0.33177656 0.2517071 0.0060231537 0.31526518
000170 f9 f4 c6 3d 73 05 83 be 54 42 63 3e 59 4a 19 be
       0.097146936 -0.25590095 0.22193271 -0.14969768
000180 7d 95 ad ba 59 5b 87 3e 10 5c c2 bd 52 29 6b be
       -0.0013243404 0.2643688 -0.09490216 -0.22964981
000190 3b e3 b9 3d 66 1a 6d 3c 10 38 29 bd 6d 0d 4d be
       0.09076544 0.014471626 -0.04131323 -0.20024653
0001a0 4f 95 9d 3d ca b1 2d be 03 4b 53 be ef 69 0f 3e
       0.07694494 -0.16962352 -0.20634083 0.14005254
0001b0 19 e1 08 be f8 dc 55 be 3c 73 d2 3c 79 1d 96 3e
       -0.13367118 -0.20885074 0.025689714 0.2931936

flow.flow.transforms.3.alpha_prime f4 [7]
000000 80 1a 11 be 30 b9 8e bd 16 e9 76 be 9f 27 17 3d
       -0.14170265 -0.069689155 -0.24112353 0.03690302
000010 12 cd 0d 3d 5b c2 09 be 87 63 8a be
       0.0346194 -0.13453047 -0.27029058

flow.flow.transforms.3.beta_prime f4 [7]
000000 e7 ab 10 bd ed cc 19 be c1 b3 af 3d c6 3e 08 3d
       -0.03532019 -0.15019579 0.08579207 0.03326299
000010 a7 eb 15 3d a9 d7 1c be 6d aa 28 be
       0.03660169 -0.15316643 -0.16471262

flow.flow.transforms.4.x0 f4 [7, 16]
000000 0d 02 f0 3d f6 a9 0f bd fa 2a 48 3e 94 0c 6e be
       0.11719141 -0.035074197 0.19547644 -0.23246986
000010 a3 0b 2a 3d d8 d3 28 3d 78 c0 eb 3c d6 78 28 3e
       0.041515004 0.041217655 0.0287783 0.16452345
000020 9e 63 71 3e ce 3c 18 be c9 f2 08 3e e5 d7 ac bd
       0.23573157 -0.14866945 0.13373865 -0.08439616
000030 31 47 6f be 59 db 63 bc 16 ba 9a bd ff 9a e2 3e
       -0.23367001 -0.013907277 -0.07555024 0.44258878
000040 cb c3 54 3e a4 12 cc bd 9f 98 2f 3e 9c 18 e6 3c
       0.20777814 -0.09964493 0.17148064 0.028087907
000050 c3 34 af 3e f8 d6 61 be 8a 44 5e be 0e df 6a 3d
       0.34219941 -0.2205466 -0.21705833 0.057341628
000060 b4 4b 0e 3e 1e bd f8 bd 47 9b f5 bd cf 60 31 be
       0.13896066 -0.12145446 -0.119925074 -0.17322086
000070 bf 30 30 3e 5b 4a ee 3d 33 2a 0a be 5c e3 80 3e
       0.17206095 0.11635276 -0.1349266 0.2517346
000080 cf 47 d2 be c0 64 a3 be 14 4a bc be c4 76 c4 3e
       -0.4107041 -0.31912804 -0.36775267 0.3837186
000090 21 73 93 be 82 a3 86 be ef 7e ce 3e fc b4 a9 3e
       -0.28798774 -0.26296622 0.40331218 0.33145893
0000a0 6d 98 2d 3e 8b 2d 57 3e 8a 47 ef 3d ce 14 af 3e
       0.16952677 0.21013467 0.11683567 0.3419556
0000b0 5d ee 85 be 91 95 a9 be c3 b9 97 3e 62 07 eb 3d
       -0.2615842 -0.33121923 0.29633912 0.114760175
0000c0 6e 8d 53 be 00 e8 38 3d 05 9c 35 be 59 61 95 3d
       -0.2065942 0.045143127 -0.17735298 0.07293958
0000d0 9a 5e 2a bd 58 6e 0d 3c 06 c1 0e be f3 51 6e 3e
       -0.041594125 0.008632265 -0.1394082 0.23273449
0000e0 66 42 97 3e a4 b3 ed bd c8 31 b4 bd 9e c4 ef bd
       0.29542845 -0.11606529 -0.087985575 -0.117074236
0000f0 2f 98 07 3e 6e a3 76 3e a5 4d 57 3e fb ec b0 3e
       0.13241647 0.24085781 0.21025713 0.34555802
000100 39 b2 29 be 7b 71 08 3e c5 b7 b3 be 4f b3 7a 3e
       -0.16571893 0.1332454 -0.35101143 0.24482463
000110 8a df 86 3d 65 06 49 be ff 13 92 bd 47 96 9b be
       0.065856054 -0.19631346 -0.0713272 -0.3038809
000120 3e da 9a be d0 9e 09 be 0a f6 a3 3d 9b ab 04 3e
       -0.3024463 -0.13439488 0.080059126 0.12956087
000130 e0 d3 42 3e 61 f2 0c 3e 76 5a 8f be e7 4f 3c be
       0.19026136 0.13764335 -0.27998704 -0.18389855
000140 63 de cb 3d 60 07 37 bb 8f c5 01 3e da 1e bf be
       0.09954526 -0.002792798 0.12673019 -0.37328225
000150 55 ed 7a bd a3 81 71 be b4 41 28 be bd d6 a6 3e
       -0.061261494 -0.23584609 -0.16431314 0.32585707
000160 65 eb 01 be ab 8d 13 be 51 39 c7 bd fa ad d0 bd
       -0.12687452 -0.14409511 -0.09727729 -0.101894334
000170 41 8e 51 3d 36 8a a6 3d 0b f8 74 3e fe f7 c2 3e
       0.051161055 0.081318304 0.23922746 0.38079828
000180 05 62 54 be 19 35 5b be 8e ab 9e 3e 58 0e 36 3e
       -0.20740516 -0.21406974 0.3099026 0.17778909
000190 89 47 63 3e 97 7a a0 bd 72 52 73 be 1a 52 83 3e
       0.22195257 -0.07835882 -0.23761919 0.25648576
0001a0 5c c9 b7 bd d0 9b 88 3e 3a 13 7e 3e a3 38 f1 bd
       -0.08973953 0.26681376 0.24812022 -0.11778381
0001b0 23 94 a8 3c 78 fa 86 3e e3 38 9d be d0 5b 23 3e
       0.02057845 0.26362967 -0.30707464 0.15952992

flow.flow.transforms.4.alpha_prime f4 [7]
000000 f6 7b 13 bd 1c 58 88 bd 87 95 60 bd f8 68 ec 3d
       -0.03600689 -0.066574305 -0.0548301 0.11543459
000010 c9 1f 74 3e b3 16 51 3d 16 f6 25 3d
       0.2384025 0.05104704 0.04051789

flow.flow.transforms.4.beta_prime f4 [7]
000000 12 c6 61 be 65 e7 84 be 91 fd 49 bd 2c 25 4e 3e
       -0.22048214 -0.2595779 -0.049314085 0.20131367
000010 68 52 f2 3c c3 1e b9 bd 4d eb 6f 3c
       0.02958031 -0.090390705 0.014643502

flow.flow.transforms.5.x0 f4 [7, 16]
000000 bd 2d 39 be 01 59 fb 3c 4e 81 6d be 68 39 9e be
       -0.18083854 0.030682089 -0.23193857 -0.30903172
000010 97 56 40 be 59 6a 93 3d 4d 1f a6 3e 41 65 15 be
       -0.18783031 0.071980186 0.32445756 -0.14589407
000020 a2 94 83 3e ef fe 1c be f4 a1 93 3d d7 c9 69 3e
       0.25699335 -0.15331624 0.072086245 0.22830902
000030 ca b5 5b be 79 48 95 be 3f fb 92 be 35 68 df bd
       -0.21456066 -0.29156855 -0.2870731 -0.10908548
000040 ce 74 73 3e 4e ed de bd 11 18 24 3e 48 45 16 be
       0.23775026 -0.10885106 0.16024806 -0.14674866
000050 40 78 c6 3e 84 85 83 bd f2 d8 38 be 97 03 cb 3d
       0.38763618 -0.064219505 -0.18051508 0.09912794
000060 11 75 87 3e a3 98 3a be b2 73 3d bd d6 e0 48 be
       0.26456502 -0.18222289 -0.046252914 -0.19617018
000070 eb 76 b2 3d 0c f0 0f 3e 06 ad 87 3d 7f be db bd
       0.08714088 0.14056414 0.066247985 -0.107296936
000080 5c 0e 80 be 01 fc 86 bc e1 35 97 be 91 c9 87 3e
       -0.25010955 -0.016477587 -0.29533294 0.2652097
000090 2e a6 85 be df 55 f4 3d af 9d a9 3d 7e 35 ae be
       -0.26103348 0.11930441 0.08282029 -0.34025186
0000a0 59 4b 52 3d 2c 65 d6 3c c7 19 a5 3c 26 a9 06 be
       0.05134139 0.02617129 0.020153893 -0.13150463
0000b0 75 71 0c 3e e1 bb ae be 76 90 9f be 84 a2 6d be
       0.13715155 -0.34127715 -0.31164902 -0.23206526
0000c0 9a 4c 5a be 0b 6c 39 be 73 24 6b bd 26 40 9f be
       -0.21318284 -0.18107621 -0.057407808 -0.3110363
0000d0 45 00 36 3e 2d df 84 be 59 6b 2e be c3 65 05 3e
       0.1777354 -0.2595152 -0.17033137 0.130271
0000e0 c0 55 8d 3e cc 4f b9 bb 35 ff 18 3e f6 a9 93 bd
       0.27604485 -0.0056552645 0.14941104 -0.07210152
0000f0 f4 1f 08 be eb cd f9 3d 8d 23 fc 3d cd b0 bf 3e
       -0.13293439 0.12197479 0.12311468 0.37439576
000100 a8 57 7d bd ae 1e 73 3e 22 92 8c be d7 b8 b2 3c
       -0.061851174 0.23742172 -0.2745524 0.021816654
000110 c4 2e 2f be ea 6e 5d be 0f d1 57 3e 7f a1 e0 3c
       -0.17107683 -0.21624342 0.21075843 0.027420757
000120 f4 c4 7b be db 9a 51 be cf b4 91 3d 3b 9b 5d bd
       -0.2458685 -0.20469229 0.071145646 -0.054103117
000130 2d de a5 3d be 0f 2e be c0 63 7a be 4d e6 50 3e
       0.08099017 -0.16998193 -0.24452114 0.20400353
000140 cd 73 67 3e e9 c2 b4 bc 3c 00 a2 3b c4 88 12 3e
       0.22602768 -0.022065597 0.0049438756 0.14309984
000150 cc 26 12 3d b7 41 3f 3e 32 23 3b 3e ee 36 24 be
       0.03568153 0.18677412 0.18275145 -0.16036579
000160 a9 8f 9f be 9d f0 95 3d 1d 39 ff bd 05 f4 7f bd
       -0.31164292 0.07321284 -0.12462065 -0.062488575
000170 04 de 23 3d dd 18 8a bc a6 70 48 3e ad 0b 42 be
       0.040006652 -0.016857559 0.19574222 -0.18949766
000180 35 eb 57 be 1d ba 5b be eb c3 5f 3e ca 49 60 bd
       -0.21085818 -0.21457715 0.2185208 -0.05475787
000190 b3 a8 16 bd 51 24 30 3d 4f 26 7f be f4 fe 4b be
       -0.036781978 0.043003384 -0.24916957 -0.19921476
0001a0 9e 0b 83 3e b6 5f e9 3e 7b 37 2f 3e d8 c4 64 3e
       0.255948 0.45580834 0.17111008 0.22340715
0001b0 90 17 5f bc 5f 5d 87 be 67 c1 17 3e 37 d2 85 be
       -0.013616458 -0.26438424 0.14819871 -0.26136944

flow.flow.transforms.5.alpha_prime f4 [7]
000000 cf 7c 12 3e 1a 36 31 bd a0 d1 95 bd 66 79 61 be
       0.14305423 -0.043264486 -0.073153734 -0.22018966
000010 2c 52 6d bd 68 21 84 be dd c6 1b 3e
       -0.057939693 -0.25806737 0.15212579

flow.flow.transforms.5.beta_prime f4 [7]
000000 dd b5 bf bc c7 e8 0e be 56 bc 09 3e a7 50 bd bd
       -0.023402149 -0.13955985 0.1345075 -0.09243899
000010 16 2d 30 be f3 14 8a 3e 26 87 8e bd
       -0.17204699 0.26969108 -0.06959371

flow.flow.transforms.6.x0 f4 [7, 16]
000000 72 b8 12 3e d9 9a 3b be ce 0b 4b 3e e0 29 51 3e
       0.14328173 -0.18320788 0.19828722 0.2042613
000010 b0 97 f5 bd 3d 40 0a 3e 89 c6 28 be a2 5d 80 3d
       -0.11991823 0.13501067 -0.16481985 0.06267859
000020 f1 81 3c be ff b8 84 3e ca 03 21 3e d8 6a 07 3e
       -0.18408944 0.2592239 0.15724102 0.13224351
000030 44 68 4f 3e 9f 07 22 bd 81 b6 38 3e 0a 08 67 be
       0.20254618 -0.03955805 0.1803837 -0.2256166
000040 a6 9c 51 be 4a 33 cb 3c 94 50 a7 bc 80 ee a7 3c
       -0.20469913 0.02480473 -0.020424165 0.020499468
000050 28 96 7e be fb d3 28 be 83 e6 f4 3d 08 95 c0 3c
       -0.24861968 -0.16487114 0.11958029 0.023508564
000060 fe 69 ce bd ce 96 2d 3e fa 2e 2a 3e 00 06 88 3e
       -0.1007881 0.16952059 0.16619483 0.26567078
000070 48 8c 7d bc 63 7a 6d 3d bd c5 56 be 87 c1 0a be
       -0.01547534 0.057978045 -0.20973869 -0.13550387
000080 79 bd ab bd 87 88 8e 3e 81 c4 73 be 83 1c 2e 3e
       -0.083857484 0.27838537 -0.23805429 0.17003064
000090 32 29 62 be 83 ae eb 3d cf 28 d0 3e 17 79 93 bd
       -0.22086027 0.11507895 0.40656134 -0.072008304
0000a0 31 96 dd bd 5c 23 1f bc 27 af 45 bd d4 0a 92 bd
       -0.10819662 -0.00971302 -0.04826274 -0.071309716
0000b0 b6 e7 81 3d 11 13 9c be eb 51 a1 be 76 d2 84 bd
       0.063430235 -0.30483297 -0.3150781 -0.06485455
0000c0 3b ea 43 be a8 24 2b be 95 63 ed 3d e1 c3 96 bd
       -0.1913232 -0.16713202 0.115912594 -0.0736158
0000d0 27 90 31 3e 1b bd c0 be c4 79 24 be a2 7c 3b 3e
       0.17340146 -0.37644276 -0.16062075 0.18309262
0000e0 64 9b 82 3e b6 f7 07 3d b6 c9 e7 bd 15 02 fd bc
       0.2550918 0.03319522 -0.1131777 -0.030884782
0000f0 b7 5f 04 be f9 3d ea 3d c1 30 c8 bd 3c ed ad 3e
       -0.12927137 0.114376016 -0.09774924 0.33970058
000100 12 c9 8e be 38 e5 80 3e ce 16 8e be b9 f2 92 3d
       -0.2788778 0.2517488 -0.27751774 0.07175202
000110 91 a4 8e bd ea 19 05 be ef 1d c3 3e 2c d8 52 be
       -0.06964982 -0.12998167 0.38108775 -0.20590276
000120 e9 5e b4 bc 3a 17 1d be 94 d1 91 bd 1f 2c c8 bb
       -0.022017913 -0.15340891 -0.07120052 -0.0061087753
000130 d1 cc 33 be bf d1 08 be 52 2c 8a be b7 96 6c be
       -0.175586 -0.13361262 -0.2698694 -0.23104368
000140 11 fb 64 be 9c ff be bd 90 47 e2 3d ea 68 10 3e
       -0.22361399 -0.09326097 0.11048806 0.14102522
000150 9e f9 7b 3e a4 e7 f7 be e0 0b 13 be 0d 95 31 be
       0.2460694 -0.48418915 -0.14359999 -0.17342015
000160 2b 37 be 3e 8e 94 46 3e ac a1 dd bb f0 26 0c 3e
       0.37151465 0.19392607 -0.0067636576 0.13686728
000170 e5 a2 b3 3b 1d 46 1f be fc 09 7c be 7b 5d a0 3e
       0.005482065 -0.1555409 -0.24613184 0.3132132
000180 e4 68 8b bc b4 59 4a bd f1 cd 55 be f9 14 ef bd
       -0.01701779 -0.049401954 -0.20879342 -0.11673922
000190 5d b2 99 bd ab d1 87 3d 7c a2 81 3e b5 32 2c be
       -0.07504723 0.06631788 0.25319278 -0.16816218
0001a0 ac b2 b2 bd 0f 6d 5b be 37 f3 67 bd bc 1c 06 be
       -0.08725485 -0.21428321 -0.056628432 -0.13096899
0001b0 d9 17 0a be 60 2e a8 3c 5e c2 e0 3c 31 cf 7f 3e
       -0.1348566 0.020529926 0.027436431 0.24981381

flow.flow.transforms.6.alpha_prime f4 [7]
000000 5f 6a 8c be fe 17 22 be 76 60 8a be 21 34 ba bd
       -0.27424905 -0.15829465 -0.2702672 -0.09091974
000010 83 82 5e 3e 82 a2 15 3e f9 c6 b2 3d
       0.21729474 0.14612773 0.08729357

flow.flow.transforms.6.beta_prime f4 [7]
000000 94 5e 76 3e e9 d1 85 3e 15 7d 95 3e 7c 45 53 3e
       0.24059516 0.2613671 0.29196993 0.20631975
000010 47 ef 7c 3c dc 12 5e be cd bb 77 3e
       0.015437908 -0.21686882 0.24192734
