saved_experiments/classification/GPN/1/model_1.pt (torch, 764793 bytes, 36 tensors)

input_encoder.0.weight f4 [64, 2879]
-0.041729942 0.0073219277 0.12808111 -0.0042420053 -0.046290085 -0.0047500795 -0.051431287 0.033308785
0.12079126 0.05261304 0.07404203 -0.018080048 -0.29472834 0.19670051 -0.26280013 0.15987802
0.13349457 -0.053779136 -0.20098424 0.12096462 0.099456936 0.11995797 0.016093703 0.12621891
-0.058818605 -0.013884679 0.03770276 0.06268988 -0.11309133 -0.060709007 0.029362114 -0.016801106
-0.10512074 0.065033115 -0.07186167 -0.18486452 -0.21326838 -0.20653795 -0.24046502 0.010275391
-0.011568892 -0.025433354 0.25653023 0.06350053 -0.15381071 -0.25691527 -0.11387038 -0.016689816
0.13996145 -0.108112864 -0.1283086 0.060899757 0.15864383 -0.050948452 -0.30583557 -0.14526604
0.07334845 -0.257982 -0.14124602 -0.06937202 -0.17952561 0.11239026 0.101198085 0.06258918
0.22243878 0.102541484 -0.08765068 0.06718653 0.08758989 0.0035881265 -0.08099112 -0.11531953
-0.0074240747 -0.0063497 -0.21337283 -0.19686067 -0.23789933 -0.05883961 -0.30725437 0.005816616
-0.15077735 -0.09838786 0.10322022 0.03999158 0.04667766 -0.10756436 -0.254485 0.042997174
-0.026292967 0.3665769 0.13662314 -0.056955416 -0.059777036 -0.05296158 -0.22235869 -0.13480991
-0.12861747 0.06996539 0.23333949 -0.16783716 -0.031899143 0.01107128 -0.09953726 -0.19772422
-0.21669567 -0.15629388 -0.42065954 0.054297283 -0.09522702 -0.14274883 0.031141419 0.17037082
0.05291739 0.027061893 0.22450584 -0.22617888 0.0033157573 -0.05307544 0.23010805 0.023422817
-0.084934175 -0.274032 0.16604774 -0.11172069 0.12998459 0.15309712 -0.1595773 -0.22205015
-0.2726492 -0.07478786 -0.058847822 0.07654805 -0.21012554 0.09406689 -0.19773784 0.25995988
0.04730077 0.11340198 -0.024018869 -0.26123127 0.19144525 -0.1781069 -0.22661369 -0.048959095
0.1271327 0.17764497 0.3529408 0.06621821 0.09215022 -0.06293629 -0.3311036 0.13995999
-0.21968849 0.32544413 -0.055797007 0.24501295 0.29294437 -0.28224343 0.058071308 -0.06903518
-0.0650249 -0.11892999 0.33399835 -0.17795242 0.34643427 0.08265227 0.33575028 -0.253118
0.15001604 -0.033625215 0.09601568 0.25076118 -0.044784244 0.060828365 -0.13385893 0.13582116
0.24134219 -0.13640375 -0.010978311 0.2459447 -0.08033379 -0.16994548 -0.036030665 -0.03514401
0.019990232 0.030929953 -0.119078696 0.021791361 0.23164628 -0.027567066 0.13945194 -0.18648252
0.031941243 0.024985302 0.055651963 -0.32473207 -0.2743234 0.12857704 0.18584415 -0.104328595
0.03874207 -0.18721628 -0.08787174 -0.036490485 -0.01724602 0.24964161 0.027333407 0.04008796
-0.09944017 -0.15775374 0.023460696 0.023726761 0.17687145 -0.052944686 0.14881714 -0.2885496
0.026136033 -0.08869204 0.09060207 0.15131384 0.24411024 0.27401754 0.100672804 0.15503496
-0.053001 0.1856132 0.16886087 0.04757423 -0.11892534 -0.13273624 0.081275 -0.093621075
-0.18976027 0.11978524 0.06656996 0.19691983 0.19615759 0.35393277 0.11718091 -0.018314889
0.25673437 -0.017897423 0.20388916 0.17045037 -0.0051246663 0.272724 0.08703719 -0.11549797
0.17659046 0.089076355 -0.06544575 -0.03400143 -0.21501346 0.20063296 0.09044502 0.01576446
00000000: 04ed 2abd c8ec ef3b b227 033e 8500 8bbb
00000010: ac9a 3dbd 8ea6 9bbb 9da9 52bd cb6e 083d
00000020: 6861 f73d c580 573d 59a3 973d 9c1c 94bc
00000030: a2e6 96be dc6b 493e bd8d 86be 10b7 233e
00000040: cdb2 083e 8347 5cbd d0ce 4dbe 4cbc f73d
00000050: 14b0 cb3d 86ac f53d f1d6 833c 883f 013e
00000060: c7eb 70bd 917c 63bc 366e 1a3d 8d63 803d
00000070: 6d9c e7bd 02aa 78bd d188 f03c 79a2 89bc
00000080: 8b49 d7bd 1530 853d 362c 93bd 204d 3dbe
00000090: 0763 5abe af7e 53be 763c 76be 1d5a 283c
000000a0: 738b 3dbc 9c59 d0bc ee57 833e 910c 823d
000000b0: 8e80 1dbe 668a 83be e034 e9bd 15b9 88bc
000000c0: 0e52 0f3e 476a ddbd 5463 03be 0672 793d
000000d0: 8773 223e 53af 50bd 7b96 9cbe 9fc0 14be
000000e0: b637 963d 3716 84be cca2 10be eb12 8ebd
000000f0: 90d5 37be dd2c e63d f140 cf3d c22e 803d
00000100: fec6 633e 4501 d23d 3382 b3bd 1799 893d
00000110: 5462 b33d c626 6b3b acde a5bd a52c ecbd
00000120: a745 f3bb 2511 d0bb 687e 5abe d895 49be
00000130: e29b 73be ce01 71bd 7250 9dbe 5099 be3b
00000140: 6165 1abe 937f c9bd 1f65 d33d 36ce 233d
00000150: 1331 3f3d b44a dcbd dc4b 82be ce1d 303d
00000160: 5964 d7bc f8af bb3e f0e6 0b3e 154a 69bd
00000170: c4d8 74bd 3eee 58bd ffb1 63be 9c0b 0abe
00000180: 4cb4 03be 044a 8f3d 8cf0 6e3e 81dd 2bbe
00000190: ada8 02bd 5064 353c 31da cbbd 3878 4abe
000001a0: 78e5 5dbe 810b 20be b060 d7be d466 5e3d
000001b0: 6206 c3bd c02c 12be 4a1c ff3c b075 2e3e
000001c0: e8bf 583d e7b0 dd3c dce4 653e 709b 67be
000001d0: 2d4d 593b a265 59bd 72a1 6b3e 35e1 bf3c
000001e0: f8f1 adbd ec4d 8cbe 6b08 2a3e d1cd e4bd
000001f0: ae1a 053e 7ec5 1c3e 3b68 23be 1d61 63be
00000200: ad98 8bbe 612a 99bd 6a0a 71bd 39c5 9c3d
00000210: 262b 57be 24a6 c03d ca7b 4abe 7619 853e
00000220: 74be 413d 4c3f e83d 38c3 c4bc 1bc0 85be
00000230: 390a 443e a861 36be 6b0d 68be 5589 48bd
00000240: 132f 023e 90e8 353e a8b4 b43e 6a9d 873d
00000250: 41b9 bc3d bee4 80bd 6986 a9be ac51 0f3e
00000260: 05f6 60be 9da0 a63e 678b 64bd ade4 7a3e
00000270: cefc 953e 3682 90be 2edc 6d3d 5162 8dbd
00000280: c62b 85bd 9191 f3bd d501 ab3e 2939 36be
00000290: d55f b13e 9845 a93d 76e7 ab3e af98 81be
000002a0: ce9d 193e 98ba 09bd dea3 c43d c563 803e
000002b0: af6f 37bd 2a27 793d 5112 09be b414 0b3e
000002c0: 6822 773e 6dad 0bbe 60de 33bc edd8 7b3e
000002d0: 0b86 a4bd 3006 2ebe e494 13bd 2af3 0fbd
000002e0: 8ec2 a33c d060 fd3c 88df f3bd cc83 b23c
000002f0: af34 6d3e 54d4 e1bc 7dcc 0e3e 46f5 3ebe
00000300: d2d4 023d faad cc3c 50f3 633d 4843 a6be
00000310: 1e74 8cbe b3a9 033e ee4d 3e3e 3baa d5bd
00000320: 01b0 1e3d a0b5 3fbe 19f6 b3bd 0c77 15bd
00000330: 8647 8dbc 0da2 7f3e 4fea df3c 4633 243d
00000340: 4aa7 cbbd 328a 21be a530 c03c a05e c23c
00000350: ca1d 353e 87dc 58bd 8563 183e c6bc 93be
00000360: 3c1b d63c 2ca4 b5bd 948d b93d 04f2 1a3e
00000370: 09f8 793e 074c 8c3e 8b2d ce3d 7cc1 1e3e
00000380: 9417 59bd 6311 3e3e dde9 2c3e 32dd 423d
00000390: 218f f3bd 02ec 07be 8273 a63d 68bc bfbd
000003a0: 8450 42be f751 f53d d555 883d 5aa5 493e
000003b0: 89dd 483e ad36 b53e 8cfc ef3d 1b09 96bc
000003c0: b072 833e 9e9d 92bc 52c8 503e 8b8a 2e3e
000003d0: d1ec a7bb 7ba2 8b3e 8e40 b23d 338a ecbd
000003e0: 21d4 343e aa6d b63d 6c08 86bd 1545 0bbd
000003f0: 7d2c 5cbe ba72 4d3e 3d3b b93d 7824 813c

input_encoder.0.bias f4 [64]
0.012846676 -0.044499926 -0.030778266 -0.056082774 -0.00668412 0.020853968 0.02869524 0.022231914
0.013444821 0.0019908529 0.018489242 0.028964382 -0.044242594 -0.038331665 0.027683241 0.019678252
0.018654415 -0.018774142 -0.032962102 -0.062099446 -0.05354025 -0.060536884 -0.060293674 -0.05207388
0.04015034 -0.040944178 0.027013347 -0.051705617 -0.052770082 -0.00800609 0.018446138 -0.058606822
-0.051718343 -0.06357958 -0.047414355 -0.07839261 -0.062448163 -0.0046004346 0.0014043306 0.012638768
0.019012652 0.0058219736 -0.026686344 -0.047439802 -0.06033442 -0.05370324 0.008575599 0.032232836
-0.041250195 -0.010528697 0.011521078 -0.03839849 -0.059870206 0.00040135602 0.02069607 0.0009666274
-0.0026485617 0.02674704 -0.00498597 -0.017076839 0.01383758 0.016315946 -0.038064614 -0.0009030658
00000000: dd7a 523c 8e45 36bd b422 fcbc 0db7 65bd
00000010: 7606 dbbb f1d5 aa3c 4812 eb3c b41f b63c
00000020: ab47 5c3c f878 023b c076 973c b646 ed3c
00000030: b937 35bd aa01 1dbd f7c7 e23c 4934 a13c
00000040: 25d1 983c 3bcc 99bc 4503 07bd fd5b 7ebd
00000050: 054d 5bbd 86f5 77bd 80f6 76bd 6c4b 55bd
00000060: af74 243d 15b5 27bd 184b dd3c 45c9 53bd
00000070: 7125 58bd fa2b 03bc 5b1c 973c b50d 70bd
00000080: 9dd6 53bd 0336 82bd 8e35 42bd 4e8c a0bd
00000090: a5c9 7fbd 3ebf 96bb 8411 b83a d612 4f3c
000000a0: 6cc0 9b3c 41c6 be3b 529d dabc 3d50 42bd
000000b0: 3a21 77bd eef7 5bbd ab80 0c3c 9406 043d
000000c0: f7f5 28bd 8e80 2cbc e7c2 3c3c bc47 1dbd
000000d0: 763a 75bd 186d d239 ce8a a93c 4465 7d3a
000000e0: 7e93 2dbb 9c1c db3c 5961 a3bb bae4 8bbc
000000f0: 04b7 623c 05a9 853c a4e9 1bbd b8bb 6cba

latent_encoder.weight f4 [16, 64]
0.02541025 -0.000585466 -0.24033546 0.0017068605 -8.6999644e-05 -0.012893825 0.046177167 0.513745
0.51123273 0.40135416 0.07546656 0.36508125 -0.0012062225 -0.00072686706 0.1942005 0.09104299
0.20581634 -0.1491368 -0.0011697453 -0.017331438 0.04651511 -0.0315624 -0.089810066 -0.08493288
0.057117425 -0.1161305 -0.37249866 -0.035824798 0.023701096 0.20317101 -0.1728491 0.05338794
-0.06909357 -0.059644923 0.0077743437 0.0422802 -0.0004934576 0.338934 0.26240396 0.17858021
-0.19012627 -0.19354069 3.57502e-05 -0.16176197 -0.13542396 0.09880003 -0.2709249 -0.053858653
-0.1472149 -0.3279312 -0.1317531 2.944778e-05 -0.0006481053 0.26663166 -0.34981552 0.07822661
-0.06963271 -0.117750905 0.0057102763 0.036467664 -0.15771851 0.042404935 0.096063614 -0.33910912
0.2644707 -0.11645708 0.11464963 -0.0011961013 -0.00034084113 -0.005526836 0.05742089 -0.26101357
-0.4293814 -0.34207168 -0.008463955 -0.17093995 0.052835397 -0.00049455964 0.23923847 0.40405676
-0.24294081 0.09105074 0.03648991 -0.028605388 -0.1534062 -0.026918447 -0.0013205763 -0.019513343
-0.08510958 0.09385825 0.3679714 0.043018833 -0.017885752 0.08771104 0.24742669 -0.0015125535
0.03737817 0.0060225497 0.04242038 0.050590128 -0.000254478 -0.29107806 0.11411002 -0.18233758
0.21268675 0.20106894 -0.0018758433 -0.057207685 -0.04417263 0.12994666 0.32893753 -0.14146242
0.007574063 0.14712037 0.21181738 0.00067737617 -3.658174e-05 -0.22478244 -0.17971538 0.1929203
-0.19886865 0.31928125 0.00018445912 0.052914597 -0.2511431 0.013361746 -0.2771554 0.2586772
-0.03484261 -0.002141414 -0.16244663 -0.00022104825 -0.000650835 -0.23063591 -0.49197522 -0.11374431
0.35208172 0.2530436 0.38784727 0.3968054 -0.0039114985 0.00025389023 -0.07241304 -0.37940213
0.28540224 0.014012746 -0.0049942955 0.014156654 -0.015380717 0.10254912 -0.051453035 0.047167197
0.23021153 -0.4214152 -0.22479169 -0.057258762 0.10255506 -0.06590547 0.046576113 0.057196017
-0.04696716 0.00087679643 0.08934137 -0.038976572 0.00018581923 0.51114774 -0.21647422 -0.0028579098
-0.5121998 0.3448523 0.00025877546 -0.057079528 0.1332323 0.02833368 0.06731127 0.20457771
0.09704317 -0.23369223 0.1612734 -0.0021315403 -0.0011635249 0.3846756 -0.017179444 -0.340002
0.14291564 0.22559384 0.0015413925 -0.044870466 -0.112233154 0.33658433 0.3502173 0.028266458
0.13668443 -0.10468101 -0.067908056 -0.000159312 0.0006807187 -0.14890666 -0.2044074 0.016999044
-0.21544391 -0.21739352 -0.039191797 -0.09864867 -0.021428926 0.0015608913 0.18321079 0.17183964
-0.12928827 -0.080726646 0.01817805 -0.0034657288 -0.1342194 -0.0003198299 0.0039717588 0.12588134
0.0978109 -0.38874394 -0.27293447 0.12602241 -0.06835264 -0.35168916 -0.024349574 0.016833045
-0.00845777 0.01686592 -0.035925224 0.013700265 0.0016857055 -0.2322753 -0.18771054 -0.29568082
-0.2461266 0.022234555 0.00012891466 0.0118931215 0.0020073203 -0.037057362 -0.086192876 -0.13721065
0.106345594 -0.08412596 0.09733408 -0.00029414118 0.0013423949 0.12042004 -0.04615798 -0.17916802
-0.35159945 0.23439541 0.0012725304 0.0039301356 -0.37071657 0.03548698 -0.35601583 -0.23074046
00000000: 2829 d03c f579 19ba 801a 76be bcb8 df3a
00000010: 9473 b6b8 9f40 53bc 4524 3d3d cb84 033f
00000020: 26e0 023f 4b7e cd3e 368e 9a3d eeeb ba3e
00000030: 1c1a 9eba 398b 3eba 7fdc 463e bf74 ba3d
00000040: 85c1 523e 51b7 18be 2452 99ba a9fa 8dbc
00000050: a186 3e3d 9347 01bd 57ee b7bd 4af1 adbd
00000060: f6f3 693d d4d5 edbd 25b8 bebe 06bd 12bd
00000070: cd28 c23c 100c 503e 5bff 30be 50ad 5a3d
00000080: ee80 8dbd 3c4e 74bd ecbf fe3b 012e 2d3d
00000090: 615b 01ba c288 ad3e d059 863e bbdd 363e
000000a0: 76b0 42be 882f 46be 7cf2 1538 eea4 25be
000000b0: 94ac 0abe ac57 ca3d abb6 8abe e49a 5cbd
000000c0: 81bf 16be 99e6 a7be 49ea 06be a006 f737
000000d0: 9ce5 29ba f283 883e 051b b3be 4635 a03d
000000e0: 989b 8ebd 6327 f1bd 451d bb3b 1e5f 153d
000000f0: f680 21be ccb0 2d3d 00bd c43d b69f adbe
00000100: b468 873e 0d81 eebd 6dcd ea3d 80c6 9cba
00000110: ecb2 b2b9 761a b5bb 2b32 6b3d 92a3 85be
00000120: e1d7 dbbe 0524 afbe 66ac 0abc e20a 2fbe
00000130: ee69 583d 56a5 01ba eefa 743e 87e0 ce3e
00000140: 7ac5 78be cf78 ba3d 7276 153d d955 eabc
00000150: 8416 1dbe 1384 dcbc 3017 adba 72da 9fbc
00000160: ee4d aebd c138 c03d bf66 bc3e 8434 303d
00000170: 2485 92bc d9a1 b33d 6c5d 7d3e e040 c6ba
00000180: da19 193d cf58 c53b fec0 2d3d 9837 4f3d
00000190: 766b 85b9 2f08 95be 84b2 e93d b4b6 3abe
000001a0: 8eca 593e 04e5 4d3e dbde f5ba 9b52 6abd
000001b0: 5cee 34bd bd10 053e 806a a83e 86db 10be
000001c0: d82f f83b b9a6 163e a8e6 583e f291 313a
000001d0: 586f 19b8 5e2d 66be 4f07 38be e68c 453e
000001e0: 39a4 4bbe d578 a33e 5e6b 4139 fabc 583d
000001f0: d495 80be 3aeb 5a3c 50e7 8dbe 5771 843e
00000200: 20b7 0ebd f756 0cbb 6958 26be 30c9 67b9
00000210: cc9c 2aba d22b 6cbe 2de4 fbbe c7f2 e8bd
00000220: 0e44 b43e ee8e 813e eb93 c63e 142a cb3e
00000230: 072c 80bb 921c 8539 4a4d 94bd ff40 c2be
00000240: 3e20 923e b795 653c 30a7 a3bb 4ff1 673c
00000250: 67ff 7bbc 4605 d23d 6bc0 52bd 6432 413d
00000260: 92bc 6b3e bcc3 d7be cb2f 66be 2a88 6abd
00000270: 6308 d23d 72f9 86bd 98c6 3e3d 5f46 6a3d
00000280: a360 40bd d0d8 653a 9cf8 b63d e6a5 1fbd
00000290: 78d8 4239 94da 023f 6bab 5dbe c54b 3bbb
000002a0: 871f 03bf 7b90 b03e 41ac 8739 39cc 69bd
000002b0: 0c6e 083e 091c e83c 7eda 893d d27c 513e
000002c0: 92be c63d 044d 6fbe db24 253e 50b1 0bbb
000002d0: 6b81 98ba 33f4 c43e e8bb 8cbc be14 aebe
000002e0: 7a58 123e 1202 673e 8d08 ca3a 18ca 37bd
000002f0: 7fda e5bd c854 ac3e af4f b33e 0f8f e73c
00000300: 01f7 0b3e ff62 d6bd 6113 8bbd fd0c 27b9
00000310: 4272 323a fd7a 18be 2c50 51be 9441 8b3c
00000320: 549d 5cbe 689c 5ebe 9487 20bd 5008 cabd
00000330: b78b afbc d296 cc3a 9c9b 3b3e bbf6 2f3e
00000340: 2564 04be 0354 a5bd 22ea 943c 4821 63bb
00000350: cf70 09be d8ae a7b9 8725 823b 0ae7 003e
00000360: 1551 c83d 7209 c7be 11be 8bbe 050c 013e
00000370: 78fc 8bbd 9a10 b4be c278 c7bc 74e5 893c
00000380: 7592 0abc 662a 8a3c 5426 13bd 1477 603c
00000390: e4f2 dc3a 94d9 6dbe 3137 40be 7a63 97be
000003a0: 9d08 7cbe 3e25 b63c 442d 0739 5edb 423c
000003b0: 3f8d 033b 76c9 17bd e485 b0bd f380 0cbe
000003c0: b8cb d93d 3b4a acbd 1757 c73d f636 9ab9
000003d0: 4cf3 af3a c89e f63d 2610 3dbd d277 37be
000003e0: d804 b4be 5a05 703e 09cb a63a 5ec8 803b
000003f0: 90ce bdbe cc5a 113d b547 b6be 3a47 6cbe

latent_encoder.bias f4 [16]
0.017365739 -0.08179853 -0.03056177 0.10611874 0.10639417 0.016538106 -0.045657244 -0.07858308
-0.020243863 -0.062252607 0.07878519 -0.04391058 0.06491917 -0.034640614 -0.08083589 -0.12475779
00000000: 9842 8e3c fd85 a7bd ad5c fabc c854 d93d
00000010: 30e5 d93d ec7a 873c 1703 3bbd 2af0 a0bd
00000020: 75d6 a5bc 97fc 7ebd 215a a13d 95db 33bd
00000030: 58f4 843d 51e3 0dbd 498d a5bd 0381 ffbd

flow.flow.mean f4 [7, 16]
0.0 0.0 0.0 0.0 0.0 0.0 0.0 0.0
0.0 0.0 0.0 0.0 0.0 0.0 0.0 0.0
0.0 0.0 0.0 0.0 0.0 0.0 0.0 0.0
0.0 0.0 0.0 0.0 0.0 0.0 0.0 0.0
0.0 0.0 0.0 0.0 0.0 0.0 0.0 0.0
0.0 0.0 0.0 0.0 0.0 0.0 0.0 0.0
0.0 0.0 0.0 0.0 0.0 0.0 0.0 0.0
0.0 0.0 0.0 0.0 0.0 0.0 0.0 0.0
0.0 0.0 0.0 0.0 0.0 0.0 0.0 0.0
0.0 0.0 0.0 0.0 0.0 0.0 0.0 0.0
0.0 0.0 0.0 0.0 0.0 0.0 0.0 0.0
0.0 0.0 0.0 0.0 0.0 0.0 0.0 0.0
0.0 0.0 0.0 0.0 0.0 0.0 0.0 0.0
0.0 0.0 0.0 0.0 0.0 0.0 0.0 0.0
00000000: 0000 0000 0000 0000 0000 0000 0000 0000
00000010: 0000 0000 0000 0000 0000 0000 0000 0000
00000020: 0000 0000 0000 0000 0000 0000 0000 0000
00000030: 0000 0000 0000 0000 0000 0000 0000 0000
00000040: 0000 0000 0000 0000 0000 0000 0000 0000
00000050: 0000 0000 0000 0000 0000 0000 0000 0000
00000060: 0000 0000 0000 0000 0000 0000 0000 0000
00000070: 0000 0000 0000 0000 0000 0000 0000 0000
00000080: 0000 0000 0000 0000 0000 0000 0000 0000
00000090: 0000 0000 0000 0000 0000 0000 0000 0000
000000a0: 0000 0000 0000 0000 0000 0000 0000 0000
000000b0: 0000 0000 0000 0000 0000 0000 0000 0000
000000c0: 0000 0000 0000 0000 0000 0000 0000 0000
000000d0: 0000 0000 0000 0000 0000 0000 0000 0000
000000e0: 0000 0000 0000 0000 0000 0000 0000 0000
000000f0: 0000 0000 0000 0000 0000 0000 0000 0000
00000100: 0000 0000 0000 0000 0000 0000 0000 0000
00000110: 0000 0000 0000 0000 0000 0000 0000 0000
00000120: 0000 0000 0000 0000 0000 0000 0000 0000
00000130: 0000 0000 0000 0000 0000 0000 0000 0000
00000140: 0000 0000 0000 0000 0000 0000 0000 0000
00000150: 0000 0000 0000 0000 0000 0000 0000 0000
00000160: 0000 0000 0000 0000 0000 0000 0000 0000
00000170: 0000 0000 0000 0000 0000 0000 0000 0000
00000180: 0000 0000 0000 0000 0000 0000 0000 0000
00000190: 0000 0000 0000 0000 0000 0000 0000 0000
000001a0: 0000 0000 0000 0000 0000 0000 0000 0000
000001b0: 0000 0000 0000 0000 0000 0000 0000 0000

flow.flow.cov f4 [7, 16, 16]
1.0 0.0 0.0 0.0 0.0 0.0 0.0 0.0
0.0 0.0 0.0 0.0 0.0 0.0 0.0 0.0
0.0 1.0 0.0 0.0 0.0 0.0 0.0 0.0
0.0 0.0 0.0 0.0 0.0 0.0 0.0 0.0
0.0 0.0 1.0 0.0 0.0 0.0 0.0 0.0
0.0 0.0 0.0 0.0 0.0 0.0 0.0 0.0
0.0 0.0 0.0 1.0 0.0 0.0 0.0 0.0
0.0 0.0 0.0 0.0 0.0 0.0 0.0 0.0
0.0 0.0 0.0 0.0 1.0 0.0 0.0 0.0
0.0 0.0 0.0 0.0 0.0 0.0 0.0 0.0
0.0 0.0 0.0 0.0 0.0 1.0 0.0 0.0
0.0 0.0 0.0 0.0 0.0 0.0 0.0 0.0
0.0 0.0 0.0 0.0 0.0 0.0 1.0 0.0
0.0 0.0 0.0 0.0 0.0 0.0 0.0 0.0
0.0 0.0 0.0 0.0 0.0 0.0 0.0 1.0
0.0 0.0 0.0 0.0 0.0 0.0 0.0 0.0
0.0 0.0 0.0 0.0 0.0 0.0 0.0 0.0
1.0 0.0 0.0 0.0 0.0 0.0 0.0 0.0
0.0 0.0 0.0 0.0 0.0 0.0 0.0 0.0
0.0 1.0 0.0 0.0 0.0 0.0 0.0 0.0
0.0 0.0 0.0 0.0 0.0 0.0 0.0 0.0
0.0 0.0 1.0 0.0 0.0 0.0 0.0 0.0
0.0 0.0 0.0 0.0 0.0 0.0 0.0 0.0
0.0 0.0 0.0 1.0 0.0 0.0 0.0 0.0
0.0 0.0 0.0 0.0 0.0 0.0 0.0 0.0
0.0 0.0 0.0 0.0 1.0 0.0 0.0 0.0
0.0 0.0 0.0 0.0 0.0 0.0 0.0 0.0
0.0 0.0 0.0 0.0 0.0 1.0 0.0 0.0
0.0 0.0 0.0 0.0 0.0 0.0 0.0 0.0
0.0 0.0 0.0 0.0 0.0 0.0 1.0 0.0
0.0 0.0 0.0 0.0 0.0 0.0 0.0 0.0
0.0 0.0 0.0 0.0 0.0 0.0 0.0 1.0
00000000: 0000 803f 0000 0000 0000 0000 0000 0000
00000010: 0000 0000 0000 0000 0000 0000 0000 0000
00000020: 0000 0000 0000 0000 0000 0000 0000 0000
00000030: 0000 0000 0000 0000 0000 0000 0000 0000
00000040: 0000 0000 0000 803f 0000 0000 0000 0000
00000050: 0000 0000 0000 0000 0000 0000 0000 0000
00000060: 0000 0000 0000 0000 0000 0000 0000 0000
00000070: 0000 0000 0000 0000 0000 0000 0000 0000
00000080: 0000 0000 0000 0000 0000 803f 0000 0000
00000090: 0000 0000 0000 0000 0000 0000 0000 0000
000000a0: 0000 0000 0000 0000 0000 0000 0000 0000
000000b0: 0000 0000 0000 0000 0000 0000 0000 0000
000000c0: 0000 0000 0000 0000 0000 0000 0000 803f
000000d0: 0000 0000 0000 0000 0000 0000 0000 0000
000000e0: 0000 0000 0000 0000 0000 0000 0000 0000
000000f0: 0000 0000 0000 0000 0000 0000 0000 0000
00000100: 0000 0000 0000 0000 0000 0000 0000 0000
00000110: 0000 803f 0000 0000 0000 0000 0000 0000
00000120: 0000 0000 0000 0000 0000 0000 0000 0000
00000130: 0000 0000 0000 0000 0000 0000 0000 0000
00000140: 0000 0000 0000 0000 0000 0000 0000 0000
00000150: 0000 0000 0000 803f 0000 0000 0000 0000
00000160: 0000 0000 0000 0000 0000 0000 0000 0000
00000170: 0000 0000 0000 0000 0000 0000 0000 0000
00000180: 0000 0000 0000 0000 0000 0000 0000 0000
00000190: 0000 0000 0000 0000 0000 803f 0000 0000
000001a0: 0000 0000 0000 0000 0000 0000 0000 0000
000001b0: 0000 0000 0000 0000 0000 0000 0000 0000
000001c0: 0000 0000 0000 0000 0000 0000 0000 0000
000001d0: 0000 0000 0000 0000 0000 0000 0000 803f
000001e0: 0000 0000 0000 0000 0000 0000 0000 0000
000001f0: 0000 0000 0000 0000 0000 0000 0000 0000
00000200: 0000 0000 0000 0000 0000 0000 0000 0000
00000210: 0000 0000 0000 0000 0000 0000 0000 0000
00000220: 0000 803f 0000 0000 0000 0000 0000 0000
00000230: 0000 0000 0000 0000 0000 0000 0000 0000
00000240: 0000 0000 0000 0000 0000 0000 0000 0000
00000250: 0000 0000 0000 0000 0000 0000 0000 0000
00000260: 0000 0000 0000 803f 0000 0000 0000 0000
00000270: 0000 0000 0000 0000 0000 0000 0000 0000
00000280: 0000 0000 0000 0000 0000 0000 0000 0000
00000290: 0000 0000 0000 0000 0000 0000 0000 0000
000002a0: 0000 0000 0000 0000 0000 803f 0000 0000
000002b0: 0000 0000 0000 0000 0000 0000 0000 0000
000002c0: 0000 0000 0000 0000 0000 0000 0000 0000
000002d0: 0000 0000 0000 0000 0000 0000 0000 0000
000002e0: 0000 0000 0000 0000 0000 0000 0000 803f
000002f0: 0000 0000 0000 0000 0000 0000 0000 0000
00000300: 0000 0000 0000 0000 0000 0000 0000 0000
00000310: 0000 0000 0000 0000 0000 0000 0000 0000
00000320: 0000 0000 0000 0000 0000 0000 0000 0000
00000330: 0000 803f 0000 0000 0000 0000 0000 0000
00000340: 0000 0000 0000 0000 0000 0000 0000 0000
00000350: 0000 0000 0000 0000 0000 0000 0000 0000
00000360: 0000 0000 0000 0000 0000 0000 0000 0000
00000370: 0000 0000 0000 803f 0000 0000 0000 0000
00000380: 0000 0000 0000 0000 0000 0000 0000 0000
00000390: 0000 0000 0000 0000 0000 0000 0000 0000
000003a0: 0000 0000 0000 0000 0000 0000 0000 0000
000003b0: 0000 0000 0000 0000 0000 803f 0000 0000
000003c0: 0000 0000 0000 0000 0000 0000 0000 0000
000003d0: 0000 0000 0000 0000 0000 0000 0000 0000
000003e0: 0000 0000 0000 0000 0000 0000 0000 0000
000003f0: 0000 0000 0000 0000 0000 0000 0000 803f

flow.flow.transforms.0.x0 f4 [7, 16]
-0.2731258 -0.057719946 -0.3123221 -0.24512304 -0.27973053 -0.070728466 -0.4715747 0.1311041
0.12490828 -0.38791302 0.33659613 0.12589335 -0.3271351 0.045415368 -0.087946475 0.3160535
-0.15601858 0.13653298 0.014433209 -0.00303109 -0.008671478 -0.14408882 -0.24247624 0.018037442
0.21368478 -0.20979495 -0.09995348 -0.103056125 0.04255338 -0.10824489 0.13644277 -0.07338318
-0.24484198 0.21241534 0.47405022 -0.278099 -0.18808961 -0.60285664 0.16378994 -0.07496986
-0.1254205 0.08152953 -0.28767624 0.0093549285 -0.14805247 0.07894534 0.22082463 -0.012738517
0.22679923 -0.22797824 0.029452367 -0.14977334 -0.3852292 -0.21182066 -0.3506447 0.18782401
0.38679162 -0.3803255 0.29280743 -0.19652697 -0.15572408 0.15686391 -0.1031856 0.12815166
0.007484412 0.08158125 -0.30424735 0.06351552 0.17866455 0.27230334 -0.03553787 -0.0011539911
-0.17258175 -0.03339637 0.23401055 0.14085877 -0.068391554 -0.0772858 0.04376293 -0.057699375
0.2285999 -0.009646108 0.27431077 -0.11881461 -0.2072642 0.2904762 0.17413406 0.3621323
-0.017293641 -0.30646527 0.2841162 -0.32200614 -0.115643576 0.24691121 0.16462165 -0.12434728
0.33846584 -0.36363512 0.09048521 -0.2351759 -0.23348348 -0.060497742 0.047225725 -0.19253445
0.102642864 -0.19729887 0.26091042 -0.0143848155 -0.26549542 0.03884085 0.12934415 0.20412162
00000000: 25d7 8bbe c06b 6cbd afe8 9fbe 8901 7bbe
00000010: d738 8fbe 16da 90bd 3d72 f1be 2740 063e
00000020: eacf ff3d 899c c6be 5456 ac3e 30ea 003e
00000030: 407e a7be 7705 3a3d 481d b4bd c4d1 a13e
00000040: 56c3 1fbe 4dcf 0b3e 4479 6c3c 40a5 46bb
00000050: d112 0ebc 058c 13be b14b 78be 42c3 933c
00000060: 2fd0 5a3e 7dd4 56be 69b4 ccbd 170f d3bd
00000070: 744c 2e3d 7faf ddbd a7b7 0b3e ec49 96bd
00000080: dbb7 7abe 6883 593e b6b6 f23e fe62 8ebe
00000090: 909a 40be d054 1abf 8db8 273e cc89 99bd
000000a0: 3b6e 00be f4f8 a63d 4d4a 93be 6a45 193c
000000b0: 119b 17be 18ae a13d da1f 623e 36b5 50bc
000000c0: 0f3e 683e 2173 69be 1746 f13c 2f5e 19be
000000d0: c33c c5be 84e7 58be b487 b3be f054 403e
000000e0: 8d09 c63e 06ba c2be dbea 953e 5e3e 49be
000000f0: 2276 1fbe efa0 203e f952 d3bd 303a 033e
00000100: cc3f f53b 1214 a73d 4fc6 9bbe 6d14 823d
00000110: d7f3 363e 586b 8b3e 2890 11bd 8441 97ba
00000120: 45b9 30be a2ca 08bd 76a0 6f3e 483d 103e
00000130: df10 8cbd 0448 9ebd c240 333d 2e56 6cbd
00000140: 1816 6a3e b60a 1ebc 7672 8c3e 1355 f3bd
00000150: 113d 54be 4cb9 943e 3350 323e 6869 b93e
00000160: 65ab 8dbc 04e9 9cbe ae77 913e fddd a4be
00000170: 8ad6 ecbd 4bd6 7c3e 9492 283e c9a9 febd
00000180: 654b ad3e 622e babe 4f50 b93d f3d1 70be
00000190: 4b16 6fbe 7bcc 77bd c36f 413d c027 45be
000001a0: 6c36 d23d b708 4abe 0d96 853e 4aae 6bbc
000001b0: 04ef 87be 9517 1f3d cb72 043e 4205 513e

flow.flow.transforms.0.alpha_prime f4 [7]
-0.40297478 -0.16886286 0.23101783 0.2710955 0.18986751 0.11168879 -0.020077096
00000000: b652 cebe 63ea 2cbe f08f 6c3e 08cd 8a3e
00000010: a16c 423e 18bd e43d b978 a4bc

flow.flow.transforms.0.beta_prime f4 [7]
0.32468268 0.3226193 0.12573785 -0.00038439746 -0.09298729 0.04607519 0.2088635
00000000: cf3c a63e 5b2e a53e 6cc1 003e f488 c9b9
00000010: 1f70 bebd 57b9 3c3d 50e0 553e

flow.flow.transforms.1.x0 f4 [7, 16]
0.2859872 -0.025745125 0.024920765 0.40891656 0.30418494 0.10574969 0.2787775 -0.2838951
0.09991237 0.05382367 -0.13599177 -0.08133623 0.17135772 -0.027163707 -0.079621084 -0.47398022
-0.19497867 0.14218903 0.04774005 -0.08786995 -0.0058029173 -0.1469123 -0.24872619 -0.0029565056
0.2493549 -0.21905698 -0.09942596 -0.09849129 0.045211874 -0.09893442 0.12222053 -0.06477077
0.06369643 0.08150483 -0.41943628 -0.00046170608 0.1295674 0.3666373 -0.20411612 0.12289855
-0.30156568 0.03173553 0.12426557 0.18801533 -0.2291681 0.12285267 -0.13691777 0.12666841
-0.10462396 0.21402976 0.31805915 -0.3589395 -0.14389835 -0.38671395 0.10702618 0.29344326
0.050052438 -0.080799654 -0.062285315 -0.13908552 -0.37141028 0.2505127 0.28332013 0.27012646
0.20127812 -0.26345724 0.42285007 -0.042595502 -0.24503013 -0.44060305 0.2592049 -0.13559447
0.2983992 0.16882677 -0.17266686 -0.077161394 0.040874194 0.07949196 0.23749715 -0.03716253
0.010000132 -0.043066733 -0.09813365 0.09674783 0.10611341 0.051734354 -0.09493896 -0.05423116
-0.03984812 -0.07301507 0.120412044 -0.03180854 0.06891636 -0.03029217 -0.10204429 -0.13817243
-0.044214014 0.35224915 0.0963995 -0.23114976 -0.034159504 0.05122531 0.12505344 0.284001
-0.15339458 0.3305248 0.025108345 0.20846787 -0.16293743 -0.03678205 -0.13611174 0.018014751
00000000: ea6c 923e 71e7 d2bc a226 cc3c 835d d13e
00000010: 21be 9b3e 4b93 d83d edbb 8e3e b35a 91be
00000020: db9e cc3d 3576 5c3d 6d41 0bbe 9c93 a6bd
00000030: 6678 2f3e 6c86 debc 6110 a3bd 89ad f2be
00000040: 7da8 47be 009a 113e 128b 433d 29f5 b3bd
00000050: 6626 bebb 2e70 16be 14b2 7ebe efc1 41bb
00000060: e456 7f3e 7950 60be d69f cbbd cdb5 c9bd
00000070: 1630 393d 219e cabd c24e fa3d 8aa6 84bd
00000080: 4673 823d 01ec a63d 5ac0 d6be 2411 f2b9
00000090: 51ad 043e e2b7 bb3e d103 51be 3cb2 fb3d
000000a0: d166 9abe 1dfd 013d f27e fe3d 1787 403e
000000b0: 0bab 6abe 2e9a fb3d 2c34 0cbe 5db5 013e
000000c0: 1645 d6bd 9e2a 5b3e a6d8 a23e ebc6 b7be
000000d0: 175a 13be 5fff c5be 8b30 db3d 323e 963e
000000e0: c903 4d3d 4a7a a5bd e31e 7fbd 6f6c 0ebe
000000f0: 7d29 bebe 3343 803e 560f 913e 044e 8a3e
00000100: da1b 4e3e dee3 86be ce7f d83e 9f78 2ebd
00000110: 2ee9 7abe b996 e1be 81b6 843e 47d9 0abe
00000120: c8c7 983e ede0 2c3e 95cf 30be cb06 9ebd
00000130: b36b 273d aecc a23d 7432 733e bd37 18bd
00000140: 98d7 233c be66 30bd 4cfa c8bd ba23 c63d
00000150: fd51 d93d 67e7 533d 5c6f c2bd 7e21 5ebd
00000160: c837 23bd ed88 95bd 979a f63d ac49 02bd
00000170: 0524 8d3d 4927 f8bc 99fc d0bd 137d 0dbe
00000180: c119 35bd 005a b43e 1a6d c53d 86b2 6cbe
00000190: d6ea 0bbd a1d1 513d 020e 003e 9468 913e
000001a0: 7813 1dbe 8c3a a93e 04b0 cd3c 9a78 553e
000001b0: 12d9 26be c6a8 16bd e060 0bbe ac93 933c

flow.flow.transforms.1.alpha_prime f4 [7]
-0.063956514 -0.13699964 -0.30419883 -0.1362858 -0.25973764 -0.03811521 0.13619654
00000000: a2fb 82bd a249 0cbe f3bf 9bbe 818e 0bbe
00000010: 55fc 84be b21e 1cbd 1b77 0b3e

flow.flow.transforms.1.beta_prime f4 [7]
-0.29017553 0.098661885 0.19547087 -0.18312073 -0.047643375 0.29430512 -0.061134633
00000000: e391 94be 3e0f ca3d 8429 483e 0084 3bbe
00000010: b325 43bd 29af 963e 4f68 7abd

flow.flow.transforms.2.x0 f4 [7, 16]
-0.32692602 0.057040334 -0.37597007 -0.1998513 -0.27958533 -0.12944272 -0.49714738 0.14788385
0.19693294 -0.27555093 0.09693382 0.19541201 -0.3562025 0.051010154 -0.16863373 0.25222814
-0.17240843 0.23611103 0.2818012 -0.3013577 0.29957396 -0.30246526 -0.3190351 0.28191155
-0.30080268 0.29862028 -0.048323136 -0.3248028 0.2977006 -0.22100711 0.3172751 0.10198575
0.05923003 0.18170409 -0.4216137 -0.019188192 0.07298573 0.39635602 -0.21574943 0.12412471
-0.32678622 0.09486954 0.20312579 0.21253935 -0.27375287 0.12692827 -0.08779661 0.18704389
0.06811603 -0.13935968 -0.0962397 -0.20434456 -0.1961122 -0.1873958 -0.32614294 -0.05539795
0.039513163 -0.39712006 0.2310906 -0.009581441 -0.17328103 0.14686537 0.026789008 0.10665565
0.18913996 -0.4243758 0.41609347 -0.095335744 -0.25045305 -0.024169588 0.2875127 -0.08461176
0.4040213 0.10587769 -0.1848584 0.15183593 0.320664 0.037528783 0.24893892 0.12161541
-0.06656368 0.10548759 -0.13724865 -0.014694632 0.23626052 0.13152242 -0.05017792 0.059445374
-0.048574246 -0.17945145 0.24239148 0.018378302 0.12594818 0.039332516 -0.07207757 -0.0049500195
0.24251068 0.20543836 -0.22651917 -0.13167422 0.37837654 0.29847682 -0.251248 0.14748722
0.14360298 0.23933496 -0.190181 0.3202421 -0.25968105 -0.014841931 0.10335658 0.07207399
00000000: d962 a7be 20a3 693d 267f c0be d2a5 4cbe
00000010: cf25 8fbe a28c 04be 1a8a febe dd6e 173e
00000020: caa8 493e 0315 8dbe 3d85 c63d 161a 483e
00000030: 2d60 b6be 06f0 503d 52ae 2cbe 0c24 813e
00000040: d68b 30be 17c7 713e 3f48 903e 8e4b 9abe
00000050: c261 993e badc 9abe 9258 a3be b656 903e
00000060: cf02 9abe c2e4 983e 7bee 45bd 8d4c a6be
00000070: 376c 983e b04f 62be e271 a23e e8dd d03d
00000080: 309b 723d a310 3a3e c0dd d7be 8e30 9dbc
00000090: 8b79 953d 2def ca3e 6bed 5cbe 1935 fe3d
000000a0: 8650 a7be f64a c23d 3500 503e eaa3 593e
000000b0: 5629 8cbe 7cf9 013e b6ce b3bd 6f88 3f3e
000000c0: 6b80 8b3d 4eb4 0ebe 5219 c5bd b33f 51be
000000d0: a3d1 48be afe4 3fbe 35fc a6be f6e8 62bd
000000e0: 8ed8 213d 5253 cbbe 04a3 6c3e 7afb 1cbc
000000f0: 9570 31be e063 163e 9f74 db3c 476e da3d
00000100: e8ad 413e c947 d9be 340a d53e 633f c3bd
00000110: 623b 80be 4dff c5bc dd34 933e ee48 adbd
00000120: e1db ce3e 67d6 d83d 854b 3dbe e17a 1b3e
00000130: 122e a43e c8b7 193d d8e9 7e3e 8011 f93d
00000140: 8a52 88bd e109 d83d e98a 0cbe c1c1 70bc
00000150: 47ee 713e d0ad 063e 5d87 4dbd fe7c 733d
00000160: caf5 46bd 1fc2 37be 7935 783e 188e 963c
00000170: 8ff8 003e 221b 213d 689d 93bd c633 a2bb
00000180: b854 783e 6f5e 523e a4f4 67be 9bd5 06be
00000190: 92ba c13e f4d1 983e 94a3 80be e406 173e
000001a0: a90c 133e 3914 753e cfbe 42be c6f6 a33e
000001b0: eaf4 84be 922b 73bc 9dac d33d 879b 933d

flow.flow.transforms.2.alpha_prime f4 [7]
-0.31148252 -0.11897457 -0.1757054 0.14209382 -0.15207544 -0.13808492 -0.029269882
00000000: a37a 9fbe f0a8 f3bd 1eec 33be 0b81 113e
00000010: aab9 1bbe 2266 0dbe 64c7 efbc

flow.flow.transforms.2.beta_prime f4 [7]
0.11840835 -0.08365573 -0.020976497 -0.100609526 -0.033900127 0.0785435 -0.04583913
00000000: 1480 f23d b253 abbd e7d6 abbc 5e0c cebd
00000010: dcda 0abd 6adb a03d d0c1 3bbd

flow.flow.transforms.3.x0 f4 [7, 16]
0.42354232 0.055979863 0.054987755 0.25305498 0.2863976 0.008615521 0.09043635 0.021376917
-0.15088671 0.1733396 -0.096438125 -0.0726307 0.32714203 -0.09545726 0.16620995 -0.42218566
-0.27013 0.16856441 0.0371209 0.03515199 0.06341285 -0.14049603 -0.25179175 0.15795334
-0.061326854 -0.22475927 -0.13254422 -0.088069715 0.016099557 -0.18841572 0.13627625 0.12780453
0.055306155 0.11562069 -0.41229796 -0.07118103 0.07499784 0.32252163 -0.20032156 0.07435213
-0.2775197 -0.0118827 0.2157001 0.15658276 -0.19272709 0.1454614 -0.17780921 0.09253865
0.06318695 0.09357779 0.015502436 0.23437582 0.33047697 0.011942526 0.15714763 0.032765202
-0.25262925 0.24918774 -0.13798392 0.1197182 0.25976533 0.12798402 0.06831761 -0.2128942
0.090943836 -0.033056423 0.35128242 0.20404202 -0.009421919 -0.36247724 0.2455863 -0.09410152
0.3186557 0.08781411 -0.14667684 0.00078183203 -0.020513702 0.11599341 0.2154343 0.04063228
-0.21544315 0.11978485 -0.2944527 0.06560014 -0.3408882 -0.38627097 0.16614054 0.18656817
-0.13826376 0.16195728 0.19165704 0.2690781 0.36483154 0.23381147 0.20658442 0.070994474
0.3386761 -0.40150198 -0.027448542 -0.20902054 -0.14784127 -0.09873975 0.11552685 0.17142461
-0.108703576 -0.072046556 0.35711318 0.037110776 -0.27912486 0.005797417 0.15304294 0.13357988
00000000: 8ada d83e 244b 653d d73a 613d 6c90 813e
00000010: b5a2 923e 1d28 0d3c b136 b93d a51e af3c
00000020: 0c82 1abe f07f 313e 5a81 c5bd 68bf 94bd
00000030: 297f a73e 197f c3bd f132 2a3e b828 d8be
00000040: 7b4e 8abe 269c 2c3e 160c 183d 88fb 0f3d
00000050: 99de 813d 31de 0fbe d9ea 80be 85be 213e
00000060: de31 7bbd 4b27 66be acb9 07be e55d b4bd
00000070: 38e3 833c 0df0 40be 008c 0b3e 31df 023e
00000080: b588 623d 8aca ec3d b818 d3be 5cc7 91bd
00000090: 7898 993d 8e21 a53e 1821 4dbe ee45 983d
000000a0: 1017 8ebe a8af 42bc 7de0 5c3e 3b57 203e
000000b0: 405a 45be d5f3 143e 9e13 36be e784 bd3d
000000c0: 2968 813d b6a5 bf3d eefd 7d3c 3700 703e
000000d0: 4734 a93e 96aa 433c 4feb 203e ce34 063d
000000e0: 9f58 81be 122b 7f3e a84b 0dbe d12e f53d
000000f0: f6ff 843e 3e0e 033e 1aea 8b3d f000 5abe
00000100: c340 ba3d 2c66 07bd 4adb b33e 64f0 503e
00000110: 645e 1abc 9e96 b9be fa7a 7b3e 4cb8 c0bd
00000120: d726 a33e e2d7 b33d 7432 16be dcf3 4c3a
00000130: 5a0c a8bc f48d ed3d cf9a 5c3e 096e 263d
00000140: 219d 5cbe c251 f53d 81c2 96be 5e59 863d
00000150: e688 aebe 4fc5 c5be bf20 2a3e ba0b 3f3e
00000160: 0495 0dbe 21d8 253e be41 443e 9bc4 893e
00000170: 33cb ba3e 466c 6f3e de8a 533e 8d65 913d
00000180: f466 ad3e ab91 cdbe c4db e0bc 7b09 56be
00000190: b463 17be 1138 cabd 5799 ec3d ef89 2f3e
000001a0: fb9f debd 258d 93bd 8ad7 b63e 7801 183d
000001b0: 74e9 8ebe 42f8 bd3b 4ab7 1c3e 2ac9 083e

flow.flow.transforms.3.alpha_prime f4 [7]
-0.0667811 -0.15005171 -0.22078402 -0.1651681 -0.0913793 0.078061685 -0.17892855
00000000: 88c4 88bd 28a7 19be 3515 62be d421 29be
00000010: 1225 bbbd cede 9f3d 0c39 37be

flow.flow.transforms.3.beta_prime f4 [7]
-0.2287306 0.1784278 0.11802525 0.03579028 0.22781497 0.040021986 -0.050019614
00000000: 5b38 6abe c7b5 363e 39b7 f13d d498 123d
00000010: 5448 693e 18ee 233d 5ee1 4cbd

flow.flow.transforms.4.x0 f4 [7, 16]
-0.17999049 -0.071446404 -0.122088075 -0.3496843 -0.3468832 -0.10691427 -0.39253384 0.21043688
0.033640496 -0.27537423 0.36257663 0.13599254 -0.31681645 0.09818989 -0.12417733 0.2957649
-0.3134946 0.23060787 0.114162646 -0.15556012 0.2739823 0.08002298 0.17866915 -0.14079496
-0.15753013 -0.09193124 -0.35867548 -0.37340242 -0.21628167 -0.05273486 0.11749153 0.19819888
-0.0155340405 0.1353939 0.5535408 -0.005780879 -0.21781242 -0.57808304 0.0053567346 0.1412642
0.040344354 -0.009418018 -0.21801528 -0.3225555 0.038961045 0.21128117 0.17175278 -0.18837868
0.043673147 0.1353397 -0.07313146 0.22221275 0.33502755 0.058551297 0.18536615 0.015260894
-0.24238828 0.20338994 -0.1636811 0.16554129 0.15074484 0.111242905 -0.039822605 -0.11651147
0.17878681 -0.31821156 0.33425066 0.021960888 -0.15119895 -0.352145 0.1814145 -0.14746198
0.1483099 -0.018610895 -0.10871127 -0.107397944 0.24211764 -0.073081374 0.18854105 -0.17702793
-0.033598933 -0.046853274 -0.1080498 -0.033516362 0.17430289 0.12536438 -0.104003355 -0.08250363
-0.05788349 -0.11890711 0.072308205 -0.0011449517 -0.08430052 -0.10665128 -0.1356733 -0.19251227
-0.3880385 -0.19862698 0.19202586 -0.2847077 0.2517105 -0.21301456 0.16506767 -0.23002677
0.3072128 0.04176295 -0.23613037 -0.2329555 0.43258986 0.23273057 0.06997499 0.15363747
00000000: 6d4f 38be 7e52 92bd 5009 fabd d209 b3be
00000010: ad9a b1be def5 dabd 32fa c8be c47c 573e
00000020: 9eca 093d dafd 8cbe a5a3 b93e a141 0b3e
00000030: c435 a2be c817 c93d af50 febd 7f6e 973e
00000040: 5d82 a0be 7824 6c3e 1bce e93d 274b 1fbe
00000050: 6847 8c3e 17e3 a33d 0cf5 363e 8e2c 10be
00000060: 944f 21be 7246 bcbd 50a4 b7be 9a2e bfbe
00000070: f178 5dbe 8200 58bd 669f f03d a6f4 4a3e
00000080: 7d82 7ebc b3a4 0a3e dab4 0d3f 876d bdbb
00000090: 380a 5fbe 40fd 13bf 8c87 af3b 90a7 103e
000000a0: 1f40 253d 084e 1abc 663f 5fbe ff25 a5be
000000b0: 9e95 1f3d 175a 583e f6df 2f3e 57e6 40be
000000c0: 9de2 323d 7e96 0a3e f2c5 95bd bd8b 633e
000000d0: bb88 ab3e 7cd3 6f3d a0d0 3d3e d408 7a3c
000000e0: a234 78be 7445 503e 059c 27be a883 293e
000000f0: db5c 1a3e 52d3 e33d 071d 23bd 919d eebd
00000100: e413 373e a0ec a2be e722 ab3e 52e7 b33c
00000110: e6d3 1abe 594c b4be b9c4 393e 4600 17be
00000120: 8dde 173e e075 98bc 04a4 debd 74f3 dbbd
00000130: b0ed 773e b0ab 95bd e810 413e cf46 35be
00000140: 099f 09bd 38e9 3fbd 3749 ddbd 7448 09bd
00000150: 757c 323e 855f 003e b6ff d4bd aaf7 a8bd
00000160: 3d17 6dbd 9285 f3bd 5316 943d 3412 96ba
00000170: c0a5 acbd fc6b dabd f1ed 0abe f021 45be
00000180: fbac c6be df64 4bbe 6da2 443e 35c5 91be
00000190: 33e0 803e 7d20 5abe 8007 293e 238c 6bbe
000001a0: ff4a 9d3e a10f 2b3d 29cc 71be e38b 6ebe
000001b0: 6b7c dd3e ec50 6e3e 0c4f 8f3d 2453 1d3e

flow.flow.transforms.4.alpha_prime f4 [7]
-0.31219274 -0.0020615535 0.03419996 -0.26186487 -0.09170943 -0.28148064 -0.08099944
00000000: bad7 9fbe 211b 07bb 4215 0c3d 2713 86be
00000010: 27d2 bbbd 3b1e 90be 09e3 a5bd

flow.flow.transforms.4.beta_prime f4 [7]
0.2524633 0.05065987 -0.19515255 0.13244745 0.24252465 -0.10164724 -0.11308899
00000000: df42 813e b980 4f3d 12d6 47be 4ea0 073e
00000010: 6258 783e 6e2c d0bd 339b e7bd

flow.flow.transforms.5.x0 f4 [7, 16]
0.074959524 -0.046450894 -0.18046261 -0.18112756 -0.26445895 0.10237858 -0.19911571 0.16238028
0.33421916 -0.11606668 -0.058865752 0.1861975 -0.30141833 0.058283404 -0.3599744 0.27097487
0.26831675 0.017812615 -0.19479464 -0.23100847 -0.09764369 0.25419506 -0.18120919 0.07337202
-0.26405883 0.2373355 0.09840373 0.30359936 -0.17314677 0.062005267 -0.044974606 -0.010462962
-0.03524627 -0.08167877 0.26726907 0.032298986 0.11921856 -0.5632851 0.2185599 0.13286802
0.40610832 0.15790096 -0.1856308 0.13256766 0.38728917 0.09918589 0.27286536 -0.22834806
0.062270474 0.0734125 -0.012615982 0.19041066 0.31615114 0.013319234 0.14562142 -0.038942672
-0.15792052 0.19338728 -0.20584615 0.1898463 0.26216677 0.010107326 -0.05511924 -0.06706502
-0.1744349 0.17479903 -0.37357518 -0.045030776 0.19712771 0.3289336 -0.3529437 0.15987733
-0.23731107 0.027875613 0.26241592 0.055775262 -0.023423042 0.16594955 0.09769622 0.15608785
-0.0064109666 -0.046731412 -0.07893563 0.11034361 0.09514045 0.06387047 -0.08725104 -0.050811276
-0.03763428 -0.08923354 0.10205973 -0.04278271 0.02640033 -0.05889795 -0.11058465 -0.10924643
0.31036353 -0.30088517 0.0801459 -0.14862888 -0.21681246 -0.03243278 -0.00794003 -0.13861156
0.107076466 -0.18174867 0.24143639 -0.028820163 -0.2497225 0.060377624 0.10467743 0.16410908
00000000: 6184 993d 4b43 3ebd 31cb 38be 8179 39be
00000010: 2a67 87be dcab d13d fde4 4bbe 0447 263e
00000020: c61e ab3e 5eb4 edbd 371d 71bd 8faa 3e3e
00000030: 8153 9abe 94ba 6e3d 914e b8be 38bd 8a3e
00000040: d060 893e c3eb 913c 3f78 47be 7c8d 6cbe
00000050: 6af9 c7bd db25 823e e78e 39be 1244 963d
00000060: b832 87be 1408 733e e587 c93d 6071 9b3e
00000070: 634d 31be 3cf9 7d3d 4b37 38bd d86c 2bbc
00000080: 655e 10bd 3347 a7bd 7ed7 883e f14b 043d
00000090: dc28 f43d 7433 10bf 2bce 5f3e 8e0e 083e
000000a0: 6eed cf3e cab0 213e 0016 3ebe d1bf 073e
000000b0: c44a c63e f921 cb3d 02b5 8b3e 13d4 69be
000000c0: 530f 7f3d 4b59 963d 44b3 4ebc 03fb 423e
000000d0: 90de a13e eb38 5a3c c81d 153e 5a82 1fbd
000000e0: ebb5 21be 5107 463e 55c9 52be 1267 423e
000000f0: b93a 863e 3399 253c b6c4 61bd 6359 89bd
00000100: 109f 32be 84fe 323e 3f45 bfbe 3172 38bd
00000110: d9db 493e fc69 a83e 09b5 b4be e2b6 233e
00000120: ac01 73be 665b e43c 615b 863e 9a74 643d
00000130: aee1 bfbc aeee 293e f514 c83d 7ed5 1f3e
00000140: 1613 d2bb 7069 3fbd 01a9 a1bd d5fb e13d
00000150: ffd8 c23d 85ce 823d acb0 b2bd 7c1f 50bd
00000160: 6726 1abd 13c0 b6bd b104 d13d ec3c 2fbd
00000170: 8145 d83c fa3e 71bd 347a e2bd 98bc dfbd
00000180: f8e7 9e3e 9f0d 9abe 8923 a43d 2b32 18be
00000190: 1604 5ebe 3cd8 04bd e616 02bc 30f0 0dbe
000001a0: e84a db3d 531c 3abe 1a3b 773e 4318 ecbc
000001b0: 41b7 7fbe 874e 773d 1f61 d63d 360c 283e

flow.flow.transforms.5.alpha_prime f4 [7]
-0.21088012 0.10034852 0.06572901 -0.17958383 0.115172215 -0.1417012 -0.39433855
00000000: f5f0 57be 8683 cd3d ee9c 863d d3e4 37be
00000010: 69df eb3d 1f1a 11be bee6 c9be

flow.flow.transforms.5.beta_prime f4 [7]
-0.0793499 0.06578839 -0.09312739 0.29619563 -0.17420371 0.3315125 0.32195804
00000000: 3382 a2bd 10bc 863d 93b9 bebd f4a6 973e
00000010: 7562 32be 02bc a93e afd7 a43e

flow.flow.transforms.6.x0 f4 [7, 16]
0.27690315 -0.02063682 0.2662906 0.26138034 0.21673803 -0.052840482 0.2280588 -0.17757408
0.0052811163 0.11343287 -0.11646412 -0.09543923 0.19074 -0.11490807 0.15826474 -0.32999995
-0.026508063 0.18121582 0.056858085 -0.02074649 0.026080783 -0.17170082 -0.083970994 0.1023652
0.26017725 -0.23428524 -0.15422781 -0.14626251 0.15337637 -0.21421444 0.16378228 0.05473432
0.08632907 0.110546 -0.41667947 -0.024723275 -0.03200481 0.385201 -0.21656293 0.15443091
-0.34908563 0.0005232461 0.16612346 0.2018338 -0.2774997 0.14635707 -0.17570983 0.15700871
0.063551426 0.101433925 -0.09054892 0.22093612 0.33180293 0.03534046 0.17311196 0.020735333
-0.22892427 0.19279167 -0.15293883 0.20030834 0.06440419 0.06356691 -0.023199137 -0.181533
-0.32140625 -0.26899317 0.09856554 -0.3418294 -0.29369745 0.19432741 0.18727434 -0.16392863
-0.35909578 -0.0021484287 0.014730354 0.13124003 -0.30919483 0.06957421 -0.34844783 0.28849387
-0.2184132 0.0562465 0.33311978 -0.26284778 -0.36443388 0.12001729 -0.35322684 -0.18661316
-0.13846871 0.070991635 0.038695678 -0.23548089 -0.19316359 0.35163397 0.19969597 0.119867824
0.41316268 -0.4511579 0.32813638 -0.24618587 -0.37585214 0.25861454 -0.2280577 0.18565801
0.28457665 0.30323905 0.052042663 0.18179491 -0.028263353 -0.18341175 -0.17028065 0.21454547
00000000: 40c6 8d3e 8c0e a9bc 3e57 883e a5d3 853e
00000010: 93f0 5d3e 436f 58bd 3f88 693e fbd5 35be
00000020: 370d ad3b 7e4f e83d be84 eebd a575 c3bd
00000030: 5951 433e ec54 ebbd 2710 223e c1f5 a8be
00000040: 7027 d9bc a490 393e 06e4 683d 8bf4 a9bc
00000050: 5ea7 d53c 57d2 2fbe fcf8 abbd d9a4 d13d
00000060: f435 853e 78e8 6fbe e5ed 1dbe d7c5 15be
00000070: b20e 1d3e 085b 5bbe 8bb6 273e 1831 603d
00000080: 4ccd b03d f165 e23d 0357 d5be 7788 cabc
00000090: 7a17 03bd 1139 c53e acc2 5dbe 2323 1e3e
000000a0: 5abb b2be 742a 093a 451c 2a3e 85ad 4e3e
000000b0: 7114 8ebe a1de 153e 47ed 33be e4c6 203e
000000c0: 4027 823d 97bc cf3d b671 b9bd 143d 623e
000000d0: 13e2 a93e 28c1 103d 4344 313e 25dd a93c
000000e0: 206b 6abe 2e6b 453e ff9b 1cbe a11d 4d3e
000000f0: 58e6 833d 5e2f 823d 1e0c bebc c9e3 39be
00000100: 5c8f a4be 79b9 89be bbdc c93d 4304 afbe
00000110: 835f 96be c4fd 463e d8c4 3f3e e8dc 27be
00000120: 67db b7be a7cc 0cbb 9557 713c c963 063e
00000130: c94e 9ebe ec7c 8e3d c167 b2be 78b5 933e
00000140: b6a7 5fbe bb62 663d ad8e aa3e fc93 86be
00000150: 1497 babe a0cb f53d 26da b4be 8517 3fbe
00000160: beca 0dbe 1064 913d 5c7f 1e3d e721 71be
00000170: adcc 45be 5e09 b43e 1a7d 4c3e 437d f53d
00000180: 0f8a d33e 2bfe e6be 7e01 a83e 2618 7cbe
00000190: b16f c0be 2069 843e f587 69be 221d 3e3e
000001a0: 08b4 913e 2642 9b3e b02a 553d 7228 3a3e
000001b0: 8c88 e7bc 4ad0 3bbe 0d5e 2ebe cfb1 5b3e

flow.flow.transforms.6.alpha_prime f4 [7]
0.26564205 0.097863786 -0.008717628 -0.19885102 0.13845 0.0718329 -0.12836966
00000000: 3c02 883e cf6c c83d 62d4 0ebc 9a9f 4bbe
00000010: d6c5 0d3e 211d 933d 5673 03be

flow.flow.transforms.6.beta_prime f4 [7]
-0.10476622 0.24000724 0.11913508 -0.07495396 0.13592575 0.053254645 -0.082549796
00000000: ac8f d6bd 75c4 753e 18fd f33d 7681 99bd
00000010: 1f30 0b3e 8b21 5a3d de0f a9bd

flow.flow.transforms.7.x0 f4 [7, 16]
0.38654226 -0.019326113 0.021070845 0.41745123 0.35979295 -0.018131219 0.31933856 -0.3844435
-0.16403261 0.19626491 -0.21166556 -0.01972022 0.37537935 -0.15325706 0.18792082 -0.0007377255
0.352741 -0.011236565 -0.28333592 -0.11651951 -0.02560484 -0.030059574 0.31224862 0.12358367
-0.26959944 0.014482448 0.3920089 0.09406482 -0.23905477 0.11547099 -0.31235027 0.16620357
-0.05905275 0.17127895 0.43524623 -0.02958238 0.111901164 -0.522911 0.2853681 -0.066519074
0.23766196 -0.18439545 -0.050311588 -0.11043811 0.3345848 -0.15325966 -0.00013850722 -0.03820367
0.03789748 0.09164342 -0.050198812 0.20486279 0.2963908 0.044365935 0.15598884 0.02862562
-0.1697551 0.08374756 -0.10964435 0.17251235 0.22337425 0.062440123 0.04100377 -0.20578541
0.16621286 -0.24526678 0.38125038 -0.07814655 -0.20067815 -0.42651457 0.26159337 -0.105373815
0.2622464 0.04205358 -0.1765885 -0.07335598 0.017825969 0.14783493 0.2501873 0.04389029
0.2895909 0.32388276 0.050339084 -0.28857672 -0.33397838 -0.42452475 0.3954676 -0.23753726
-0.07229195 -0.15332448 -0.19545822 -0.30496028 -0.11159745 -0.047363315 0.115294755 0.1456391
0.31833732 -0.19475251 0.084387206 -0.14939782 -0.23608246 0.074129954 0.25684473 0.124475665
0.107094124 0.07726717 0.35190353 -0.015086955 -0.26785874 0.021668985 -0.08878942 0.13764343
00000000: dee8 c53e cc51 9ebc c49c ac3c 2bbc d53e
00000010: c836 b83e ec87 94bc 5880 a33e c7d5 c4be
00000020: 2af8 27be abf9 483e dbbe 58be 4c8c a1bc
00000030: b931 c03e 6bef 1cbe 516e 403e ec63 41ba
00000040: 789a b43e 9219 38bc 6811 91be c8a1 eebd
00000050: 3ec1 d1bc 7f3f f6bc 0ddf 9f3e 6f19 fd3d
00000060: f008 8abe ca47 6d3c 64b5 c83e 0ea5 c03d
00000070: c6ca 74be 0e7c ec3d 60ec 9fbe 4531 2a3e
00000080: 4ce1 71bd c063 2f3e 98d8 de3e bf56 f2bc
00000090: 702c e53d 7fdd 05bf c51b 923e 273b 88bd
000000a0: a85d 733e 29d2 3cbe 8613 4ebd 602d e2bd
000000b0: b34e ab3e 1af0 1cbe 403c 11b9 747b 1cbd
000000c0: 633a 1b3d 8caf bb3d 459d 4dbd 8dc7 513e
000000d0: 89c0 973e 0eb9 353d 8abb 1f3e 4780 ea3c
000000e0: 48d4 2dbe d783 ab3d 388d e0bd 14a7 303e
000000f0: 38bc 643e 37c1 7f3d 92f3 273d 69b9 52be
00000100: b433 2a3e 3727 7bbe 4033 c33e 4c0b a0bd
00000110: 937e 4dbe 1e60 dabe 91ef 853e 3ace d7bd
00000120: 2945 863e 6040 2c3d 9ed3 34be a93b 96bd
00000130: c407 923c 0a62 173e 8d18 803e 4ec6 333d
00000140: 4245 943e f6d3 a53e 5b30 4e3d 54c0 93be
00000150: 37ff aabe 4f5b d9be bb7a ca3e f83c 73be
00000160: cd0d 94bd 1801 1dbe 3326 48be c123 9cbe
00000170: 348d e4bd 0900 42bd a81f ec3d 6b22 153e
00000180: 1cfd a23e 346d 47be 33d3 ac3d befb 18be
00000190: 9abf 71be 72d1 973d 2781 833e 19ed fe3d
000001a0: 2a54 db3d 403e 9e3d b32c b43e 472f 77bc
000001b0: c824 89be 2883 b13c 3ad7 b5bd 66f2 0c3e

flow.flow.transforms.7.alpha_prime f4 [7]
0.19284055 0.12274637 -0.029427629 -0.2880018 -0.28249276 0.036080055 0.0049516023
00000000: fe77 453e 7362 fb3d 3612 f1bc f974 93be
00000010: e4a2 90be aec8 133d 0d41 a23b

flow.flow.transforms.7.beta_prime f4 [7]
0.019058125 -0.102518454 -0.19437413 0.08473433 0.26485264 -0.06162534 0.098601274
00000000: c91f 9c3c 32f5 d1bd 030a 47be 3189 ad3d
00000010: c49a 873e da6a 7cbd 77ef c93d

flow.flow.transforms.8.x0 f4 [7, 16]
0.5419302 0.23412664 0.38674876 0.33319294 0.4741466 -0.029385211 0.40517384 0.040595047
-0.27321744 0.26019385 -0.14615528 -0.2621018 0.11039076 0.13410024 0.2621317 0.07654637
0.39146 0.043798283 -0.17856048 -0.23256317 0.2930745 0.074955285 -0.122016 -0.18407348
-0.23574576 0.21748382 -0.23373304 0.09588501 -0.21721491 0.12769946 0.037070483 0.15353657
0.060441867 0.1301692 -0.33234596 0.008389689 0.13122256 0.20109437 -0.17690332 0.097972296
-0.25725767 -0.0033725777 0.12670176 0.18035609 -0.23477092 0.18707168 -0.123285316 0.10023125
0.057083398 0.05479948 0.104070514 0.0643145 0.18114093 -0.0915352 0.17034186 -0.030924294
-0.14391631 0.11799838 -0.12945978 0.0848138 0.26616192 -0.024283467 -0.102433585 -0.22150543
0.18137304 -0.17101078 0.37670234 -0.18809134 -0.23918813 -0.40244156 0.22511752 -0.11267591
0.009169522 0.032910746 -0.15817319 -0.16453503 0.08094576 0.083607 0.22986175 -0.0440902
-0.029842488 -0.28376433 0.40274492 -0.24352881 0.25543842 0.03049099 0.12113277 0.1669635
0.39879453 0.19118923 -0.21570048 0.061574887 -0.20291588 0.2229899 0.36236432 0.09791939
-0.098601766 0.2997101 -0.25063843 -0.11155642 0.27360895 -0.28824562 -0.33753023 -0.114518896
-0.33331496 0.32085776 0.23382954 -0.29287553 0.3106217 0.14744657 -0.21239752 0.07307697
00000000: f0bb 0a3f e5be 6f3e ef03 c63e 4498 aa3e
00000010: 58c3 f23e 41b9 f0bc f272 cf3e fe46 263d
00000020: 28e3 8bbe 2138 853e bba9 15be 3532 86be
00000030: 8d14 e23d 9351 093e 2036 863e 58c4 9c3d
00000040: 726d c83e d465 333d 8fd8 36be 0a25 6ebe
00000050: dc0d 963e 2882 993d 86e3 f9bd c27d 3cbe
00000060: 5667 71be 14b4 5e3e b757 6fbe 5c5f c43d
00000070: 966d 5ebe a6c3 023e 38d7 173d b138 1d3e
00000080: e491 773d 134b 053e 4029 aabe e874 093c
00000090: 355f 063e afeb 4d3e 2526 35be b3a5 c83d
000000a0: 47b7 83be 7706 5dbb 1bbe 013e 44af 383e
000000b0: ca67 70be b88f 3f3e 037d fcbd 0b46 cd3d
000000c0: 48d0 693d 6b75 603d ec22 d53d 52b7 833d
000000d0: 027d 393e cf76 bbbd 196e 2e3e f254 fdbc
000000e0: cc5e 13be 22a9 f13d 1b91 04be dcb2 ad3d
000000f0: 6046 883e 1fee c6bc b3c8 d1bd 52d2 62be
00000100: dbb9 393e 731d 2fbe 21df c03e 049b 40be
00000110: bced 74be d20c cebe 3585 663e a1c2 e6bd
00000120: c33b 163c 6bcd 063d 27f8 21be df7b 28be
00000130: e4c6 a53d 263a ab3d e160 6b3e ed97 34bd
00000140: 3c78 f4bc 8f49 91be 9534 ce3e 9e5f 79be
00000150: d3c8 823e 3ec8 f93c 7514 f83d 7bf8 2a3e
00000160: cc2e cc3e 1cc7 433e 96e0 5cbe f335 7c3d
00000170: 2ec9 4fbe 7757 643e d187 b93e f689 c83d
00000180: b9ef c9bd 9a73 993e ae53 80be b177 e4bd
00000190: 7916 8c3e ee94 93be c3d0 acbe e288 eabd
000001a0: 42a8 aabe 7847 a43e 0371 6f3e c8f3 95be
000001b0: cf09 9f3e 3cfc 163e bc7e 59be 61a9 953d

flow.flow.transforms.8.alpha_prime f4 [7]
-0.0010597156 0.108677536 -0.30358595 -0.25684965 -0.22717802 0.14181745 -0.12281538
00000000: 28e6 8aba 5492 de3d 9e6f 9bbe cc81 83be
00000010: 5ba1 68be 9838 113e a186 fbbd

flow.flow.transforms.8.beta_prime f4 [7]
-0.0670864 0.09987125 0.084826134 0.027703205 0.015520809 -0.013038369 -0.14580667
00000000: 9864 89bd 4c89 cc3d 53b9 ad3d d5f1 e23c
00000010: fe4a 7e3c e29e 55bc 584e 15be
