saved_experiments/classification/GPN/1/model_2.pt (torch, 764793 bytes, 36 tensors)

input_encoder.0.weight f4 [64, 2879]
-0.020889308 -0.027214073 -0.036115922 -0.0076453933 0.045900244 0.015513063 -0.039920148 0.019142535
-0.02104819 -0.04099145 0.0014540756 -0.003953863 -0.0012481103 0.014642201 0.0014380878 -0.018623183
-0.0011953082 -0.027060155 -0.013957134 -0.023662461 -0.017249575 -0.028749269 0.004770687 -0.01767251
0.010715249 -0.019675463 0.2647072 0.005789913 -0.02412079 -0.06668594 -0.007934779 -0.035598513
-0.015825348 -0.039728776 -0.015771195 -0.0006871324 0.005367609 -0.010973625 -0.03693929 -0.018664358
0.002237475 -0.0014695013 0.005166828 -0.0063393167 -0.03326016 0.09313798 -0.065571174 -0.047945146
-0.003980015 -0.040201478 -0.046344187 -0.05910527 0.004599907 0.004602795 -0.036254853 -0.0236884
-0.0034964622 -0.038151324 -0.0060324594 0.0008162258 -0.01138276 0.02673203 -0.028843872 -0.0026576344
-0.007256965 0.0050731846 -0.04085653 -0.034743693 0.0042322204 -0.014452199 -0.062487964 -0.0665725
-0.03347261 0.00041687867 0.0050850282 -0.011446386 -0.0019440616 -0.053091895 -0.039046217 -0.04369266
-0.03311536 0.035137877 -0.0021928698 -0.03964903 -0.0140774725 0.00557553 -0.0018883086 -0.047984455
-0.024246585 0.0013645068 0.0028201325 -0.029429842 -0.04571889 0.006149232 -0.033687424 -0.04663904
-0.018220082 -0.003754225 0.0041603674 -0.0069587994 0.004064715 -0.05208979 -0.019445624 -0.009798137
-0.010535052 -0.05834268 -0.031508137 -0.038693983 -0.05529655 0.0046360865 0.006115561 -0.002096486
-0.01965973 0.005378474 0.0015036494 -0.043126106 -0.045570087 0.00582119 -0.020492068 0.0007648022
0.00021055079 -0.03348122 0.005226256 -0.044852227 -0.059400346 -0.00024777977 -0.03910477 -0.025305115
-0.013726449 -0.027529031 -5.6098623e-05 -0.0027763539 -0.0208497 -0.01760193 -0.008549674 -0.0051026423
-0.049093492 -0.036155373 -0.06508547 -0.0026618782 1.450727e-05 -0.030835096 -0.049949847 -0.032209355
-0.03172527 -0.050264314 0.006059355 0.0007376829 -0.023493038 0.005287057 -0.004549945 -0.012879656
0.0034174009 -0.007408941 -0.018645475 -0.06725999 -0.0050094994 -0.0009328035 -0.0021817514 -0.06679739
-0.02720402 -0.03899198 0.0034065486 -0.032426577 -0.013337768 0.0010347441 -0.022969509 0.005258148
-0.00025332603 -0.024240317 -0.018350074 -0.0016203152 -0.00230648 0.061338663 -0.04213591 -0.046157908
-0.03189522 -0.039499857 -0.046270765 -0.031620618 -0.046372473 -0.055290226 -0.05665388 -0.036820315
-0.056419745 -0.038917985 -0.06329254 -0.017082367 -0.0031449199 -0.041626923 -0.04343296 -0.03420391
-0.010238455 -0.043316174 -0.0120686125 -0.025786426 -0.017230494 -0.0023641584 0.002861026 -0.035220407
-0.04351422 -0.026151367 -0.053870652 -0.05638565 -0.03847979 -0.028937967 -0.050247144 -0.0019897327
-0.008880622 -0.018955203 0.00035695388 -0.024812195 -0.0009919917 -0.010973492 0.0023876755 0.00043459528
0.005064398 -0.01584694 -0.05873259 -0.058556344 0.0032530918 0.00042353477 0.0001670043 -0.017229056
-0.022162637 -0.0011032621 0.0014907325 -0.0001928487 -0.0047654756 -0.022378905 -0.04102576 -0.049700804
0.0011893564 0.0052707517 -0.035112046 -0.0039013685 -0.012235224 -0.0012299162 -0.001931451 0.0034171364
0.0041228044 0.002469325 -0.0035098258 -0.025550442 -0.0052138222 0.049373556 0.0043633142 -0.04121297
0.0046675457 -0.043779183 -0.0051761684 0.004884834 -0.054815445 -0.000934934 -0.027855596 -0.0538721
00000000: 0e20 abbc 0cf0 debc 4aee 13bd 3586 fabb
00000010: e501 3c3d 812a 7e3c 4f83 23bd ced0 9c3c
00000020: 416d acbc a7e6 27bd ae96 be3a 688f 81bb
00000030: a297 a3ba d8e5 6f3c 387e bc3a a58f 98bc
00000040: e3ab 9cba 42ad ddbc 77ac 64bc c7d7 c1bc
00000050: fb4e 8dbc 9683 ebbc 6c53 9c3b f1c5 90bc
00000060: 038f 2f3c 702e a1bc b487 873e 4fb9 bd3b
00000070: f798 c5bc a392 88bd e000 02bc bfcf 11bd
00000080: 29a4 81bc a4ba 22bd 9832 81bc ad20 34ba
00000090: c5e2 af3b b8ca 33bc a74d 17bd ffe5 98bc
000000a0: 9aa2 123b 489c c0ba 7f4e a93b 0bba cfbb
000000b0: ce3b 08bd 20bf be3d 2e4a 86bd 2162 44bd
000000c0: c96a 82bb 4eaa 24bd 67d3 3dbd 5e18 72bd
000000d0: d1ba 963b 0bd3 963b f87f 14bd 2d0e c2bc
000000e0: e724 65bb 9044 1cbd f0ab c5bb fcf7 553a
000000f0: c17e 3abc 21fd da3c fc49 ecbc b52b 2ebb
00000100: d6cb edbb f53c a63b 2d59 27bd 674f 0ebd
00000110: 70ae 8a3b ebc8 6cbc 61f3 7fbd 2a57 88bd
00000120: 931a 09bd 8290 da39 4fa0 a63b 9f89 3bbc
00000130: e2cf feba e376 59bd edee 1fbd 13f7 32bd
00000140: f9a3 07bd bcec 0f3d 40b6 0fbb 0567 22bd
00000150: 33a5 66bc f0b2 b63b 1f81 f7ba 598b 44bd
00000160: c6a0 c6bc 40d9 b23a f9d1 383b da16 f1bc
00000170: bb43 3bbd 7f7f c93b d3fb 09bd 9408 3fbd
00000180: 4842 95bc 7209 76bb b153 883b a406 e4bb
00000190: 4d31 853b 1b5c 55bd 6e4c 9fbc 5d88 20bc
000001a0: 369b 2cbc bcf8 6ebd ad0e 01bd 957d 1ebd
000001b0: a37e 62bd 50ea 973b 0b65 c83b 3365 09bb
000001c0: 710d a1bc e93d b03b 1a16 c53a 00a5 30bd
000001d0: b3a7 3abd aebf be3b fbde a7bc 027d 483a
000001e0: 4cc7 5c39 9b23 09bd 0341 ab3b f8b6 37bd
000001f0: c74d 73bd 70e8 81b9 532c 20bd ac4c cfbc
00000200: e6e4 60bc 9084 e1bc 704b 6bb8 7df3 35bb
00000210: fdcc aabc ec31 90bc ef13 0cbc 1134 a7bb
00000220: 4216 49bd a817 14bd 884b 85bd e872 2ebb
00000230: 4064 7337 e299 fcbc 3698 4cbd f5ed 03bd
00000240: 5bf2 01bd f4e1 4dbd 8e8d c63b 1061 413a
00000250: 7974 c0bc 0c3f ad3b b417 95bb 3105 53bc
00000260: 79f6 5f3b b4c6 f2bb 65be 98bc 9bbf 89bd
00000270: ba26 a4bb 6287 74ba b7fb 0ebb 12cd 88bd
00000280: f7da debc 0eb6 1fbd 6740 5f3b bbd1 04bd
00000290: a786 5abc 40a0 873a 8d2a bcbc 8b4c ac3b
000002a0: d8d0 84b9 a193 c6bc e552 96bc c260 d4ba
000002b0: 5028 17bb 403e 7b3d b496 2cbd 1310 3dbd
000002c0: 90a4 02bd 9aca 21bd 6a86 3dbd 9f84 01bd
000002d0: 10f1 3dbd 0178 62bd e60d 68bd e6d0 16bd
000002e0: 6418 67bd 7768 1fbd 859f 81bd 52f0 8bbc
000002f0: 001b 4ebb fe80 2abd c2e6 31bd 6619 0cbd
00000300: 31bf 27bc 4d6c 31bd 6ebb 45bc 0e3e d3bc
00000310: f726 8dbc ffef 1abb 0d80 3b3b 4643 10bd
00000320: f73b 32bd 643b d6bc 79a7 5cbd a4f4 66bd
00000330: fc9c 1dbd 510f edbc f3cf 4dbd 2d66 02bb
00000340: 0780 11bc f147 9bbc 8a25 bb39 f242 cbbc
00000350: b805 82ba 29ca 33bc 8c7a 1c3b 64da e339
00000360: 40f3 a53b 71d1 81bc 9691 70bd c7d8 6fbd
00000370: d331 553b e00d de39 e01d 2f39 f323 8dbc
00000380: 6b8e b5bc 559b 90ba af64 c33a 6e37 4ab9
00000390: b527 9cbb f753 b7bc a10a 28bd 1293 4bbd
000003a0: 2ee4 9b3a 45b6 ac3b a6d1 0fbd 1aae 7fbb
000003b0: 4076 48bc 2435 a1ba be28 fdba 09f2 5f3b
000003c0: 9718 873b 66d4 213b 1b05 66bb 294f d1bc
000003d0: b6d8 aabb ed3b 4a3d 22fa 8e3b eece 28bd
000003e0: 36f2 983b cd51 33bd d99c a9bb f510 a03b
000003f0: 2986 60bd 5c16 75ba 6b31 e4bc fea8 5cbd

input_encoder.0.bias f4 [64]
-0.041382656 -0.041693877 0.030504217 0.035087895 0.018780274 -0.048627988 -0.056120317 -0.05623137
0.03763928 0.016131457 -0.052013736 -0.059445884 0.007313478 -0.03875745 -0.058849107 0.031311333
-0.06631546 -0.060895577 0.033896998 -0.035200473 -0.059810083 -0.058968652 -0.043278687 0.022369398
0.012030023 0.020393077 -0.061739158 0.030084642 0.017753163 -0.051345006 -0.0553854 -0.0066784145
0.02810815 0.015160091 -0.053455103 -0.051643264 0.0060008457 -0.04000752 0.032250024 -0.04129372
0.0032534946 0.029008018 0.03426486 -0.045694638 0.021944867 0.014263347 -0.04824265 0.016181247
0.022630163 -0.037926503 0.031538602 0.029387828 0.02357168 0.023280993 -0.056992296 -0.048854467
-0.049979895 0.028903373 0.010124699 -0.04179947 0.021450056 -0.04574046 0.014314071 4.5087654e-05
00000000: dc80 29bd 33c7 2abd fbe3 f93c 53b8 0f3d
00000010: 17d9 993c 242e 47bd 6bde 65bd dd52 66bd
00000020: a52b 1a3d 1e26 843c 5b0c 55bd 877d 73bd
00000030: e6a5 ef3b 22c0 1ebd c30b 71bd 5040 003d
00000040: 66d0 87bd a46d 79bd 94d7 0a3d 5f2e 10bd
00000050: 6bfb 74bd 1d89 71bd fe44 31bd 0740 b73c
00000060: 9319 453c 620f a73c 33e2 7cbd 1174 f63c
00000070: 156f 913c 244f 52bd cddb 62bd 9ad6 dabb
00000080: 1043 e63c 0862 783c bdf3 5abd e387 53bd
00000090: bea2 c43b edde 23bd 9a18 043d 9b23 29bd
000000a0: 9538 553b 39a2 ed3c 4f59 0c3d 4d2a 3bbd
000000b0: b9c5 b33c d0b0 693c 169a 45bd 898e 843c
000000c0: e462 b93c d258 1bbd 9f2e 013d bebe f03c
000000d0: 6519 c13c c8b7 be3c c170 69bd 9f1b 48bd
000000e0: b8b7 4cbd c4c6 ec3c 11e2 253c ec35 2bbd
000000f0: 07b8 af3c 595a 3bbd 9185 6a3c 801c 3d38

latent_encoder.weight f4 [16, 64]
-0.053139523 0.08202935 0.19663261 -0.32162195 0.16587539 -0.05870055 0.056716505 0.035245072
-0.17415969 -0.14237262 -0.009008503 0.0005522668 -0.051976733 0.0068108677 -0.06240945 0.051683925
0.003650028 0.11829285 0.31722578 0.07900456 0.09431516 0.11772997 -0.012207634 0.02080725
-0.24913052 -0.39941943 0.0075257663 -0.049178727 0.008871958 0.10960723 -0.013822308 0.17140506
0.25762686 -0.16462548 -0.057921447 -0.056108944 -0.13333362 0.119996384 0.24029832 0.009056173
-0.3877913 -0.13683344 -0.06984804 -0.13710822 -0.213026 -0.3703412 0.078372516 -0.32760188
-0.20560768 -0.23201773 -0.17436337 0.15138786 0.20181003 -0.21094505 -0.0032031108 0.15347555
-0.086160816 0.02290377 -0.14446887 0.09188115 0.011589691 0.0047069783 -0.22703521 0.24811336
0.17533694 -0.08373688 0.12640609 -0.2465993 0.074800864 -0.14031 0.0032002279 0.11883565
0.27555704 0.1600411 0.16972134 0.0014281404 -0.20871899 -0.0010362193 0.11655109 0.15471794
0.00027999422 0.06376464 0.18327957 0.1580781 0.00023112824 -0.01183166 0.047883943 0.49250433
-0.2725924 0.08759736 0.014086 0.3468243 0.22431894 0.07812016 0.21004495 0.0011887783
0.18252729 -0.28981012 -0.03453956 0.022725577 -0.3075515 0.02918129 -0.012921628 0.0021061064
0.3478002 0.09822843 0.13135262 -0.020805797 0.26716813 0.25744548 -0.020941593 -0.37554553
-0.1117143 0.061889064 0.15134612 0.18104242 0.38967797 0.21424314 -0.0017475407 0.21263093
0.20206545 -0.11382193 0.2442314 0.05210328 0.34550992 -0.00011255394 -0.30672967 -0.06092117
0.18735199 0.069538616 -0.056310333 -0.05774168 -0.10262103 0.020860195 0.070189886 0.026971096
0.263322 0.25053263 -0.037325718 0.0010636385 -0.1242674 -0.00023741846 0.094071135 0.04472896
-0.0045264266 0.045247808 -0.0014546624 -0.041998204 0.10189172 0.07846378 0.012528783 0.26539382
-0.10210248 0.28268456 -0.00780307 0.41443947 0.05559172 0.111622594 -0.026909791 -0.04036504
0.040524542 -0.089430675 0.09318385 -0.04844992 -0.20334704 -0.0570421 -0.11416961 0.008969423
0.35515162 0.07852522 0.06494356 -0.04348744 0.25342193 0.33454013 0.0769428 -0.16304113
0.078449704 0.03393332 0.20038545 0.05879554 0.14733078 0.22106698 0.0034791278 0.28140202
0.119293086 -0.027926164 0.1324823 0.10177094 0.09818526 0.0010277699 -0.14733854 -0.1633754
0.15824145 0.12683576 0.034856506 -0.111827634 0.121221274 0.016165074 0.022474725 0.08364462
-0.2670485 -0.09229487 -0.022758787 -0.0002592369 0.049462125 -0.0019249835 -0.017130315 0.033034448
0.00074710604 0.115583345 -0.03452308 -0.2024556 -0.019909004 -0.036055155 0.023140093 -0.3082647
-0.083503336 -0.14543281 0.025334679 -0.28600115 -0.06727824 -0.043930873 -0.044333167 -0.1878737
-0.11684261 -0.05755764 -0.060317248 -0.044429526 0.07018006 0.020678062 -0.024661364 -0.0038115196
-0.2232317 -0.16480337 -0.14149489 -0.09192926 -0.070300184 -0.09540516 -0.038415655 0.086390436
-0.21336037 -0.17810917 -0.3208773 -0.15571852 -0.29800582 0.05738035 0.002736712 -0.0660173
-0.086678095 -0.049407735 -0.06866151 -0.037349936 -0.041503083 0.0027892382 -0.13096397 -0.109592855
00000000: d4a8 59bd 01ff a73d 0f5a 493e a2ab a4be
00000010: 3ddb 293e fd6f 70bd 914f 683d 235d 103d
00000020: eb56 32be 21ca 11be 6698 13bc ffc5 103a
00000030: 8ee5 54bd b32d df3b 0da1 7fbd 86b2 533d
00000040: 4f35 6f3b 8643 f23d 6b6b a23e 25cd a13d
00000050: 4e28 c13d 691c f13d 8702 48bc f773 aa3c
00000060: 121c 7fbe b480 ccbe b49a f63b a26f 49bd
00000070: b05b 113c c179 e03d f676 62bc cf84 2f3e
00000080: abe7 833e 9593 28be 0a3f 6dbd 7ed2 65bd
00000090: 9c88 08be aac0 f53d c310 763e 5860 143c
000000a0: 958c c6be 111e 0cbe 7d0c 8fbd 1966 0cbe
000000b0: 7d23 5abe 5d9d bdbe c581 a03d 6fbb a7be
000000c0: d28a 52be 0e96 6dbe 508c 32be 6b05 1b3e
000000d0: 4aa7 4e3e fb01 58be 48eb 51bb b228 1d3e
000000e0: 1575 b0bd b0a0 bb3c a6ef 13be 2f2c bc3d
000000f0: b0e2 3d3c ff3c 9a3b eb7b 68be 6e11 7e3e
00000100: 878b 333e 3e7e abbd 9970 013e 8784 7cbe
00000110: 3231 993d 6dad 0fbe eaba 513b 1b60 f33d
00000120: d015 8d3e d0e1 233e 6ecb 2d3e 7130 bb3a
00000130: 6eba 55be c0d1 87ba 56b2 ee3d 616e 1e3e
00000140: 30cc 9239 0997 823d a4ad 3b3e 3adf 213e
00000150: 045b 7239 94d9 41bc f421 443d 8729 fc3e
00000160: 3b91 8bbe 3f66 b33d f7c8 663c f492 b13e
00000170: ddb3 653e 76fd 9f3d 0616 573e c8d0 9b3a
00000180: 6fe8 3a3e fe61 94be 5b79 0dbd fd2a ba3c
00000190: 6477 9dbe 9a0d ef3c 3cb5 53bc 9a06 0a3b
000001a0: de12 b23e fd2b c93d 4d81 063e eb70 aabc
000001b0: 43ca 883e e5cf 833e b48d abbc 8147 c0be
000001c0: 78ca e4bd 637f 7d3d 7afa 1a3e 2f63 393e
000001d0: df83 c73e 8e62 5b3e bc0d e5ba ecbb 593e
000001e0: 3fea 4e3e 791b e9bd cc17 7a3e 406a 553d
000001f0: ade6 b03e f00a ecb8 ac0b 9dbe 7a88 79bd
00000200: 33d9 3f3e 436a 8e3d aaa5 66bd 8a82 6cbd
00000210: f92a d2bd 00e3 aa3c b7bf 8f3d 7df2 dc3c
00000220: 24d2 863e d045 803e dae2 18bd c969 8b3a
00000230: e87f febd 88f3 78b9 5ea8 c03d b735 373d
00000240: 6b52 94bb c455 393d 5faa beba 4f06 2cbd
00000250: 9bac d03d 9eb1 a03d 8645 4d3c b3e1 873e
00000260: 1b1b d1bd 08bc 903e e5b0 ffbb 6931 d43e
00000270: 25b4 633d 639a e43d ec71 dcbc d055 25bd
00000280: 10fd 253d 6e27 b7bd 2dd7 be3d 6c73 46bd
00000290: 353a 50be faa4 69bd c2d1 e9bd 7df4 123c
000002a0: 6fd6 b53e d5d1 a03d 2101 853d e31f 32bd
000002b0: 85c0 813e d848 ab3e 3094 9d3d 41f4 26be
000002c0: 3daa a03d aafd 0a3d d831 4d3e 98d3 703d
000002d0: e1dd 163e 625f 623e 1402 643b ed13 903e
000002e0: ef4f f43d 69c5 e4bc 71a9 073e 486d d03d
000002f0: 5b15 c93d 3cb6 863a eadf 16be e14b 27be
00000300: 0c0a 223e 3ce1 013e b2c5 0e3d e305 e5bd
00000310: dc42 f83d 9e6c 843c ea1c b83c df4d ab3d
00000320: 95ba 88be 1805 bdbd a370 babc 30ea 87b9
00000330: cc98 4a3d ba4f fcba e054 8cbc 214f 073d
00000340: 70d9 433a f6b6 ec3d 1368 0dbd 8550 4fbe
00000350: 3518 a3bc 92ae 13bd 4b90 bd3c dfd4 9dbe
00000360: cc03 abbd 57ec 14be ac8a cf3c be6e 92be
00000370: 2dc9 89bd dcf0 33bd b296 35bd f761 40be
00000380: 2e4b efbd 8fc1 6bbd 380f 77bd bcfb 35bd
00000390: 90ba 8f3d 0a65 a93c a106 cabc b0ca 79bb
000003a0: da96 64be 37c2 28be 09e4 10be 6845 bcbd
000003b0: 8bf9 8fbd c863 c3bd bc59 1dbd 78ed b03d
000003c0: 247b 5abe 4062 36be 084a a4be ad74 1fbe
000003d0: 3894 98be a807 6b3d 695a 333b 1434 87bd
000003e0: 4984 b1bd c45f 4abd 689e 8cbd 3ffc 18bd
000003f0: 23ff 29bd a7cb 363b 6b1b 06be 3872 e0bd

latent_encoder.bias f4 [16]
0.1289556 -0.077492245 -0.062442686 0.10585912 -0.09492566 0.044755932 0.07348596 -0.07943887
-0.013430038 -0.110343635 -0.11761532 -0.028275175 -0.07060307 0.08320566 0.0061749998 -0.014843203
00000000: f00c 043e 41b4 9ebd e7c3 7fbd abcc d83d
00000010: 6268 c2bd ff51 373d cf7f 963d d9b0 a2bd
00000020: a909 5cbc d8fb e1bd 4de0 f0bd 57a1 e7bc
00000030: 5898 90bd bb67 aa3d a757 ca3b e830 73bc

flow.flow.mean f4 [7, 16]
0.0 0.0 0.0 0.0 0.0 0.0 0.0 0.0
0.0 0.0 0.0 0.0 0.0 0.0 0.0 0.0
0.0 0.0 0.0 0.0 0.0 0.0 0.0 0.0
0.0 0.0 0.0 0.0 0.0 0.0 0.0 0.0
0.0 0.0 0.0 0.0 0.0 0.0 0.0 0.0
0.0 0.0 0.0 0.0 0.0 0.0 0.0 0.0
0.0 0.0 0.0 0.0 0.0 0.0 0.0 0.0
0.0 0.0 0.0 0.0 0.0 0.0 0.0 0.0
0.0 0.0 0.0 0.0 0.0 0.0 0.0 0.0
0.0 0.0 0.0 0.0 0.0 0.0 0.0 0.0
0.0 0.0 0.0 0.0 0.0 0.0 0.0 0.0
0.0 0.0 0.0 0.0 0.0 0.0 0.0 0.0
0.0 0.0 0.0 0.0 0.0 0.0 0.0 0.0
0.0 0.0 0.0 0.0 0.0 0.0 0.0 0.0
00000000: 0000 0000 0000 0000 0000 0000 0000 0000
00000010: 0000 0000 0000 0000 0000 0000 0000 0000
00000020: 0000 0000 0000 0000 0000 0000 0000 0000
00000030: 0000 0000 0000 0000 0000 0000 0000 0000
00000040: 0000 0000 0000 0000 0000 0000 0000 0000
00000050: 0000 0000 0000 0000 0000 0000 0000 0000
00000060: 0000 0000 0000 0000 0000 0000 0000 0000
00000070: 0000 0000 0000 0000 0000 0000 0000 0000
00000080: 0000 0000 0000 0000 0000 0000 0000 0000
00000090: 0000 0000 0000 0000 0000 0000 0000 0000
000000a0: 0000 0000 0000 0000 0000 0000 0000 0000
000000b0: 0000 0000 0000 0000 0000 0000 0000 0000
000000c0: 0000 0000 0000 0000 0000 0000 0000 0000
000000d0: 0000 0000 0000 0000 0000 0000 0000 0000
000000e0: 0000 0000 0000 0000 0000 0000 0000 0000
000000f0: 0000 0000 0000 0000 0000 0000 0000 0000
00000100: 0000 0000 0000 0000 0000 0000 0000 0000
00000110: 0000 0000 0000 0000 0000 0000 0000 0000
00000120: 0000 0000 0000 0000 0000 0000 0000 0000
00000130: 0000 0000 0000 0000 0000 0000 0000 0000
00000140: 0000 0000 0000 0000 0000 0000 0000 0000
00000150: 0000 0000 0000 0000 0000 0000 0000 0000
00000160: 0000 0000 0000 0000 0000 0000 0000 0000
00000170: 0000 0000 0000 0000 0000 0000 0000 0000
00000180: 0000 0000 0000 0000 0000 0000 0000 0000
00000190: 0000 0000 0000 0000 0000 0000 0000 0000
000001a0: 0000 0000 0000 0000 0000 0000 0000 0000
000001b0: 0000 0000 0000 0000 0000 0000 0000 0000

flow.flow.cov f4 [7, 16, 16]
1.0 0.0 0.0 0.0 0.0 0.0 0.0 0.0
0.0 0.0 0.0 0.0 0.0 0.0 0.0 0.0
0.0 1.0 0.0 0.0 0.0 0.0 0.0 0.0
0.0 0.0 0.0 0.0 0.0 0.0 0.0 0.0
0.0 0.0 1.0 0.0 0.0 0.0 0.0 0.0
0.0 0.0 0.0 0.0 0.0 0.0 0.0 0.0
0.0 0.0 0.0 1.0 0.0 0.0 0.0 0.0
0.0 0.0 0.0 0.0 0.0 0.0 0.0 0.0
0.0 0.0 0.0 0.0 1.0 0.0 0.0 0.0
0.0 0.0 0.0 0.0 0.0 0.0 0.0 0.0
0.0 0.0 0.0 0.0 0.0 1.0 0.0 0.0
0.0 0.0 0.0 0.0 0.0 0.0 0.0 0.0
0.0 0.0 0.0 0.0 0.0 0.0 1.0 0.0
0.0 0.0 0.0 0.0 0.0 0.0 0.0 0.0
0.0 0.0 0.0 0.0 0.0 0.0 0.0 1.0
0.0 0.0 0.0 0.0 0.0 0.0 0.0 0.0
0.0 0.0 0.0 0.0 0.0 0.0 0.0 0.0
1.0 0.0 0.0 0.0 0.0 0.0 0.0 0.0
0.0 0.0 0.0 0.0 0.0 0.0 0.0 0.0
0.0 1.0 0.0 0.0 0.0 0.0 0.0 0.0
0.0 0.0 0.0 0.0 0.0 0.0 0.0 0.0
0.0 0.0 1.0 0.0 0.0 0.0 0.0 0.0
0.0 0.0 0.0 0.0 0.0 0.0 0.0 0.0
0.0 0.0 0.0 1.0 0.0 0.0 0.0 0.0
0.0 0.0 0.0 0.0 0.0 0.0 0.0 0.0
0.0 0.0 0.0 0.0 1.0 0.0 0.0 0.0
0.0 0.0 0.0 0.0 0.0 0.0 0.0 0.0
0.0 0.0 0.0 0.0 0.0 1.0 0.0 0.0
0.0 0.0 0.0 0.0 0.0 0.0 0.0 0.0
0.0 0.0 0.0 0.0 0.0 0.0 1.0 0.0
0.0 0.0 0.0 0.0 0.0 0.0 0.0 0.0
0.0 0.0 0.0 0.0 0.0 0.0 0.0 1.0
00000000: 0000 803f 0000 0000 0000 0000 0000 0000
00000010: 0000 0000 0000 0000 0000 0000 0000 0000
00000020: 0000 0000 0000 0000 0000 0000 0000 0000
00000030: 0000 0000 0000 0000 0000 0000 0000 0000
00000040: 0000 0000 0000 803f 0000 0000 0000 0000
00000050: 0000 0000 0000 0000 0000 0000 0000 0000
00000060: 0000 0000 0000 0000 0000 0000 0000 0000
00000070: 0000 0000 0000 0000 0000 0000 0000 0000
00000080: 0000 0000 0000 0000 0000 803f 0000 0000
00000090: 0000 0000 0000 0000 0000 0000 0000 0000
000000a0: 0000 0000 0000 0000 0000 0000 0000 0000
000000b0: 0000 0000 0000 0000 0000 0000 0000 0000
000000c0: 0000 0000 0000 0000 0000 0000 0000 803f
000000d0: 0000 0000 0000 0000 0000 0000 0000 0000
000000e0: 0000 0000 0000 0000 0000 0000 0000 0000
000000f0: 0000 0000 0000 0000 0000 0000 0000 0000
00000100: 0000 0000 0000 0000 0000 0000 0000 0000
00000110: 0000 803f 0000 0000 0000 0000 0000 0000
00000120: 0000 0000 0000 0000 0000 0000 0000 0000
00000130: 0000 0000 0000 0000 0000 0000 0000 0000
00000140: 0000 0000 0000 0000 0000 0000 0000 0000
00000150: 0000 0000 0000 803f 0000 0000 0000 0000
00000160: 0000 0000 0000 0000 0000 0000 0000 0000
00000170: 0000 0000 0000 0000 0000 0000 0000 0000
00000180: 0000 0000 0000 0000 0000 0000 0000 0000
00000190: 0000 0000 0000 0000 0000 803f 0000 0000
000001a0: 0000 0000 0000 0000 0000 0000 0000 0000
000001b0: 0000 0000 0000 0000 0000 0000 0000 0000
000001c0: 0000 0000 0000 0000 0000 0000 0000 0000
000001d0: 0000 0000 0000 0000 0000 0000 0000 803f
000001e0: 0000 0000 0000 0000 0000 0000 0000 0000
000001f0: 0000 0000 0000 0000 0000 0000 0000 0000
00000200: 0000 0000 0000 0000 0000 0000 0000 0000
00000210: 0000 0000 0000 0000 0000 0000 0000 0000
00000220: 0000 803f 0000 0000 0000 0000 0000 0000
00000230: 0000 0000 0000 0000 0000 0000 0000 0000
00000240: 0000 0000 0000 0000 0000 0000 0000 0000
00000250: 0000 0000 0000 0000 0000 0000 0000 0000
00000260: 0000 0000 0000 803f 0000 0000 0000 0000
00000270: 0000 0000 0000 0000 0000 0000 0000 0000
00000280: 0000 0000 0000 0000 0000 0000 0000 0000
00000290: 0000 0000 0000 0000 0000 0000 0000 0000
000002a0: 0000 0000 0000 0000 0000 803f 0000 0000
000002b0: 0000 0000 0000 0000 0000 0000 0000 0000
000002c0: 0000 0000 0000 0000 0000 0000 0000 0000
000002d0: 0000 0000 0000 0000 0000 0000 0000 0000
000002e0: 0000 0000 0000 0000 0000 0000 0000 803f
000002f0: 0000 0000 0000 0000 0000 0000 0000 0000
00000300: 0000 0000 0000 0000 0000 0000 0000 0000
00000310: 0000 0000 0000 0000 0000 0000 0000 0000
00000320: 0000 0000 0000 0000 0000 0000 0000 0000
00000330: 0000 803f 0000 0000 0000 0000 0000 0000
00000340: 0000 0000 0000 0000 0000 0000 0000 0000
00000350: 0000 0000 0000 0000 0000 0000 0000 0000
00000360: 0000 0000 0000 0000 0000 0000 0000 0000
00000370: 0000 0000 0000 803f 0000 0000 0000 0000
00000380: 0000 0000 0000 0000 0000 0000 0000 0000
00000390: 0000 0000 0000 0000 0000 0000 0000 0000
000003a0: 0000 0000 0000 0000 0000 0000 0000 0000
000003b0: 0000 0000 0000 0000 0000 803f 0000 0000
000003c0: 0000 0000 0000 0000 0000 0000 0000 0000
000003d0: 0000 0000 0000 0000 0000 0000 0000 0000
000003e0: 0000 0000 0000 0000 0000 0000 0000 0000
000003f0: 0000 0000 0000 0000 0000 0000 0000 803f

flow.flow.transforms.0.x0 f4 [7, 16]
-0.029515691 -0.3340633 0.027748793 0.01895265 0.09532333 0.03632854 -0.3096896 0.14203495
0.31652945 0.19725578 0.032122143 0.0026726401 0.119722426 -0.2176642 -0.4670726 0.3622366
-0.12371935 0.21820235 0.15318538 -0.055475436 0.30114496 -0.070087045 -0.17142773 0.1522893
0.18613805 0.3609127 0.020112002 0.16187403 -0.08270107 0.20259893 0.13442536 -0.16883473
0.13777433 0.22679089 0.23150045 -0.06634247 -0.010875622 -0.18431626 0.38585812 0.22112085
-0.2996185 -0.14780098 0.18972966 -0.25554118 -0.14555065 0.11597972 0.20666222 -0.12630364
0.3063505 0.27416664 0.12049489 -0.13211423 -0.324835 -0.28608453 -0.17322151 -0.3318221
-0.21477567 -0.3013705 0.07556378 0.34462714 0.29660606 -0.18768702 -0.23660266 -0.15102808
-0.07193969 0.15779318 0.075514115 -0.09025594 0.29221815 -0.14769417 -0.21035358 0.046620596
-0.023000449 0.17570268 0.0024643503 -0.08826042 -0.1400278 -0.01828457 0.061809037 -0.2294115
0.27394235 -0.06414994 -0.2866892 -0.15082361 -0.06799228 0.24466492 0.30454838 0.041925136
0.22787094 -0.2960949 -0.037408687 0.24802801 0.27088436 -0.1931717 -0.01837268 0.22609892
-0.2494752 0.3030196 0.37626037 -0.24512711 0.32688785 -0.3111244 -0.23638767 0.19061387
-0.0904391 0.25548095 0.044155646 0.06650835 0.0033670824 0.24959491 -0.41279757 -0.014532182
00000000: e4ca f1bc 580a abbe 7051 e33c 9642 9b3c
00000010: e138 c33d 3ccd 143d a38f 9ebe 9c71 113e
00000020: 2610 a23e 6bfd 493e 8292 033d 7627 2f3b
00000030: 0831 f53d 5de3 5ebe 2424 efbe 1377 b93e
00000040: 9260 fdbd 7070 5f3e a1dc 1c3e 363a 63bd
00000050: ac2f 9a3e cc89 8fbd c08a 2fbe baf1 1b3e
00000060: f99a 3e3e 8dc9 b83e edc1 a43c 4ec2 253e
00000070: 2e5f a9bd 1876 4f3e cda6 093e 03e3 2cbe
00000080: b714 0d3e df3b 683e 740e 6d3e 90de 87bd
00000090: aa2f 32bc 67bd 3cbe 328f c53e 816d 623e
000000a0: 9967 99be 2459 17be 7e48 423e 4bd6 82be
000000b0: 3b0b 15be c786 ed3d 439f 533e be55 01be
000000c0: f9d9 9c3e 925f 8c3e 06c6 f63d f448 07be
000000d0: c650 a6be ac79 92be fb60 31be 96e4 a9be
000000e0: 27ee 5bbe 3c4d 9abe 2fc1 9a3d f872 b03e
000000f0: c0dc 973e 0731 40be f847 72be 1ba7 1abe
00000100: 1e55 93bd 8994 213e 25a7 9a3d 1bd8 b8bd
00000110: 9e9d 953e 243d 17be ee66 57be 3df5 3e3d
00000120: 706b bcbc 67eb 333e f080 213b e1c1 b4bd
00000130: 7363 0fbe 86c9 95bc 792b 7d3d d9ea 6abe
00000140: 2c42 8c3e 0b61 83bd edc8 92be 8171 1abe
00000150: 893f 8bbd 7189 7a3e c4ed 9b3e b1b9 2b3d
00000160: 0057 693e c099 97be da39 19bd 0efb 7d3e
00000170: 5bb1 8a3e cdce 45be 4d82 96bc 7a86 673e
00000180: 6d76 7fbe 6325 9b3e 33a5 c03e 9a02 7bbe
00000190: d85d a73e b34b 9fbe 9c0f 72be 4830 433e
000001a0: 2338 b9bd 66ce 823e 8ddc 343d 8835 883d
000001b0: 45aa 5c3b cf95 7f3e 345a d3be 6418 6ebc

flow.flow.transforms.0.alpha_prime f4 [7]
-0.15366352 0.18884435 -0.09696715 -0.20415576 -0.13254917 0.06633681 0.168418
00000000: f859 1dbe 6a60 413e b796 c6bd 350e 51be
00000010: f8ba 07be 98db 873d c575 2c3e

flow.flow.transforms.0.beta_prime f4 [7]
-0.03477224 0.035760615 0.07614253 -0.17221716 0.049252156 0.26098794 -0.18257773
00000000: 566d 0ebd b979 123d 9df0 9b3d b259 30be
00000010: a1bc 493d 36a0 853e a8f5 3abe

flow.flow.transforms.1.x0 f4 [7, 16]
-0.03473894 -0.25689304 -0.20274493 -0.005168339 0.11765424 0.12965585 -0.26124683 0.05968179
0.2689729 0.19859372 -0.033620052 0.035910256 0.023113426 -0.14410934 -0.43602145 0.39304498
0.26686677 0.09300365 -0.042586744 0.06486597 -0.27650538 0.09324458 0.35890314 -0.22968958
-0.030375024 -0.3910914 -0.14989735 0.16684093 0.07243144 -0.0010979287 0.14320056 0.035488877
0.010284461 0.2479237 0.20020254 -0.13552286 -0.3960468 -0.053297818 0.38778836 0.39401525
-0.22434746 -0.2700414 0.03310817 -0.021272004 0.029825117 0.1401484 -0.009796332 -0.1036779
0.030644123 0.24491139 0.17962389 -0.10196271 0.2341581 -0.17548497 0.14744295 -0.467704
-0.04262358 -0.04657944 -0.2527344 0.23833185 0.02593974 -0.16296834 0.18149845 -0.2611284
-0.18969446 -0.16930492 0.11339269 -0.07811269 0.24755909 -0.15991959 -0.069847405 0.04843319
-0.032629844 0.26258424 -0.02080524 -0.11657165 0.15767813 0.003859114 -0.057894707 0.084959574
-0.14407039 0.12062789 0.23107712 0.15037572 -0.012108187 -0.11770209 -0.10914032 -0.17823443
-0.088539444 0.20137179 -0.09462312 -0.11284046 -0.41802055 0.17872848 0.22839007 -0.31200743
0.029382052 -0.20230849 -0.1258633 0.07238651 -0.012849243 -0.09762562 0.017351696 0.08188966
-0.033908278 -0.045435894 -0.008458804 -0.20168793 -0.03084984 0.12183991 0.15018085 -0.082257
00000000: 6b4a 0ebd 7c87 83be 5e9c 4fbe 2b5b a9bb
00000010: b5f4 f03d 81c4 043e 25c2 85be e574 743d
00000020: d1b6 893e 275c 4b3e 2eb5 09bd a216 133d
00000030: 5e58 bd3c 6691 13be 343e dfbe 313d c93e
00000040: c3a2 883e b378 be3d 706f 2ebd 73d8 843d
00000050: 1d92 8dbe 04f7 be3d 27c2 b73e bf33 6bbe
00000060: 0bd5 f8bc 223d c8be b17e 19be 59d8 2a3e
00000070: ef56 943d 60e8 8fba 2ba3 123e c95c 113d
00000080: 2880 283c b6df 7d3e e501 4d3e 81c6 0abe
00000090: a5c6 cabe d04e 5abd 328c c63e 5ebc c93e
000000a0: 57bb 65be de42 8abe 6f9c 073d a042 aebc
000000b0: ce53 f43c 1083 0f3e cb80 20bc 1455 d4bd
000000c0: 6209 fb3c 0dca 7a3e 53ef 373e d3d1 d0bd
000000d0: 24c7 6f3e 55b2 33be 49fb 163e e676 efbe
000000e0: 1096 2ebd 15ca 3ebd 6766 81be 440d 743e
000000f0: 947f d43c 2ce1 26be bbda 393e 9fb2 85be
00000100: 443f 42be 455e 2dbe 6d3a e83d 8cf9 9fbd
00000110: 2180 7d3e f6c1 23be 280c 8fbd e161 463d
00000120: dfa6 05bd 7171 863e c06f aabc 1ebd eebd
00000130: 6076 213e 30e9 7c3b 0023 6dbd 49ff ad3d
00000140: 3087 13be c10b f73d 7b9f 6c3e 18fc 193e
00000150: 6b61 46bc cb0d f1bd f684 dfbd 1683 36be
00000160: 2b54 b5bd 6834 4e3e c4c9 c1bd e618 e7bd
00000170: ca06 d6be 9904 373e 16df 693e 70bf 9fbe
00000180: a1b2 f03c f529 4fbe 4fe2 00be 613f 943d
00000190: a285 52bc f1ef c7bd 2525 8e3c c4b5 a73d
000001a0: 68e3 0abd fd1a 3abd cc96 0abc 4887 4ebe
000001b0: ceb8 fcbc 3487 f93d 02c9 193e 5c76 a8bd

flow.flow.transforms.1.alpha_prime f4 [7]
-0.035395972 -0.22772071 -0.115066744 -0.22040801 -0.26009956 0.25494316 -0.12293736
00000000: 5efb 10bd 9e2f 69be 1da8 ebbd a3b2 61be
00000010: c52b 85be e987 823e 95c6 fbbd

flow.flow.transforms.1.beta_prime f4 [7]
0.17226267 0.2504913 0.22854884 0.12223411 0.08655752 -0.28905118 0.2082619
00000000: a065 303e 6540 803e b508 6a3e e155 fa3d
00000010: 1245 b13d 84fe 93be 9c42 553e

flow.flow.transforms.2.x0 f4 [7, 16]
0.034507375 -0.17626406 -0.26991895 -0.03006573 0.024483621 0.15530585 -0.23571672 -0.03912758
0.28276506 0.1979737 -0.0356698 0.100936644 0.049726695 -0.13215591 -0.4449506 0.07117102
0.2945146 0.106461816 -0.044259105 0.012082782 -0.28350243 0.10924869 0.35950726 -0.234152
-0.055239793 -0.37570652 -0.16522072 0.04673515 0.06825159 0.008403814 0.14717978 0.012880551
-0.23582765 -0.1859866 -0.10024828 0.02849988 0.32758498 -0.17038012 -0.31704193 -0.054177582
0.20858853 0.019496977 0.109211676 0.21805117 -0.049604945 -0.12975796 0.1604259 0.003836535
-0.15867342 0.10075646 0.24057952 -0.2035226 -0.20188417 0.006999856 -0.21295516 -0.16937587
0.024096156 0.0336389 0.052761383 0.24093601 0.04380509 -0.18428876 -0.10089062 -0.31746823
-0.05143235 0.25937364 -0.39577773 -0.40516633 0.4102441 -0.3936864 -0.3367408 0.11322634
0.22672974 -0.3538119 -0.28357962 0.25939736 0.37558195 -0.009099834 -0.30897018 -0.41058207
0.38723016 0.036568556 0.09176655 -0.1675334 0.014796832 0.23552416 0.283273 0.13087216
0.1348524 -0.09078793 -0.21974708 0.22372535 0.13606691 -0.1854562 -0.3337163 0.26133558
-0.27421233 -0.26424804 0.28891364 -0.30454102 -0.25869215 -0.113438025 -0.3182815 0.20369557
-0.2642854 0.3233593 0.33328474 0.29385096 0.24491744 0.2907557 0.16335711 -0.20154186
00000000: 9b57 0d3d 917e 34be d132 8abe 684c f6bc
00000010: e091 c83c 7f08 1f3e b95f 71be 3e44 20bd
00000020: 95c6 903e 9eb9 4a3e 7f1a 12bd dfb7 ce3d
00000030: 38ae 4b3d e153 07be 91d0 e3be 1dc2 913d
00000040: 9eca 963e a708 da3d 0949 35bd dcf6 453c
00000050: 3b27 91be c7bd df3d 5611 b83e 8bc5 6fbe
00000060: 1f43 62bd 9b5c c0be 9f2f 29be 5b6d 3f3d
00000070: 7dc7 8b3d 27b0 093c 4cb6 163e f208 533c
00000080: ce7c 71be 4573 3ebe f84e cdbd 9578 e93c
00000090: 38b9 a73e 2078 2ebe 5253 a2be 50e9 5dbd
000000a0: 3b98 553e 20b8 9f3c 5faa df3d ce48 5f3e
000000b0: 8e2e 4bbd 45df 04be b046 243e 606e 7b3b
000000c0: 497b 22be 6759 ce3d 7a5a 763e 3a68 50be
000000d0: b9ba 4ebe 0c5f e53b eb10 5abe de70 2dbe
000000e0: 4d65 c53c f1c8 093d 521c 583d eeb7 763e
000000f0: f76c 333d 31b6 3cbe be9f cebd 328b a2be
00000100: baaa 52bd 9fcc 843e 61a3 cabe f671 cfbe
00000110: 840b d23e 4491 c9be 4a69 acbe 36e3 e73d
00000120: d72b 683e d526 b5be 5931 91be bbcf 843e
00000130: 474c c03e 7817 15bc 5731 9ebe d037 d2be
00000140: 0843 c63e e9c8 153d 1af0 bb3d e08d 2bbe
00000150: 696e 723c 3f2d 713e 2909 913e 5a03 063e
00000160: bf16 0a3e 06ef b9bd 6105 61be 4218 653e
00000170: 2055 0b3e 3be8 3dbe dddc aabe c7cd 853e
00000180: 8f65 8cbe 854b 87be 7dec 933e cdec 9bbe
00000190: 4c73 84be 3252 e8bd cbf5 a2be 9295 503e
000001a0: 6a50 87be 5a8f a53e 4ca4 aa3e a273 963e
000001b0: a3cb 7a3e eedd 943e 1647 273e fd60 4ebe

flow.flow.transforms.2.alpha_prime f4 [7]
0.08497825 -0.18074676 -0.11017558 -0.20886338 0.0930338 -0.2123428 0.016505167
00000000: 1409 ae3d ae15 39be bca3 e1bd 48e0 55be
00000010: 8188 be3d 6470 59be d835 873c

flow.flow.transforms.2.beta_prime f4 [7]
0.21924847 0.33092692 -0.24594276 -0.08590183 0.1141589 0.028576296 -0.021053378
00000000: ac82 603e 416f a93e 6bd8 7bbe 4ced afbd
00000010: 24cc e93d d618 ea3c 2278 acbc

flow.flow.transforms.3.x0 f4 [7, 16]
0.026202295 -0.3228514 -0.2091746 -0.0037168325 0.12951595 0.13708459 -0.24649806 0.080257304
-0.003738924 0.1413569 0.03940376 -0.01349932 0.039659858 -0.1297931 -0.44712642 0.3756416
-0.11635691 -0.20116955 0.05587107 -0.2122781 0.23899807 -0.22967102 -0.31097195 -0.06418414
0.22760549 0.2744499 -0.10494318 -0.02371838 -0.37084565 0.15961134 -0.24402413 0.17338361
-0.10965667 -0.4564641 -0.14847068 -0.13638775 0.29703897 -0.07586822 -0.2501982 -0.21073346
0.09148064 0.0032559354 0.013428257 0.18047373 -0.13578063 -0.15518624 -0.08972493 -0.18024111
-0.22729717 0.2558087 0.11270321 -0.25653926 -0.03934331 0.0106505435 -0.037026647 -0.37544933
0.20897272 -0.05741331 0.018493395 0.1771278 -0.02554076 0.054689962 0.20881619 -0.3390714
-0.05168648 -0.17301518 -0.024293762 0.004581092 0.2575734 -0.18036701 -0.24741864 0.022612175
-0.082957886 0.17129192 0.14204577 -0.09859381 0.015091442 -0.2019174 -0.09217219 -0.22938544
-0.16413559 0.10847353 0.2421442 0.17396869 0.1564506 0.05010966 -0.16186081 -0.26089475
-0.20770985 0.24757077 0.05886151 -0.17837092 -0.50422466 0.30494684 0.23008099 -0.08245382
0.03410583 -0.21287556 0.019457495 0.1056624 -0.096467435 0.08187845 0.016100867 0.09916662
-0.12279747 -0.055577375 0.15673558 -0.16862185 -0.04486983 0.11948597 0.119128235 -0.05581763
00000000: 32a6 d63c c74c a5be de31 56be 1a96 73bb
00000010: d49f 043e e75f 0c3e fd69 7cbe f15d a43d
00000020: bc08 75bb ddbf 103e d665 213d 402c 5dbc
00000030: 6072 223d 7be8 04be c1ed e4be 1954 c03e
00000040: 884c eebd 64ff 4dbe 10d9 643d 6e5f 59be
00000050: e9bb 743e e12e 6bbe b737 9fbe f972 83bd
00000060: 6a11 693e b384 8c3e 73ec d6bd 0c4d c2bc
00000070: 7bdf bdbe 2871 233e 76e1 79be 798b 313e
00000080: ad93 e0bd aab5 e9be b308 18be 3ba9 0bbe
00000090: 7e15 983e cc60 9bbd fa19 80be 83ca 57be
000000a0: 345a bb3d 8861 553b 3102 5c3c 1bce 383e
000000b0: 140a 0bbe 24e9 1ebe b4c1 b7bd 2091 38be
000000c0: 97c0 68be 5cf9 823e f1d0 e63d 1d59 83be
000000d0: 7326 21bd 9e7f 2e3c 41a9 17bd e53a c0be
000000e0: f2fc 553e 382a 6bbd 767f 973c fd60 353e
000000f0: db3a d1bc 9502 603d e9d3 553e c49a adbe
00000100: 34b5 53bd e42a 31be b603 c7bc fc1c 963b
00000110: a9e0 833e 21b2 38be 505b 7dbe 2b3d b93c
00000120: d3e5 a9bd 2667 2f3e 7274 113e 8deb c9bd
00000130: 1842 773c 6fc3 4ebe c6c4 bcbd 04e4 6abe
00000140: 2913 28be 5f27 de3d a6f4 773e d924 323e
00000150: 9634 203e c93f 4d3d d7be 25be ff93 85be
00000160: e4b1 54be 3183 7d3e c418 713d dea6 36be
00000170: de14 01bf fe21 9c3e 5a9a 6b3e 8cdd a8bd
00000180: 8eb2 0b3d 0dfc 59be 5365 9f3c 8765 d83d
00000190: b890 c5bd e4af a73d f7e5 833c de17 cb3d
000001a0: 3d7d fbbd 1aa5 63bd 4b7f 203e 35ab 2cbe
000001b0: 6dc9 37bd 0fb5 f43d 81f9 f33d 07a1 64bd

flow.flow.transforms.3.alpha_prime f4 [7]
-0.2209027 0.15430418 0.17684713 -0.15759507 0.12221996 -0.016087685 -0.30234304
00000000: 5134 62be ea01 1e3e 6a17 353e 9a60 21be
00000010: 754e fa3d 52ca 83bc b5cc 9abe

flow.flow.transforms.3.beta_prime f4 [7]
-0.055553235 -0.13928248 -0.06765104 0.017774787 0.29539394 -0.12361927 -0.05325609
00000000: ca8b 63bd 11a0 0ebe a18c 8abd 6e9c 913c
00000010: e03d 973e 1a2c fdbd 0f23 5abd

flow.flow.transforms.4.x0 f4 [7, 16]
0.031230234 -0.24023251 0.032083143 0.021814603 -0.118431136 0.17633465 -0.10124786 0.03390338
0.28433257 0.14882407 -0.12147802 -0.017865146 0.03944259 -0.20670284 -0.12889294 0.40640643
-0.118346274 0.19166307 0.067331806 0.2656123 -0.39000478 0.31212333 0.42473406 -0.3773557
0.034660228 0.10449424 -0.26352024 0.26886934 0.38471317 -0.24287236 -0.091614224 0.28004447
0.20863493 0.21533287 0.17744316 -0.19579266 0.023519259 -0.17181598 0.2770115 0.3337701
-0.33620587 -0.29288825 0.046864346 -0.23101532 0.18711837 -0.12549405 0.08899233 -0.15935938
-0.24175504 0.1402297 0.1266572 -0.038572554 0.07333586 -0.1888756 0.060789675 -0.5056018
-0.07893128 0.12966673 -0.27149218 0.27690268 0.05533643 0.05762057 -0.060853668 -0.28910846
0.4062419 -0.0024613184 -0.20333505 0.17232879 -0.4030035 -0.08877031 0.3492817 -0.22253455
-0.14137314 -0.2660863 -0.0730719 -0.20349811 0.08451427 0.1280334 -0.14074664 0.1955292
-0.15803632 0.16268702 0.25751138 0.057993513 0.14400083 -0.1843714 -0.15266822 -0.24939542
-0.022922995 0.20603995 0.01558258 -0.16130324 -0.26111385 0.23023361 0.31779876 -0.016565345
-0.06146018 -0.17370136 -0.12605087 0.079541646 -0.044351246 -0.02977659 0.0010468 0.07873053
-0.12347091 -0.035478845 0.03568727 -0.12299721 0.108927846 0.10578223 0.13393356 -0.059883956
00000000: 8cd6 ff3c 83ff 75be 9d69 033d 8ab4 b23c
00000010: 068c f2bd 1291 343e 0a5b cfbd 45de 0a3d
00000020: 0a94 913e 5665 183e 78c9 f8bd ed59 92bc
00000030: 8e8e 213d e9a9 53be 83fc 03be 8114 d03e
00000040: 885f f2bd 5343 443e 42e5 893d 56fe 873e
00000050: b5ae c7be a1ce 9f3e be76 d93e c434 c1be
00000060: e2f7 0d3d 1301 d63d 20ec 86be 3ea9 893e
00000070: 20f9 c43e 88b3 78be 3da0 bbbd fd61 8f3e
00000080: 65a4 553e 3880 5c3e a9b3 353e df7d 48be
00000090: 76ab c03c 87f0 2fbe 74d4 8d3e eae3 aa3e
000000a0: 2d23 acbe 73f5 95be d4f4 3f3d 488f 6cbe
000000b0: f59b 3f3e 8381 00be 9c41 b63d 1b2f 23be
000000c0: a28e 77be 6098 0f3e 6db2 013e 41fe 1dbd
000000d0: 1d31 963d 9b68 41be 98fe 783d 1f6f 01bf
000000e0: b9a6 a1bd 5bc7 043e 0601 8bbe 30c6 8d3e
000000f0: 74a8 623d 8c03 6c3d b241 79bd 0606 94be
00000100: f0fe cf3e 124e 21bb 1037 50be f576 303e
00000110: 7a56 cebe 35cd b5bd 0dd5 b23e 19e0 63be
00000120: 1fc4 10be 773c 88be b8a6 95bd cf61 50be
00000130: d115 ad3d 301b 033e e31f 10be ce38 483e
00000140: 46d4 21be 6d97 263e 88d8 833e 9b8a 6d3d
00000150: f474 133e dbcb 3cbe 0f55 1cbe 8361 7fbe
00000160: 01c9 bbbc 23fc 523e 144e 7f3c ad2c 25be
00000170: b7b0 85be 5cc2 6b3e 85b6 a23e 0cb4 87bc
00000180: abbd 7bbd c5de 31be 7b13 01be bbe6 a23d
00000190: a7a9 35bd 09ee f3bc c834 893a 793d a13d
000001a0: 51de fcbd 4452 11bd d12c 123d f6e5 fbbd
000001b0: 9015 df3d 5ba4 d83d e125 093e e148 75bd

flow.flow.transforms.4.alpha_prime f4 [7]
-0.075213894 -0.12474053 -0.24831635 -0.027429478 0.09588193 0.068804994 -0.1760643
00000000: be09 9abd f777 ffbd a446 7ebe c9b3 e0bc
00000010: bf5d c43d a2e9 8c3d 334a 34be

flow.flow.transforms.4.beta_prime f4 [7]
0.058409944 -0.06942671 0.06334258 0.2274585 -0.13427328 -0.043976754 0.13605815
00000000: 443f 6f3d 972f 8ebd c1b9 813d e2ea 683e
00000010: ef7e 09be f820 34bd d452 0b3e

flow.flow.transforms.5.x0 f4 [7, 16]
-0.046877705 -0.23984474 0.001037321 -0.016173957 0.095892936 0.15292068 -0.23408866 0.061276224
0.13325217 0.16905513 -0.029936805 0.034326997 0.051012967 -0.17519511 -0.39680228 0.33635247
0.083114855 0.17394412 -0.034752797 0.06401477 -0.29360977 -0.05870181 0.31885117 -0.22886622
-0.03355168 -0.43737683 -0.15977828 0.17847319 0.1256072 -0.07422926 0.035881285 0.0055090096
-0.08089128 -0.34848085 -0.05565394 0.19482857 0.19875282 -0.0700858 -0.15650001 -0.57806253
0.012301847 0.027695406 -0.2034067 0.16204813 0.06666073 -0.16933079 0.0033244512 0.035794236
-0.06488942 0.26702332 0.18312322 -0.19120966 0.112893015 -0.22325489 0.28903508 -0.3285764
-0.32398483 0.21356204 0.22449312 0.19191681 0.10264645 -0.107303455 -0.21534868 -0.15960276
0.5450087 -0.052017383 -0.272094 -0.073030144 0.13182962 -0.00978363 -0.15918477 -0.05510932
-0.29275632 0.016615188 0.34047726 -0.19119416 0.078832485 0.17900817 0.22311838 0.03778505
0.21347795 -0.010704745 -0.06273799 0.035988376 -0.28800467 0.1963005 0.20817971 -0.07260312
0.106976494 -0.24601416 -0.13031913 0.14749071 0.13474217 -0.08011623 -0.2641481 0.32286218
0.016463613 -0.15244861 -0.10018754 0.08338117 0.022799723 -0.02310763 0.009844688 0.10966802
-0.09155308 -0.032784577 -0.011352305 -0.16925746 0.022370964 0.10737738 0.118325576 -0.08593321
00000000: d602 40bd dc99 75be b8f6 873a 3f7f 84bc
00000010: 8463 c43d 3d97 1c3e f0b4 6fbe c7fc 7a3d
00000020: 4273 083e ca1c 2d3e 083e f5bc 779a 0c3d
00000030: f9f2 503d 5966 33be ab29 cbbe 6436 ac3e
00000040: 1f38 aa3d 681e 323e f358 0ebd 2d1a 833d
00000050: 0554 96be 4f71 70bd 7640 a33e e85b 6abe
00000060: 7d6d 09bd dbef dfbe eb9c 23be adc1 363e
00000070: 2d9f 003e 8305 98bd 41f8 123d ec84 b43b
00000080: 54aa a5bd 156c b2be 63f5 63bd 2481 473e
00000090: dc85 4b3e 2589 8fbd 8a41 20be e8fb 13bf
000000a0: b08d 493c 7ae1 e23c d949 50be f2ef 253e
000000b0: 6c85 883d 0d65 2dbe 09df 593b fa9c 123d
000000c0: bfe4 84bd 48b7 883e a784 3b3e 77cc 43be
000000d0: 7434 e73d ee9c 64be 68fc 933e 2a3b a8be
000000e0: 57e1 a5be 02b0 5a3e 86e1 653e d785 443e
000000f0: 4d38 d23d eac1 dbbd 5d84 5cbe e86e 23be
00000100: b185 0b3f 2e10 55bd e84f 8bbe d490 95bd
00000110: 58fe 063e 854b 20bc 5501 23be 4fba 61bd
00000120: 28e4 95be 931c 883c 0953 ae3e 67c8 43be
00000130: ed72 a13d eb4d 373e 2579 643e 7fc4 1a3d
00000140: f799 5a3e f462 2fbc c67c 80bd 8c68 133d
00000150: 5975 93be 0003 493e 102d 553e f2b0 94bd
00000160: 7e16 db3d 23eb 7bbe 6172 05be ce07 173e
00000170: daf9 093e fa13 a4bd 6b3e 87be 314e a53e
00000180: b3de 863c 7d1b 1cbe 202f cdbd bfc3 aa3d
00000190: 7cc6 ba3c 364c bdbc 9d4b 213c a099 e03d
000001a0: 2e80 bbbd 1f49 06bd 05ff 39bc d451 2dbe
000001b0: 5043 b73c ace8 db3d ae54 f23d c0fd afbd

flow.flow.transforms.5.alpha_prime f4 [7]
-0.20594822 -0.22622341 0.18905938 0.040355135 -0.10284198 -0.0851755 -0.24349956
00000000: 17e4 52be 1ca7 67be c898 413e 6d4b 253d
00000010: d19e d2bd 7e70 aebd f357 79be

flow.flow.transforms.5.beta_prime f4 [7]
-0.0015675682 0.12418712 -0.26410967 0.08153031 -0.117047705 0.26048216 0.031054566
00000000: dc76 cdba d155 fe3d 6239 87be 5df9 a63d
00000010: b5b6 efbd eb5d 853e 2566 fe3c

flow.flow.transforms.6.x0 f4 [7, 16]
0.035098895 0.13705264 0.11341705 0.074741594 -0.016739424 0.07180272 0.26271772 -0.202491
-0.19230352 -0.0026387128 0.080888115 -0.021315092 -0.09726754 0.22195609 0.37664825 -0.37459233
0.008622013 0.21932855 0.09306406 -0.22300261 0.18181612 0.2081529 0.40230027 -0.031430956
-0.23947048 -0.43122777 0.29212728 -0.20898026 0.20288996 0.1009012 0.015929047 0.1734771
0.12463899 0.2870878 0.19916655 -0.15342008 -0.36013535 -0.077736646 0.38284355 0.35354245
-0.066835314 -0.2161523 0.053340673 -0.011541742 -0.05497409 -0.028328817 0.060228094 -0.065358825
0.08091699 -0.103235684 0.14159189 0.22718649 0.19975623 -0.19198811 0.20634586 -0.50876904
0.25385323 0.06303545 0.14190021 0.2557517 -0.30649847 -0.1597787 -0.13286798 -0.19298576
-0.06542649 -0.114592016 -0.12291444 -0.1490348 0.20334832 -0.13129935 -0.16707744 0.04607833
-0.028894814 0.15093026 -0.11896384 -0.0876393 -0.29514608 0.03834394 0.06967725 -0.20960182
-0.028618822 0.0013773735 -0.116839744 -0.04307023 -0.2952724 0.2210571 0.23603559 -0.027264133
0.14205594 -0.25249633 -0.12671456 0.03061438 0.11375232 -0.18922251 -0.27571577 0.31277457
-0.31652167 0.27540702 0.3901439 0.13341951 0.077447385 0.12730186 0.021349331 0.24933414
-0.34173363 -0.35243937 -0.2123157 -0.23919336 0.23857956 -0.38259366 0.18151374 0.20967282
00000000: dcc3 0f3d 8757 0c3e 3347 e83d 1f12 993d
00000010: 1e21 89bc 4e0d 933d f082 863e cd59 4fbe
00000020: 37eb 44be 41ee 2cbb aba8 a53d fd9c aebc
00000030: 3434 c7bd 7548 633e 0ad8 c03e 91ca bfbe
00000040: 5843 0d3c aa97 603e 5f98 be3d cc5a 64be
00000050: 012e 3a3e 0926 553e 4dfa cd3e bfbd 00bd
00000060: c037 75be e3c9 dcbe b591 953e ecfe 55be
00000070: 63c2 4f3e 4aa5 ce3d a27d 823c fba3 313e
00000080: ba42 ff3d 2cfd 923e 51f2 4b3e 271a 1dbe
00000090: a963 b8be 6434 9fbd 1204 c43e 8403 b53e
000000a0: f4e0 88bd 0757 5dbe c07b 5a3d 9319 3dbc
000000b0: 832c 61bd d611 e8bc bcb1 763d d9da 85bd
000000c0: cfb7 a53d 3b6d d3bd 77fd 103e 93a3 683e
000000d0: e68c 4c3e 8898 44be 544c 533e b03e 02bf
000000e0: 0df9 813e bb18 813d 4a4e 113e e3f1 823e
000000f0: 5eed 9cbe 079d 23be 8b0e 08be 0f9e 45be
00000100: 53fe 85bd 38af eabd 91ba fbbd 949c 18be
00000110: 8b3a 503e 5673 06be 5916 2bbe a2bc 3c3d
00000120: d1b4 ecbc 768d 1a3e 50a3 f3bd 3c7c b3bd
00000130: 631d 97be 890e 1d3d f2b2 8e3d dca1 56be
00000140: 0572 eabc fc88 b43a ad49 efbd 696a 30bd
00000150: f22d 97be cb5c 623e 50b3 713e 0859 dfbc
00000160: 1d77 113e 3347 81be 76c1 01be 02cb fa3c
00000170: faf6 e83d 8cc3 41be 9e2a 8dbe fd23 a03e
00000180: 210f a2be 2602 8d3e f1c0 c73e 209f 083e
00000190: bc9c 9e3d 6b5b 023e cbe4 ae3c 7351 7f3e
000001a0: b6f7 aebe ef72 b4be 4969 59be 1bef 74be
000001b0: 334e 743e 51e3 c3be bdde 393e 79b4 563e

flow.flow.transforms.6.alpha_prime f4 [7]
0.322672 0.1467463 -0.23752595 -0.21691553 -0.22061624 -0.27721575 -0.051520362
00000000: 4435 a53e a944 163e 013a 73be 1b1f 5ebe
00000010: 39e9 61be 39ef 8dbe 0407 53bd

flow.flow.transforms.6.beta_prime f4 [7]
-0.01825403 0.19789678 0.23560093 0.0847557 -0.017664898 0.1789974 -0.1003156
00000000: 7a89 95bc 74a5 4a3e 5f41 713e 6594 ad3d
00000010: fab5 90bc 184b 373e 4472 cdbd

flow.flow.transforms.7.x0 f4 [7, 16]
-0.18916908 0.24712534 0.20654334 0.02356258 0.19319993 -0.26450866 -0.028614063 0.14993857
-0.12414296 -0.27914146 -0.06958763 -0.11151657 0.19447887 -0.104128025 0.13548176 -0.4748142
0.34310207 0.098170124 -0.053841185 0.085635155 -0.20551832 0.20216662 -0.005763937 -0.28990647
-0.049290255 -0.38835436 0.13379608 -0.023069963 0.23674794 0.026673965 0.20105626 0.03212522
0.13315749 0.2278043 0.18253168 -0.13340086 -0.34562883 -0.06574963 0.3514155 0.28060612
-0.16691339 -0.22951645 0.020188596 0.052877646 -0.100877784 0.11946441 -0.025240332 -0.096070796
-0.10670748 0.20828147 0.18827479 0.16878925 0.18920858 -0.11409868 0.17420489 -0.35044217
0.20838101 -0.05262446 -0.27052212 0.29708207 -0.05127378 0.05938144 0.2544023 -0.039071955
-0.1655096 -0.105327696 0.0630804 0.024824703 0.2676345 -0.15295067 -0.19386958 0.052891262
-0.053481292 0.243464 -0.026958501 -0.070490055 -0.2145454 0.06200113 0.047223162 -0.13882928
0.22447433 0.0017786892 0.013054063 -0.015056811 -0.26414296 0.15577316 0.19629002 -0.04269271
0.09201611 -0.20072097 -0.114246204 0.14442259 0.13298443 -0.12749876 -0.2481846 0.29331243
0.30814832 -0.22790848 0.055116445 -0.115871914 0.26425982 -0.17231512 -0.03390689 -0.38994852
0.1639916 0.26632783 0.20251954 -0.058732744 0.19560905 0.21841472 -0.40178633 0.18156774
00000000: 8ab5 41be 6d0e 7d3e 1980 533e 5006 c13c
00000010: 34d6 453e ae6d 87be 0a68 eabc 7f89 193e
00000020: aa3e febd a1eb 8ebe f683 8ebd cd62 e4bd
00000030: 7825 473e 1341 d5bd bbbb 0a3e d91a f3be
00000040: 13ab af3e 6b0d c93d 9388 5cbd 7c61 af3d
00000050: 6573 52be c404 4f3e 68df bcbb 9f6e 94be
00000060: 94e4 49bd 62d6 c6be d701 093e 38fd bcbc
00000070: 0d6e 723e 5c83 da3c b1e1 4d3e bc95 033d
00000080: 705a 083e 8845 693e 96e9 3a3e 3c9a 08be
00000090: 43f6 b0be bea7 86bd bbec b33e 9bab 8f3e
000000a0: 58eb 2abe 5c06 6bbe 8e62 a53c 3b96 583d
000000b0: 0399 cebd c2a9 f43d d0c4 cebc c4c0 c4bd
000000c0: 7489 dabd bd47 553e 1bcb 403e 17d7 2c3e
000000d0: e5bf 413e 92ac e9bd c462 323e 286d b3be
000000e0: d561 553e bf8c 57bd e081 8abe 241b 983e
000000f0: 7504 52bd f439 733d 0541 823e ea09 20bd
00000100: 597b 29be 0cb6 d7bd 4c30 813d 2d5d cb3c
00000110: 6407 893e 1a9f 1cbe bf85 46be 82a4 583d
00000120: 330f 5bbd a04e 793e 13d8 dcbc 175d 90bd
00000130: cab1 5bbe e6f4 7d3d 136d 413d 4329 0ebe
00000140: 99dc 653e e822 e93a b5e0 553c d8b0 76bc
00000150: bf3d 87be 0083 1f3e 4000 493e 8dde 2ebd
00000160: f172 bc3d cc89 4dbe eaf9 e9bd 84e3 133e
00000170: 122d 083e 098f 02be 1b24 7ebe 0c2d 963e
00000180: 9ec5 9d3e d760 69be c8c1 613d 414e edbd
00000190: 104d 873e 6073 30be f3e1 0abd 55a7 c7be
000001a0: 6aed 273e 1f5c 883e 4861 4f3e bf91 70bd
000001b0: bd4d 483e 1ca8 5f3e f0b6 cdbe e5ec 393e

flow.flow.transforms.7.alpha_prime f4 [7]
0.15777361 -0.27282485 -0.17392263 -0.25610137 -0.2573016 -0.33513653 -0.092872545
00000000: 688f 213e b3af 8bbe c618 32be b81f 83be
00000010: 09bd 83be 0497 abbe f633 bebd

flow.flow.transforms.7.beta_prime f4 [7]
0.0484764 -0.15903711 0.2558425 0.1273332 0.13150679 0.048759107 -0.14486907
00000000: 318f 463d a0da 22be cafd 823e a263 023e
00000010: b7a9 063e a1b7 473d 8f58 14be

flow.flow.transforms.8.x0 f4 [7, 16]
-0.049239747 -0.20032561 -0.11372426 0.0136502795 0.06712516 0.14599027 -0.1675403 0.026841782
0.18791853 0.113207266 -0.024957448 0.0041786376 0.05062927 -0.12737188 -0.3568219 0.33135623
-0.1425972 -0.15004496 0.31334764 0.10394521 0.31782934 0.059652857 0.029207341 0.233665
-0.23841372 0.24197665 -0.04578164 -0.13272828 0.2344648 -0.2270894 0.09245056 0.29133537
-0.06407666 -0.17659898 -0.3276125 -0.056497537 0.29405656 -0.015416792 -0.2664083 -0.37145984
-0.037988767 0.13685021 0.1017447 -0.06934947 0.08872558 -0.13597645 -0.0216701 0.06887796
-0.08283685 -0.10337025 -0.07875598 -0.1317009 -0.045695648 0.10054538 -0.05216321 0.3375846
0.02203191 -0.031019455 -0.059082728 -0.26344678 0.12131377 0.14428815 -0.17091699 0.2541168
-0.3066129 -0.27276793 -0.3813802 -0.2332139 0.27184936 0.17176127 -0.16735594 0.070763916
-0.27285317 0.09193381 -0.35542294 0.14483696 0.027141966 0.0014186569 0.20150484 0.39436874
0.19242954 -0.06934861 -0.09770704 -0.12169033 -0.30759045 0.21584141 0.25403863 -0.051083043
0.13518883 -0.15958494 0.073814504 0.21752818 0.13321063 -0.1180654 -0.2667182 0.09331776
0.33772603 0.28030872 0.22750176 -0.09289563 -0.21513289 0.19837908 0.33623523 0.18582541
0.20044482 0.036921225 0.17776254 0.32501218 -0.021583103 0.14633039 -0.3472064 0.11295552
00000000: 9eaf 49bd 2822 4dbe 44e8 e8bd 6ca5 5f3c
00000010: ea78 893d 797e 153e af8f 2bbe 4ce3 db3c
00000020: b76d 403e 36d9 e73d 9073 ccbc f4ec 883b
00000030: a360 4f3d c66d 02be 5cb1 b6be 86a7 a93e
00000040: 0005 12be 63a5 19be 1a6f a03e 3ae1 d43d
00000050: 87ba a23e 8e56 743d 3c44 ef3c e145 6f3e
00000060: ba22 74be bac8 773e 8785 3bbd ece9 07be
00000070: 8a17 703e 208a 68be b856 bd3d e929 953e
00000080: a03a 83bd 5dd6 34be d3bc a7be f669 67bd
00000090: 958e 963e b696 7cbc ab66 88be fc2f bebe
000000a0: 1c9a 1bbd 7622 0c3e 865f d03d 1807 8ebd
000000b0: c2b5 b53d 693d 0bbe 7e85 b1bc e30f 8d3d
000000c0: 5ea6 a9bd c8b3 d3bd d14a a1bd 9adc 06be
000000d0: 5c2b 3bbd bcea cd3d 17a9 55bd e4d7 ac3e
000000e0: 447c b43c 831c febc bb00 72bd 7fe2 86be
000000f0: 5b73 f83d 46c0 133e dd04 2fbe 991b 823e
00000100: 5efc 9cbe 3da8 8bbe 4444 c3be a0cf 6ebe
00000110: d72f 8b3e 30e2 2f3e 5b5f 2bbe acec 903d
00000120: 69b3 8bbe cb47 bc3d fff9 b5be 2450 143e
00000130: d458 de3c 3af2 b93a 4957 4e3e b3ea c93e
00000140: 400c 453e a506 8ebd a11a c8bd c838 f9bd
00000150: 7f7c 9dbe 8805 5d3e 5a11 823e 743c 51bd
00000160: f16e 0a3e 3c6a 23be 0f2c 973d b5bf 5e3e
00000170: 5e68 083e 46cc f1bd 4a8f 88be 621d bf3d
00000180: 6dea ac3e a084 8f3e 39f6 683e 1040 bebd
00000190: cc4b 5cbe e323 4b3e 0627 ac3e 0449 3e3e
000001a0: 6841 4d3e b63a 173d 6207 363e ff67 a63e
000001b0: 0ccf b0bc a2d7 153e 0ac5 b1be 3955 e73d

flow.flow.transforms.8.alpha_prime f4 [7]
-0.28698236 0.12427009 -0.09643164 0.19793297 -0.036081865 -0.2486256 0.15556201
00000000: 5aef 92be 5181 fe3d f47d c5bd f1ae 4a3e
00000010: 94ca 13bd b697 7ebe a64b 1f3e

flow.flow.transforms.8.beta_prime f4 [7]
0.08629275 0.092371225 -0.24744602 -0.045519453 -0.03130663 0.18171158 -0.086490735
00000000: 41ba b03d 202d bd3d 7d62 7dbe 9b72 3abd
00000010: 613b 00bd 9a12 3a3e 0e22 b1bd
