saved_experiments/classification/GPN/1/model_4.pt (torch, 764793 bytes, 36 tensors)

input_encoder.0.weight f4 [64, 2879]
0	0xbd0a3613	-0.033742975
1	0xbccf9874	-0.02534125
2	0xbd07dbc4	-0.03316857
3	0xbd6692af	-0.056292232
4	0xbd20b5a2	-0.03923572
5	0xbd22798f	-0.03966671
6	0xbd256a6a	-0.040384687
7	0xbd1333da	-0.03593812
8	0xbd636199	-0.055513
9	0xbb399547	-0.0028317736
10	0x3b1e556d	0.0024159804
11	0x3b200d66	0.0024422049
12	0xbb4e5cb5	-0.0031488363
13	0xbca05b38	-0.019574746
14	0x3ae0bc40	0.0017145947
15	0xbc58e67d	-0.013238546
16	0xbd215530	-0.03938788
17	0xbcfd5eea	-0.030929048
18	0xbcfdc3c1	-0.030977132
19	0xbd0154cd	-0.031575013
20	0xbd494be3	-0.049144637
21	0xbd80da97	-0.06291693
22	0xbd605171	-0.05476517
23	0xbd3a9ddb	-0.0455607
24	0xbd899c10	-0.0671922
25	0xbd8f8a33	-0.07008781
26	0xbd221a5e	-0.039575927
27	0xbd225f3c	-0.039641604
28	0x3bdb7c3a	0.0066981586
29	0xbd18e675	-0.037329156
30	0xba2fbf90	-0.0006704265
31	0x3a68578f	0.0008863145
32	0x3b9218e9	0.004458536
33	0xbbaefa94	-0.00533993
34	0xbcdb8d07	-0.026800646
35	0xbad1ef9a	-0.0016016841
36	0x3ae77b57	0.001766066
37	0xba5f0542	-0.00085075584
38	0xbaadb186	-0.0013251759
39	0xbd12b516	-0.03581723
40	0xbd4a4718	-0.049384207
41	0x3a428c1c	0.00074213906
42	0xbcc97a6d	-0.02459451
43	0xbd65e687	-0.05612805
44	0xbd1d0b13	-0.03834064
45	0xbd7efe10	-0.06225401
46	0xbd1a9f43	-0.03774954
47	0xbd36177a	-0.044455983
48	0x3ae05737	0.0017115836
49	0x3b11fcf2	0.0022276011
50	0xbd22a893	-0.039711546
51	0xbd8ce56f	-0.068796985
52	0x3baa4c83	0.005197109
53	0xbd2869c8	-0.041116506
54	0xbd818166	-0.06323509
55	0xbcbb81db	-0.022889068
56	0x3b0c56e2	0.002141409
57	0xbc8d4a16	-0.017247241
58	0x38a3555c	7.788345e-05
59	0xbd1220c3	-0.035675775
60	0xbd4deb04	-0.050272956
61	0xbb4299c2	-0.0029693698
62	0xbd05d41d	-0.03267299
63	0xbd2c1e2f	-0.042020973
64	0xbd00d699	-0.031454656
65	0xb92ff09a	-0.00016778932
66	0xbd6cd112	-0.057816572
67	0xbd4b44c8	-0.04962614
68	0xbbff2c08	-0.0077872314
69	0xbd650383	-0.055911552
70	0xbd1b3a20	-0.03789723
71	0xbd1ebb68	-0.038752943
72	0x38232f80	3.8906466e-05
73	0x3b2ca976	0.0026346124
74	0xbd4358e9	-0.047692213
75	0xbd2b7629	-0.041860733
76	0xbaa3ae26	-0.0012487813
77	0xbd146edb	-0.036238533
78	0xbd2f2d13	-0.042767595
79	0xbd5eccbb	-0.054394465
80	0xbd855f35	-0.065123
81	0xbd2a87eb	-0.041633528
82	0xbc6f010f	-0.014587655
83	0xbd4c1780	-0.0498271
84	0xbb0d1aba	-0.0021530823
85	0xbd5663a3	-0.052341115
86	0x3b62332e	0.0034515369
87	0xbd4ce6cd	-0.050024796
88	0x3a810997	0.0009844777
89	0xb917a3a8	-0.00014461449
90	0xbc26ba9a	-0.010176325
91	0xbd236c18	-0.039898008
92	0xbd8ebf36	-0.06970064
93	0xbd2adfb1	-0.041717235
94	0xba8e1801	-0.0010840894
95	0xbd49e989	-0.049294982
96	0xbcacdf20	-0.021102488
97	0xbc9a56bb	-0.018840184
98	0xbd52750e	-0.051381163
99	0xbcd90427	-0.026491238
100	0xbd0f63ef	-0.035007413
101	0x39d8e11e	0.00041366456
102	0xbd777fcb	-0.060424607
103	0xbbf31378	-0.0074180923
104	0x3cb83a72	0.022488806
105	0xbd3c8712	-0.04602725
106	0xbd243722	-0.04009164
107	0xbce005b4	-0.02734647
108	0x3cb546a5	0.022128413
109	0xbd6be2a1	-0.057589177
110	0xba975b50	-0.0011547599
111	0x39a85b4b	0.00032111476
112	0x3c87b3fe	0.01656532
113	0xbd33a2fa	-0.0438566
114	0xbd0b4300	-0.033999443
115	0xbd892142	-0.066957965
116	0xbd851a19	-0.06499118
117	0xbd5e5858	-0.05428347
118	0xbd1a3613	-0.037649225
119	0x3b98bad5	0.004660944
120	0xbd0e6b11	-0.034770075
121	0x3b5f7bc4	0.003410087
122	0xbcd26ef5	-0.025687674
123	0xbd8d2722	-0.068922296
124	0xbd4fb256	-0.050707184
125	0xbad157aa	-0.001597156
126	0x3ca9a0e7	0.020706607
127	0x3988bcc0	0.0002608057
128	0xbd2eb72d	-0.04265516
129	0x3b199e8a	0.0023440444
130	0x3cbbc2da	0.02292006
131	0x39d79d8d	0.0004112538
132	0xbcdacfc2	-0.026710395
133	0xbc5cf169	-0.013485291
134	0xbd798e9c	-0.06092702
135	0x3affa070	0.001950277
136	0xbd2a23ef	-0.041538175
137	0xbbfe899c	-0.007767869
138	0xbd92fe61	-0.07177425
139	0xba56fdce	-0.0008201272
140	0xbd32d097	-0.043655958
141	0xbd3d737f	-0.046252724
142	0xbc91f7b5	-0.017818311
143	0xbd465a30	-0.048425853
144	0xbb1aac4b	-0.002360123
145	0xbd44b87a	-0.048027493
146	0xbcfe3032	-0.03102884
147	0xbd600cc0	-0.05469966
148	0xbc595a5c	-0.013266172
149	0xbcb7def6	-0.022445183
150	0x3d0553bc	0.03255056
151	0x3ad2f4f5	0.0016094731
152	0x3b091778	0.002091853
153	0xbb25c929	-0.0025296903
154	0xbd24f6a8	-0.040274292
155	0xbd63878a	-0.055549182
156	0x382cd9d8	4.121088e-05
157	0x3b00a1f5	0.0019627784
158	0xbcf3bf01	-0.029754164
159	0xbd434c2c	-0.047680065
160	0xbd73030b	-0.059329074
161	0xbd546f34	-0.051863864
162	0xbae3bf0a	-0.001737566
163	0xbd0402f4	-0.03222938
164	0x3b1778da	0.0023112805
165	0xbcd80be4	-0.026372857
166	0x3b5ba43a	0.0033514635
167	0x3b049124	0.0020228112
168	0xbb336304	-0.002737225
169	0xbd382612	-0.04495818
170	0xbce93f75	-0.028472641
171	0x39c8d20f	0.00038303479
172	0x3a1068b6	0.0005508767
173	0xbd5b1d6b	-0.053494852
174	0xba4bbc20	-0.0007771868
175	0xbd608fa7	-0.054824498
176	0xbc24bfc5	-0.010055487
177	0xbd212b1b	-0.03934775
178	0xbd3494c7	-0.044087198
179	0xbd4af845	-0.049553175
180	0xbd54463e	-0.0518248
181	0xbd04dd72	-0.03243775
182	0xbcb8e19f	-0.022568522
183	0xbd33e453	-0.04391892
184	0xbd9021f4	-0.07037726
185	0xbd30705f	-0.043075915
186	0xbd5d8970	-0.05408615
187	0x3a4f1a48	0.00079003396
188	0xbd1de179	-0.038545106
189	0xbd7b4147	-0.06134155
190	0xbd0e5a85	-0.034754295
191	0xbd3e4654	-0.04645379
192	0xbca5f372	-0.020257685
193	0xbd24f55f	-0.040273067
194	0xbd2f4452	-0.042789765
195	0xbc50c230	-0.01274161
196	0xbbe5d8b8	-0.0070143603
197	0x3b938f81	0.004503191
198	0xbad5418c	-0.0016270145
199	0xbd30ca4b	-0.04316167
200	0xbd3b4262	-0.045717604
201	0xbcfc5050	-0.030800015
202	0xbd24dc38	-0.04024908
203	0xbd7f5024	-0.062332287
204	0xbcffcdec	-0.03122612
205	0xbcfadfac	-0.030624233
206	0xbd13256d	-0.035924364
207	0xbc53f514	-0.012936849
208	0xbc9ed17e	-0.019387003
209	0xbc1d84a6	-0.009614145
210	0xbd033c67	-0.032040026
211	0xbd2f4e2f	-0.04279917
212	0xbac36a5f	-0.001490902
213	0xbceab1da	-0.02864926
214	0x3b877586	0.004133883
215	0xbc9f95a7	-0.01948054
216	0xbcdf6d72	-0.027273867
217	0xbd013024	-0.03154005
218	0xbd72454f	-0.05914813
219	0xbd360182	-0.04443503
220	0xbc98363c	-0.018580548
221	0xbd1e6cc6	-0.038677953
222	0x3b8f6622	0.004376189
223	0xbd67d2d1	-0.056597535
224	0xbd693ea2	-0.056944497
225	0xbc9155cf	-0.017741112
226	0xbc9a124a	-0.018807549
227	0xb91309a4	-0.00014022604
228	0x3d1955fb	0.037435513
229	0xbd0a083c	-0.03369926
230	0xbac6328c	-0.0015121265
231	0xbd0fe323	-0.035128724
232	0x3b503cd2	0.0031774533
233	0xbb3f2d44	-0.0029171268
234	0xbc115d77	-0.008872381
235	0x3ae54d37	0.0017494325
236	0xbd0409b1	-0.032235805
237	0xbc9fbd1a	-0.01949935
238	0xbccea9be	-0.025227424
239	0xbd0c5bee	-0.03426736
240	0xbcedcc82	-0.029028181
241	0x3b0d0abe	0.0021521295
242	0xba8693f2	-0.001026748
243	0xbd54a981	-0.051919464
244	0xbd5f3e59	-0.05450282
245	0xbabe8f26	-0.0014538511
246	0x3cc4c416	0.024019282
247	0xbccd7d72	-0.025084231
248	0xb9b5d443	-0.00034681158
249	0xbd49e47b	-0.04929016
250	0xbd05a7ef	-0.032630857
251	0xbd22c098	-0.039734453
252	0xbd694b14	-0.056956366
253	0xbd041a3f	-0.032251593
254	0xbd4b0b08	-0.049571067
255	0xbcf1860f	-0.02948287

input_encoder.0.bias f4 [64]
0	0xbd632da5	-0.055463452
1	0x3c912051	0.017715605
2	0x3caaf902	0.02087069
3	0x3c44e05b	0.012016381
4	0xbd4e88c4	-0.0504234
5	0xbd65555f	-0.05598962
6	0x3c6157bc	0.013753828
7	0xbd6efd09	-0.058346782
8	0xbadfc933	-0.0017073512
9	0xbd548f44	-0.05189444
10	0xbd51ef3b	-0.05125354
11	0x3b7f1bb6	0.003892643
12	0x3b550ee0	0.0032510087
13	0x3c606cb0	0.013697788
14	0xbccd81d5	-0.025086323
15	0xbb1ec52e	-0.0024226415
16	0xbd54026a	-0.051760115
17	0x3c0fc14b	0.008774112
18	0xbd49d84e	-0.04927855
19	0x3c600508	0.013673075
20	0xbb65d0fd	-0.0035067194
21	0xbc1f7fe3	-0.00973508
22	0x3ba21910	0.0049468353
23	0xbd572bb8	-0.052531928
24	0xbc7cde8a	-0.015433917
25	0xbd53af33	-0.051680755
26	0x3d47ace6	0.048748873
27	0xbd7dc4c1	-0.061955217
28	0xbc2f1525	-0.010686194
29	0xbd5e2e50	-0.054243386
30	0xbd55b338	-0.05217287
31	0xbd1d6668	-0.03842774
32	0x3be7272c	0.00705423
33	0xbd4cc7bd	-0.049995173
34	0x3c9c6c14	0.019094504
35	0x3ccdbd1e	0.025114592
36	0x3c3cde22	0.01152757
37	0xbd84415d	-0.064577796
38	0xbae78062	-0.0017662162
39	0xbd4ba08c	-0.049713656
40	0x3b542609	0.0032371304
41	0xbc4c9104	-0.012485746
42	0x3c60fc24	0.01373199
43	0xbbac274a	-0.005253707
44	0xbca793e0	-0.020456254
45	0xbd72612b	-0.059174698
46	0xbb8fc43f	-0.004387408
47	0xbcbfed5a	-0.023428608
48	0xbd5a8377	-0.05334803
49	0x3b981ae6	0.0046418784
50	0xbb38ea99	-0.0028216003
51	0x3c8102cf	0.01574841
52	0xbd68405e	-0.05670201
53	0xbd506022	-0.05087293
54	0x3c8e1bcd	0.01734724
55	0xbd47ffa3	-0.04882778
56	0xbd53ec07	-0.051738765
57	0x3a99e93c	0.0011742483
58	0x3c3356bc	0.010945972
59	0xbd6b3e4d	-0.05743246
60	0xbcb9811c	-0.022644572
61	0x3ce509c2	0.027958754
62	0xbd28de60	-0.0412277
63	0x3bde8162	0.006790326

latent_encoder.weight f4 [16, 64]
0	0x3d3d8f75	0.04627939
1	0xbea7f83f	-0.32806584
2	0xbde80098	-0.11328238
3	0xbe1a2c29	-0.15055908
4	0x3d03d777	0.032187905
5	0xbcbdfd28	-0.023192003
6	0xbe19ec10	-0.15031457
7	0x3b69cd75	0.003567544
8	0x3f0b34cd	0.5437744
9	0x3c88dd08	0.016706958
10	0xbdae9bac	-0.08525786
11	0xbd92089f	-0.071305506
12	0xbdc35a12	-0.09538664
13	0x3eafb8d5	0.34320703
14	0xbe87f398	-0.26553035
15	0xbdb2c121	-0.08728243
16	0x3b8bff8b	0.0042724065
17	0x3eb9b989	0.36274365
18	0x3dfd8c2f	0.123802535
19	0xbb9d0624	-0.004791992
20	0x3b4c7763	0.003119909
21	0xbe193fa9	-0.1496569
22	0x3c7b475e	0.0153368395
23	0x3e039f76	0.12853798
24	0xbd24c6e6	-0.040228747
25	0x3d574bcd	0.052562524
26	0xbee1ab06	-0.44075793
27	0xbd5804bb	-0.052738886
28	0xbdf69dbe	-0.12041806
29	0xbd8ea9c1	-0.06965972
30	0x3c6e9854	0.014562685
31	0x3af795f6	0.0018889296
32	0x3decb689	0.11558253
33	0xbc6d6ced	-0.014491302
34	0xbdcf0b78	-0.10109609
35	0x3db0e870	0.08638084
36	0x3e8cf8bd	0.27533522
37	0x39de70f6	0.00042427302
38	0xbb253bad	-0.0025212571
39	0x3ae244ee	0.0017262974
40	0x3e9d44ea	0.3071664
41	0x3eb71e03	0.35765085
42	0x3df83cda	0.121209815
43	0xbdc74877	-0.097306184
44	0xbe5144bc	-0.20436376
45	0xbe08beaa	-0.13353983
46	0xbe14a8f9	-0.14517583
47	0x3df67d66	0.120356366
48	0xbd24554f	-0.04012042
49	0x3e800b8c	0.2500881
50	0xbe2619c6	-0.1622077
51	0x3e54fec5	0.20800312
52	0x3c8ab9e0	0.016934335
53	0xbca0d923	-0.019634789
54	0xbec72ea7	-0.3890278
55	0xbc5371e1	-0.012905569
56	0xbbd37192	-0.0064527476
57	0x3ef8ae1b	0.48570332
58	0x3dbf24ec	0.09333214
59	0x3b609fd2	0.0034274948
60	0xbb80af32	-0.003927135
61	0xbdde06e2	-0.108411565
62	0xbd128e47	-0.035780217
63	0xbe41db4f	-0.18931316
64	0xbd765116	-0.060135923
65	0x3d0607ff	0.03272247
66	0xbda18e43	-0.078884624
67	0xbe2df090	-0.16986299
68	0xbced413a	-0.028961767
69	0x3b8e9c42	0.0043521235
70	0x3dfd53a8	0.12369472
71	0x3a7069aa	0.00091710186
72	0xbe814df1	-0.25254777
73	0x3dd5cb36	0.1043915
74	0xbdcde391	-0.100531705
75	0x3e3fd8d3	0.18735056
76	0x3d2dcf3f	0.042433973
77	0xbce59108	-0.028023258
78	0x3ec1ad6b	0.3782762
79	0xbe3e6c17	-0.1859592
80	0x3b33c089	0.0027427992
81	0x3baaa2e6	0.0052074073
82	0xbd50fccf	-0.051022347
83	0xbd946a5c	-0.07246849
84	0x3af8e222	0.0018988291
85	0xbeb1cc44	-0.34726155
86	0xbe946c48	-0.28988862
87	0x3d0c6582	0.034276493
88	0xbc99a768	-0.018756583
89	0xbd91631b	-0.07098981
90	0x3dccce94	0.10000339
91	0xbc02649b	-0.0079585565
92	0xbe431c57	-0.1905378
93	0x3cdab9d5	0.02669994
94	0x3d4e3c68	0.050350577
95	0x39863f81	0.00025605786
96	0xbdb686cd	-0.0891243
97	0xbcc3cc1d	-0.02390104
98	0x3e9d0506	0.30667895
99	0x3d85f05b	0.06539985
100	0xbd9c15a6	-0.076213166
101	0x3a9a4f1e	0.0011772846
102	0xbb53b4c8	-0.00323038
103	0xb9137f8c	-0.00014066527
104	0xbdd07294	-0.10178104
105	0x3c5e1353	0.013554412
106	0x3d4f0222	0.050539143
107	0xbcf75293	-0.030190742
108	0x3eb7f215	0.3592688
109	0xbc3695cf	-0.011144116
110	0x3d63b588	0.055593044
111	0xbe01e8a2	-0.12686399
112	0xbb886f64	-0.0041636694
113	0x3d88cc3a	0.06679578
114	0x3ef18161	0.4716902
115	0x3d24682e	0.040138416
116	0x3d542987	0.051797416
117	0x3aba75ac	0.0014225743
118	0xbd46d8b0	-0.048546493
119	0x3d504c75	0.050854165
120	0xbc6ae7fb	-0.014337535
121	0xbe0f4cd8	-0.13994157
122	0xbe5f37cd	-0.2179863
123	0xbade8a0b	-0.0016978396
124	0xbae2ae2b	-0.0017294338
125	0xbe07c5a7	-0.13258992
126	0xbb37f38f	-0.0028068756
127	0x3eb1b748	0.34710145
128	0x3b6def1d	0.0036305853
129	0x3e13889e	0.14407584
130	0x3c72b35e	0.014813272
131	0xbe085ac9	-0.13315882
132	0x3d4d10a4	0.050064698
133	0xbcd245d9	-0.025668072
134	0x3e402e63	0.18767695
135	0xba8bae7a	-0.0010656856
136	0xbe3009e1	-0.17191269
137	0x3c91cb07	0.017797006
138	0xbdb5d435	-0.08878366
139	0x3e3d953a	0.18513957
140	0x3dcbe2aa	0.09955342
141	0xbd9be681	-0.076123245
142	0x3eff9bc3	0.49923524
143	0xbe1e6985	-0.1546994
144	0xbd207ee9	-0.03918353
145	0xbe467fa8	-0.19384634
146	0x3d4d523f	0.050127264
147	0xbce735e6	-0.028223943
148	0x3aebcd8f	0.0017990338
149	0xbe84fea6	-0.2597553
150	0xbe904bc5	-0.28182808
151	0x3d4cbd53	0.04998524
152	0xbd5b003a	-0.053467013
153	0xbd3695c4	-0.04457642
154	0x3e933a2d	0.28755322
155	0xbc3970be	-0.011318384
156	0xbdf3119f	-0.11868595
157	0xbc2ba062	-0.01047525
158	0x3c5df3d1	0.0135469
159	0x3a7f4eb4	0.00097392057
160	0x3c8f6765	0.017505357
161	0x3d70049f	0.058598157
162	0x3ec3e9e3	0.3826438
163	0x3de23066	0.110443875
164	0xbbb2b727	-0.0054539624
165	0x3b2f5faa	0.00267599
166	0x3a1b9980	0.0005935654
167	0x3a184ff6	0.0005810255
168	0xbd2cb69d	-0.04216634
169	0xbe0b7d2e	-0.13621971
170	0x3cf1c9d2	0.02951518
171	0x3dea69de	0.11445974
172	0x3ec4d8d7	0.38446686
173	0xba67573e	-0.0008824951
174	0x3e0c0297	0.13672863
175	0xbe1e1f53	-0.15441637
176	0x3d2c9617	0.042135324
177	0x3d25093c	0.04029201
178	0x3ed7185b	0.4201077
179	0xbafe017c	-0.0019379104
180	0x3d24c37f	0.040225502
181	0x3d6b8823	0.057502877
182	0x3dfe0125	0.12402562
183	0x3d89bdae	0.06725632
184	0xbb07538a	-0.0020649158
185	0xbe231e2b	-0.15929477
186	0xbe8a2773	-0.26983222
187	0xbb45cc50	-0.0030181594
188	0xbb745f0e	-0.0037288102
189	0xbe1916cb	-0.14950101
190	0x3db9ee41	0.090786465
191	0x3eaf9343	0.3429204
192	0xbd33a10f	-0.04385477
193	0xbdb26ae9	-0.08711798
194	0xbd08bb77	-0.033381905
195	0x3e9f7627	0.3114483
196	0xbce90a81	-0.028447391
197	0x3d787d84	0.060666576
198	0xbd305ea0	-0.04305899
199	0xbb21facd	-0.002471614
200	0xbdd35cf2	-0.10320462
201	0xbd255111	-0.040360514
202	0xbd83895d	-0.06422684
203	0xbd953e60	-0.07287288
204	0xbe12cdd8	-0.14336336
205	0xbe917389	-0.2840846
206	0xbe12cf9e	-0.14337012
207	0x3cf70c40	0.030157208
208	0xbd13b4c7	-0.036061075
209	0xbe80e7b1	-0.25176767
210	0xbd3cebee	-0.046123438
211	0x3e006ad5	0.12540753
212	0x37d1e480	2.5021145e-05
213	0x3d184a2f	0.037180122
214	0x3c8b5310	0.01700738
215	0xbdb5c50e	-0.08875476
216	0xbd028408	-0.031864196
217	0xbd00a976	-0.03141161
218	0xbe4145d6	-0.18874297
219	0xbb96920f	-0.0045950483
220	0x3e7d0f10	0.24712777
221	0xbc854117	-0.016266389
222	0x3c89a138	0.016800508
223	0xba2f5de0	-0.00066897087
224	0xbe6bec95	-0.23039468
225	0x3d087ad2	0.033320256
226	0xbd92cbeb	-0.071678005
227	0xbd05c3d5	-0.032657463
228	0xbe4af97c	-0.19821733
229	0xbabd682b	-0.00144506
230	0x38b742a0	8.73853e-05
231	0xbb75f129	-0.0037527776
232	0xbe26e6a1	-0.16298915
233	0xbea8db70	-0.32979918
234	0xbd20358c	-0.039113566
235	0x3e27c454	0.16383487
236	0xbd9650d1	-0.07339633
237	0x3d3ea18c	0.04654078
238	0x3e7409f8	0.23831928
239	0xbe41b036	-0.18914875
240	0x3d49a4aa	0.0492293
241	0xbe6e466b	-0.2326905
242	0xbe472aef	-0.19449972
243	0xbe691925	-0.22763498
244	0xbc8807ec	-0.01660534
245	0x3cd00d9a	0.02539711
246	0xbdb0692b	-0.08613809
247	0xbd8a2289	-0.06744868
248	0xbbc69cde	-0.0060611805
249	0xbe725853	-0.23666506
250	0x3ce3989b	0.027782729
251	0xbb4a1d6c	-0.003084029
252	0xbafe48ee	-0.0019400397
253	0x3e039f07	0.12853633
254	0x3c38c017	0.011276267
255	0x3e515830	0.20443797

latent_encoder.bias f4 [16]
0	0xbdee3260	-0.11630702
1	0x3d80f0ca	0.06295927
2	0xbc875ad0	-0.016522795
3	0x3da4a4e8	0.08039266
4	0x3d5aedbc	0.053449377
5	0x3d5246ec	0.051337168
6	0xbda525ab	-0.08063825
7	0xbd1cc96e	-0.038278036
8	0xbc12c541	-0.008958162
9	0x3c751320	0.014958173
10	0x3d8224c8	0.06354672
11	0x3bdf9cde	0.00682412
12	0xbc34ef2b	-0.01104335
13	0x3d3ae6db	0.045630317
14	0x3d6f3e56	0.058409058
15	0x3d409e93	0.04702623

flow.flow.mean f4 [7, 16]
0	0x00000000	0.0
1	0x00000000	0.0
2	0x00000000	0.0
3	0x00000000	0.0
4	0x00000000	0.0
5	0x00000000	0.0
6	0x00000000	0.0
7	0x00000000	0.0
8	0x00000000	0.0
9	0x00000000	0.0
10	0x00000000	0.0
11	0x00000000	0.0
12	0x00000000	0.0
13	0x00000000	0.0
14	0x00000000	0.0
15	0x00000000	0.0
16	0x00000000	0.0
17	0x00000000	0.0
18	0x00000000	0.0
19	0x00000000	0.0
20	0x00000000	0.0
21	0x00000000	0.0
22	0x00000000	0.0
23	0x00000000	0.0
24	0x00000000	0.0
25	0x00000000	0.0
26	0x00000000	0.0
27	0x00000000	0.0
28	0x00000000	0.0
29	0x00000000	0.0
30	0x00000000	0.0
31	0x00000000	0.0
32	0x00000000	0.0
33	0x00000000	0.0
34	0x00000000	0.0
35	0x00000000	0.0
36	0x00000000	0.0
37	0x00000000	0.0
38	0x00000000	0.0
39	0x00000000	0.0
40	0x00000000	0.0
41	0x00000000	0.0
42	0x00000000	0.0
43	0x00000000	0.0
44	0x00000000	0.0
45	0x00000000	0.0
46	0x00000000	0.0
47	0x00000000	0.0
48	0x00000000	0.0
49	0x00000000	0.0
50	0x00000000	0.0
51	0x00000000	0.0
52	0x00000000	0.0
53	0x00000000	0.0
54	0x00000000	0.0
55	0x00000000	0.0
56	0x00000000	0.0
57	0x00000000	0.0
58	0x00000000	0.0
59	0x00000000	0.0
60	0x00000000	0.0
61	0x00000000	0.0
62	0x00000000	0.0
63	0x00000000	0.0
64	0x00000000	0.0
65	0x00000000	0.0
66	0x00000000	0.0
67	0x00000000	0.0
68	0x00000000	0.0
69	0x00000000	0.0
70	0x00000000	0.0
71	0x00000000	0.0
72	0x00000000	0.0
73	0x00000000	0.0
74	0x00000000	0.0
75	0x00000000	0.0
76	0x00000000	0.0
77	0x00000000	0.0
78	0x00000000	0.0
79	0x00000000	0.0
80	0x00000000	0.0
81	0x00000000	0.0
82	0x00000000	0.0
83	0x00000000	0.0
84	0x00000000	0.0
85	0x00000000	0.0
86	0x00000000	0.0
87	0x00000000	0.0
88	0x00000000	0.0
89	0x00000000	0.0
90	0x00000000	0.0
91	0x00000000	0.0
92	0x00000000	0.0
93	0x00000000	0.0
94	0x00000000	0.0
95	0x00000000	0.0
96	0x00000000	0.0
97	0x00000000	0.0
98	0x00000000	0.0
99	0x00000000	0.0
100	0x00000000	0.0
101	0x00000000	0.0
102	0x00000000	0.0
103	0x00000000	0.0
104	0x00000000	0.0
105	0x00000000	0.0
106	0x00000000	0.0
107	0x00000000	0.0
108	0x00000000	0.0
109	0x00000000	0.0
110	0x00000000	0.0
111	0x00000000	0.0

flow.flow.cov f4 [7, 16, 16]
0	0x3f800000	1.0
1	0x00000000	0.0
2	0x00000000	0.0
3	0x00000000	0.0
4	0x00000000	0.0
5	0x00000000	0.0
6	0x00000000	0.0
7	0x00000000	0.0
8	0x00000000	0.0
9	0x00000000	0.0
10	0x00000000	0.0
11	0x00000000	0.0
12	0x00000000	0.0
13	0x00000000	0.0
14	0x00000000	0.0
15	0x00000000	0.0
16	0x00000000	0.0
17	0x3f800000	1.0
18	0x00000000	0.0
19	0x00000000	0.0
20	0x00000000	0.0
21	0x00000000	0.0
22	0x00000000	0.0
23	0x00000000	0.0
24	0x00000000	0.0
25	0x00000000	0.0
26	0x00000000	0.0
27	0x00000000	0.0
28	0x00000000	0.0
29	0x00000000	0.0
30	0x00000000	0.0
31	0x00000000	0.0
32	0x00000000	0.0
33	0x00000000	0.0
34	0x3f800000	1.0
35	0x00000000	0.0
36	0x00000000	0.0
37	0x00000000	0.0
38	0x00000000	0.0
39	0x00000000	0.0
40	0x00000000	0.0
41	0x00000000	0.0
42	0x00000000	0.0
43	0x00000000	0.0
44	0x00000000	0.0
45	0x00000000	0.0
46	0x00000000	0.0
47	0x00000000	0.0
48	0x00000000	0.0
49	0x00000000	0.0
50	0x00000000	0.0
51	0x3f800000	1.0
52	0x00000000	0.0
53	0x00000000	0.0
54	0x00000000	0.0
55	0x00000000	0.0
56	0x00000000	0.0
57	0x00000000	0.0
58	0x00000000	0.0
59	0x00000000	0.0
60	0x00000000	0.0
61	0x00000000	0.0
62	0x00000000	0.0
63	0x00000000	0.0
64	0x00000000	0.0
65	0x00000000	0.0
66	0x00000000	0.0
67	0x00000000	0.0
68	0x3f800000	1.0
69	0x00000000	0.0
70	0x00000000	0.0
71	0x00000000	0.0
72	0x00000000	0.0
73	0x00000000	0.0
74	0x00000000	0.0
75	0x00000000	0.0
76	0x00000000	0.0
77	0x00000000	0.0
78	0x00000000	0.0
79	0x00000000	0.0
80	0x00000000	0.0
81	0x00000000	0.0
82	0x00000000	0.0
83	0x00000000	0.0
84	0x00000000	0.0
85	0x3f800000	1.0
86	0x00000000	0.0
87	0x00000000	0.0
88	0x00000000	0.0
89	0x00000000	0.0
90	0x00000000	0.0
91	0x00000000	0.0
92	0x00000000	0.0
93	0x00000000	0.0
94	0x00000000	0.0
95	0x00000000	0.0
96	0x00000000	0.0
97	0x00000000	0.0
98	0x00000000	0.0
99	0x00000000	0.0
100	0x00000000	0.0
101	0x00000000	0.0
102	0x3f800000	1.0
103	0x00000000	0.0
104	0x00000000	0.0
105	0x00000000	0.0
106	0x00000000	0.0
107	0x00000000	0.0
108	0x00000000	0.0
109	0x00000000	0.0
110	0x00000000	0.0
111	0x00000000	0.0
112	0x00000000	0.0
113	0x00000000	0.0
114	0x00000000	0.0
115	0x00000000	0.0
116	0x00000000	0.0
117	0x00000000	0.0
118	0x00000000	0.0
119	0x3f800000	1.0
120	0x00000000	0.0
121	0x00000000	0.0
122	0x00000000	0.0
123	0x00000000	0.0
124	0x00000000	0.0
125	0x00000000	0.0
126	0x00000000	0.0
127	0x00000000	0.0
128	0x00000000	0.0
129	0x00000000	0.0
130	0x00000000	0.0
131	0x00000000	0.0
132	0x00000000	0.0
133	0x00000000	0.0
134	0x00000000	0.0
135	0x00000000	0.0
136	0x3f800000	1.0
137	0x00000000	0.0
138	0x00000000	0.0
139	0x00000000	0.0
140	0x00000000	0.0
141	0x00000000	0.0
142	0x00000000	0.0
143	0x00000000	0.0
144	0x00000000	0.0
145	0x00000000	0.0
146	0x00000000	0.0
147	0x00000000	0.0
148	0x00000000	0.0
149	0x00000000	0.0
150	0x00000000	0.0
151	0x00000000	0.0
152	0x00000000	0.0
153	0x3f800000	1.0
154	0x00000000	0.0
155	0x00000000	0.0
156	0x00000000	0.0
157	0x00000000	0.0
158	0x00000000	0.0
159	0x00000000	0.0
160	0x00000000	0.0
161	0x00000000	0.0
162	0x00000000	0.0
163	0x00000000	0.0
164	0x00000000	0.0
165	0x00000000	0.0
166	0x00000000	0.0
167	0x00000000	0.0
168	0x00000000	0.0
169	0x00000000	0.0
170	0x3f800000	1.0
171	0x00000000	0.0
172	0x00000000	0.0
173	0x00000000	0.0
174	0x00000000	0.0
175	0x00000000	0.0
176	0x00000000	0.0
177	0x00000000	0.0
178	0x00000000	0.0
179	0x00000000	0.0
180	0x00000000	0.0
181	0x00000000	0.0
182	0x00000000	0.0
183	0x00000000	0.0
184	0x00000000	0.0
185	0x00000000	0.0
186	0x00000000	0.0
187	0x3f800000	1.0
188	0x00000000	0.0
189	0x00000000	0.0
190	0x00000000	0.0
191	0x00000000	0.0
192	0x00000000	0.0
193	0x00000000	0.0
194	0x00000000	0.0
195	0x00000000	0.0
196	0x00000000	0.0
197	0x00000000	0.0
198	0x00000000	0.0
199	0x00000000	0.0
200	0x00000000	0.0
201	0x00000000	0.0
202	0x00000000	0.0
203	0x00000000	0.0
204	0x3f800000	1.0
205	0x00000000	0.0
206	0x00000000	0.0
207	0x00000000	0.0
208	0x00000000	0.0
209	0x00000000	0.0
210	0x00000000	0.0
211	0x00000000	0.0
212	0x00000000	0.0
213	0x00000000	0.0
214	0x00000000	0.0
215	0x00000000	0.0
216	0x00000000	0.0
217	0x00000000	0.0
218	0x00000000	0.0
219	0x00000000	0.0
220	0x00000000	0.0
221	0x3f800000	1.0
222	0x00000000	0.0
223	0x00000000	0.0
224	0x00000000	0.0
225	0x00000000	0.0
226	0x00000000	0.0
227	0x00000000	0.0
228	0x00000000	0.0
229	0x00000000	0.0
230	0x00000000	0.0
231	0x00000000	0.0
232	0x00000000	0.0
233	0x00000000	0.0
234	0x00000000	0.0
235	0x00000000	0.0
236	0x00000000	0.0
237	0x00000000	0.0
238	0x3f800000	1.0
239	0x00000000	0.0
240	0x00000000	0.0
241	0x00000000	0.0
242	0x00000000	0.0
243	0x00000000	0.0
244	0x00000000	0.0
245	0x00000000	0.0
246	0x00000000	0.0
247	0x00000000	0.0
248	0x00000000	0.0
249	0x00000000	0.0
250	0x00000000	0.0
251	0x00000000	0.0
252	0x00000000	0.0
253	0x00000000	0.0
254	0x00000000	0.0
255	0x3f800000	1.0

flow.flow.transforms.0.x0 f4 [7, 16]
0	0x3eb18a07	0.3467562
1	0xbe50484b	-0.20340078
2	0xbe953deb	-0.29148802
3	0xbe64be04	-0.2233811
4	0xbe169adf	-0.14707516
5	0xbe314b23	-0.17313819
6	0xbe95b1d6	-0.2923724
7	0x3ece1987	0.4025385
8	0xbd940f04	-0.072294265
9	0xbece2ae3	-0.40267095
10	0x3cbde50e	0.02318051
11	0xbe6de1a1	-0.23230602
12	0x3e6bec50	0.23039365
13	0x3e9b1b60	0.30294323
14	0xbeece2d5	-0.4626681
15	0x3f01e44f	0.50738996
16	0x3dbb102f	0.09133946
17	0x3e0d4faa	0.1379992
18	0xbd9b0e0f	-0.07571041
19	0xbd990a1e	-0.07472633
20	0x3e5c73fb	0.21528618
21	0x3e20df07	0.15710078
22	0x3db8b4ab	0.09018835
23	0xbc9d5414	-0.01920513
24	0x3e8e9200	0.27845764
25	0xbd3c1004	-0.04591371
26	0xbdb651c9	-0.08902318
27	0x3e7bf10e	0.24603674
28	0xbe19e0bb	-0.15027134
29	0x3e65c1ec	0.22437257
30	0xbe598204	-0.21241003
31	0x3ea4af8c	0.32165182
32	0xbad25246	-0.0016046248
33	0xbe7bdcfe	-0.2459602
34	0xbeb421ea	-0.35182124
35	0xbe816253	-0.25270328
36	0xbd0bae4a	-0.034101762
37	0xbe80ea5c	-0.25178802
38	0x3db55cc0	0.08855581
39	0xbd2f0247	-0.04272678
40	0xbe950149	-0.29102543
41	0xbe7c1129	-0.24615921
42	0xbe5818de	-0.21103236
43	0xbe2fd811	-0.17172267
44	0x3e590e59	0.2119688
45	0x3e784d71	0.24248292
46	0x3e9b3a7c	0.30318058
47	0x3f3530fe	0.7077788
48	0x3e3526c4	0.17690569
49	0xbdb45f30	-0.08807218
50	0x3e8aa093	0.27075633
51	0x3dcb4f91	0.099272855
52	0x3dd133ec	0.102149814
53	0xbe69f006	-0.22845468
54	0x3e3d78e8	0.18503153
55	0xbe842450	-0.25808954
56	0xbec5c1a8	-0.3862431
57	0xbe3b5b74	-0.18296605
58	0xbe56d8d2	-0.20981148
59	0xbdf48476	-0.119393274
60	0x3de04bb8	0.10951942
61	0x3ddf058c	0.1088973
62	0xbcc56a20	-0.024098456
63	0xbe3a4a3f	-0.18192385
64	0xbe06d256	-0.13166174
65	0x3d53d686	0.051718257
66	0x3e96df69	0.29467323
67	0xbe8daf67	-0.27672884
68	0xb9d12f38	-0.00039898767
69	0xbda5a364	-0.08087805
70	0xbe16fd8c	-0.14745158
71	0x3e3d9984	0.18515593
72	0x3e6a4617	0.228783
73	0xbec167bc	-0.37774456
74	0xbe121717	-0.1426662
75	0xbe9e9cb9	-0.30978945
76	0x3eba53f1	0.36392167
77	0x3ee25823	0.44207868
78	0x3e47779e	0.19479224
79	0x3dcc43b9	0.099738546
80	0x3e746279	0.2386569
81	0x3d2671cc	0.04063587
82	0xbe7c3ee2	-0.24633363
83	0xbe009663	-0.12557368
84	0x3d859d01	0.06524087
85	0x3e086684	0.13320357
86	0x3dc2da20	0.0951426
87	0x3e7ab87a	0.24484435
88	0xbd3276ac	-0.043570206
89	0x3d6e722a	0.058214344
90	0x3e07a446	0.13246259
91	0x3db1a377	0.086737566
92	0x3e7147bd	0.23562522
93	0x3ce7c6ca	0.028293032
94	0xbe9add58	-0.30246997
95	0x3f1b55db	0.6067788
96	0xbd27713b	-0.04087947
97	0xbdba846b	-0.09107288
98	0xbe175ce7	-0.14781533
99	0xbd1c9b4a	-0.038234033
100	0x3d765834	0.06014271
101	0xbc1751c9	-0.009235808
102	0xbe7960fa	-0.243534
103	0x3d6998f5	0.057030637
104	0x3cddab78	0.027059302
105	0x3e4d734a	0.2006351
106	0x3c21e06d	0.009880167
107	0x3e2cc66e	0.1687257
108	0xbe273fe7	-0.1633297
109	0xbd92f383	-0.071753524
110	0xbdcbf3ef	-0.09958636
111	0x3de83b6f	0.11339461

flow.flow.transforms.0.alpha_prime f4 [7]
0	0xbc896ad5	-0.016774574
1	0xbe586b2f	-0.21134637
2	0x3e259eb4	0.16173822
3	0xbe68c6b3	-0.22732048
4	0x3bf2bb98	0.007407617
5	0xbe370acb	-0.17875211
6	0x3e49743c	0.19673246

flow.flow.transforms.0.beta_prime f4 [7]
0	0x3ddb1d89	0.10698993
1	0x3debfa77	0.11522382
2	0xbd044007	-0.032287624
3	0xbe050abb	-0.12992375
4	0xbe310abd	-0.17289253
5	0xbd08c1d8	-0.03338799
6	0x3d16c675	0.036810357

flow.flow.transforms.1.x0 f4 [7, 16]
0	0xbea7688e	-0.32696956
1	0x3d731abe	0.059351675
2	0xbc36cab2	-0.011156725
3	0x3c1d2505	0.009591346
4	0x3ab354e0	0.0013681911
5	0x3ea05afc	0.31319416
6	0x3dcb62e8	0.09930974
7	0xbe8d2a75	-0.27571455
8	0xbdb504c4	-0.088387996
9	0x3ecc1f11	0.39867452
10	0xbe23bd0e	-0.15990087
11	0x3d7192a2	0.05897773
12	0xbe00bdee	-0.12572452
13	0xbde4c0ee	-0.11169611
14	0x3d646aca	0.055765904
15	0xbceddbbc	-0.029035442
16	0x3dba3665	0.09092406
17	0xbdc5c71c	-0.09657118
18	0xbe5262d5	-0.20545514
19	0xbe1e10c2	-0.1543608
20	0xbd8f9288	-0.070103705
21	0xbdf747e4	-0.12074259
22	0x3e24292e	0.16031334
23	0x3e540990	0.20706773
24	0x3e7bbd63	0.24583964
25	0x3dd587a8	0.10426265
26	0xbe0377d9	-0.12838687
27	0x3eaa4b64	0.33260643
28	0x3aff3248	0.0019469941
29	0x3de26df8	0.11056131
30	0xbdffd85e	-0.12492441
31	0x3e8eddce	0.279036
32	0xbede5f79	-0.43432215
33	0x3dbbdf19	0.09173412
34	0x3e1819a2	0.14853528
35	0xbd80ca7c	-0.06288621
36	0xbe8b5009	-0.272095
37	0xbe339796	-0.17538294
38	0xbe064b58	-0.13114679
39	0xbef17b33	-0.47164306
40	0x3ebdd145	0.37073722
41	0xbd9cd662	-0.07658078
42	0xbe487f96	-0.1957992
43	0x3d108375	0.035281617
44	0xbdd6a58b	-0.104807936
45	0x3e0fa124	0.14026314
46	0xbad6147c	-0.0016333009
47	0xbe778e21	-0.24175312
48	0x3c2b7228	0.010464229
49	0xbe8d83f3	-0.27639732
50	0x3ddff49a	0.10935326
51	0xbe82fc09	-0.25582913
52	0x3e4a8892	0.1977866
53	0x3e26800b	0.16259782
54	0xbddcc3ce	-0.10779534
55	0x3b6fabc2	0.0036570881
56	0x3ec950a0	0.39319324
57	0x3d09e416	0.033664785
58	0xbd9a9c67	-0.07549363
59	0x3e9838a8	0.29730725
60	0xbd001cab	-0.03127734
61	0x3e52a0ce	0.20569155
62	0xbcaa37d6	-0.020778578
63	0x3e8fd428	0.2809155
64	0x3e9113cc	0.28335416
65	0x3ec7e127	0.39038965
66	0x3ebe8378	0.37209678
67	0x3e87ae09	0.26499966
68	0xbe972086	-0.29517
69	0xba4a52e4	-0.000771804
70	0x3e9ae74d	0.30254593
71	0xbe9f49e6	-0.31111068
72	0xbe53fad9	-0.2070116
73	0xbe568c07	-0.20951854
74	0xbe86f352	-0.26357514
75	0xbeac06a8	-0.33598828
76	0xbea01578	-0.3126638
77	0xbeb349f9	-0.35017374
78	0xbe7f84ee	-0.24953052
79	0xbe72a47b	-0.23695557
80	0x3e287c6f	0.16453718
81	0x3da8c72f	0.08241116
82	0xbdcfd4a1	-0.101479776
83	0x3eb304c1	0.34964564
84	0xbdf16d78	-0.11788458
85	0xbdffa9ea	-0.124835804
86	0x3d5bbf01	0.053648952
87	0x3e3f78c0	0.18698406
88	0xbdf89ae4	-0.12138918
89	0xbd87ae01	-0.066249855
90	0xbdc5b065	-0.09652785
91	0x3e06f968	0.13181078
92	0xbdded1f7	-0.10879891
93	0xbde424c4	-0.11139825
94	0x3eebe942	0.460764
95	0xbccd030f	-0.025025873
96	0xbe201c1e	-0.15635726
97	0x3eb4dcab	0.35324606
98	0x3e8997dc	0.26873672
99	0xbe4415fc	-0.19149011
100	0x3e00864b	0.12551229
101	0x3e9a04cd	0.30081788
102	0x3e9cba60	0.30610943
103	0xbe068f50	-0.13140607
104	0x3cacab86	0.021077882
105	0xbeb4e691	-0.35332158
106	0x3dbac66a	0.09119876
107	0xbead1e1a	-0.33812028
108	0x3e909a09	0.2824252
109	0x3d696318	0.05697927
110	0x3dd2df50	0.102965
111	0xbce47614	-0.027888335

flow.flow.transforms.1.alpha_prime f4 [7]
0	0xbd27c858	-0.040962547
1	0xbe932cea	-0.28745204
2	0xbddce8cd	-0.10786591
3	0x3dd1a4e7	0.10236531
4	0xbc9da5e4	-0.019244142
5	0x3d8082d8	0.062749565
6	0xbd74f248	-0.05980137

flow.flow.transforms.1.beta_prime f4 [7]
0	0xbe72b4f5	-0.23701842
1	0x3d427962	0.04747904
2	0x3d6743e5	0.056461234
3	0xbe388445	-0.18019207
4	0xbcb044cc	-0.02151718
5	0xbe14504d	-0.14483757
6	0x3e8dcb59	0.27694204

flow.flow.transforms.2.x0 f4 [7, 16]
0	0x3eafb46d	0.3431734
1	0xbd9dfa48	-0.07713753
2	0xbe282ab4	-0.1642254
3	0xbe516d10	-0.2045176
4	0x3c14c468	0.00908003
5	0xbdc45b83	-0.09587767
6	0xbe3320bc	-0.17492956
7	0x3eac4a6d	0.33650532
8	0xb9c89a70	-0.00038262038
9	0xbed44249	-0.41456822
10	0x3eb42059	0.3518093
11	0xbe135a1f	-0.14389847
12	0x3e80362a	0.25041324
13	0x3e45695c	0.19278473
14	0xbf00fa41	-0.5038186
15	0x3ed068d1	0.4070497
16	0xbead27f9	-0.3381956
17	0x3e2d3353	0.1691411
18	0x3e60f316	0.2196773
19	0x3e14f44f	0.14546321
20	0x3d0f4d98	0.03498611
21	0x3e161eb5	0.14660151
22	0xbe3edf6a	-0.18639913
23	0xbe910eab	-0.28331503
24	0xbe784bc8	-0.24247658
25	0xbe62c48b	-0.22145288
26	0x3db31fea	0.087463215
27	0xbe92fd10	-0.28708696
28	0x3e412a68	0.18863833
29	0x3d808cbc	0.06276843
30	0x3e1aeaa6	0.15128574
31	0xbe01a0b9	-0.12658967
32	0x3e22cb9f	0.15897988
33	0x3e8e1d47	0.27756712
34	0xbc5c2da6	-0.013438618
35	0x3e255412	0.16145352
36	0x3e404c3f	0.18779086
37	0x3cf5e238	0.030015096
38	0x3e36ce7d	0.17852207
39	0x3ea1c16f	0.3159289
40	0xbe27024c	-0.1630947
41	0x3dcfb5bc	0.10142085
42	0x3ec0420b	0.37550387
43	0x3e13c155	0.14429219
44	0x3e1789c9	0.14798655
45	0xbe0f82c6	-0.1401473
46	0x3e4f5f8e	0.20251295
47	0xbe34dd5b	-0.17662565
48	0xbe283f0b	-0.16430299
49	0x3db293f3	0.08719625
50	0xbec33b61	-0.3813124
51	0xbdea0794	-0.11427227
52	0xbdf1fbd0	-0.118156075
53	0xbe528a16	-0.20560488
54	0xbedcfd65	-0.43162075
55	0x3dfd6ba4	0.123740464
56	0x3e2d711c	0.16937679
57	0xbe472ae0	-0.1944995
58	0xbe845443	-0.25845537
59	0xbdacca5e	-0.08437036
60	0xbe1f4aaf	-0.15555833
61	0xbe72adb7	-0.2369908
62	0xbd913a1c	-0.070911616
63	0xbe6b2d4e	-0.22966501
64	0xbe4acb2f	-0.19804071
65	0xbda82d7f	-0.08211803
66	0xbdaf1805	-0.08549503
67	0x3e1c30fa	0.15253058
68	0xbd09ff10	-0.033690512
69	0x3d01e683	0.031713974
70	0xbe380cf3	-0.1797369
71	0xbd675c42	-0.05648447
72	0xbdf73ed6	-0.12072532
73	0x3e8f0695	0.2793471
74	0x3d9b2096	0.07574575
75	0x3d627ee5	0.055296797
76	0xbe349ad8	-0.17637193
77	0xbe0886ee	-0.13332722
78	0x3e1e5f29	0.15465988
79	0x3d1411d5	0.03614982
80	0xbeb4078a	-0.35162002
81	0x3db9c558	0.090708435
82	0x3e85c2da	0.26125222
83	0xbdd05731	-0.101728804
84	0xbe94715e	-0.28992742
85	0xbe633541	-0.22188284
86	0xbd608556	-0.05481466
87	0xbd1ee789	-0.038795028
88	0xbc0e1064	-0.0086709
89	0x3dfe8c86	0.124291465
90	0xbd9dac63	-0.07698896
91	0xbe2a2294	-0.16614753
92	0xbde39be8	-0.11113721
93	0x3d1805e8	0.037115008
94	0x3ed91a1a	0.42402726
95	0xbe9b006f	-0.30273768
96	0xbded9d0f	-0.11602222
97	0xbe41648e	-0.18886015
98	0xbe8d8b5b	-0.27645382
99	0xbe138e1e	-0.14409682
100	0x3e4ab256	0.19794592
101	0x3e641188	0.22272313
102	0x3d7fdc9d	0.062466253
103	0x3eba2b1b	0.36361012
104	0xbe47d596	-0.1951507
105	0xbea9c7f2	-0.3316036
106	0xbe27efb6	-0.16400036
107	0xbdffd37b	-0.124915086
108	0x3e99b2f1	0.30019334
109	0x3ea587d3	0.32330188
110	0x3df0c440	0.11756182
111	0x3e9ef13a	0.31043416

flow.flow.transforms.2.alpha_prime f4 [7]
0	0xbe310f07	-0.17290889
1	0x3e0b3e20	0.13597918
2	0x3d11beb6	0.035582267
3	0xbcea3b9a	-0.028592873
4	0xbdcd50e1	-0.10025192
5	0x3e004263	0.12525325
6	0x3e0e4ab0	0.13895679

flow.flow.transforms.2.beta_prime f4 [7]
0	0x3ea309c9	0.31843403
1	0xbdf63684	-0.12022117
2	0xbdb9f69c	-0.0908024
3	0xbdc1bc08	-0.09459692
4	0x3e323498	0.17402875
5	0xbdb1c9f5	-0.08681098
6	0x3e326e4a	0.17424884

flow.flow.transforms.3.x0 f4 [7, 16]
0	0xbea30791	-0.3184171
1	0x3d779671	0.060446206
2	0x3d8261e6	0.06366329
3	0x3d9be46b	0.07611927
4	0x3e0745ca	0.13210216
5	0x3e8099b9	0.2511728
6	0x3ddb6422	0.10712458
7	0xbe427e2b	-0.18993442
8	0xbc8ecf1a	-0.017432738
9	0x3e46fae1	0.1943164
10	0xbdb9a1dc	-0.09064075
11	0x3c1da8c6	0.009622758
12	0xbced83f9	-0.028993594
13	0xbe1e517e	-0.15460774
14	0x3e76d4f9	0.2410468
15	0xbdd5d403	-0.10440829
16	0x3e1dc092	0.15405491
17	0xbd9fed92	-0.07808985
18	0xbe40ba79	-0.18821134
19	0xbdd1749f	-0.10227322
20	0x3d346c94	0.04404886
21	0x3db69195	0.08914486
22	0x3e19add0	0.1500771
23	0x3e3176c5	0.17330463
24	0x3e9fcdd4	0.31211722
25	0x3dbcac2c	0.09212527
26	0xbe07a055	-0.13244756
27	0x3e99b901	0.3002396
28	0x3dacdde3	0.08440759
29	0x3df5bf6d	0.11999402
30	0xbe335ae1	-0.17515136
31	0x3e1ec8d8	0.15506303
32	0xbd238118	-0.039918035
33	0x3dafa66c	0.08576664
34	0xbe101015	-0.14068635
35	0xbe090429	-0.13380493
36	0x3ecfdb48	0.40596986
37	0x3ea62d42	0.32456404
38	0xbe1a95d0	-0.15096211
39	0x3e18c613	0.1491931
40	0xbeb782eb	-0.3584207
41	0xbe2b8ab1	-0.16752125
42	0x3e97475c	0.2954663
43	0xbdc458f4	-0.09587279
44	0x3e9c23e3	0.3049613
45	0xbe673483	-0.22578625
46	0xbd882f34	-0.06649628
47	0x3ecd36a6	0.40080756
48	0xbe9891e5	-0.2979881
49	0x3e882f1e	0.26598448
50	0x3e8981ac	0.26856744
51	0x3dbf099d	0.093280055
52	0xbe216019	-0.15759315
53	0x3dee7d0a	0.11644943
54	0x3e1c9601	0.15291597
55	0xbd3d1f7d	-0.046172608
56	0xbe4f6e66	-0.20256957
57	0xbe5a7982	-0.21335414
58	0xbcab0677	-0.020877106
59	0xbea23423	-0.31680402
60	0xbd4a9204	-0.049455658
61	0xbe1ffc4f	-0.15623592
62	0x3ebba910	0.36652422
63	0xbe2c68e6	-0.1683689
64	0xbe4bc4c0	-0.19899273
65	0xbd75817b	-0.059937935
66	0xbde3966a	-0.111126736
67	0x3e26a5c2	0.16274169
68	0xbbfa4161	-0.0076371883
69	0xbd5dc5ef	-0.054143842
70	0xbe27857f	-0.16359518
71	0xbc9ce37d	-0.019151444
72	0xbdd5019f	-0.104007
73	0x3e834d52	0.25644928
74	0x3d9e892e	0.07741009
75	0x3d8de29f	0.0692799
76	0xbe354abb	-0.17704289
77	0xbe15986b	-0.14608924
78	0x3e1fe4b5	0.15614589
79	0x3c150c5e	0.009097187
80	0xbb245052	-0.0025072289
81	0x3e755365	0.23957594
82	0x3e8c9004	0.27453625
83	0xbe43ab63	-0.19108348
84	0xbe6cd09c	-0.23126453
85	0xbe31d423	-0.1736608
86	0x3e7ba94f	0.24576305
87	0x3dfac436	0.122444555
88	0x3db5751d	0.08860228
89	0xbd86a04c	-0.06573543
90	0x3c6c765a	0.014432514
91	0x3c47625d	0.012169448
92	0xbe5a2223	-0.21302085
93	0xbe010bb2	-0.12602118
94	0x3f0566d8	0.5211005
95	0xbea332e8	-0.31874776
96	0xbdc4f19d	-0.096163966
97	0x3e8af63a	0.2714098
98	0x3e83a894	0.25714552
99	0xbe304c3a	-0.17216578
100	0x3d25c78f	0.040473517
101	0x3e66f2c8	0.22553551
102	0x3eaff084	0.34363186
103	0x3cfa68b6	0.030567508
104	0xbe1481a8	-0.14502585
105	0xbe9b8056	-0.3037135
106	0x3defa130	0.11700666
107	0xbe9d8442	-0.30764967
108	0x3eddbfc7	0.43310377
109	0x3d21fa36	0.03954526
110	0x3d25906a	0.040420927
111	0x3da538b4	0.08067456

flow.flow.transforms.3.alpha_prime f4 [7]
0	0x3ece9682	0.40349203
1	0x3d987a66	0.07445221
2	0x3e17d31f	0.1482663
3	0xbdd0cca9	-0.10195286
4	0xbe9b9536	-0.30387276
5	0x3d9562a9	0.072942086
6	0xbe5dd129	-0.2166182

flow.flow.transforms.3.beta_prime f4 [7]
0	0xbed10c99	-0.40829924
1	0x3e5798ea	0.21054426
2	0xbe594463	-0.21217494
3	0x3e5e0e1c	0.2168507
4	0x3e4c52fa	0.19953528
5	0xbd95b442	-0.07309772
6	0x3ea26054	0.31714118

flow.flow.transforms.4.x0 f4 [7, 16]
0	0x3e865981	0.2624016
1	0xbd73a838	-0.059486598
2	0x3d18d0a5	0.037308354
3	0xbd723be1	-0.059139136
4	0x3de8ef3a	0.11373754
5	0xbd556fc7	-0.052108552
6	0xbe1e8ed0	-0.15484166
7	0x3ea4226b	0.3205751
8	0xbc10d050	-0.008838728
9	0xbed3dcde	-0.41379446
10	0x3e9c1dcc	0.30491483
11	0xbe3e5ba6	-0.18589649
12	0x3ea3cc33	0.3199173
13	0x3e71e957	0.23624168
14	0xbed91875	-0.42401472
15	0x3e81e9bc	0.25373638
16	0x3e4084e4	0.18800694
17	0xbc9b18ee	-0.018932786
18	0xbda89c72	-0.082329646
19	0xbe15750c	-0.14595431
20	0x3e769964	0.24081951
21	0x3d43f443	0.047840368
22	0x3dcfd72b	0.10148462
23	0x3e4c9dd4	0.19982082
24	0x3e724049	0.23657335
25	0x3de71588	0.11283404
26	0xbe3fcc6e	-0.18730327
27	0x3e96a4ee	0.29422706
28	0x3cf88e26	0.03034122
29	0x3e0a86a1	0.1352792
30	0xbe179cfd	-0.1480598
31	0xbd073907	-0.03301337
32	0xbed214cc	-0.41031492
33	0x3dcc696e	0.099810466
34	0x3dbac6da	0.09119959
35	0xbd8bb0e8	-0.068208516
36	0xbe1ef250	-0.15522122
37	0xbd75ada2	-0.059980042
38	0xbde55576	-0.11197941
39	0xbecdd25b	-0.4019955
40	0x3ea0a82f	0.31378314
41	0xbd687922	-0.056756146
42	0xbe0caeb2	-0.13738516
43	0xbd3d2f18	-0.04618749
44	0xbda8899f	-0.08229374
45	0x3daba2c8	0.083806574
46	0xbd5ab6d7	-0.053397026
47	0xbe437017	-0.19085728
48	0xbe6bce15	-0.23027833
49	0x3e83eb04	0.2576524
50	0x3e5e2c9a	0.21696702
51	0x3dfc6dbc	0.12325618
52	0xbe2fd021	-0.17169239
53	0x3e15b93e	0.14621446
54	0x3e4d935b	0.20075743
55	0xbdd08219	-0.10181064
56	0xbec289d8	-0.3799579
57	0xbe39e4a0	-0.1815362
58	0x3da8fc1d	0.08251212
59	0xbdfabc54	-0.12242952
60	0xbc056ee1	-0.008144111
61	0xbdb242b0	-0.08704126
62	0x3eacf485	0.33780304
63	0xbe266448	-0.16249192
64	0x3e7fbb44	0.2497378
65	0x3ec552b7	0.3853967
66	0xbe28234f	-0.16419719
67	0x3e7bdcd5	0.2459596
68	0xbdbc675f	-0.09199404
69	0x3e418b4b	0.18900792
70	0x3e600ebf	0.21880625
71	0xbe98b182	-0.29822928
72	0x3ebe0bfb	0.37118515
73	0x3e6e9985	0.2330075
74	0xbe774776	-0.24148354
75	0x3de9d522	0.11417605
76	0x3ebaa618	0.36454844
77	0x3ecc90d5	0.39954248
78	0xbe3e5a58	-0.18589151
79	0xbe0282d8	-0.12745225
80	0x3e7b7bf5	0.24559005
81	0x3e36b53b	0.17842571
82	0xbe867678	-0.2626226
83	0xbc0294b6	-0.007970026
84	0xbe304937	-0.17215429
85	0xbed0a521	-0.40750983
86	0xbe46fe57	-0.1943296
87	0x3e86a181	0.26295093
88	0x3eb02004	0.34399426
89	0xbe9f174a	-0.31072456
90	0xbe875b24	-0.26436722
91	0x3eb0b3fe	0.34512323
92	0x3e96862c	0.2939924
93	0xbea22f08	-0.31676507
94	0xbe3f9b75	-0.18711646
95	0x3e935756	0.2877757
96	0x3dc81275	0.097691454
97	0x3ec83a7a	0.39107114
98	0x3e9ad6f0	0.3024211
99	0xbe198f35	-0.14996035
100	0xbdfa742d	-0.1222919
101	0x3ed7e2af	0.42165133
102	0x3e84841c	0.2588204
103	0xbe67f818	-0.22653234
104	0xbe8db7a6	-0.27679175
105	0xbeb33cc4	-0.35007298
106	0x3e17b255	0.14814122
107	0xbe49c53e	-0.19704148
108	0x3e808ed9	0.25108984
109	0xbe3f8035	-0.18701251
110	0x3e205063	0.15655665
111	0x3e3aba2b	0.1823508

flow.flow.transforms.4.alpha_prime f4 [7]
0	0xbe06347a	-0.13105956
1	0xbe024860	-0.12722921
2	0xbe87de67	-0.26536867
3	0xbe30e1ca	-0.17273632
4	0xbdb93bfc	-0.09044644
5	0xbdf12636	-0.11774866
6	0xbc2078db	-0.009794439

flow.flow.transforms.4.beta_prime f4 [7]
0	0x3d3ea8ee	0.046547823
1	0x3e117d5c	0.14207977
2	0x3e634954	0.22195941
3	0x3d877a91	0.066151746
4	0xbdd3015c	-0.10302994
5	0xbd96d316	-0.0736448
6	0x3e0d3a77	0.13791834

flow.flow.transforms.5.x0 f4 [7, 16]
0	0x3e9f0435	0.31057897
1	0xbd6db644	-0.05803515
2	0xbc941536	-0.01807652
3	0xbe1bf96a	-0.15231863
4	0xbd685f4b	-0.056731503
5	0xbd8749ad	-0.066058494
6	0xbe89e3d8	-0.26931643
7	0x3e925b4e	0.28585285
8	0x3a39b748	0.0007084501
9	0xbec6f65d	-0.38859835
10	0x3ec08d60	0.3760786
11	0xbdedbaf2	-0.116079226
12	0xbb88b758	-0.004172247
13	0x3e67f377	0.22651468
14	0xbed55909	-0.4166949
15	0x3dd8f064	0.10592726
16	0x3d8f495e	0.069964156
17	0xbe20e9f8	-0.15714252
18	0x3ea2de19	0.31810072
19	0x3ebdaf36	0.37047738
20	0xbe3d0a45	-0.18460949
21	0x3c4608c8	0.012087055
22	0xbea03fb4	-0.31298602
23	0xbedf1dfb	-0.4357756
24	0x3cb5ef4b	0.02220883
25	0x3e92bcfd	0.28659812
26	0xbe0c941f	-0.13728379
27	0xbebcbc1c	-0.36862266
28	0xbe03dd09	-0.12877287
29	0xbec2446a	-0.3794282
30	0xbe5e7122	-0.21722844
31	0xbe787d57	-0.24266563
32	0xbec520d6	-0.38501614
33	0x3db92cb6	0.09041731
34	0x3e185c72	0.14879015
35	0xbd52080f	-0.051277217
36	0xbd98251e	-0.074289545
37	0xbe292bf2	-0.1652067
38	0xbdaba1ef	-0.08380496
39	0xbece7368	-0.40322423
40	0x3e95a142	0.29224592
41	0xbdd356a7	-0.10319262
42	0xbe21d095	-0.15802224
43	0xbde11df0	-0.10992038
44	0xbdb16766	-0.086623
45	0x3de141c1	0.1099887
46	0xbd0da551	-0.034581486
47	0xbe55fc79	-0.20897092
48	0xbcb9c007	-0.022674574
49	0xbe8a69da	-0.27033883
50	0xbe045b04	-0.12925345
51	0x3dad7b79	0.08470816
52	0xbe10856a	-0.14113393
53	0xbe12796f	-0.14304136
54	0xbe2fb479	-0.17158689
55	0x3d780eff	0.060561176
56	0x3ebf329f	0.37343308
57	0x3e6456b8	0.22298706
58	0xbdd6528b	-0.104649626
59	0x3e7d2c1e	0.2472386
60	0xbdcb6869	-0.09932024
61	0x3d701968	0.05861798
62	0xbe8cacb0	-0.274755
63	0x3c8d0368	0.017213538
64	0xbda4af65	-0.08041266
65	0x3eaf9130	0.34290457
66	0xbe430047	-0.19043075
67	0x3e92769a	0.2860611
68	0x3bac7a97	0.0052636373
69	0xbe90891b	-0.28229603
70	0xbe32c358	-0.1745733
71	0x3e91e1ca	0.28492576
72	0xbc932ea4	-0.017966576
73	0x3ea0f9b8	0.3144052
74	0xbdfc3263	-0.12314298
75	0x3e038c4a	0.12846485
76	0x3eab8544	0.3350011
77	0xbe069fb0	-0.13146853
78	0xbe559b42	-0.20860007
79	0xbe18b1af	-0.14911531
80	0x3e1f1195	0.15534051
81	0xbe2092e8	-0.1568104
82	0x3d70a2ff	0.058749195
83	0xbdcd05fc	-0.10010907
84	0x3d800ecd	0.06252823
85	0x3e4aebed	0.19816561
86	0x3e3bebbe	0.18351647
87	0x3e91447e	0.28372568
88	0xbd90ed16	-0.070764706
89	0x3cbbe888	0.022938028
90	0xbe13164a	-0.14363971
91	0x3e0d110e	0.13776037
92	0xbce7a3ba	-0.028276313
93	0xbe4ca938	-0.19986427
94	0xbe9f2369	-0.31081703
95	0x3f036462	0.51325047
96	0xbce4f1e1	-0.027947368
97	0xbe4717ed	-0.1944272
98	0xbe7613b2	-0.2403095
99	0xbdd76405	-0.10517124
100	0xbae70d88	-0.0017627934
101	0xbe031b17	-0.12803303
102	0xbe8a92ca	-0.27065116
103	0x3dbd2986	0.092364356
104	0x3e171f3f	0.14758013
105	0x3ead553b	0.33854088
106	0xbc22d4c3	-0.009938422
107	0x3e8feb1c	0.28109062
108	0xbe769f87	-0.24084292
109	0xbcb35306	-0.021890175
110	0xbdf3d06f	-0.1190499
111	0x3c023674	0.007947553

flow.flow.transforms.5.alpha_prime f4 [7]
0	0xbe7d92fc	-0.24763101
1	0xbd9253b6	-0.07144873
2	0x3c8cb345	0.017175326
3	0x3e608b40	0.2192812
4	0x3dfee54b	0.12446078
5	0xbe321e36	-0.17394337
6	0x3e01772a	0.12643114

flow.flow.transforms.5.beta_prime f4 [7]
0	0x3e329baa	0.17442194
1	0xbdb827f9	-0.08991999
2	0x3e66d319	0.22541465
3	0xbd6797fc	-0.056541428
4	0x3ddc549f	0.10758328
5	0x3d895612	0.0670587
6	0xbdc97cc9	-0.09838254

flow.flow.transforms.6.x0 f4 [7, 16]
0	0x3e8c3763	0.27386007
1	0xbcc3df7a	-0.023910273
2	0xbe3c8a20	-0.18412066
3	0xbe22b6d0	-0.1589005
4	0x3ded2710	0.11579716
5	0xbe25f13f	-0.1620531
6	0xbe00f38c	-0.12592906
7	0x3e3a3f05	0.18188103
8	0x3bb5d72b	0.0055493317
9	0xbecf1360	-0.4044447
10	0x3dca7b10	0.098867536
11	0xbe31bf90	-0.17358232
12	0x3e39af4a	0.18133274
13	0x3e540886	0.20706376
14	0xbed8fa7c	-0.42378604
15	0x3eb303a0	0.34963703
16	0xbe2923ed	-0.16517611
17	0x3d82c6fb	0.06385609
18	0x3e412de9	0.1886517
19	0x3e5d2486	0.21595964
20	0xbccd7a90	-0.025082856
21	0xbdb48eb2	-0.088162795
22	0xbe3a1a47	-0.18174087
23	0xbea7aa29	-0.3274701
24	0x3d2728a7	0.040810253
25	0xbe1a58f5	-0.15072997
26	0x3e5422e9	0.20716442
27	0xbeab9fb4	-0.3352028
28	0x3ca62fd0	0.02028647
29	0xbe1f120e	-0.15534231
30	0x3e351ae7	0.17686044
31	0xbe46ac0f	-0.19401573
32	0xbed6630b	-0.4187244
33	0xbdc9b54b	-0.09849032
34	0x3e0a8175	0.13525946
35	0xbda2c513	-0.07947745
36	0xbe06614e	-0.13123056
37	0xbe2cf555	-0.16890462
38	0xbe093adf	-0.13401364
39	0xbed9d28a	-0.4254344
40	0x3ea65229	0.32484558
41	0xbdbf93cb	-0.09354361
42	0xbe13e49e	-0.1444268
43	0xbd0ee05c	-0.034881935
44	0xbdaf6d21	-0.085657366
45	0x3dd87e88	0.10571009
46	0x3d71441c	0.058902845
47	0xbe4985fb	-0.19680016
48	0xb792fb80	-1.752167e-05
49	0xbd95d8dd	-0.07316754
50	0xbeb1ec93	-0.34750804
51	0x3e250910	0.16116738
52	0x3bdc8958	0.00673024
53	0xbbaf3b74	-0.0053476635
54	0xbd2bd854	-0.041954353
55	0x3df69023	0.12039211
56	0x3df3a8c4	0.11897424
57	0xbe1bb420	-0.15205431
58	0xbe56f0de	-0.20990321
59	0x3e999d50	0.30002832
60	0xbe8178e6	-0.2528755
61	0xbe570f29	-0.21001877
62	0xbea1a213	-0.31568965
63	0xbe475ce8	-0.19469035
64	0xbd6cf567	-0.05785122
65	0x3e978408	0.2959292
66	0xbd12d32d	-0.035845924
67	0x3e8ee416	0.2790839
68	0x3ea93754	0.33050025
69	0xbea893ba	-0.32925206
70	0x3e8f4d5d	0.2798871
71	0x3e2e2c53	0.17009096
72	0x3e60a882	0.2193928
73	0x3e3ad29f	0.18244408
74	0xbe8af087	-0.27136633
75	0xbeaaeeb9	-0.33385256
76	0x3ee75744	0.45183766
77	0x3d008464	0.031376258
78	0x3e440ffb	0.19146721
79	0x3eb8dfa5	0.36108127
80	0x3e2ddf6a	0.16979757
81	0xbe05dd6a	-0.13072744
82	0x3c6991b5	0.014255931
83	0xbe4f403b	-0.20239346
84	0xbd96a059	-0.07354803
85	0x3d4c4c93	0.049877714
86	0x3e17468c	0.14773005
87	0xbee2d3f0	-0.4430232
88	0xbe12d4b0	-0.14338946
89	0xbdc498ba	-0.09599443
90	0xbe7d0010	-0.24707055
91	0xbe9bf59a	-0.30460817
92	0xbeaad34e	-0.33364338
93	0xbdfc9849	-0.123337336
94	0x3d2d196b	0.04226057
95	0xbe98ab7e	-0.29818338
96	0xbe019507	-0.12654506
97	0x3ec8b16a	0.39197856
98	0x3eae622c	0.34059274
99	0xbe54b027	-0.20770322
100	0xbe61cab1	-0.22049977
101	0xbdc1b40b	-0.094581686
102	0x3e83316a	0.25623637
103	0xbe6d9a25	-0.23203333
104	0xbd26b27a	-0.040697552
105	0x3d374148	0.04473999
106	0x3e0fc503	0.14039998
107	0xbe844f29	-0.25841644
108	0x3ee881c8	0.45411515
109	0x3e76d4f3	0.24104671
110	0x3da96168	0.08270532
111	0x3dceebe7	0.101035886

flow.flow.transforms.6.alpha_prime f4 [7]
0	0xbdf3ebe3	-0.11910226
1	0xbb6e922c	-0.0036403043
2	0x3e266608	0.1624986
3	0x3d8a9509	0.067667075
4	0x3e2dc6f4	0.16970426
5	0xbe356fca	-0.17718425
6	0xbe02a79e	-0.12759253

flow.flow.transforms.6.beta_prime f4 [7]
0	0x3e5cf7f4	0.21578962
1	0xbe32071f	-0.17385529
2	0x3e93a74a	0.2883857
3	0x3cc91ad8	0.024548933
4	0xbe2f635a	-0.17127743
5	0xbe54718b	-0.20746438
6	0xbc032e88	-0.008006699

flow.flow.transforms.7.x0 f4 [7, 16]
0	0xbeae1e24	-0.3400737
1	0xbd457d41	-0.048215155
2	0xbd803b74	-0.0626134
3	0x3eacf829	0.3378308
4	0x3db0232c	0.086004585
5	0xbd9ccf9b	-0.07656785
6	0x3ebfa1e3	0.37428197
7	0xbd76cee5	-0.060255904
8	0x3e932770	0.28741026
9	0xbce0ee66	-0.027457427
10	0xbec32b89	-0.38119152
11	0x3ea359d9	0.31904486
12	0xbd967bda	-0.073478416
13	0x3d53bfae	0.051696472
14	0x3f15cd8c	0.58516765
15	0xbeb86445	-0.36014
16	0x3e3daf43	0.18523888
17	0xbdadef91	-0.08492959
18	0xbe48c04c	-0.19604605
19	0xbdfda309	-0.12384612
20	0x3dfbc847	0.12294059
21	0xbd9079d6	-0.07054488
22	0x3e3e13af	0.18562196
23	0x3e1f5f69	0.1556374
24	0x3e9062f9	0.2820051
25	0xbdc79fea	-0.09747298
26	0xbe0177d1	-0.12643363
27	0x3e58dc24	0.21177727
28	0x3d5c264f	0.05374747
29	0x3e3d229e	0.18470237
30	0x3dbb2c1d	0.09139273
31	0x3e91095e	0.2832746
32	0xbeb7cf9e	-0.35900587
33	0x3dcfb2fd	0.10141561
34	0x3e14ed4f	0.14543651
35	0xbd521940	-0.05129361
36	0xbdf191a4	-0.11795357
37	0xbcc40f40	-0.023933053
38	0xbddfeb00	-0.109334946
39	0xbec7e006	-0.39038104
40	0x3ea61d08	0.32444024
41	0xbdd5e6c3	-0.10444405
42	0xbe0335d0	-0.12813497
43	0xbdf28b5e	-0.118429884
44	0xbd9ff728	-0.07810813
45	0x3d430b44	0.047618166
46	0x3bc0ea57	0.0058873105
47	0xbe26428f	-0.16236328
48	0xbe7aec00	-0.2450409
49	0x3e5745f9	0.21022786
50	0x3e725853	0.23666506
51	0x3d0c8ac7	0.034312036
52	0xbdf85ccc	-0.121270746
53	0x3d51c7d2	0.051215954
54	0x3e03876c	0.12844628
55	0xbc35a53e	-0.01108676
56	0xbea14a1a	-0.31501848
57	0xbe33664d	-0.17519493
58	0x3c9efaba	0.019406665
59	0xbe8fb229	-0.28065613
60	0x3dcb7459	0.09934301
61	0xbe016ca0	-0.12639093
62	0x3eb63142	0.35584456
63	0xbe6ef3ce	-0.23335192
64	0x3ddbf52a	0.10740121
65	0x3d335ede	0.043791644
66	0x3e0e3fa6	0.13891467
67	0xbd8b24fa	-0.06794162
68	0x3eb8c0ae	0.36084503
69	0xbe02ffc2	-0.12792876
70	0x3ea2b7cc	0.3178085
71	0x3e714c9e	0.23564383
72	0xbd664723	-0.056220185
73	0xbe895887	-0.26825354
74	0x3e5f9b57	0.21836601
75	0xbe9a372b	-0.30120215
76	0x3ec6e780	0.38848495
77	0x3de872c6	0.11350016
78	0x3df7c593	0.12098231
79	0x3e9e23c4	0.30886662
80	0x3dbbd919	0.091722675
81	0xbdab6ee5	-0.08370761
82	0xbe3052b1	-0.17219044
83	0xbe0ddcb2	-0.1385372
84	0x3e871a20	0.2638712
85	0x3e1bd001	0.15216066
86	0x3d810cb9	0.06301255
87	0x3e5df577	0.21675669
88	0xbd18c922	-0.03730119
89	0x3d374f8a	0.04475359
90	0x3e4dafc5	0.20086582
91	0x3d2d2f77	0.042281594
92	0x3e36716e	0.17816707
93	0xbd359be2	-0.044338115
94	0xbe8ccb96	-0.27499074
95	0x3eef4d7c	0.46738803
96	0x3d512992	0.051065035
97	0xbdcd2b46	-0.100180194
98	0xbe60c18c	-0.21948832
99	0xbdf457af	-0.11930787
100	0x3dac802f	0.084228866
101	0xba750620	-0.0009346921
102	0xbe676c29	-0.22599854
103	0x3e48bf86	0.1960431
104	0x3d8621fb	0.0654945
105	0x3ea79da3	0.32737455
106	0x3c8b0424	0.016969748
107	0x3ea60dd1	0.32432416
108	0xbe551687	-0.20809375
109	0xbc269508	-0.010167368
110	0xbe5c0f48	-0.21490204
111	0x3e770ff1	0.24127175

flow.flow.transforms.7.alpha_prime f4 [7]
0	0x3dc1e98e	0.09468375
1	0x3ce8e66a	0.028430182
2	0xbe39a850	-0.18130612
3	0x3dbdbf9c	0.09265062
4	0x3e449d28	0.19200575
5	0xbde744b0	-0.11292398
6	0x3e8d8f8c	0.2764858

flow.flow.transforms.7.beta_prime f4 [7]
0	0x3c9b816e	0.018982615
1	0x3e16089a	0.14651719
2	0x3e8dbcd9	0.27683142
3	0x3ea11d02	0.31467444
4	0xbdf179b7	-0.117907934
5	0x3e3c72dd	0.18403192
6	0x3db96624	0.09052685
