saved_experiments/classification/GPN/1/model_8.pt (torch, 764793 bytes, 36 tensors)

input_encoder.0.weight f4 [64, 2879]
-0.0023382257 0.0010083041 0.0035736174 -0.004708877 0.01239857 -0.029681874 -0.0014534629 0.013496908
0.0018951985 -0.00020932559 -0.0015980024 -0.00049713627 -5.9468206e-05 0.0014793279 -0.00079749234 -0.0017305156
-4.6681394e-05 -0.0021739749 0.0021639674 0.0023249313 0.00096360175 -0.011476377 -0.006887256 -0.012634797
0.008483015 -0.004441206 0.034597423 0.0049259155 -0.0031906862 -0.006362035 0.0017212415 0.0034218205
0.0012287906 -6.0718623e-05 0.00024081854 0.0037484344 0.0007497326 -0.0009771283 -0.00441762 -0.0017257803
-0.0027160773 0.0007368416 0.0011158177 0.004176965 -0.0057921177 -0.019805089 -0.00091369776 -0.0023029349
0.00021073251 -0.0007712605 -0.024533285 -0.030033268 -0.00065560127 -0.00028029154 -0.046654657 0.0031413017
0.0021286507 -0.0014193204 0.00018050373 0.0047621303 0.0010451034 -0.003588759 0.0021810792 -0.004286376
-0.0042232485 0.0038371072 -0.03673168 0.0023450966 -0.00033376506 -0.0285923 -0.033255305 -0.031792656
0.0020848662 0.00031936853 0.002087187 0.00031478633 -0.0017590816 -0.019709276 0.0041472777 -0.003922089
-4.37641e-05 0.0034630017 -0.0015022496 0.0038385522 0.003954417 0.0033251108 -0.00025328316 1.9681465e-06
0.002713015 -0.0035774736 -0.0023065992 -0.0018193192 -0.004071485 0.0033998527 0.004026992 -0.024686217
-0.002178472 0.001429859 0.00057699217 0.004088993 0.0021130247 -0.019026568 -0.023682505 -0.012481472
-0.0022369965 -0.036201417 0.0012091119 -0.0030535297 -0.011985002 -0.0013401674 -0.00039990395 -0.001337488
0.002422648 0.0010389488 -0.0046904385 -0.027195066 -0.01579222 -0.00082115654 -0.0007220957 -0.0025948307
0.0014783277 -0.0035577263 0.002089964 -0.008658739 -0.0020122898 0.0012130011 -0.0028087 -0.02082476
0.0022669213 -0.016795456 -0.0041161375 0.0007037423 -0.00085491606 0.00018501576 -0.008475722 -0.0047387467
-0.04709063 -0.012330616 -0.051315423 -0.0023433843 0.00049928576 -1.8887746e-05 -0.025091251 -0.024836142
0.0005475136 -0.033500507 -0.0004721559 -0.0018553007 -0.0020327615 0.00013445463 0.0017427525 -0.0004681751
0.0035024763 -0.0015826083 -0.002515166 -0.03197404 0.0075027193 -0.00092266325 0.0011550775 -0.027311925
0.0034495192 -0.0007599447 -0.0013884504 0.00096200017 0.0011328391 -0.0014333981 0.0016806929 0.004261046
0.004564137 0.0038532405 -0.0019668727 -0.0027172393 0.00022256676 0.022480672 0.00346978 -0.015104808
0.0010641846 -0.0037190288 -0.021523116 -0.0021301685 -0.031076992 -0.003934754 -0.021415567 -0.01453097
-0.049521044 -0.041861527 -0.03733903 -0.0043126913 0.004114994 0.002862746 -0.0328462 0.0013007324
0.003232714 -0.0015592005 0.00014093608 0.004804114 0.0007926109 0.0014102669 0.0006906248 0.0034496204
0.0022737319 -0.0013415115 -0.024956925 -0.008132307 0.0022474837 0.0020449574 0.0025172236 0.0013363957
0.0020174147 0.0039504995 0.0048312913 0.00063117745 -0.00012741933 0.0009119359 -0.003787178 0.001326391
0.001445494 -0.0023882806 -0.008868581 -0.040559884 0.000744038 -7.567675e-05 0.00038822572 0.0036949024
0.00049612945 -1.48936815e-05 -2.2537308e-05 -0.0010988622 0.0023210726 0.0039762864 0.003559184 0.0021641026
-0.0013917495 -0.00048840384 0.00040283956 0.00071656064 0.00074849685 -0.001228895 -0.0018253578 0.0025819896
0.014464654 -0.0029097148 0.026847722 0.00072756945 0.0042784996 0.02426163 0.00017054006 0.0006555205
0.0018088879 0.0038726132 -0.0029020282 -0.010760843 0.0032898874 0.00069279387 -0.026640955 -0.027422642
00000000: eb3c 19bb 1229 843a 5a33 6a3b ec4c 9abb
00000010: 5f23 4b3c 6727 f3bc 1f82 beba 2322 5d3c
00000020: 4f68 f83a 697e 5bb9 1074 d1ba 4052 02ba
00000030: 806d 79b8 02e6 c13a ce0e 51ba 78d2 e2ba
00000040: c4cb 43b8 3f79 0ebb 59d1 0d3b e05d 183b
00000050: 389a 7c3a 6a07 3cbc 7eae e1bb 2e02 4fbc
00000060: 58fc 0a3c 8987 91bb 07b6 0d3d 9369 a13b
00000070: d51a 51bb 9e78 d0bb 489b e13a 9f40 603b
00000080: 5f0f a13a 20ac 7eb8 3c84 7c39 4ba8 753b
00000090: b489 443a fc12 80ba afc1 90bb 9433 e2ba
000000a0: 3700 32bb 9a28 413a a140 923a ecde 883b
000000b0: cecb bdbb 483e a2bc 3885 6fba d6ec 16bb
000000c0: 14f8 5c39 6a2e 4aba 07fa c8bc 5408 f6bc
000000d0: a8dc 2bba 18f4 92b9 f418 3fbd 4cde 4d3b
000000e0: d580 0b3b 7d08 baba 9a45 3d39 a50b 9c3b
000000f0: dafb 883a 6331 6bbb 70f0 0e3b ba74 8cbb
00000100: 2d63 8abb fa77 7b3b f573 16bd 31b0 193b
00000110: 30fd aeb9 663a eabc b736 08bd 0439 02bd
00000120: 40a2 083b eb70 a739 30c9 083b e809 a539
00000130: fc90 e6ba 5975 a1bc e3e5 873b de84 80bb
00000140: 588f 37b8 87f3 623b 22e7 c4ba 3890 7b3b
00000150: 0e94 813b 1aea 593b 17cb 84b9 8014 0436
00000160: d7cc 313b 0c74 6abb 502a 17bb 3976 eeba
00000170: 176a 85bb 10d0 5e3b dbf4 833b c03a cabc
00000180: b2c4 0ebb 1b6a bb3a 4a41 173a f6fc 853b
00000190: ac7a 0a3b 9bdd 9bbc d001 c2bc 177f 4cbc
000001a0: 939a 12bb f047 14bd 107b 9e3a ba1d 48bb
000001b0: be5c 44bc 8ea8 afba 33aa d1b9 a64e afba
000001c0: 4ac5 1e3b 562d 883a 40b2 99bb 30c8 debc
000001d0: b05e 81bc e242 57ba 064b 3dba 090e 2abb
000001e0: 72c4 c13a be28 69bb c7f7 083b 62dd 0dbc
000001f0: 9fe0 03bb 90fd 9e3a 2b12 38bb b098 aabc
00000200: a190 143b a096 89bc aae0 86bb 597b 383a
00000210: 721c 60ba ca00 4239 c1dd 0abc 7d47 9bbb
00000220: 1be2 40bd 5a06 4abc 1f30 52bd 7793 19bb
00000230: 80e2 023a 2071 9eb7 2b8c cdbc 2a75 cbbc
00000240: 0487 0f3a d437 09bd b18b f7b9 902d f3ba
00000250: 1438 05bb 64fc 0c39 126d e43a 6675 f5b9
00000260: cd89 653b 866f cfba 7cd5 24bb 36f7 02bd
00000270: 5fd9 f53b e2de 71ba f865 973a 42bd dfbc
00000280: 5411 623b 0737 47ba aafc b5ba bd2e 7c3a
00000290: c67b 943a dce0 bbba b24a dc3a 3fa0 8b3b
000002a0: c28e 953b a686 7c3b a6e6 00bb b613 32bb
000002b0: cf60 6939 6329 b83c 4065 633b 287a 77bc
000002c0: 1c7c 8b3a f3ba 73bb 3f51 b0bc 4c9a 0bbb
000002d0: 2d95 febc 1cef 80bb b36f afbc 4e13 6ebc
000002e0: 94d6 4abd fe76 2bbd d0f0 18bd 7a51 8dbb
000002f0: 12d7 863b e89c 3b3b bd89 06bd 567d aa3a
00000300: f1db 533b 165e ccba 3ec8 1339 d46b 9d3b
00000310: 38c7 4f3a b4d8 b83a 0c0b 353a 0713 623b
00000320: e402 153b a8d5 afba 7772 ccbc 5e3d 05bc
00000330: 854a 133b b104 063b 01f8 243b 002a af3a
00000340: 9a36 043b 3173 813b cf4f 9e3b 9a75 253a
00000350: de9b 05b9 fb0e 6f3a 4e32 78bb 4cda ad3a
00000360: bb76 bd3a b384 1cbb 864d 11bc 1f22 26bd
00000370: 8c0b 433a a5b4 9eb8 c68a cb39 2d26 723b
00000380: af0e 023a e0df 79b7 800e bdb7 b207 90ba
00000390: 231d 183b 824b 823b 3341 693b 9ed3 0d3b
000003a0: 5d6b b6ba 3a08 00ba 3634 d339 92d7 3b3a
000003b0: c636 443a e012 a1ba d840 efba 9936 293b
000003c0: 28fd 6c3c eab0 3ebb c1ef db3c 5cba 3e3a
000003d0: a832 8c3b 53c0 c63c 00d3 3239 3cd7 2b3a
000003e0: 3518 ed3a abcb 7d3b f42f 3ebb 3f4e 30bc
000003f0: 279b 573b 9c9c 353a 223e dabc 73a5 e0bc

input_encoder.0.bias f4 [64]
-0.05212801 0.029106496 0.0034046883 0.022391476 0.0037153936 -0.0582777 0.013489101 -0.053867888
0.01545172 -0.04116445 0.011922376 0.0330418 0.018803213 -0.053496752 0.0241281 -0.016149135
-0.039910063 -0.05735431 0.03016849 0.028479194 0.016666675 -0.066873774 -0.05859016 -0.049509272
-0.053843625 -0.006139538 0.023469945 -0.05279768 0.03752312 -0.012207939 -0.056375634 0.010444441
-0.060710277 -0.02462769 -0.056576837 -0.060509704 -0.053074375 0.03082373 -0.008314226 -0.049949892
0.019621719 -0.0550838 -0.007766407 -0.032284778 0.02688761 -0.050408803 0.013539868 0.034900814
0.013062714 0.041538067 0.008209856 0.012882944 -0.064822204 0.027395587 -0.051387526 -0.0050703483
0.019022834 0.022976343 -0.041745994 -0.04740781 0.018556038 0.0023641651 0.01114685 -0.05061384
00000000: 2e84 55bd bf70 ee3c 3121 5f3b 546e b73c
00000010: f67d 733b 99b4 6ebd 6401 5d3c 93a4 5cbd
00000020: 3629 7d3c 0e9c 28bd 1256 433c d756 073d
00000030: 3209 9a3c 691f 5bbd 4ba8 c53c 314b 84bc
00000040: bc78 23bd 5aec 6abd e923 f73c 334d e93c
00000050: 8d88 883c 1ef5 88bd 3cfc 6fbd 3cca 4abd
00000060: 228b 5cbd 2d2e c9bb 0b44 c03c 6142 58bd
00000070: d8b1 193d cf03 48bc 23ea 66bd 291f 2b3c
00000080: 57ab 78bd 02c0 c9bc 1dbd 67bd 06d9 77bd
00000090: 8464 59bd 0c82 fc3c 6438 08bc 4298 4cbd
000000a0: babd a03c 8d9f 61bd 587d febb 0b3d 04bd
000000b0: 6843 dc3c 7679 4ebd 53d6 5d3c 28f4 0e3d
000000c0: fe04 563c d223 2a3d a282 063c fc12 533c
000000d0: 81c1 84bd b66c e03c ba7b 52bd 2a25 a6bb
000000e0: c6d5 9b3c e238 bc3c d9fd 2abd b12e 42bd
000000f0: d502 983c 1cf0 1a3b 47a1 363c 7550 4fbd

latent_encoder.weight f4 [16, 64]
0.007876362 -0.12820901 -0.40834576 -0.3301509 0.3918328 0.04231695 -0.07578082 -0.15576307
0.1844515 0.03595688 0.14532198 -0.28194943 -0.5198089 -0.08933211 -0.029455464 -0.23386899
0.028121393 -0.06280948 -0.33463287 0.2841117 0.21450892 -0.019708266 -0.15148778 0.05147479
-0.069523916 0.38520518 0.4154384 0.0056096017 -0.23538613 0.09038971 -0.025122924 -0.042664003
-0.0008656319 0.26571178 -0.002686737 -0.00067787006 0.00055709726 -0.25781432 -0.018642772 0.012965308
0.14638337 -0.05278464 0.018787507 0.0040254164 0.3641478 -0.04861674 0.3695434 -0.25624993
-0.4152491 0.2614135 0.25562477 0.032717604 -0.01989416 0.01871984 0.044661395 0.24736616
-0.26092577 -0.1575124 0.048417885 -0.018325238 0.39260343 0.26506913 0.093304604 -0.11571199
0.12282292 -0.35833946 -0.4241331 -0.21750541 -0.43090525 0.015420681 -0.074832976 -0.06228191
0.15966007 -0.11516477 0.2987654 -0.342359 0.06722644 -0.09359749 -0.35224426 0.27421862
-0.119478755 0.020168519 -0.32759002 -0.12465241 0.36913618 0.002835209 -0.053888354 -0.04067763
0.05323687 0.26429287 0.19534203 0.03071387 0.1671066 -0.047447577 0.021721741 0.533394
0.00011285773 0.26499546 -0.0030504237 -0.10636628 0.001979457 -0.018016567 -0.048240513 0.04592711
-0.20910017 -0.011226224 0.32210773 0.00046509432 -0.20362717 -0.0258981 -0.108504586 -0.19581877
-0.2033794 -0.13246171 0.043870836 0.10026301 -0.12607354 -0.4970286 0.035113372 -0.32971078
0.11988136 0.45932153 0.042456806 -0.16535337 0.0014389292 0.1529775 -0.26455122 -0.15620431
0.030043915 -0.23182479 -0.2764565 -0.07525123 -0.063506685 -0.14150305 -0.19528554 0.06154501
-0.257483 0.046192776 -0.12038799 -0.14417045 0.24669237 0.14132696 0.022138076 0.027251208
-0.042379342 -0.055548716 -0.11707767 -0.041007277 0.08675572 -0.00083371263 0.15922697 -0.007255687
0.025527146 -0.0069790576 -0.038721845 0.1053376 0.13691002 0.10143198 -0.028752254 -0.04324586
-5.2055635e-05 -0.24748957 -0.0025434399 0.017830769 6.669585e-05 -0.164034 -0.062938355 0.00039965013
-0.2311357 -0.026800713 0.15424813 0.00062536995 -0.029872358 0.086978644 -0.08470187 -0.19712058
-0.098834574 -0.15584715 0.053454284 0.0062579 -0.07907594 -0.06283214 0.031686407 0.020440545
-0.040574208 0.07805778 0.024021376 0.018624267 0.03908309 -0.18767478 -0.0465798 0.008189746
0.05343749 -0.0836792 -0.2738435 -0.005736553 0.09099868 0.026026027 0.27145588 0.042885564
-0.07581051 0.0048971632 0.0556428 -0.09252683 -0.33540878 0.009717873 0.018090205 -0.43225253
-0.022953697 0.10360417 -0.13051373 0.04955824 -0.1080593 -0.0650323 0.14138189 -0.00067976426
0.040578127 -0.024316052 -0.1110884 0.06690822 -0.16407606 -0.04496908 0.11545964 -0.29418164
0.00393611 0.06036584 0.0021154606 0.039084665 0.0034607875 -0.08494625 -0.06066063 0.14590372
0.26423275 0.05564224 -0.26560947 -0.0018376869 0.14381894 -0.064627804 0.28364152 -0.048412215
-0.20395218 0.15507208 0.017424943 -0.08523751 0.033269856 -0.20687445 0.027912216 0.20379888
-0.116714165 -0.24875577 0.0022076992 0.14405529 0.17544034 -0.12316211 -0.080000356 0.12299417
00000000: db0b 013c 3949 03be b212 d1be 8a09 a9be
00000010: 4f9e c83e 8a54 2d3d f932 9bbd 5b80 1fbe
00000020: dbe0 3c3e 8547 133d 49cf 143e ad5b 90be
00000030: 3212 05bf c1f3 b6bd 964c f1bc 5a7b 6fbe
00000040: d65e e63c 42a2 80bd 0055 abbe 1777 913e
00000050: 3aa8 5b3e 3b73 a1bc 9d1f 1bbe 3bd7 523d
00000060: 8e62 8ebd 9d39 c53e 58b4 d43e c0d0 b73b
00000070: 1009 71be 3e1e b93d 97ce cdbc 73c0 2ebd
00000080: 93eb 62ba 600b 883e f813 30bb 17b3 31ba
00000090: 2a0a 123a 3d00 84be bab8 98bc 716c 543c
000000a0: 86e5 153e b534 58bd 42e8 993c a4e7 833b
000000b0: 9571 ba3e 5922 47bd cb34 bd3e 3133 83be
000000c0: 889b d4be fed7 853e 40e1 823e e502 063d
000000d0: 14f9 a2bc 5a5a 993c deee 363d 8e4d 7d3e
000000e0: 1098 85be ee4a 21be d551 463d cf1e 96bc
000000f0: 5103 c93e 24b7 873e 7c16 bf3d 68fa ecbd
00000100: 958a fb3d 4578 b7be f927 d9be bdb9 5ebe
00000110: 9d9f dcbe 06a7 7c3c 0842 99bd 511b 7fbd
00000120: ee7d 233e 82db ebbd c7f7 983e ae49 afbe
00000130: 04ae 893d 0ab0 bfbd 5c59 b4be 6266 8c3e
00000140: 47b1 f4bd 7338 a53c e1b9 a7be c349 ffbd
00000150: 6bff bc3e eace 393b 09ba 5cbd 969d 26bd
00000160: e70e 5a3d 6551 873e be07 483e a79b fb3c
00000170: fe1d 2b3e 6458 42bd cbf1 b13c 828c 083f
00000180: 08ae ec38 7cad 873e 9ee9 47bb 90d6 d9bd
00000190: c7b9 013b 7b97 93bc d897 45bd 111e 3c3d
000001a0: 5b1e 56be 32ee 37bc 4eeb a43e e7d7 f339
000001b0: a483 50be 4128 d4bc a737 debd b784 48be
000001c0: b042 50be 0ba4 07be e8b1 333d b156 cd3d
000001d0: 6c19 01be 887a febe 0ad3 0f3d dacf a8be
000001e0: 5c84 f53d 312c eb3e 30e7 2d3d 6552 29be
000001f0: 749a bc3a 22a6 1c3e 4273 87be 06f4 1fbe
00000200: a81e f63c 7a63 6dbe b58b 8dbe 511d 9abd
00000210: cb0f 82bd 2de6 10be eff8 47be 9f16 7c3d
00000220: d0d4 83be a334 3d3d fa8d f6bd 6ba1 13be
00000230: ed9c 7c3e 04b8 103e e95a b53c ed3d df3c
00000240: f695 2dbd 0d87 63bd 6bc6 efbd 3ff7 27bd
00000250: fcac b13d 828d 5aba 650c 233e 1dc1 edbb
00000260: 4e1e d13c 94b0 e4bb cc9a 1ebd 3dbb d73d
00000270: 2432 0c3e 92bb cf3d d989 ebbc 9222 31bd
00000280: 5056 5ab8 e86d 7dbe d7af 26bb d511 923c
00000290: 10df 8b38 87f8 27be d3e5 80bd 2288 d139
000002a0: d6ae 6cbe 2b8d dbbc 39f3 1d3e deef 233a
000002b0: e0b6 f4bc dc21 b23d 2d78 adbd fad9 49be
000002c0: c869 cabd 6596 1fbe e1f2 5a3d 120f cd3b
000002d0: 91f2 a1bd 23ae 80bd 9bc9 013d ee72 a73c
000002e0: 2431 26bd c2dc 9f3d 7ac8 c43c eb91 983c
000002f0: 9715 203d d12d 40be 76ca 3ebd 492e 063c
00000300: 45e1 5a3d 0060 abbd 3735 8cbe b2f9 bbbb
00000310: 845d ba3d 8934 d53c 44fc 8a3e c6a8 2f3d
00000320: 8a42 9bbd 6278 a03b b4e9 633d b57e bdbd
00000330: b3ba abbe b737 1f3c e931 943c 3450 ddbe
00000340: 6409 bcbc 6c2e d43d 64a5 05be 95fd 4a3d
00000350: 324e ddbd a82f 85bd 6ac6 103e 3532 32ba
00000360: 4035 263d 7532 c7bc 5182 e3bd 2d07 893d
00000370: 8e03 28be 7f31 38bd 1b76 ec3d fa9e 96be
00000380: 7cfa 803b 2c42 773d 8aa3 0a3b 3e17 203d
00000390: 61ce 623b 4df8 adbd 4877 78bd c967 153e
000003a0: 8449 873e 1ee9 633d f7fd 87be 8ade f0ba
000003b0: 4645 133e 955b 84bd 7639 913e e34b 46bd
000003c0: d7d8 50be 37cb 1e3e c1be 8e3c 0191 aebd
000003d0: f945 083d e5d6 53be 29a8 e43c a7b0 503e
000003e0: d607 efbd d5b9 7ebe 0caf 103b 3b83 133e
000003f0: a2a6 333e 6b3c fcbd 3ad7 a3bd 5ee4 fb3d

latent_encoder.bias f4 [16]
-0.053323295 -0.0005274089 0.08119817 0.08901496 -0.12255093 -0.017424207 -0.025723629 -0.13827856
-0.068924144 0.07427918 -0.058364015 0.024638655 0.13361691 -0.03632685 -0.11134889 -0.10889419
00000000: 8769 5abd d041 0aba 3a4b a63d 7a4d b63d
00000010: fbfb fabd 36bd 8ebc 5cba d2bc e598 0dbe
00000020: 1a28 8dbd af1f 983d 1b0f 6fbd 01d7 c93c
00000030: dfd2 083e 77cb 14bd e30a e4bd eb03 dfbd

flow.flow.mean f4 [7, 16]
0.0 0.0 0.0 0.0 0.0 0.0 0.0 0.0
0.0 0.0 0.0 0.0 0.0 0.0 0.0 0.0
0.0 0.0 0.0 0.0 0.0 0.0 0.0 0.0
0.0 0.0 0.0 0.0 0.0 0.0 0.0 0.0
0.0 0.0 0.0 0.0 0.0 0.0 0.0 0.0
0.0 0.0 0.0 0.0 0.0 0.0 0.0 0.0
0.0 0.0 0.0 0.0 0.0 0.0 0.0 0.0
0.0 0.0 0.0 0.0 0.0 0.0 0.0 0.0
0.0 0.0 0.0 0.0 0.0 0.0 0.0 0.0
0.0 0.0 0.0 0.0 0.0 0.0 0.0 0.0
0.0 0.0 0.0 0.0 0.0 0.0 0.0 0.0
0.0 0.0 0.0 0.0 0.0 0.0 0.0 0.0
0.0 0.0 0.0 0.0 0.0 0.0 0.0 0.0
0.0 0.0 0.0 0.0 0.0 0.0 0.0 0.0
00000000: 0000 0000 0000 0000 0000 0000 0000 0000
00000010: 0000 0000 0000 0000 0000 0000 0000 0000
00000020: 0000 0000 0000 0000 0000 0000 0000 0000
00000030: 0000 0000 0000 0000 0000 0000 0000 0000
00000040: 0000 0000 0000 0000 0000 0000 0000 0000
00000050: 0000 0000 0000 0000 0000 0000 0000 0000
00000060: 0000 0000 0000 0000 0000 0000 0000 0000
00000070: 0000 0000 0000 0000 0000 0000 0000 0000
00000080: 0000 0000 0000 0000 0000 0000 0000 0000
00000090: 0000 0000 0000 0000 0000 0000 0000 0000
000000a0: 0000 0000 0000 0000 0000 0000 0000 0000
000000b0: 0000 0000 0000 0000 0000 0000 0000 0000
000000c0: 0000 0000 0000 0000 0000 0000 0000 0000
000000d0: 0000 0000 0000 0000 0000 0000 0000 0000
000000e0: 0000 0000 0000 0000 0000 0000 0000 0000
000000f0: 0000 0000 0000 0000 0000 0000 0000 0000
00000100: 0000 0000 0000 0000 0000 0000 0000 0000
00000110: 0000 0000 0000 0000 0000 0000 0000 0000
00000120: 0000 0000 0000 0000 0000 0000 0000 0000
00000130: 0000 0000 0000 0000 0000 0000 0000 0000
00000140: 0000 0000 0000 0000 0000 0000 0000 0000
00000150: 0000 0000 0000 0000 0000 0000 0000 0000
00000160: 0000 0000 0000 0000 0000 0000 0000 0000
00000170: 0000 0000 0000 0000 0000 0000 0000 0000
00000180: 0000 0000 0000 0000 0000 0000 0000 0000
00000190: 0000 0000 0000 0000 0000 0000 0000 0000
000001a0: 0000 0000 0000 0000 0000 0000 0000 0000
000001b0: 0000 0000 0000 0000 0000 0000 0000 0000

flow.flow.cov f4 [7, 16, 16]
1.0 0.0 0.0 0.0 0.0 0.0 0.0 0.0
0.0 0.0 0.0 0.0 0.0 0.0 0.0 0.0
0.0 1.0 0.0 0.0 0.0 0.0 0.0 0.0
0.0 0.0 0.0 0.0 0.0 0.0 0.0 0.0
0.0 0.0 1.0 0.0 0.0 0.0 0.0 0.0
0.0 0.0 0.0 0.0 0.0 0.0 0.0 0.0
0.0 0.0 0.0 1.0 0.0 0.0 0.0 0.0
0.0 0.0 0.0 0.0 0.0 0.0 0.0 0.0
0.0 0.0 0.0 0.0 1.0 0.0 0.0 0.0
0.0 0.0 0.0 0.0 0.0 0.0 0.0 0.0
0.0 0.0 0.0 0.0 0.0 1.0 0.0 0.0
0.0 0.0 0.0 0.0 0.0 0.0 0.0 0.0
0.0 0.0 0.0 0.0 0.0 0.0 1.0 0.0
0.0 0.0 0.0 0.0 0.0 0.0 0.0 0.0
0.0 0.0 0.0 0.0 0.0 0.0 0.0 1.0
0.0 0.0 0.0 0.0 0.0 0.0 0.0 0.0
0.0 0.0 0.0 0.0 0.0 0.0 0.0 0.0
1.0 0.0 0.0 0.0 0.0 0.0 0.0 0.0
0.0 0.0 0.0 0.0 0.0 0.0 0.0 0.0
0.0 1.0 0.0 0.0 0.0 0.0 0.0 0.0
0.0 0.0 0.0 0.0 0.0 0.0 0.0 0.0
0.0 0.0 1.0 0.0 0.0 0.0 0.0 0.0
0.0 0.0 0.0 0.0 0.0 0.0 0.0 0.0
0.0 0.0 0.0 1.0 0.0 0.0 0.0 0.0
0.0 0.0 0.0 0.0 0.0 0.0 0.0 0.0
0.0 0.0 0.0 0.0 1.0 0.0 0.0 0.0
0.0 0.0 0.0 0.0 0.0 0.0 0.0 0.0
0.0 0.0 0.0 0.0 0.0 1.0 0.0 0.0
0.0 0.0 0.0 0.0 0.0 0.0 0.0 0.0
0.0 0.0 0.0 0.0 0.0 0.0 1.0 0.0
0.0 0.0 0.0 0.0 0.0 0.0 0.0 0.0
0.0 0.0 0.0 0.0 0.0 0.0 0.0 1.0
00000000: 0000 803f 0000 0000 0000 0000 0000 0000
00000010: 0000 0000 0000 0000 0000 0000 0000 0000
00000020: 0000 0000 0000 0000 0000 0000 0000 0000
00000030: 0000 0000 0000 0000 0000 0000 0000 0000
00000040: 0000 0000 0000 803f 0000 0000 0000 0000
00000050: 0000 0000 0000 0000 0000 0000 0000 0000
00000060: 0000 0000 0000 0000 0000 0000 0000 0000
00000070: 0000 0000 0000 0000 0000 0000 0000 0000
00000080: 0000 0000 0000 0000 0000 803f 0000 0000
00000090: 0000 0000 0000 0000 0000 0000 0000 0000
000000a0: 0000 0000 0000 0000 0000 0000 0000 0000
000000b0: 0000 0000 0000 0000 0000 0000 0000 0000
000000c0: 0000 0000 0000 0000 0000 0000 0000 803f
000000d0: 0000 0000 0000 0000 0000 0000 0000 0000
000000e0: 0000 0000 0000 0000 0000 0000 0000 0000
000000f0: 0000 0000 0000 0000 0000 0000 0000 0000
00000100: 0000 0000 0000 0000 0000 0000 0000 0000
00000110: 0000 803f 0000 0000 0000 0000 0000 0000
00000120: 0000 0000 0000 0000 0000 0000 0000 0000
00000130: 0000 0000 0000 0000 0000 0000 0000 0000
00000140: 0000 0000 0000 0000 0000 0000 0000 0000
00000150: 0000 0000 0000 803f 0000 0000 0000 0000
00000160: 0000 0000 0000 0000 0000 0000 0000 0000
00000170: 0000 0000 0000 0000 0000 0000 0000 0000
00000180: 0000 0000 0000 0000 0000 0000 0000 0000
00000190: 0000 0000 0000 0000 0000 803f 0000 0000
000001a0: 0000 0000 0000 0000 0000 0000 0000 0000
000001b0: 0000 0000 0000 0000 0000 0000 0000 0000
000001c0: 0000 0000 0000 0000 0000 0000 0000 0000
000001d0: 0000 0000 0000 0000 0000 0000 0000 803f
000001e0: 0000 0000 0000 0000 0000 0000 0000 0000
000001f0: 0000 0000 0000 0000 0000 0000 0000 0000
00000200: 0000 0000 0000 0000 0000 0000 0000 0000
00000210: 0000 0000 0000 0000 0000 0000 0000 0000
00000220: 0000 803f 0000 0000 0000 0000 0000 0000
00000230: 0000 0000 0000 0000 0000 0000 0000 0000
00000240: 0000 0000 0000 0000 0000 0000 0000 0000
00000250: 0000 0000 0000 0000 0000 0000 0000 0000
00000260: 0000 0000 0000 803f 0000 0000 0000 0000
00000270: 0000 0000 0000 0000 0000 0000 0000 0000
00000280: 0000 0000 0000 0000 0000 0000 0000 0000
00000290: 0000 0000 0000 0000 0000 0000 0000 0000
000002a0: 0000 0000 0000 0000 0000 803f 0000 0000
000002b0: 0000 0000 0000 0000 0000 0000 0000 0000
000002c0: 0000 0000 0000 0000 0000 0000 0000 0000
000002d0: 0000 0000 0000 0000 0000 0000 0000 0000
000002e0: 0000 0000 0000 0000 0000 0000 0000 803f
000002f0: 0000 0000 0000 0000 0000 0000 0000 0000
00000300: 0000 0000 0000 0000 0000 0000 0000 0000
00000310: 0000 0000 0000 0000 0000 0000 0000 0000
00000320: 0000 0000 0000 0000 0000 0000 0000 0000
00000330: 0000 803f 0000 0000 0000 0000 0000 0000
00000340: 0000 0000 0000 0000 0000 0000 0000 0000
00000350: 0000 0000 0000 0000 0000 0000 0000 0000
00000360: 0000 0000 0000 0000 0000 0000 0000 0000
00000370: 0000 0000 0000 803f 0000 0000 0000 0000
00000380: 0000 0000 0000 0000 0000 0000 0000 0000
00000390: 0000 0000 0000 0000 0000 0000 0000 0000
000003a0: 0000 0000 0000 0000 0000 0000 0000 0000
000003b0: 0000 0000 0000 0000 0000 803f 0000 0000
000003c0: 0000 0000 0000 0000 0000 0000 0000 0000
000003d0: 0000 0000 0000 0000 0000 0000 0000 0000
000003e0: 0000 0000 0000 0000 0000 0000 0000 0000
000003f0: 0000 0000 0000 0000 0000 0000 0000 803f

flow.flow.transforms.0.x0 f4 [7, 16]
0.21080895 -0.06065893 -0.12783788 -0.13970986 0.2364157 0.07602253 0.427289 0.13511753
-0.20978424 -0.26702663 0.1614016 0.00048680138 0.066630565 0.018164981 0.028314093 0.20274849
-0.13256457 -0.30672064 0.3067002 -0.161927 0.0063492535 -0.025376605 -0.16595405 0.010633752
0.33996445 0.29030213 -0.37232995 -0.28210565 -0.06051963 -0.5381745 -0.21646017 -0.21963952
0.07025701 0.19894165 0.038901504 0.15256368 0.16614933 0.123643555 0.10534708 0.0671282
0.02857411 -0.13829197 0.27824485 0.0607959 0.08765706 0.054230668 -0.059128743 0.09105805
-0.12632759 0.16042753 0.053726263 -0.08209668 -0.23462358 0.15783642 -0.34494472 -0.15838178
0.08506487 -0.04448176 -0.16035254 0.24499352 0.13659906 0.16322015 -0.18072714 -0.2120598
0.004976615 0.17784084 -0.08946238 0.036117125 -0.02139783 0.032377325 0.09407584 0.2559088
0.32404706 -0.092834674 0.25617695 -0.17900974 -0.10795554 0.03618721 -0.17362031 0.20864731
-0.060804006 -0.21901524 -0.28566095 -0.20718108 -0.14766169 -0.37364513 0.049766175 -0.16212226
-0.15058413 0.03828922 0.18937472 0.25252956 -0.09627946 -0.32503733 0.07118362 0.21475713
-0.09773783 -0.31833786 -0.1147179 0.13304852 0.0857086 -0.07652177 -0.22694585 0.05281391
0.041388314 0.07671418 -0.38806805 0.060656574 0.041720748 0.00725842 0.1279158 -0.07454643
00000000: 4dde 573e 8075 78bd efe7 02be 1a10 0fbe
00000010: f516 723e b3b1 9b3d a0c5 da3e 405c 0a3e
00000020: aed1 56be b7b7 88be 7646 253e 6039 ff39
00000030: 9b75 883d bace 943c f5f2 e73c 4d9d 4f3e
00000040: 02bf 07be 7d0a 9dbe cf07 9d3e 31d0 25be
00000050: 660d d03b 99e2 cfbc dcef 29be 3039 2e3c
00000060: d20f ae3e 7ba2 943e 08a2 bebe 2770 90be
00000070: 6ee3 77bd cec5 09bf bca7 5dbe 2fe9 60be
00000080: e8e2 8f3d 5cb7 4b3e 2f57 1f3d a739 1c3e
00000090: 0d23 2a3e d538 fd3d 36c0 d73d 827a 893d
000000a0: 4014 ea3c 699c 0dbe 1c76 8e3e 1f05 793d
000000b0: 8b85 b33d fa20 5e3d fb30 72bd a57c ba3d
000000c0: 055c 01be 1d47 243e 1210 5c3d 4e22 a8bd
000000d0: 2a41 70be df9f 213e 989c b0be d52e 22be
000000e0: 7e36 ae3d 8232 36bd 7533 24be 95df 7a3e
000000f0: a0e0 0b3e 2f23 273e 8910 39be 3426 59be
00000100: df12 a33b e91b 363e 0d38 b7bd 8def 133d
00000110: 814a afbc 169e 043d d6aa c03d 7a06 833e
00000120: 7fe9 a53e 1b20 bebd a029 833e 544e 37be
00000130: cb17 ddbd 0a39 143d 86c9 31be a4a7 553e
00000140: 9f0d 79bd 8845 60be 2742 92be 4727 54be
00000150: a034 17be 6a4e bfbe 9ed7 4b3d 6103 26be
00000160: ba32 1abe 28d5 1c3d 72eb 413e 8e4b 813e
00000170: 2a2e c5bd 4b6b a6be b8c8 913d 4be9 5b3e
00000180: c52a c8bd 2efd a2be 38f1 eabd df3d 083e
00000190: fe87 af3d 72b7 9cbd 7e64 68be 6653 583d
000001a0: cb86 293d 531c 9d3d dbb0 c6be 0773 783d
000001b0: 60e3 2a3d 0ad8 ed3b 5cfc 023e ccab 98bd

flow.flow.transforms.0.alpha_prime f4 [7]
-0.03005806 0.10209918 0.13101418 0.31186175 -0.3008571 0.11552385 -0.040284563
00000000: 523c f6bc 6019 d13d 9528 063e 58ac 9f3e
00000010: f109 9abe c597 ec3d 6d01 25bd

flow.flow.transforms.0.beta_prime f4 [7]
-0.25687388 0.0066033816 -0.09795002 -0.2863187 0.21132815 0.005919472 0.29838654
00000000: f984 83be 2e61 d83b 059a c8bd 5d98 92be
00000010: 6866 583e 21f8 c13b 1fc6 983e

flow.flow.transforms.1.x0 f4 [7, 16]
0.17005211 -0.35323852 -0.21133958 0.22051342 0.21821386 -0.07692982 0.2442087 -0.041176487
0.08930969 -0.101594605 -0.1724621 -0.00077134836 -0.039965615 -0.2270679 0.03175904 0.15661918
0.14416002 0.10364568 0.08708056 0.04613154 -0.044769116 0.09195362 0.02616438 -0.29816166
-0.25379333 -0.022436386 0.086080305 0.108047456 0.07937085 0.13400334 -0.07588677 -0.13213913
0.17083421 0.097317934 -0.0029917753 0.19253555 0.115432255 -0.044272248 0.14442995 0.13040784
0.21881768 -0.20385732 -0.07694211 0.037335645 -0.097695865 -0.09283276 0.004069066 0.1050217
0.165763 -0.26208174 -0.048120346 0.10210822 0.21533525 -0.17298818 0.4006926 0.23604956
-0.06543288 0.051835354 0.062483042 -0.40682307 -0.000363066 -0.23041727 0.13076319 0.26502237
0.12909126 -0.21516146 -0.08252414 0.08202315 0.11659226 -0.03543212 -0.17555217 -0.29344422
-0.37501106 0.1612507 -0.222715 0.24415185 0.11432675 0.10713278 -0.035018276 -0.32935998
-0.14414175 -0.14329657 -0.165469 -0.042932954 -0.013412628 -0.23716246 0.07710268 0.24572916
0.3259327 0.03290934 0.2942514 0.018943327 -0.13209018 0.16150974 -0.16848002 0.04394724
-0.090443745 -0.3261778 -0.11876675 0.107072644 -0.048469964 -0.051652696 -0.27807572 0.05930438
0.12518917 0.046270408 -0.38710064 0.0436785 0.013545368 0.11462731 0.02967644 -0.09666108
00000000: 2422 2e3e aedb b4be 6769 58be 45ce 613e
00000010: 7473 5f3e 628d 9dbd d811 7a3e ada8 28bd
00000020: 00e8 b63d d510 d0bd e899 30be 5034 4aba
00000030: fcb2 23bd 7d84 68be c415 023d c760 203e
00000040: af9e 133e 3044 d43d 4b57 b23d 6df4 3c3d
00000050: d25f 37bd 2e52 bc3d af56 d63c a5a8 98be
00000060: 33f1 81be 83cc b7bc df4a b03d fc47 dd3d
00000070: 2f8d a23d 2c38 093e 866a 9bbd 7b4f 07be
00000080: 2aef 2e3e a04e c73d a911 44bb 0a28 453e
00000090: bf67 ec3d d156 35bd 72e5 133e a289 053e
000000a0: be11 603e f9bf 50be d393 9dbd 43ed 183d
000000b0: c514 c8bd 1a1f bebd cd55 853b 9e15 d73d
000000c0: c7bd 293e 942f 86be d719 45bd 1d1e d13d
000000d0: d880 5c3e d023 31be 9527 cd3e fab6 713e
000000e0: ac01 86bd 4f51 543d 38ee 7f3d 1d4b d0be
000000f0: e559 beb9 81f2 6bbe c9e6 053e 03b1 873e
00000100: 8030 043e 4953 5cbe 6b02 a9bd c1fb a73d
00000110: ecc7 ee3d 4521 11bd f3c3 33be 523e 96be
00000120: 7301 c0be e71e 253e 670f 64be f102 7a3e
00000130: 2524 ea3d 6e68 db3d 536f 0fbd dfa1 a8be
00000140: e599 13be 56bc 12be b570 29be 77da 2fbd
00000150: a4c0 5bbc b7da 72be 03e8 9d3d 6da0 7b3e
00000160: a7e0 a63e f2cb 063d 1fa8 963e 092f 9b3c
00000170: a642 07be cf62 253e 0786 2cbe 0502 343d
00000180: 923a b9bd c700 a7be fb3b f3bd e748 db3d
00000190: 7188 46bd c791 53bd f15f 8ebe 26e9 723d
000001a0: 9731 003e 0a86 3d3d 0e32 c6be 3ae8 323d
000001b0: 64ed 5d3c b9c1 ea3d 011c f33c 3ff6 c5bd

flow.flow.transforms.1.alpha_prime f4 [7]
0.1317166 -0.29013857 0.005142856 -0.2143361 0.23983718 0.19816229 -0.26870856
00000000: b7e0 063e 0b8d 94be 6785 a83b ec7a 5bbe
00000010: e197 753e 0eeb 4a3e 2b94 89be

flow.flow.transforms.1.beta_prime f4 [7]
-0.20047295 0.18646355 -0.047363468 0.30691212 -0.12041121 0.064502366 0.24402611
00000000: c848 4dbe 4df0 3e3e 3200 42bd 9623 9d3e
00000010: 279a f6bd d119 843d fbe1 793e

flow.flow.transforms.2.x0 f4 [7, 16]
-0.22462511 0.29480782 0.09485929 -0.20131855 -0.055841587 -0.05272097 -0.41239503 -0.033819903
0.22936946 -0.031598225 -0.049301278 0.35646763 -0.057477005 0.19835263 -0.08018723 -0.17698832
-0.5231963 0.0041097794 -0.18314746 0.1379498 0.16296819 -0.4080816 0.2660954 0.46971312
-0.09062785 -0.07939568 0.034896098 0.27736208 -0.252173 -0.018974895 0.13867454 0.2203543
-0.46436742 -0.38991934 -0.0866544 -0.18041128 0.0321183 0.009766012 -0.31574187 -0.03575236
-0.1779553 0.37940386 -0.4715869 0.11354375 -0.10686415 -0.31145918 0.028648218 -0.11641362
0.1933619 0.10159598 -0.08490096 -0.14953452 0.19569856 -0.35662854 0.5149795 0.35032672
0.17744257 -0.10209477 0.27957654 -0.005303815 0.025008723 -0.63038003 0.06641607 0.31230968
-0.2770475 -0.3415623 0.08136736 -0.23303857 0.086780176 -0.29776546 0.089589246 -0.013087055
0.07728061 -0.17859752 0.13793918 0.27190775 0.121992595 0.3289921 -0.22742024 -0.39099994
0.27088967 -0.0076076696 -0.082429945 -0.01041924 0.07886377 0.1533705 -0.067703106 -0.27415395
-0.2921466 -0.18904886 -0.18800695 0.20072177 -0.07702799 0.09003521 0.0031593181 0.05762639
0.19382547 0.013958927 -0.025261916 0.13150705 -0.0113792345 0.121863425 0.3443448 -0.007211679
0.15558955 0.23129259 0.21569425 -0.2368134 -0.22273868 0.12656623 0.05406815 0.105251506
00000000: 2004 66be 0df1 963e 9645 c23d 7326 4ebe
00000010: 26ba 64bd f2f1 57bd 7125 d3be bd86 0abd
00000020: d4df 6a3e 246d 01bd 23f0 49bd ed82 b63e
00000030: 026d 6bbd f41c 4b3e 3439 a4bd 6d3c 35be
00000040: 31f0 05bf 54ab 863b 028b 3bbe b642 0d3e
00000050: 22e1 263e 12f0 d0be a83d 883e 3d7e f03e
00000060: 189b b9bd 349a a2bd 36ef 0e3d 6702 8e3e
00000070: d21c 81be 3d71 9bbc b300 0e3e 8fa4 613e
00000080: 91c1 edbe 82a3 c7be dd77 b1bd bcbd 38be
00000090: 7b8e 033d a001 203c eba8 a1be 1171 12bd
000000a0: ea39 36be 3941 c23e d773 f1be a089 e83d
000000b0: 97db dabd 9477 9fbe abaf ea3c 446a eebd
000000c0: a900 463e 8e11 d03d 8ee0 adbd 941f 19be
000000d0: 3465 483e 0498 b6be b2d5 033f 065e b33e
000000e0: 81b3 353e 1017 d1bd a824 8f3e a0cb adbb
000000f0: 18df cc3c 9660 21bf 2605 883d 0ee7 9f3e
00000100: 2bd9 8dbe 41e1 aebe eea3 a63d aaa1 6ebe
00000110: ceb9 b13d b774 98be 917a b73d 166b 56bc
00000120: 4c45 9e3d 45e2 36be ee3f 0d3e 7e37 8b3e
00000130: 41d7 f93d a771 a83e dae0 68be 2531 c8be
00000140: 0db2 8a3e c249 f9bb 08d1 a8bd 76b5 2abc
00000150: 5483 a13d 280d 1d3e eda7 8abd e85d 8cbe
00000160: 3d94 95be 0696 41be e584 40be 028a 4d3e
00000170: dac0 9dbd 6164 b83d 900c 4f3b a609 6c3d
00000180: 2f7a 463e fcb3 643c 14f2 cebc c9a9 063e
00000190: f86f 3abc 8893 f93d f64d b03e f34f ecbb
000001a0: de52 1f3e f7d7 6c3e f4de 5c3e 367f 72be
000001b0: 9c15 64be 949a 013e 9176 5d3d 1a8e d73d

flow.flow.transforms.2.alpha_prime f4 [7]
-0.058924984 -0.003739053 -0.20955634 -0.13967878 0.10703259 -0.17293817 -0.08709502
00000000: 535b 71bd e60a 75bb f095 56be f407 0fbe
00000010: e733 db3d b416 31be e05e b2bd

flow.flow.transforms.2.beta_prime f4 [7]
0.20059472 -0.055663727 0.23391852 -0.047257885 0.10168833 0.039866947 -0.2099124
00000000: b468 4d3e a6ff 63bd 5688 6f3e 7c91 41bd
00000010: f941 d03d 864b 233d 47f3 56be

flow.flow.transforms.3.x0 f4 [7, 16]
-0.23380758 0.2504918 0.07826887 -0.20145032 -0.2849615 0.07656514 -0.17367785 -0.033207368
0.19962057 0.1326903 -0.058611173 0.353954 0.00073427893 0.15913314 0.024088338 -0.145398
-0.33155525 0.24656774 -0.41128156 -0.15492181 0.18886323 -0.38766316 0.3555816 -0.32412416
0.20689452 -0.38503298 -0.30367693 -0.3746856 -0.15949953 0.1761946 0.18237735 0.36815596
0.2994033 0.21178453 -0.062287204 0.16034284 0.016392615 0.11424899 -0.052500814 0.00090486667
0.15566392 -0.24670619 0.34468928 0.034347 -0.048199564 0.25185415 0.08440894 -0.016013946
-0.1471267 0.3183071 0.16861522 -0.012553853 -0.43119267 -0.036343582 0.0630037 -0.15805867
0.06531161 -0.087000966 -0.30209175 0.34279346 -0.2089555 0.31511334 -0.31751013 0.14333512
-0.0152482325 0.09577516 -0.055189144 0.07813075 -0.083085105 -0.04993471 0.13642901 0.22711053
0.32429793 -0.17747076 0.12770686 -0.21406817 -0.01396412 0.08827925 0.068281405 0.04998555
-0.5032017 0.20701516 -0.08066408 -0.27018696 -0.02617552 -0.3110768 0.077842705 -0.13007583
-0.039767634 -0.1210627 0.09588863 0.20382752 -0.1926146 -0.19156247 0.086373106 0.32982332
-0.06728403 -0.27709246 -0.07291886 0.3235803 0.026813425 -0.09750344 0.084379196 -0.15620412
-0.040576555 0.14431553 -0.009899393 -0.037157588 0.22906013 0.13784896 -0.026500018 -0.17334905
00000000: 416b 6fbe 7640 803e 6e4b a03d fe48 4ebe
00000010: 79e6 91be 2fce 9c3d 9bd8 31be 7304 08bd
00000020: 5669 4c3e f7df 073e 4512 70bd 7539 b53e
00000030: a07c 403a ccf3 223e e854 c53c 37e3 14be
00000040: 9cc1 a9be 417c 7c3e 7f93 d2be d3a3 1ebe
00000050: 5d65 413e c97b c6be cb0e b63e 9af3 a5be
00000060: 28dc 533e 0b23 c5be 8b7b 9bbe cad6 bfbe
00000070: d853 23be 5b6c 343e 21c1 3a3e f07e bc3e
00000080: 644b 993e 0bde 583e de20 7fbd ea30 243e
00000090: ce49 863c 60fb e93d 180b 57bd 9334 6d3a
000000a0: 5d66 1f3e 8ca0 7cbe 1d7b b03e 71af 0c3d
000000b0: e86c 45bd 07f3 803e 98de ac3d ae2f 83bc
000000c0: 62a8 16be 26f9 a23e 78a9 2c3e adae 4dbc
000000d0: 49c5 dcbe 02dd 14bd 1508 813d 22da 21be
000000e0: 18c2 853d 902d b2bd c5ab 9abe a082 af3e
000000f0: 6ef8 55be 8956 a13e b090 a2be 71c6 123e
00000100: b9d3 79bc c425 c43d 030e 62bd 0403 a03d
00000110: 8628 aabd 5788 4cbd 0cb4 0b3e aa8f 683e
00000120: 610a a63e e5ba 35be 96c5 023e b034 5bbe
00000130: c4c9 64bc c0cb b43d 1fd7 8b3d a6bd 4c3d
00000140: d4d1 00bf c8fb 533e 3633 a5bd f255 8abe
00000150: 0b6e d6bc 7545 9fbe ff6b 9f3d 9932 05be
00000160: 63e3 22bd b9ef f7bd 4261 c43d 29b8 503e
00000170: c33c 45be f428 44be 62e4 b03d 9ade a83e
00000180: 36cc 89bd 10df 8dbe 7c56 95bd 51ac a53e
00000190: d4a7 db3c e2af c7bd 00cf ac3d f9f3 1fbe
000001a0: 9a33 26bd 73c7 133e 1031 22bc 8e32 18bd
000001b0: bd8e 6a3e 4728 0d3e 9116 d9bc 6a82 31be

flow.flow.transforms.3.alpha_prime f4 [7]
-0.09678095 -0.14281039 0.20600545 0.08734145 -0.018189497 0.06253005 -0.07507855
00000000: 1735 c6bd e33c 12be 18f3 523e 13e0 b23d
00000010: 2402 95bc c10f 803d c8c2 99bd

flow.flow.transforms.3.beta_prime f4 [7]
0.30595338 -0.15078299 -0.17299755 -0.0014048584 0.07771876 -0.05286096 0.03380729
00000000: eca5 9c3e db66 1abe 4526 31be 3a23 b8ba
00000010: 032b 9f3d bc84 58bd 8379 0a3d

flow.flow.transforms.4.x0 f4 [7, 16]
-0.07551195 0.2578891 0.12179423 -0.15234117 -0.24316008 0.06994311 -0.28810427 0.12108484
0.22231199 0.010897446 -0.08613783 0.37151837 0.00021877233 0.15093945 -0.075095296 -0.22956683
0.23485918 -0.34873602 -0.03691758 0.26602235 0.014015846 -0.14446917 -0.029672297 0.40916273
0.41862452 -0.055622444 0.29057747 -0.42409965 0.19496027 -0.1638255 0.030580228 0.25820017
-0.40776125 -0.21114813 0.055254355 0.016241014 -0.2157435 -0.23665866 -0.24302177 -0.12060162
0.08243649 0.31578144 -0.40358162 -0.04941178 0.07317464 -0.35773796 0.12750164 0.053541135
-0.21378583 -0.0072640954 0.030858345 -0.018879848 0.022574153 0.15453944 -0.42959258 -0.22721888
-0.14856811 -0.03330979 -0.24272521 0.2956495 0.14772107 0.17366424 -0.1880808 -0.30074087
0.1525102 0.21050528 -0.17644176 0.07817083 0.17073303 0.15907018 0.0035083122 0.1971465
0.16807404 -0.23734792 0.22784899 -0.17140219 -0.012775866 0.07399538 -0.15397793 0.14387503
0.18736862 -0.1428781 -0.019021887 0.045812055 0.06815844 0.07010151 -0.005916416 -0.21314728
-0.24530303 -0.093524866 -0.13699056 0.12051094 0.034823604 0.088868596 0.09685091 -0.108514205
-0.16199248 0.24332544 -0.303032 -0.048993096 -0.06989801 -0.16406117 0.2786204 -0.30994916
-0.28010073 0.20549378 0.2385996 0.03727152 -0.05816982 -0.06953344 0.06533166 -0.22637849
00000000: 02a6 9abd 0a0a 843e 416f f93d 53ff 1bbe
00000010: f5fe 78be 553e 8f3d 6782 93be 54fb f73d
00000020: c1a5 633e 348b 323c 0869 b0bd a837 be3e
00000030: 4066 6539 df8f 1a3e 90cb 99bd 9113 6bbe
00000040: ed7e 703e 878d b2be e336 17bd 1534 883e
00000050: b8a2 653c baef 13be 5113 f3bc c77d d13e
00000060: f455 d63e 5cd4 63bd 92c6 943e 9723 d9be
00000070: aaa3 473e dfc1 27be 6383 fa3c d032 843e
00000080: 15c6 d0be 3737 58be 6452 623d e00b 853c
00000090: ddeb 5cbe a656 72be b3da 78be fbfd f6bd
000000a0: 76d4 a83d 1bae a13e 40a2 cebe 0264 4abd
000000b0: 96dc 953d 6e29 b7be ca8f 023e f34d 5b3d
000000c0: acea 5abe a607 eebb a4ca fc3c e9a9 9abc
000000d0: 6eed b83c 963f 1e3e 8ff3 dbbe 11ac 68be
000000e0: 3d22 18be d96f 08bd f58c 78be 5f5f 973e
000000f0: 3144 173e 0ad5 313e 4198 40be b5fa 99be
00000100: a22b 1c3e b28e 573e 26ad 34be 0718 a03d
00000110: a4d4 2e3e 4be3 223e b6eb 653b c6e0 493e
00000120: 9a1b 2c3e 550b 73be 3f51 693e 0e84 2fbe
00000130: de51 51bc e48a 973d 64ac 1dbe fa53 133e
00000140: 8fdd 3f3e a34e 12be cad3 9bbc 6ca5 3b3d
00000150: a796 8b3d 6191 8f3d 7fde c1bb 4843 5abe
00000160: b830 7bbe f789 bfbd 4147 0cbe 71ce f63d
00000170: 32a3 0e3d bd00 b63d c559 c63d b23c debd
00000180: 5be1 25be 4e2a 793e 0327 9bbe fcac 48bd
00000190: b026 8fbd a7ff 27be 55a7 8e3e a8b1 9ebe
000001a0: 5d69 8fbe f66c 523e 7453 743e 05aa 183d
000001b0: 7a43 6ebd 8c67 8ebd 9bcc 853d c3cf 67be

flow.flow.transforms.4.alpha_prime f4 [7]
-0.028689187 0.17959784 -0.21665263 0.023426896 -0.203187 -0.28675804 0.025196131
00000000: 9605 ebbc 7fe8 373e 30da 5dbe c3e9 bf3c
00000010: 4110 50be f3d1 92be 1e68 ce3c

flow.flow.transforms.4.beta_prime f4 [7]
0.072950035 0.08976439 0.235351 -0.12717879 0.10254215 0.2377648 0.009572515
00000000: d466 953d 64d6 b73d daff 703e 283b 02be
00000010: 9e01 d23d 9e78 733e 0ad6 1c3c

flow.flow.transforms.5.x0 f4 [7, 16]
-0.2339823 0.29470327 0.28426012 -0.2087208 -0.027535979 0.10118448 0.025679985 0.0994982
0.2564497 -0.088747725 -0.020280931 0.3809191 0.055858087 0.052617732 -0.033885147 -0.06473179
-0.26088908 0.14548722 0.35089642 -0.38886878 -0.21113656 0.12716815 0.32697853 0.2148298
-0.35750687 -0.23772141 0.24059774 -0.27871272 -0.2655713 0.17724065 0.15028307 -0.2758398
-0.48491338 -0.3973085 -0.24746507 -0.20605882 -0.22816059 -0.04990673 -0.31599462 -0.24670878
-0.06454766 -0.08846502 -0.23943393 -0.04925952 0.06771644 -0.15444538 0.24928382 -0.2072615
0.41218665 0.194595 0.19999564 -0.25780064 0.013125908 -0.37058082 0.015485075 -0.13081802
-0.24524021 -0.2763674 0.29418463 -0.50456667 0.26191863 -0.616186 -0.058351383 0.2763755
-0.19965306 0.17235848 -0.06369535 0.028961232 0.27383742 -0.2440639 -0.2709406 -0.32583472
-0.46708426 -0.14307784 -0.33159357 -0.20240903 -0.14896613 0.22436981 0.22707324 0.10419117
0.17739014 -0.07217926 -0.0933372 -0.028151765 0.12982458 0.0735591 -0.064006165 -0.25368872
-0.25996816 -0.18757059 -0.16058314 -0.055069663 0.06842779 0.07543628 0.096304655 -0.17569774
0.261097 0.32958284 0.14916877 -0.10288043 0.0016979147 0.19353369 0.20479655 -0.07742725
0.21294163 -0.07315131 0.3692121 0.07975126 0.05376302 0.12024117 -0.20340736 0.20504089
00000000: 0e99 6fbe 59e3 963e 8b8a 913e e8ba 55be
00000010: 2293 e1bc cf39 cf3d d55e d23c b6c5 cb3d
00000020: 604d 833e 5ec1 b5bd 3224 a6bc d407 c33e
00000030: 73cb 643d b185 573d 27cb 0abd 1a92 84bd
00000040: 4193 85be 9afa 143e b2a8 b33e cf19 c7be
00000050: 2f34 58be 5e38 023e bb69 a73e 58fc 5b3e
00000060: 240b b7be 3e6d 73be 415f 763e 6fb3 8ebe
00000070: f6f8 87be 937e 353e cee3 193e e03a 8dbe
00000080: 9146 f8be 056c cbbe 7c67 7dbe 1501 53be
00000090: eea2 69be 006b 4cbd 0cca a1be 3aa1 7cbe
000000a0: 9031 84bd 262d b5bd 2b2e 75be 5ac4 49bd
000000b0: ebae 8a3d ee26 1ebe 4244 7f3e 5c3c 54be
000000c0: 210a d33e e943 473e a8cb 4c3e 72fe 83be
000000d0: 0c0e 573c c5bc bdbe 1db5 7d3c 29f5 05be
000000e0: 4020 7bbe 0780 8dbe 5e9f 963e 482b 01bf
000000f0: 331a 863e 5ebe 1dbf dc01 6fbd 1781 8d3e
00000100: da71 4cbe be7e 303e b572 82bd 1b40 ed3c
00000110: 6b34 8c3e e3eb 79be bab8 8abe cfd3 a6be
00000120: ab25 efbe ff82 12be a2c6 a9be 5044 4fbe
00000130: 948a 18be 33c1 653e e385 683e 2e62 d53d
00000140: c3a5 353e b8d2 93bd 9327 bfbd 889e e6bc
00000150: bcf0 043e 27a6 963d aa15 83bd 7de3 81be
00000160: 8c1a 85be 8112 40be e86f 24be ba90 61bd
00000170: df23 8c3d 567e 9a3d 603b c53d 1cea 33be
00000180: 82ae 853e 15bf a83e b3bf 183e fab2 d2bd
00000190: 908c de3a b22d 463e 30b6 513e 2e92 9ebd
000001a0: 5f0d 5a3e 5bd0 95bd 5e09 bd3e a154 a33d
000001b0: 9d36 5c3d 0141 f63d 054a 50be 3df6 513e

flow.flow.transforms.5.alpha_prime f4 [7]
0.06252747 -0.17948365 -0.22301325 0.12224081 0.20670387 -0.14628147 0.1229901
00000000: 670e 803d 90ca 37be 965d 64be 6459 fa3d
00000010: 2eaa 533e cfca 15be 3ce2 fb3d

flow.flow.transforms.5.beta_prime f4 [7]
0.14415342 -0.15045139 -0.07339592 0.15839851 0.17518508 0.075275905 -0.06534089
00000000: f49c 133e ee0f 1abe 9a50 96bd 3833 223e
00000010: b863 333e 412a 9a3d 72d1 85bd

flow.flow.transforms.6.x0 f4 [7, 16]
-0.20509332 0.20746276 0.10055556 -0.16164687 -0.26822716 0.035614464 -0.32725218 -0.04586563
0.17662084 0.09796535 -0.03959032 0.34847316 -0.009213459 0.12316453 -0.08266608 -0.1626097
0.25480396 0.18771517 0.15454267 0.10406462 -0.25476015 -0.23843184 -0.16989253 -0.41011515
-0.35369083 -0.3085684 0.3369147 -0.15295072 -0.02289899 0.21887271 0.023359075 0.10239373
0.28060627 0.24513376 0.02810267 -0.0073278677 0.18433054 0.12263513 -0.10436206 0.058976717
0.020735912 -0.21751234 0.28092608 0.18078801 0.11577003 0.17460915 -0.057598174 -0.00513974
0.13866735 -0.009993532 0.077155136 0.12538348 0.27349472 -0.19797488 0.4682499 0.2725732
-0.013079987 0.0985828 0.073799595 -0.45882946 -0.036529195 0.046399277 0.25541317 0.2957602
0.103208125 -0.32304054 -0.078604475 -0.038583983 -0.0797243 0.12004308 -0.20643418 0.03658661
-0.49524227 0.48098162 0.1828619 -0.22273499 -0.23286639 0.18978159 0.20969343 -0.03885684
0.25185725 -0.18191923 0.05015766 0.047262553 0.07836156 0.08954745 -0.0187289 -0.25086066
-0.2788688 -0.094829045 -0.17015396 0.12533405 -0.14988057 0.086917736 0.023487424 -0.13743481
-0.012758666 -0.32229105 -0.104010396 0.09461622 -0.06255752 -0.08485044 -0.15587723 0.18467957
0.06649851 -0.107255965 -0.31648356 0.09469754 -0.06302226 -0.042104885 0.02794104 0.11692751
00000000: fc03 52be 1e71 543e 13f0 cd3d c286 25be
00000010: 1255 89be 79e0 113d 998d a7be 99dd 3bbd
00000020: 18dc 343e 0fa2 c83d 7629 22bd 136b b23e
00000030: 0cf4 16bc af3d fc3d d54c a9bd 2883 26be
00000040: aa75 823e 6838 403e 6f40 1e3e d51f d53d
00000050: ec6f 82be 7a27 74be 4ff8 2dbe 9dfa d1be
00000060: f716 b5be adfc 9dbe 1580 ac3e 1d9f 1cbe
00000070: aa96 bbbc 2b20 603e 885b bf3c ceb3 d13d
00000080: a0ab 8f3e 5804 7b3e 9237 e63c 9c1e f0bb
00000090: 25c1 3c3e 2128 fb3d c7bb d5bd 9291 713d
000000a0: 5cde a93c 8ebb 5ebe 8bd5 8f3e 7e20 393e
000000b0: d618 ed3d becc 323e 10ec 6bbd 446b a8bb
000000c0: d0fe 0d3e e9bb 23bc 8303 9e3d 8764 003e
000000d0: 8007 8c3e edb9 4abe 73be ef3e b78e 8b3e
000000e0: 714d 56bc c7e5 c93d 3e24 973d b2eb eabe
000000f0: a39f 15bd 2b0d 3e3d 84c5 823e e26d 973e
00000100: c85e d33d 9265 a5be 62fb a0bd 3d0a 1ebd
00000110: 7e46 a3bd 25d9 f53d 7b63 53be d7db 153d
00000120: 6590 fdbe 3943 f63e 2640 3b3e a414 64be
00000130: 8774 6ebe 1b56 423e e0b9 563e 5a28 1fbd
00000140: 6ff3 803e 0949 3abe 1e72 4d3d 6196 413d
00000150: 077c a03d a764 b73d 5a6d 99bc cf70 80be
00000160: e4c7 8ebe bb35 c2bd d73c 2ebe 9257 003e
00000170: 4b7a 19be ed01 b23d b368 c03c b6bb 0cbe
00000180: b909 51bc 5503 a5be 6703 d5bd 26c6 c13d
00000190: 281e 80bd 11c6 adbd 489e 1fbe a41c 3d3e
000001a0: 5f30 883d 04a9 dbbd 220a a2be c9f0 c13d
000001b0: d111 81bd 2c76 2cbd 9ce4 e43c b177 ef3d

flow.flow.transforms.6.alpha_prime f4 [7]
0.027173566 -0.00526526 -0.03601731 -0.084999695 0.049116623 -0.018335478 0.016051989
00000000: 199b de3c 3488 acbb e386 13bd 5214 aebd
00000010: 832e 493d 4934 96bc 767f 833c

flow.flow.transforms.6.beta_prime f4 [7]
0.3227795 0.062217012 -0.1525602 0.07807128 -0.1859758 0.22471286 0.11258042
00000000: 5b43 a53e 44d7 7e3d be38 1cbe d6e3 9f3d
00000010: 7170 3ebe 211b 663e 9090 e63d

flow.flow.transforms.7.x0 f4 [7, 16]
0.04153746 -0.08864185 -0.16658305 0.35144788 0.13181673 0.12261701 0.3454799 0.20349273
-0.14205956 -0.22214039 0.047545385 -0.403068 0.02659436 -0.22665462 0.17803743 0.21467571
-0.06334701 -0.13064975 0.26023084 -0.3081792 0.022417285 -0.28533345 0.29635525 0.37512356
0.4573288 0.31812254 0.13644253 -0.37889212 -0.12809996 -0.077219374 0.11247072 0.33469692
0.3199841 0.29517773 -0.001685696 -0.038577493 0.071549535 -0.050636876 0.1365852 -0.05581165
0.21022573 -0.22104555 0.32634032 -0.03242027 -0.074869744 0.19997182 0.09542827 0.1867414
0.20455305 -0.016965138 0.03577674 0.13275282 0.15651697 -0.19797644 0.37158254 0.25325683
-0.094832174 0.10328024 0.18012144 -0.3953442 0.043565314 -0.03142652 0.09280831 0.14591391
-0.24158713 -0.25673807 0.0824687 0.10314754 -0.16326724 -0.22668286 -0.1817911 -0.24621056
-0.32479846 0.32621387 -0.3223325 0.13040127 -0.13750394 -0.07217182 0.054617174 -0.3101757
-0.05940164 -0.23709172 -0.06490337 -0.05260501 -0.09897193 -0.3246948 0.29035687 -0.20543742
0.31704584 0.270222 0.29406485 -0.26677546 -0.32523358 -0.10540339 -0.2633537 -0.041373502
-0.14521772 0.23020001 0.086272575 -0.19192365 0.033782654 0.11540125 0.25274715 -0.17230412
-0.13604896 0.10827746 0.29920122 -0.099984765 0.103526816 -0.028699739 0.19993354 0.065226965
00000000: 2f23 2a3d dc89 b5bd bf94 2abe faf0 b33e
00000010: f7fa 063e a01e fb3d bee2 b03e 6660 503e
00000020: 1078 11be c578 63be f3be 423d ee5e cebe
00000030: 6adc d93c 2618 68be 724f 363e f3d3 5b3e
00000040: 14bc 81bd 0cc9 05be fa3c 853e aac9 9dbe
00000050: 74a4 b73c 3a17 92be e0bb 973e 3210 c03e
00000060: 0027 ea3e f5e0 a23e 97b7 0b3e 26fe c1be
00000070: a32c 03be 3125 9ebd 0d57 e63d 655d ab3e
00000080: f5d4 a33e 8921 973e 92f2 dcba 6f03 1ebd
00000090: 9088 923d 9d68 4fbd fedc 0b3e c29a 64bd
000000a0: 6a45 573e c459 62be 1416 a73e 1ecb 04bd
000000b0: 4f55 99bd 6ac5 4c3e e66f c33d 2339 3f3e
000000c0: 5b76 513e 79fa 8abc a28a 123d 5bf0 073e
000000d0: fc45 203e 56ba 4abe 1140 be3e e1aa 813e
000000e0: 5f37 c2bd 9784 d33d c171 383e 8e6a cabe
000000f0: 8b71 323d 18b9 00bd 4912 be3d 756a 153e
00000100: 9e62 77be 2c73 83be 5ae5 a83d 043f d33d
00000110: 872f 27be 8d1f 68be 7227 3abe 9f1e 7cbe
00000120: fc4b a6be 8105 a73e c408 a5be e987 053e
00000130: d5cd 0cbe d2ce 93bd 42b6 5f3d 59cf 9ebe
00000140: 224f 73bd 2cc8 72be 0fec 84bd 5a78 57bd
00000150: ccb1 cabd 663e a6be a8a9 943e 305e 52be
00000160: d553 a23e 8a5a 8a3e ab8f 963e cb96 88be
00000170: 0485 a6be bcdd d7bd 4cd6 86be 4377 29bd
00000180: f4b3 14be 8db9 6b3e adaf b03d a287 44be
00000190: ae5f 0a3d 7e57 ec3d 1368 813e 7e70 30be
000001a0: 6b50 0bbe 93c0 dd3d e730 993e d0c4 ccbd
000001b0: de05 d43d b71b ebbc 61bb 4c3e b795 853d

flow.flow.transforms.7.alpha_prime f4 [7]
0.17100637 -0.053860188 0.040543783 -0.25988925 0.17385061 0.06561381 0.1496904
00000000: 4b1c 2f3e 809c 5cbd 3d11 263d 3410 85be
00000010: e505 323e 8960 863d 7148 193e

flow.flow.transforms.7.beta_prime f4 [7]
-0.22049847 -0.12499153 -0.06329965 0.007287018 -0.12802556 -0.18873343 -0.1543139
00000000: 5aca 61be 8ffb ffbd 3fa3 81bd f0c7 ee3b
00000010: 2219 03be 5643 41be 7704 1ebe

flow.flow.transforms.8.x0 f4 [7, 16]
-0.25271648 0.27296567 -0.053770825 -0.13651815 -0.24153785 0.07076808 -0.15656203 0.09230796
0.26098722 0.12763818 -0.05756263 0.33480695 -0.04762306 0.18806821 -0.0037454616 0.041076645
-0.4954297 -0.35286543 -0.038925618 -0.12617563 -0.2905787 -0.020430116 -0.26135376 0.4025053
0.39185315 0.3139341 -0.09743365 0.10470576 -0.22482584 -0.16410021 0.032360904 0.17939098
0.29452935 0.2956255 -0.1136994 -0.15313965 0.055217333 0.13871025 -0.017286615 0.037853915
0.14195444 -0.13781579 0.33065078 0.06620995 0.061249435 0.26552832 -0.10884557 0.065245725
0.0061949166 -0.3239652 -0.0565919 -0.10574102 0.19302075 -0.13820778 0.44032893 0.24042019
-0.11461828 -0.09017586 0.077175416 -0.45885935 0.046844594 -0.28498718 0.17076297 0.21579914
-0.085547775 0.09017092 -0.08764977 0.12481218 -0.06255958 0.02013655 -0.08512312 0.12530755
0.20825183 -0.238705 0.060878627 -0.054395244 -0.21647269 -0.11744775 -0.16925222 0.0981133
0.25851017 -0.20491298 -0.17478298 0.18971361 0.081819355 0.2560011 0.21655829 -0.12183242
-0.03164932 -0.27123535 0.20202753 0.225793 0.12331155 0.008806175 0.26270708 0.13410918
-0.13829584 0.34205753 0.10012792 -0.06352463 0.09194771 0.14280206 -0.16547798 -0.17171854
0.21652538 0.024685398 0.30459744 0.20556642 -0.039501175 -0.040366713 -0.20504183 0.090926364
00000000: 0e64 81be 28c2 8b3e cc3e 5cbd 6acb 0bbe
00000010: b355 77be dbee 903d cc51 20be f50b bd3d
00000020: 1ea0 853e 95b3 023e cbc6 6bbd d16b ab3e
00000030: 6610 43bd f494 403e 6b76 75bb fc3f 283d
00000040: f6a8 fdbe c7aa b4be 7870 1fbd 2f34 01be
00000050: bbc6 94be 0f5d a7bc 29d0 85be 2d15 ce3e
00000060: faa0 c83e f8bb a03e 4b8b c7bd f96f d63d
00000070: bf38 66be e309 28be de8c 043d 45b2 373e
00000080: 8dcc 963e 3a5c 973e 3bdb e8bd a4d0 1cbe
00000090: 922b 623d 0f0a 0e3e a99c 8dbc b50c 1b3d
000000a0: 815c 113e 951f 0dbe 0f4b a93e 1599 873d
000000b0: b0e0 7a3d 54f3 873e 6dea debd 8d9f 853d
000000c0: bafe ca3b c4de a5be e8cc 67bd bf8e d8bd
000000d0: 3ba7 453e 5786 0dbe cb72 e13e b630 763e
000000e0: fdbc eabd 1fae b8bd 250e 9e3d 9def eabe
000000f0: 1ee0 3f3d d7e9 91be 7ddc 2e3e 73fa 5c3e
00000100: ac33 afbd 88ab b83d b981 b3bd 879d ff3d
00000110: 3d1f 80bd 68f5 a43c 0855 aebd 9f50 003e
00000120: f83f 553e 156f 74be de5b 793d 8ccd 5ebd
00000130: 04ab 5dbe 7288 f0bd 7450 2dbe a0ef c83d
00000140: 725b 843e b5d4 51be 4ffa 32be 4944 423e
00000150: e890 a73d 9412 833e 75c1 5d3e 4783 f9bd
00000160: b8a2 01bd 5cdf 8abe 4ee0 4e3e 4836 673e
00000170: c48a fc3d c647 103c 8b81 863e eb53 093e
00000180: 6d9d 0dbe 2a22 af3e de0f cd3d 3419 82bd
00000190: 154f bc3d b43a 123e 0f73 29be fcd6 2fbe
000001a0: d4b8 5d3e 0839 ca3c 32f4 9b3e 0180 523e
000001b0: fccb 21bd 9157 25bd 7cf6 51be 9a37 ba3d

flow.flow.transforms.8.alpha_prime f4 [7]
-0.25112495 0.13133183 0.17984535 -0.15734942 -0.08729673 0.07570764 0.18826342
00000000: 7393 80be da7b 063e 6129 383e 3520 21be
00000010: a1c8 b2bd 9b0c 9b3d 20c8 403e

flow.flow.transforms.8.beta_prime f4 [7]
-0.046959545 -0.048560895 -0.10371747 -0.010686537 0.17096439 0.16006312 0.048300583
00000000: a758 40bd cae7 46bd d369 d4bd 9616 2fbc
00000010: 4a11 2f3e 96e7 233e d5d6 453d
