saved_experiments/classification/GPN/1/model_6.pt (torch, 764793 bytes, 36 tensors)

input_encoder.0.weight f4 [64, 2879]
000000 c2 d3 e4 bd d2 8b 0f be c9 7e 76 3d 3a 45 1e be
       -0.11173202 -0.14018181 0.060179505 -0.15456095
000010 8a ef 84 3e 6e 2e 24 3d 47 65 df 3d 84 5d 78 3e
       0.25964004 0.04008334 0.10907989 0.24254423
000020 16 cf 7c bc 00 48 e1 bb f5 05 25 bd 79 08 93 3d
       -0.0154302325 -0.006875038 -0.040288884 0.071793504
000030 6c ac 7e be d9 d3 eb 3d c9 87 50 be 3e b5 c1 bd
       -0.24870461 0.11515016 -0.20364298 -0.09458397
000040 89 76 39 bd df 21 c9 be 0a 58 2b 3e d4 d5 61 3e
       -0.04527906 -0.39283654 0.16732803 0.22054225
000050 9e 78 3b 3d 6b 4b 82 bd e4 1f 86 3d a5 bf 8d be
       0.045769326 -0.06362041 0.065490514 -0.27685276
000060 50 27 96 3d 14 7e 09 3e 91 26 f6 bd fc 72 ca bd
       0.07331717 0.13427001 -0.12019075 -0.09885213
000070 01 9d 6c 3e 38 c9 b3 bd 50 bb 7c 3e 39 48 76 3e
       0.23106767 -0.08778614 0.24680829 0.24050988
000080 4e d7 04 3e 95 32 f2 bd 74 70 04 bd 69 8f b3 3e
       0.12972757 -0.11826054 -0.032333806 0.3507035
000090 65 1e 97 3e 5f 92 cb 3e 59 f0 74 3e 87 d6 80 be
       0.29515377 0.3976011 0.2391981 -0.2516367
0000a0 4a 4c 83 3e 6d de af 3e fe 5e 36 be 2a 8a 7d 3d
       0.2564414 0.34349385 -0.17809674 0.06189934
0000b0 5b 79 14 3e 9c e5 69 3d e9 85 d0 bd 19 f7 59 3d
       0.14499418 0.05710374 -0.10181791 0.053214166
0000c0 eb 26 55 be 1d ef f7 3c d8 5d 98 3d f9 bc 8b 3c
       -0.20815627 0.030265385 0.07439774 0.017057883
0000d0 f9 60 77 3d 22 a3 67 3e 75 50 78 3e fa 6c 7f be
       0.060395215 0.22620824 0.24249442 -0.24943915
0000e0 48 c1 4c 3e c6 2b c8 bd d7 c3 d9 bd 79 6e ac 3e
       0.19995606 -0.09773974 -0.106330566 0.33678034
0000f0 ef 02 a6 3e 01 ae 5a bd fe e2 ac bd 73 75 66 be
       0.32424113 -0.0533886 -0.08441733 -0.22505741
000100 e8 ef ce 3c 24 16 e2 3e f2 a0 7d 3e 6c b2 05 3d
       0.02526088 0.44157517 0.24768427 0.03264086
000110 80 ee ae 3e 6d b0 be 3e 5b 88 3b 3e 31 06 4e 3c
       0.34166336 0.37243977 0.18313734 0.012574718
000120 7a 1e b7 3b 03 8d ad 3e b1 35 c7 3b 6a 91 ba 3d
       0.00558835 0.33896646 0.0060793986 0.09109767
000130 44 15 9c 3e 8a 2b b9 be fa 30 e1 be 68 5d ca be
       0.30484974 -0.3616603 -0.4398268 -0.39524388
000140 6d ee ca be 17 da b7 3e fa e6 c9 3d e4 2c ad be
       -0.3963503 0.35908577 0.098585084 -0.3382331
000150 d4 8b d7 3c 82 ee e2 3d 73 f5 90 3e 1e 90 48 be
       0.026311792 0.11080648 0.28312263 -0.19586226
000160 98 e0 8e be 13 2a dd be a1 5b 35 bd c8 9f db 3d
       -0.27905726 -0.43196163 -0.044276837 0.10723835
000170 10 aa 08 3e 77 0a d5 3d 3c fa 82 3d 03 00 36 bd
       0.13346124 0.10402387 0.06395385 -0.044433605
000180 db a1 41 be 39 12 97 3d 68 0f b5 bd 1a ae 11 3e
       -0.18909399 0.073765226 -0.08840829 0.1422657
000190 58 f2 01 3e 05 ae a5 3e 9e 3a 09 3e 20 07 75 3e
       0.12690103 0.3235933 0.13401267 0.23928499
0001a0 93 2b bc 3e 3f 23 93 3e 14 60 54 3d f0 d3 16 bb
       0.36751994 0.28737828 0.05184944 -0.0023014508
0001b0 e0 b7 a0 bc 82 d2 dd 3d f2 5e f3 bd 62 ab 73 be
       -0.019618928 0.10831167 -0.11883344 -0.23795846
0001c0 0e 0c 40 bd ef 24 8a 3d d1 bf 0f be d6 ea 03 3d
       -0.046886496 0.06745326 -0.14038016 0.03220638
0001d0 11 1b 76 be ab 71 9a 3e 30 cf 88 be 0f 66 9c 3e
       -0.24033763 0.30164847 -0.26720572 0.30546615
0001e0 7b 5e e0 3d b5 4e 90 3e 03 f1 33 3e e9 d3 e7 be
       0.10955521 0.2818505 0.17572407 -0.45278862
0001f0 29 28 ba be 9f 52 51 bc aa 4d 47 3e 7f bc 8f 3d
       -0.36358765 -0.012776046 0.1946322 0.07018375
000200 e7 31 81 3e 12 1f 61 3c da 84 01 3e af 8c 4d 3d
       0.25233385 0.013740318 0.12648335 0.050182994
000210 a2 9e 88 bc cf ed 46 be 13 3b f2 3d 0f 4b 66 3d
       -0.016677205 -0.19426654 0.11827674 0.056223925
000220 35 d7 30 be 8b 29 14 be 90 95 1d 3d 30 82 79 3d
       -0.17269595 -0.14468972 0.038472712 0.060915172
000230 b4 06 88 bc 5a 39 25 3d 76 84 df 3d f4 4c 00 3e
       -0.016604759 0.040337898 0.10913937 0.12529355
000240 45 61 9e bd db 73 8d 3d 1d 21 64 bd 46 a8 6b 3e
       -0.077333964 0.06906863 -0.05569564 0.2301341
000250 a5 16 15 3e 34 10 5d 3e 58 d2 b4 3e 55 89 de bd
       0.1455942 0.21588212 0.3531673 -0.10866038
000260 51 34 f9 3e 12 26 01 be 78 b7 7e be 48 ea d2 bd
       0.48672727 -0.12612179 -0.24874675 -0.10298592
000270 1c 30 e5 be 42 42 ff bd 8a ba ea 3c 8b 3d 46 be
       -0.44763267 -0.124638095 0.028653402 -0.19359414
000280 09 50 50 3e f0 ae a6 bb 79 20 3a be 64 d6 3c be
       0.20343031 -0.005086772 -0.1817645 -0.18441159
000290 10 44 8f be 5f 3d 26 3e 4b 6a 9f be aa 63 7f 3e
       -0.27981615 0.16234349 -0.31135783 0.24940363
0002a0 a2 ab 00 be b5 07 5e 3e 29 fa 8a bc 8b cb 98 be
       -0.12565473 0.21682627 -0.016964989 -0.2984279
0002b0 7d 49 9b bd 74 50 eb 3d 3d c9 9c 3d a4 a8 87 3b
       -0.07582376 0.114899546 0.07655571 0.0041399766
0002c0 30 40 66 be dc 15 a0 3e e3 30 b1 bb 26 de ad bd
       -0.22485423 0.31266677 -0.005407439 -0.08489637
0002d0 57 14 06 3e 2c 0a d1 bd 04 ca d9 3c 55 0d 57 bd
       0.13093697 -0.10207018 0.026585586 -0.05250295
0002e0 a0 03 c8 bd 5b 37 29 3d 46 e7 90 3d 4f 93 34 be
       -0.097663164 0.041312557 0.07075362 -0.17634319
0002f0 22 b1 57 bc 76 e6 ee 3d 1f bb 74 3e 3e bb 29 be
       -0.01316479 0.11665051 0.23899506 -0.16575333
000300 96 5f 25 be 8c 6e 8c be 0a 40 09 be 9b 02 af be
       -0.16149744 -0.2742809 -0.13403335 -0.34181675
000310 04 f4 58 3d 4b 7c c0 3d fd c8 a3 bd 8b a3 77 3e
       0.052967086 0.09398707 -0.0799732 0.2418348
000320 67 15 27 bb fc 6e 4c be 82 2c 2c 3b b7 93 1b bd
       -0.0025494935 -0.19964212 0.0026271646 -0.03798267
000330 62 11 c2 bc ea 4f 60 be cb 8b 1c 3e 56 3e ab be
       -0.02368993 -0.21905485 0.15287702 -0.33445996
000340 3e 5d a0 3e 7d e4 3d 3e bb 56 8a 3e 64 e3 65 bd
       0.31321138 0.18544193 0.27019295 -0.05612506
000350 0c 3f 01 be 71 55 99 be fd 52 1c be b6 5a a3 3e
       -0.12621707 -0.29948 -0.15266033 0.31905144
000360 d5 f3 a4 3d 51 59 bb 3e 01 3b 1e 3e c3 bc c2 bd
       0.0805432 0.3659158 0.15452196 -0.0950866
000370 76 a0 3e be bb 37 9d be 7e 3f 92 3e c2 67 6b be
       -0.18615898 -0.3070658 0.28564066 -0.22988799
000380 bb 1d 85 bd b2 b3 8d be 40 93 8d be ed 70 d9 3c
       -0.06499811 -0.2767616 -0.27651405 0.026543105
000390 3f 1b 8c 3e 32 b2 38 3d 5b 3b e8 be fd 6b cd be
       0.27364537 0.045091815 -0.45357785 -0.4012145
0003a0 02 f8 2f 3e 2a c8 8b 3c e7 37 aa be 97 a3 e5 be
       0.17184451 0.01706322 -0.33245775 -0.44851372
0003b0 40 19 86 be 70 22 cc be 25 51 1b 3e 61 5c b0 3d
       -0.2619114 -0.39870024 0.15167673 0.0861137
0003c0 4a 57 ac be c0 c7 df bd 48 5d b1 bc 83 e0 96 bd
       -0.33660346 -0.10926771 -0.021650925 -0.07367041
0003d0 76 24 04 3e eb a1 26 be 86 e3 05 be 30 63 95 be
       0.12904534 -0.16272704 -0.13075075 -0.29177237
0003e0 40 0e 76 be cb 01 41 3e d0 3e 67 3e 55 50 3a 3e
       -0.24028873 0.1884834 0.22582555 0.18194707
0003f0 20 47 fd 3d 05 ab 8f 3e be ca 08 3e 7e 44 e1 bd
       0.12367082 0.28060165 0.1335859 -0.10999392

input_encoder.0.bias f4 [64]
000000 86 8e 70 3c ef 5d 53 bd 34 c2 48 bd ff c6 22 3c
       0.014682418 -0.051603254 -0.04901333 0.00993514
000010 94 e8 bf 3c 47 21 a2 3c 02 fe 54 bc 90 28 1a 3d
       0.023426332 0.019791258 -0.013000013 0.03763634
000020 48 53 e5 3b 00 b1 81 bd 3a 68 4a bd 58 78 65 bd
       0.0069984533 -0.06332588 -0.049415804 -0.056022972
000030 ed d2 4d bd 52 9a 54 bd 52 1f 5d bd f6 d4 47 bd
       -0.050249983 -0.051904984 -0.053984948 -0.04878708
000040 3c 03 0c bc 8f 55 cf 3c e3 c3 7d bd ba da 4a bd
       -0.008545693 0.025309352 -0.06195439 -0.049525
000050 f1 b9 18 bd 9c c7 f3 bc 96 51 6d bd 3e a5 81 bd
       -0.037286703 -0.029758267 -0.057939135 -0.063303456
000060 4e e4 06 3d c4 d9 37 bc d8 71 8e 3c 26 0a a6 bc
       0.032932572 -0.011221353 0.01738827 -0.020268511
000070 6c ce ed 3c ab 65 68 bd f9 42 84 3c b0 65 35 bb
       0.029029094 -0.056737583 0.016145216 -0.0027679019
000080 b1 cd fa 3c 0b d7 10 3c 53 88 ec 3b 4f 1f f2 3c
       0.03061566 0.008840333 0.0072183996 0.029555945
000090 64 d7 c4 3c 17 6e d2 bb cc 0b 00 3c 6b c1 59 bd
       0.024028488 -0.006421815 0.007815313 -0.053162973
0000a0 5e 3c 54 bd 57 37 89 bd be 4c 68 bd 7a 90 f1 3c
       -0.051815383 -0.06700008 -0.056713812 0.029487837
0000b0 eb b4 ef 3c a9 0d 6b bd 77 3b 46 bd a8 34 3a bd
       0.029261073 -0.057386074 -0.048396554 -0.045460373
0000c0 e8 27 4b bd e1 f5 a5 3c 3c f7 90 3c f0 90 03 3d
       -0.049598604 0.020258846 0.017696016 0.032120645
0000d0 1f 16 0c 3d cb 99 7e bd f7 62 38 bd 1f 9b 49 bd
       0.034200784 -0.062158387 -0.045016255 -0.0492202
0000e0 7c 89 1a 3a a4 67 a6 3b b0 26 3b 3c ca 8c 33 3c
       0.00058951206 0.005078273 0.011422798 0.01095886
0000f0 61 fa 8f bc e5 a6 f2 3b 94 7d df 3c e4 c1 4a bd
       -0.017575445 0.0074051493 0.02728156 -0.049501315

latent_encoder.weight f4 [16, 64]
000000 5f f0 03 3e 65 66 c9 3c 1b a7 69 3d dc c8 cd 3c
       0.12884663 0.024584958 0.05704413 0.025120191
000010 c7 77 9c bb 72 51 a7 bc d0 2a 89 3b 59 59 1c be
       -0.0047750208 -0.020424578 0.004186012 -0.15268458
000020 c2 59 e0 bd 06 79 2a 3b 8e 97 5b 3d f6 74 94 b9
       -0.1095462 0.0026012077 0.05361133 -0.00028315902
000030 94 c8 80 bb a4 15 b4 3d 58 ad 97 bd a8 f5 a8 3d
       -0.003930161 0.0879319 -0.074061096 0.0824998
000040 ec 31 e8 bd 98 d5 c9 bd f8 04 37 3b a0 12 5b 3c
       -0.11337647 -0.09855193 0.0027926546 0.01337114
000050 d0 18 99 bc a8 67 92 3d ae 7d 41 ba 0a 58 ab 3a
       -0.01868859 0.07148677 -0.00073810935 0.0013072502
000060 36 9d 30 be 7a 9b 1e bd b4 7c fa 3b 4f cc a9 bd
       -0.17247471 -0.038722493 0.0076442603 -0.08290922
000070 2d 2f 0e be 07 d8 f3 3d 74 af b7 3d d6 b8 df ba
       -0.13885184 0.11906438 0.08969012 -0.0017068635
000080 b6 5e 3c 3d 53 4b b2 bd 49 cc 86 3d b1 2e 31 be
       0.04598876 -0.08705773 0.06581933 -0.17302968
000090 c8 a7 3b be 92 18 d8 bc 3c 06 82 bd ef 84 2a ba
       -0.18325722 -0.026378904 -0.06348845 -0.0006504794
0000a0 26 e6 5a bd d5 4f 9e bd 60 97 0b 3d 85 68 08 3e
       -0.053442143 -0.077300705 0.03407991 0.13321121
0000b0 93 c4 9e bd 39 91 13 3d 56 18 15 bd e3 62 21 3e
       -0.07752337 0.036027167 -0.03640016 0.15760379
0000c0 33 20 fc 39 d3 09 20 be c8 23 c2 3d 09 7a aa bd
       0.00048089176 -0.15628748 0.09479481 -0.083240576
0000d0 25 a4 2c be f8 fa 0b 3b a4 bf 05 bc fe 6d ed bc
       -0.16859491 0.0021359306 -0.0081633665 -0.028983112
0000e0 16 15 f3 bd 41 8c 06 bd a5 ce a7 bd 3b 34 24 3d
       -0.11869256 -0.0328486 -0.08193711 0.040088873
0000f0 7f a5 98 bd b4 8e 5c 3d 33 c4 09 3e 38 62 ac b8
       -0.07453441 0.05384703 0.1345375 -8.219894e-05
000100 05 ae a4 3c 8b a9 81 3d 59 3b 03 3e 1a 92 bb 3d
       0.02010251 0.06331166 0.12815608 0.09158726
000110 b6 0f 53 3e 3b 8d 9d be 9b 78 16 3d ad eb d8 be
       0.20611462 -0.30771813 0.036736112 -0.42367306
000120 9c ef bb be 5e f1 8f ba d5 5b 6b 3d c3 71 a8 39
       -0.36706245 -0.0010981967 0.057460625 0.00032128216
000130 4b 92 5e 3d b3 44 c5 bc 14 00 5e 3d 97 08 88 bd
       0.054338735 -0.02408061 0.054199293 -0.066422634
000140 ae 3a 47 3a f2 6b 39 be 7f 48 fb 3b 24 01 bd bc
       0.00075999915 -0.18107584 0.0076685543 -0.023071833
000150 cb cc 8c 3e ba 24 f7 3c e8 bf cb 3a 37 3e 81 3b
       0.27499995 0.03016888 0.0015544863 0.003944184
000160 66 22 bc be d3 57 97 be 01 3a c8 be 42 28 fa bd
       -0.36744994 -0.29559192 -0.39106753 -0.1221471
000170 f3 b8 67 3e b7 c2 78 3d ff 9b 81 bd bd 88 8c be
       0.22629146 0.06073257 -0.06328582 -0.27448073
000180 50 70 61 3e 80 d2 72 3c db 57 93 3e 18 4a 8d be
       0.220155 0.014820695 0.28777966 -0.27595592
000190 d5 16 c6 bd 4f 6b 86 3d a8 23 94 be fc 66 42 3b
       -0.096723236 0.06563436 -0.28933454 0.0029663434
0001a0 4f 0c 39 be 27 7a fc 3d 31 bf d3 bc e3 d2 ae 3c
       -0.18071102 0.12327986 -0.025848003 0.021340793
0001b0 40 79 ef 3e c5 d2 03 3c ca 34 5a bd d4 e9 c9 3c
       0.46772194 0.008045857 -0.053273 0.02464763
0001c0 60 e3 38 bb 95 56 fd 3c fc 54 ae 3d 4a b6 46 3d
       -0.0028211698 0.030925075 0.08512303 0.04851369
0001d0 93 4c 8c 3e e5 dc 93 3b 01 58 ef bc 93 67 ec 3c
       0.27402171 0.0045124167 -0.029216768 0.028857982
0001e0 01 a2 a7 be 90 07 ab bd b1 c7 80 3e 53 76 b9 be
       -0.32740787 -0.08351052 0.25152352 -0.36223087
0001f0 17 5f b5 bc 77 af 0c 3e 80 df 18 3e 58 bc 03 3a
       -0.022140069 0.1373881 0.14929008 0.0005025319
000200 c3 44 b8 be 24 66 1c 3e e4 81 56 3d ef 3c f9 3c
       -0.3598996 0.15273339 0.052369967 0.030424563
000210 70 5c 7a bd 34 c0 d4 bd db bf 9f be 7c b5 ed 3e
       -0.06112331 -0.10388222 -0.31201062 0.46427524
000220 7a 63 84 3e 1a 08 d2 3a 16 c4 34 3d f7 0d 19 3b
       0.25857145 0.0016024143 0.044132315 0.002335427
000230 df f3 63 3d 2c 3b 8f 3d 9a ec 85 3d 76 a8 f9 bc
       0.055652495 0.06993708 0.06539269 -0.030475836
000240 ff 0f 7a bd 10 a0 2a 3d 0b b2 ab 3d 50 b7 8f 3b
       -0.06105041 0.041656554 0.083835684 0.004385866
000250 3d 55 ab bd 38 e7 cb bd e4 93 6b 3a 9b 5d 51 3b
       -0.08365867 -0.09956211 0.0008986576 0.0031946662
000260 4d 0a f1 3e bb 2d 89 be cb 9e e3 bd f4 19 a6 be
       0.4707817 -0.26792702 -0.11114272 -0.32441676
000270 98 61 6d bd 77 12 67 3d c3 82 8c be 4f 2a 8b 3d
       -0.0579544 0.056414094 -0.27443513 0.06795179
000280 2c 8a 90 3c 66 d8 9d 3d 35 6d a7 be ee df 30 bc
       0.01764401 0.0770729 -0.32700506 -0.0107955765
000290 2a 0f b9 3e 18 b5 a6 be cc c9 82 3c 35 d5 c4 bb
       0.36144382 -0.3256004 0.015965365 -0.0060068616
0002a0 4c bd 92 3d 12 9b 53 bd f8 c8 05 bd c3 bb b6 be
       0.07165012 -0.05166156 -0.03266236 -0.35690126
0002b0 0f b1 12 be 11 4e 27 3e 4e b3 16 bd b8 44 30 bd
       -0.14325355 0.16338374 -0.036792092 -0.043034285
0002c0 41 9c 0e bb 25 e8 54 3e 13 18 67 bd 1d 64 82 3e
       -0.0021760615 0.20791681 -0.056419443 0.25467005
0002d0 2c b3 66 3d 46 b2 0e bb 09 aa 8e bc 32 e3 2a be
       0.056323215 -0.002177374 -0.017415063 -0.1668823
0002e0 c4 1c 14 be 7f b3 57 be ac 1e 4f bd 61 d0 57 be
       -0.14464098 -0.21064566 -0.05056636 -0.21075584
0002f0 78 7c 34 bd de 2a ba be d8 bb a5 be c2 11 ce 39
       -0.044064015 -0.3636083 -0.32369876 0.00039304612
000300 92 af 6e be bf 94 9a 3d 56 56 d8 bd 52 6f bf 3e
       -0.23309162 0.07547902 -0.10563342 0.37389618
000310 ff b1 86 3e 20 e4 11 3e 44 8e 09 be 17 af c3 bd
       0.26307675 0.14247179 -0.13433176 -0.0955488
000320 46 f1 10 be 5e f2 36 bb 41 36 60 bd 48 84 ac 3b
       -0.14154539 -0.0027915458 -0.05473924 0.0052647926
000330 12 aa 16 3d 68 0c 03 3d 58 73 d0 3b 5b 01 37 3e
       0.036783285 0.031994253 0.0063614063 0.17871611
000340 da df 43 be 4d 45 97 3e 6f 01 fa bb de b2 ec bd
       -0.19128361 0.2954506 -0.0076295654 -0.11557554
000350 c3 23 5e bd 8f 86 a8 3e 85 8b 10 bb d5 6f ee ba
       -0.054233324 0.3291516 -0.0022055816 -0.0018191288
000360 a9 f3 88 bd ee b9 8b be 66 7e 82 be 4d f2 7d be
       -0.066870995 -0.2729029 -0.2548706 -0.24799462
000370 5c c6 79 3e 2c 1a 99 3d 7c aa ab 3e 7c e6 a6 be
       0.24392074 0.07475695 0.33528507 -0.3259772
000380 5a db d6 3e d2 9d b7 bd 37 28 3e bd 30 06 de bd
       0.41964227 -0.08965649 -0.04642507 -0.10841024
000390 4e 35 b8 3d ad c1 29 bd 5b 04 82 be 08 53 c8 b9
       0.08994542 -0.04144447 -0.25393948 -0.00038208836
0003a0 db 6b 34 3c da 69 16 3b 5f 76 a9 3d 12 44 15 be
       0.011012043 0.0022951276 0.082745306 -0.14576748
0003b0 18 93 d9 3e 3c f5 b9 bc 91 b8 a5 3d 8b 6e cb 3c
       0.42495036 -0.022699945 0.08091844 0.024832984
0003c0 a4 28 cf ba 89 3d fe 3d da f4 f6 bb b2 26 69 3e
       -0.0015804959 0.12414081 -0.007536513 0.22768667
0003d0 09 8a f3 3e e5 be f3 bb 7b f7 0d bd 92 69 91 bd
       0.4756625 -0.007438528 -0.034659844 -0.07100214
0003e0 08 9c e0 3d a2 7a 64 be 7a 6c 85 3e e8 d7 52 3e
       0.109672606 -0.22312406 0.26059324 0.20590174
0003f0 f6 0b 11 be 16 89 5d be bb 73 f2 3c 41 58 26 bb
       -0.14164719 -0.21634325 0.0295962 -0.0025382193

latent_encoder.bias f4 [16]
000000 d3 40 37 3c c0 9c 92 3d 15 9c 45 3d ae 97 bb bb
       0.011184889 0.07158804 0.048244555 -0.0057248687
000010 af ca 05 bd 59 0e 84 3c 6f df 48 bd d6 fb 35 3c
       -0.032663997 0.016120123 -0.049041208 0.011107406
000020 63 72 a5 bd 56 70 44 3d 9b d4 a0 bb 93 2f bc bc
       -0.08078458 0.047958694 -0.004908157 -0.022971904
000030 2d 2c 98 3d b4 e1 93 bc 06 29 e0 3d 12 d0 e0 bc
       0.07430301 -0.01805196 0.109453246 -0.027442966

flow.flow.mean f4 [7, 16]
000000 00 00 00 00 00 00 00 00 00 00 00 00 00 00 00 00
       0.0 0.0 0.0 0.0
000010 00 00 00 00 00 00 00 00 00 00 00 00 00 00 00 00
       0.0 0.0 0.0 0.0
000020 00 00 00 00 00 00 00 00 00 00 00 00 00 00 00 00
       0.0 0.0 0.0 0.0
000030 00 00 00 00 00 00 00 00 00 00 00 00 00 00 00 00
       0.0 0.0 0.0 0.0
000040 00 00 00 00 00 00 00 00 00 00 00 00 00 00 00 00
       0.0 0.0 0.0 0.0
000050 00 00 00 00 00 00 00 00 00 00 00 00 00 00 00 00
       0.0 0.0 0.0 0.0
000060 00 00 00 00 00 00 00 00 00 00 00 00 00 00 00 00
       0.0 0.0 0.0 0.0
000070 00 00 00 00 00 00 00 00 00 00 00 00 00 00 00 00
       0.0 0.0 0.0 0.0
000080 00 00 00 00 00 00 00 00 00 00 00 00 00 00 00 00
       0.0 0.0 0.0 0.0
000090 00 00 00 00 00 00 00 00 00 00 00 00 00 00 00 00
       0.0 0.0 0.0 0.0
0000a0 00 00 00 00 00 00 00 00 00 00 00 00 00 00 00 00
       0.0 0.0 0.0 0.0
0000b0 00 00 00 00 00 00 00 00 00 00 00 00 00 00 00 00
       0.0 0.0 0.0 0.0
0000c0 00 00 00 00 00 00 00 00 00 00 00 00 00 00 00 00
       0.0 0.0 0.0 0.0
0000d0 00 00 00 00 00 00 00 00 00 00 00 00 00 00 00 00
       0.0 0.0 0.0 0.0
0000e0 00 00 00 00 00 00 00 00 00 00 00 00 00 00 00 00
       0.0 0.0 0.0 0.0
0000f0 00 00 00 00 00 00 00 00 00 00 00 00 00 00 00 00
       0.0 0.0 0.0 0.0
000100 00 00 00 00 00 00 00 00 00 00 00 00 00 00 00 00
       0.0 0.0 0.0 0.0
000110 00 00 00 00 00 00 00 00 00 00 00 00 00 00 00 00
       0.0 0.0 0.0 0.0
000120 00 00 00 00 00 00 00 00 00 00 00 00 00 00 00 00
       0.0 0.0 0.0 0.0
000130 00 00 00 00 00 00 00 00 00 00 00 00 00 00 00 00
       0.0 0.0 0.0 0.0
000140 00 00 00 00 00 00 00 00 00 00 00 00 00 00 00 00
       0.0 0.0 0.0 0.0
000150 00 00 00 00 00 00 00 00 00 00 00 00 00 00 00 00
       0.0 0.0 0.0 0.0
000160 00 00 00 00 00 00 00 00 00 00 00 00 00 00 00 00
       0.0 0.0 0.0 0.0
000170 00 00 00 00 00 00 00 00 00 00 00 00 00 00 00 00
       0.0 0.0 0.0 0.0
000180 00 00 00 00 00 00 00 00 00 00 00 00 00 00 00 00
       0.0 0.0 0.0 0.0
000190 00 00 00 00 00 00 00 00 00 00 00 00 00 00 00 00
       0.0 0.0 0.0 0.0
0001a0 00 00 00 00 00 00 00 00 00 00 00 00 00 00 00 00
       0.0 0.0 0.0 0.0
0001b0 00 00 00 00 00 00 00 00 00 00 00 00 00 00 00 00
       0.0 0.0 0.0 0.0

flow.flow.cov f4 [7, 16, 16]
000000 00 00 80 3f 00 00 00 00 00 00 00 00 00 00 00 00
       1.0 0.0 0.0 0.0
000010 00 00 00 00 00 00 00 00 00 00 00 00 00 00 00 00
       0.0 0.0 0.0 0.0
000020 00 00 00 00 00 00 00 00 00 00 00 00 00 00 00 00
       0.0 0.0 0.0 0.0
000030 00 00 00 00 00 00 00 00 00 00 00 00 00 00 00 00
       0.0 0.0 0.0 0.0
000040 00 00 00 00 00 00 80 3f 00 00 00 00 00 00 00 00
       0.0 1.0 0.0 0.0
000050 00 00 00 00 00 00 00 00 00 00 00 00 00 00 00 00
       0.0 0.0 0.0 0.0
000060 00 00 00 00 00 00 00 00 00 00 00 00 00 00 00 00
       0.0 0.0 0.0 0.0
000070 00 00 00 00 00 00 00 00 00 00 00 00 00 00 00 00
       0.0 0.0 0.0 0.0
000080 00 00 00 00 00 00 00 00 00 00 80 3f 00 00 00 00
       0.0 0.0 1.0 0.0
000090 00 00 00 00 00 00 00 00 00 00 00 00 00 00 00 00
       0.0 0.0 0.0 0.0
0000a0 00 00 00 00 00 00 00 00 00 00 00 00 00 00 00 00
       0.0 0.0 0.0 0.0
0000b0 00 00 00 00 00 00 00 00 00 00 00 00 00 00 00 00
       0.0 0.0 0.0 0.0
0000c0 00 00 00 00 00 00 00 00 00 00 00 00 00 00 80 3f
       0.0 0.0 0.0 1.0
0000d0 00 00 00 00 00 00 00 00 00 00 00 00 00 00 00 00
       0.0 0.0 0.0 0.0
0000e0 00 00 00 00 00 00 00 00 00 00 00 00 00 00 00 00
       0.0 0.0 0.0 0.0
0000f0 00 00 00 00 00 00 00 00 00 00 00 00 00 00 00 00
       0.0 0.0 0.0 0.0
000100 00 00 00 00 00 00 00 00 00 00 00 00 00 00 00 00
       0.0 0.0 0.0 0.0
000110 00 00 80 3f 00 00 00 00 00 00 00 00 00 00 00 00
       1.0 0.0 0.0 0.0
000120 00 00 00 00 00 00 00 00 00 00 00 00 00 00 00 00
       0.0 0.0 0.0 0.0
000130 00 00 00 00 00 00 00 00 00 00 00 00 00 00 00 00
       0.0 0.0 0.0 0.0
000140 00 00 00 00 00 00 00 00 00 00 00 00 00 00 00 00
       0.0 0.0 0.0 0.0
000150 00 00 00 00 00 00 80 3f 00 00 00 00 00 00 00 00
       0.0 1.0 0.0 0.0
000160 00 00 00 00 00 00 00 00 00 00 00 00 00 00 00 00
       0.0 0.0 0.0 0.0
000170 00 00 00 00 00 00 00 00 00 00 00 00 00 00 00 00
       0.0 0.0 0.0 0.0
000180 00 00 00 00 00 00 00 00 00 00 00 00 00 00 00 00
       0.0 0.0 0.0 0.0
000190 00 00 00 00 00 00 00 00 00 00 80 3f 00 00 00 00
       0.0 0.0 1.0 0.0
0001a0 00 00 00 00 00 00 00 00 00 00 00 00 00 00 00 00
       0.0 0.0 0.0 0.0
0001b0 00 00 00 00 00 00 00 00 00 00 00 00 00 00 00 00
       0.0 0.0 0.0 0.0
0001c0 00 00 00 00 00 00 00 00 00 00 00 00 00 00 00 00
       0.0 0.0 0.0 0.0
0001d0 00 00 00 00 00 00 00 00 00 00 00 00 00 00 80 3f
       0.0 0.0 0.0 1.0
0001e0 00 00 00 00 00 00 00 00 00 00 00 00 00 00 00 00
       0.0 0.0 0.0 0.0
0001f0 00 00 00 00 00 00 00 00 00 00 00 00 00 00 00 00
       0.0 0.0 0.0 0.0
000200 00 00 00 00 00 00 00 00 00 00 00 00 00 00 00 00
       0.0 0.0 0.0 0.0
000210 00 00 00 00 00 00 00 00 00 00 00 00 00 00 00 00
       0.0 0.0 0.0 0.0
000220 00 00 80 3f 00 00 00 00 00 00 00 00 00 00 00 00
       1.0 0.0 0.0 0.0
000230 00 00 00 00 00 00 00 00 00 00 00 00 00 00 00 00
       0.0 0.0 0.0 0.0
000240 00 00 00 00 00 00 00 00 00 00 00 00 00 00 00 00
       0.0 0.0 0.0 0.0
000250 00 00 00 00 00 00 00 00 00 00 00 00 00 00 00 00
       0.0 0.0 0.0 0.0
000260 00 00 00 00 00 00 80 3f 00 00 00 00 00 00 00 00
       0.0 1.0 0.0 0.0
000270 00 00 00 00 00 00 00 00 00 00 00 00 00 00 00 00
       0.0 0.0 0.0 0.0
000280 00 00 00 00 00 00 00 00 00 00 00 00 00 00 00 00
       0.0 0.0 0.0 0.0
000290 00 00 00 00 00 00 00 00 00 00 00 00 00 00 00 00
       0.0 0.0 0.0 0.0
0002a0 00 00 00 00 00 00 00 00 00 00 80 3f 00 00 00 00
       0.0 0.0 1.0 0.0
0002b0 00 00 00 00 00 00 00 00 00 00 00 00 00 00 00 00
       0.0 0.0 0.0 0.0
0002c0 00 00 00 00 00 00 00 00 00 00 00 00 00 00 00 00
       0.0 0.0 0.0 0.0
0002d0 00 00 00 00 00 00 00 00 00 00 00 00 00 00 00 00
       0.0 0.0 0.0 0.0
0002e0 00 00 00 00 00 00 00 00 00 00 00 00 00 00 80 3f
       0.0 0.0 0.0 1.0
0002f0 00 00 00 00 00 00 00 00 00 00 00 00 00 00 00 00
       0.0 0.0 0.0 0.0
000300 00 00 00 00 00 00 00 00 00 00 00 00 00 00 00 00
       0.0 0.0 0.0 0.0
000310 00 00 00 00 00 00 00 00 00 00 00 00 00 00 00 00
       0.0 0.0 0.0 0.0
000320 00 00 00 00 00 00 00 00 00 00 00 00 00 00 00 00
       0.0 0.0 0.0 0.0
000330 00 00 80 3f 00 00 00 00 00 00 00 00 00 00 00 00
       1.0 0.0 0.0 0.0
000340 00 00 00 00 00 00 00 00 00 00 00 00 00 00 00 00
       0.0 0.0 0.0 0.0
000350 00 00 00 00 00 00 00 00 00 00 00 00 00 00 00 00
       0.0 0.0 0.0 0.0
000360 00 00 00 00 00 00 00 00 00 00 00 00 00 00 00 00
       0.0 0.0 0.0 0.0
000370 00 00 00 00 00 00 80 3f 00 00 00 00 00 00 00 00
       0.0 1.0 0.0 0.0
000380 00 00 00 00 00 00 00 00 00 00 00 00 00 00 00 00
       0.0 0.0 0.0 0.0
000390 00 00 00 00 00 00 00 00 00 00 00 00 00 00 00 00
       0.0 0.0 0.0 0.0
0003a0 00 00 00 00 00 00 00 00 00 00 00 00 00 00 00 00
       0.0 0.0 0.0 0.0
0003b0 00 00 00 00 00 00 00 00 00 00 80 3f 00 00 00 00
       0.0 0.0 1.0 0.0
0003c0 00 00 00 00 00 00 00 00 00 00 00 00 00 00 00 00
       0.0 0.0 0.0 0.0
0003d0 00 00 00 00 00 00 00 00 00 00 00 00 00 00 00 00
       0.0 0.0 0.0 0.0
0003e0 00 00 00 00 00 00 00 00 00 00 00 00 00 00 00 00
       0.0 0.0 0.0 0.0
0003f0 00 00 00 00 00 00 00 00 00 00 00 00 00 00 80 3f
       0.0 0.0 0.0 1.0

flow.flow.transforms.0.x0 f4 [7, 16]
000000 ee d6 82 be ef 53 74 3e 57 5e ce bd 2f bd 9b 3e
       -0.25554603 0.23860143 -0.10076588 0.30417773
000010 41 92 71 3e 50 0d 05 be 9e 7b 43 3e fe 99 69 3e
       0.23590948 -0.1299336 0.19090125 0.2281265
000020 6a 1b 76 be 84 aa 9b bc 98 f3 97 be 0c c0 36 3e
       -0.24033895 -0.019002207 -0.29678035 0.17846698
000030 66 b8 0a be 03 af 47 bd d9 ec 00 be ff b2 d5 3d
       -0.13546905 -0.04875089 -0.1259035 0.104345314
000040 11 72 f1 3d 19 df 31 3e 80 0e 5a be fb 28 81 bd
       0.117893346 0.17370261 -0.21294594 -0.063066445
000050 7e 6f d7 bd e2 47 a4 bd 23 ef 76 3d 8c e3 aa bc
       -0.10519312 -0.08021523 0.060286652 -0.020860456
000060 0b 9e b3 be 60 7a f1 3d bf 6b 8a 3d dd 79 53 be
       -0.35081515 0.11790919 0.06758832 -0.20651956
000070 21 e6 cd 3c 34 6e 6e 3e 3e 01 6b 3e 6b 47 c5 bd
       0.025134148 0.23284227 0.22949693 -0.096327625
000080 1b e6 2e 3e 13 24 1c be a5 87 c0 3b 06 91 71 be
       0.17079966 -0.15248136 0.005875545 -0.23590478
000090 8f 04 92 3e 53 4e 98 3d f8 1e 7e 3e 17 1d 22 3e
       0.28519103 0.07436814 0.24816501 0.1583141
0000a0 61 cf 0f be 7d 94 fd 3d b8 1e 61 be 00 c1 50 be
       -0.14043953 0.123818375 -0.21984375 -0.20386124
0000b0 ff 94 36 3c b5 7d 1f 3d 2c f7 a9 3d bf 0d 86 3d
       0.011143922 0.038938243 0.082990974 0.065455906
0000c0 21 d9 46 be 57 28 86 3e 02 cd cd bd be b1 ca bd
       -0.19418766 0.26202652 -0.10048868 -0.09897183
0000d0 40 2e 9f 3d 16 18 40 bd 82 57 02 3e e5 f4 52 3e
       0.07772493 -0.04689797 0.12728694 0.20601232
0000e0 c7 0d c8 be 5d e9 9c 3e b4 1b 35 3e ab 45 78 be
       -0.3907301 0.30646792 0.17686349 -0.24245326
0000f0 62 0c d8 3d 37 f7 42 3e 52 98 be 3e e3 c1 5a 3e
       0.10549237 0.19039617 0.37225586 0.21363024
000100 40 f0 b2 bd 7b 1a 41 3e 68 e0 1d 3e 56 b9 1a bc
       -0.0873723 0.18857758 0.15417635 -0.009443602
000110 86 69 01 be 2a 36 ea bd 7c 5a 9f be bf f1 23 3e
       -0.1263791 -0.11436112 -0.31123722 0.16010188
000120 97 d7 69 3e 5d 0f c2 bd 98 93 f7 3d 57 1f 4f 3e
       0.22836147 -0.094755866 0.12088698 0.20226799
000130 51 3c 39 3e ba fb 00 be 47 56 93 3d b7 58 65 be
       0.18089415 -0.12596026 0.071941905 -0.22397123
000140 5f 5a d8 bd 6c 4b 0d bd 5d 8c 53 3c 68 14 e9 3c
       -0.10564112 -0.034495756 0.012911883 0.028452113
000150 c8 c5 1f be 71 1c 81 bd cd dc 4e 3e e0 57 eb be
       -0.15602791 -0.06304253 0.20201416 -0.4596548
000160 73 04 38 be f8 26 02 bd 4d b8 e6 3c 59 52 00 bd
       -0.17970447 -0.031775445 0.028164053 -0.031328533
000170 c7 68 4c be d0 13 a3 bc 07 83 ac 3d 2a 8e 9a be
       -0.19961844 -0.019906908 0.08423429 -0.30186588
000180 2d df bc 3e f9 e1 d3 3c e8 35 0b 3e 1f 77 6c be
       0.3688902 0.025864588 0.13594782 -0.23092316
000190 f6 99 3d be e6 de 98 3e f3 a4 6a 3e dc 08 14 3e
       -0.18515763 0.29857558 0.22914486 0.14456505
0001a0 1f ea 9f 3c 84 ea b2 3c 18 ce 94 3e 19 76 8a be
       0.019520817 0.021840341 0.29063487 -0.27043226
0001b0 8a ca ca bd 2c b9 f6 bd 99 59 61 3e f4 a7 a9 3e
       -0.099019125 -0.120470375 0.22006835 0.3313595

flow.flow.transforms.0.alpha_prime f4 [7]
000000 f3 32 15 3e cd d8 a2 be 47 76 79 3e 14 f1 ae 3d
       0.14570217 -0.3180603 0.24361525 0.08542076
000010 3d 77 0f 3e b4 7d 56 3d d3 8c 28 3d
       0.1401033 0.052365974 0.041149925

flow.flow.transforms.0.beta_prime f4 [7]
000000 3c 81 02 3e d1 e6 b4 3e aa 6a 98 be e8 4a 72 be
       0.12744612 0.3533235 -0.29768878 -0.23661387
000010 73 c8 95 3c 30 ce 81 be d9 c6 f3 bc
       0.018284058 -0.2535262 -0.029757904

flow.flow.transforms.1.x0 f4 [7, 16]
000000 94 cc 82 be 1d c1 ea 3d cf 6c 74 3e 12 72 70 3e
       -0.25546706 0.11462615 0.23869632 0.23481014
000010 78 99 8b be da 27 30 be 05 52 33 be e2 8d df be
       -0.27265525 -0.17202702 -0.17511757 -0.43662935
000020 5f 0a b8 be 2c cb 94 bd c3 67 40 3e 4c 9a 72 3e
       -0.35945413 -0.072653145 0.18789582 0.23691672
000030 61 6c 83 be 47 a1 e4 3d 80 98 df 3d d6 cc e0 3d
       -0.25668624 0.11163574 0.10917759 0.10976569
000040 1b fb 99 be 6d c9 0c 3d 9e 68 f6 bd 68 67 5a be
       -0.3007439 0.034371782 -0.12031673 -0.21328509
000050 f0 85 79 3e 55 ce 28 bd 49 6d 87 be d5 18 73 be
       0.243675 -0.0412124 -0.26450565 -0.23739941
000060 fb d6 cd 3e fc 73 20 3e e9 0f c7 bd 3a e0 a6 3e
       0.4020308 0.15669245 -0.097198315 0.32592946
000070 1c a1 4e be 89 2b ac be 72 e5 1b be 82 2b 0b be
       -0.20178646 -0.33626965 -0.15224245 -0.13590816
000080 a1 5d 3a 3e 63 ff 0f 3c 18 a9 12 3e 2c 88 85 be
       0.18199779 0.008788916 0.14322317 -0.26080453
000090 18 07 ad 3e ad a5 11 be 80 3d 9a 3e 62 bd 5b 3e
       0.33794475 -0.14223357 0.30125046 0.21458963
0000a0 75 b3 10 be 97 bf c7 3d d7 cf 81 be ea 3f 30 bd
       -0.14130957 0.0975334 -0.25353882 -0.043029703
0000b0 50 fc 8d bd 6b cd 96 be 33 a5 73 3d 27 1f d1 3d
       -0.069328904 -0.29453596 0.059483718 0.1021102
0000c0 ad 82 4d bd b7 77 86 3e 3b 88 ae be 2c 27 30 bd
       -0.05017345 0.2626321 -0.3408831 -0.043006107
0000d0 6f 59 33 3e 7c 5d a9 bd 1e 69 01 3e 03 74 91 3e
       0.17514585 -0.08269784 0.12637755 0.28408822
0000e0 14 26 99 be 3a 7f b2 3e 9a 19 04 3e 62 c3 a1 be
       -0.29911864 0.3486269 0.12900391 -0.31594378
0000f0 05 0e 8f bd 27 1c af 3e fd 2f c8 bc 37 8f 51 3e
       -0.06985096 0.34201166 -0.024436945 0.20464788
000100 12 2f dd bd f8 03 73 be 28 5f e8 bc 24 91 ca bc
       -0.107999936 -0.23731983 -0.028365687 -0.024727412
000110 e3 fe 23 3e a8 63 df 3d f5 5a 96 3e 74 34 3d be
       0.160152 0.1090768 0.2936627 -0.1847704
000120 39 93 d2 be cc 64 93 3e c2 d3 2e 3d 4e 6d 82 be
       -0.41127947 0.2878784 0.042682417 -0.25474018
000130 72 0d 83 be 31 8f c0 be b6 f2 47 be 18 d0 cb 3d
       -0.25596195 -0.37609246 -0.1952618 0.099518
000140 80 ae 2b be 29 be 20 3e d6 03 68 be 83 ec 11 3e
       -0.16765785 0.1569754 -0.22657713 0.14250378
000150 8d f4 9c be 59 41 0b be 23 5f 73 3e 08 8f 79 bd
       -0.30655327 -0.13599147 0.2376676 -0.06092742
000160 01 ae b8 be b6 fa c5 3c a7 51 11 be 8d 02 36 bd
       -0.36070254 0.0241674 -0.14191304 -0.044436026
000170 56 40 7c be 93 33 b8 bd 0d ef 6f bc 22 ca d1 be
       -0.24633917 -0.08994212 -0.0146443965 -0.40974528
000180 fd 7e a2 3e fe be 53 be 40 7c 89 38 44 26 99 be
       0.3173751 -0.20678326 6.5558124e-05 -0.29912007
000190 e1 15 53 3e 5c 6d 05 3e a2 1e 4e 3e 0f c7 99 3e
       0.20613815 0.13029999 0.20128873 0.30034682
0001a0 0a 5e 17 be fd aa 88 bd 73 7f 67 3e 68 16 28 bd
       -0.14781967 -0.066732384 0.22607212 -0.041036993
0001b0 44 d2 e0 bc 8e 74 91 3d 78 e9 60 bd 00 7f 9f 3e
       -0.027444012 0.07102309 -0.054910153 0.3115158

flow.flow.transforms.1.alpha_prime f4 [7]
000000 df 92 9e 3d f6 b1 f1 bc 0f 3e 82 3e b8 8b 06 3e
       0.07742857 -0.029503804 0.25437972 0.13139236
000010 d5 9a b2 bd 55 14 06 3d 11 e7 46 3e
       -0.08720938 0.032734234 0.19424082

flow.flow.transforms.1.beta_prime f4 [7]
000000 2f bf 0f be 69 38 20 be 26 e2 2e be 4e d9 28 bd
       -0.14037775 -0.15646519 -0.17078456 -0.041222863
000010 be ce 77 3e 0f b5 6c bd bc 79 a1 3c
       0.2419996 -0.05778986 0.019711368

flow.flow.transforms.2.x0 f4 [7, 16]
000000 68 1b 2e be 97 9e d7 bc 1d 3d 84 3e c5 8c 12 3d
       -0.17002642 -0.026320739 0.25827876 0.03577878
000010 45 70 43 be da e8 09 3c a1 b7 56 bd 66 ac d3 be
       -0.19085796 0.008417333 -0.052421216 -0.41342467
000020 15 e8 09 bd cf f3 e8 3d d7 93 c2 3d 9d cc 45 3e
       -0.033668596 0.11374628 0.095008545 0.19316335
000030 57 75 85 be 56 b2 a9 be eb 45 29 be 0d 70 e9 bd
       -0.26066086 -0.33143872 -0.16530578 -0.11398325
000040 fe 8c a1 3e 81 d0 5b 3e cb 91 fb 3e f9 b9 6c 3e
       0.3155288 0.21466257 0.4913467 0.23117818
000050 59 b4 96 be b0 12 a2 be 52 af 41 3e 8e 01 c9 3d
       -0.2943447 -0.31654882 0.18914536 0.0981475
000060 ce b6 94 3e 94 3a 8f be 6b 9a af 3e a3 0b 2c 3b
       0.2904572 -0.2797438 0.342975 0.0026252053
000070 5c f1 9b be 91 9a c8 be 4f 6e 15 3e 14 7e 25 be
       -0.3045758 -0.39180425 0.1459286 -0.16161376
000080 e3 66 5d 3e ea 17 7f 3d 03 d8 46 3e c7 98 c6 be
       0.2162128 0.062278666 0.1941834 -0.38788435
000090 30 f7 67 3e 56 79 e4 3d 2b 82 01 3e dc df 98 3e
       0.22652888 0.111559555 0.12647311 0.2985829
0000a0 50 d9 88 bd 67 27 72 be 2c 61 ae be 76 a1 c1 be
       -0.06682074 -0.23647843 -0.3405851 -0.37818497
0000b0 44 80 22 be 83 36 16 3e 4a 35 3a be af 0f 19 be
       -0.15869242 0.14669232 -0.1818439 -0.14947389
0000c0 d4 57 1a be 48 1d ce bd 8f 9a bd 3e f4 2d b2 bd
       -0.15072566 -0.10064179 0.3703198 -0.08700171
0000d0 2e 55 15 3e af d8 d9 bc 98 d2 41 3d a3 46 bf bd
       0.14583275 -0.02659258 0.04731998 -0.09339645
0000e0 da 6d 7f 3e c8 e5 3a be 2f 54 29 be 5b b8 65 3e
       0.24944249 -0.18251717 -0.1653602 0.22433607
0000f0 ed 4a 11 be 77 4e cc be 07 0e 56 be a2 86 df bd
       -0.14188738 -0.39903614 -0.20903789 -0.10914351
000100 4f 0f 42 bd 9a ed 6d 3e 85 2b 9c bc 0d 8f da bc
       -0.04737788 0.23235169 -0.01906372 -0.02667954
000110 dc 2f 31 be 4c 3b 4e bd 56 aa 6a be a7 fe 6f 3e
       -0.17303413 -0.05034952 -0.2291654 0.23436986
000120 99 99 8c 3e c2 fb 74 be ca 88 49 3e a7 81 51 3e
       0.27460936 -0.23924163 0.19681087 0.20459615
000130 b4 35 98 3e b4 1a 8f bd c5 a9 f9 bc a8 14 2c 3e
       0.29728472 -0.06987515 -0.03047646 0.16804755
000140 0a 4b d3 bd a0 41 35 bb 6a 6d b0 3c 1b ec ab bd
       -0.10317047 -0.0027657524 0.021536548 -0.08394643
000150 6e 78 36 3d 7e b8 be 3c 83 e9 3d be 58 40 c2 3e
       0.044548444 0.023281332 -0.18546109 0.37939715
000160 b5 fc 9d 3e 9b 9b 41 3d cc b4 ba 3d 1b 9a 74 3e
       0.30856863 0.047267538 0.091165155 0.23886912
000170 64 41 f4 3d 22 b3 17 be 60 23 cb ba 02 fd b5 3e
       0.11926535 -0.14814427 -0.0015498213 0.35544592
000180 b0 8b 94 bd cf 73 51 3e c8 75 a7 bc cd c3 67 3e
       -0.07253206 0.20454334 -0.020441905 0.22633286
000190 29 ee 44 be 05 27 8a 3c a3 c6 83 bd 78 e0 c2 3a
       -0.19231476 0.01686431 -0.06434371 0.0014867922
0001a0 31 bf 28 3e 31 c6 df bd 62 fa ed bd de b2 0a 3d
       0.16479184 -0.10926474 -0.11620022 0.033861987
0001b0 9a ea 34 3e 35 ac c6 bd 85 94 33 3e 9b 45 89 be
       0.17667618 -0.09700815 0.17537124 -0.26810917

flow.flow.transforms.2.alpha_prime f4 [7]
000000 a6 09 36 3e ac 7b e4 bc e2 81 1b bd e1 b8 ab be
       0.17777118 -0.027891003 -0.037965663 -0.3353949
000010 be 80 57 bd 7d c5 c8 3d e5 a9 98 be
       -0.052613012 0.09803293 -0.2981712

flow.flow.transforms.2.beta_prime f4 [7]
000000 d6 71 c4 bc ae ef da bc 6d dc df bd a1 91 e8 bd
       -0.023980062 -0.026725616 -0.10930715 -0.113559015
000010 4a 49 60 be 7a 73 82 3e 70 df ba bd
       -0.21902958 0.25478727 -0.091246486

flow.flow.transforms.3.x0 f4 [7, 16]
000000 12 fc eb 3d 99 17 2d be 17 1c 3c be 71 9b 95 be
       0.11522688 -0.16903533 -0.1837009 -0.29220155
000010 7d e0 58 3c ed c9 19 bd fa 5c c3 3d 5f 79 19 3e
       0.013237116 -0.037546087 0.09539218 0.14987706
000020 2c b7 91 3e 18 6b 81 be 8f 7f b7 3d c3 2c ae be
       0.28460062 -0.2527702 0.08959877 -0.34018525
000030 e8 a1 f8 3e e2 0d dc 3d c2 fd 44 3e ef 02 5b 3e
       0.48561025 0.107448354 0.19237426 0.21387838
000040 55 9a db be 10 22 e5 3e 3f 95 cf be ee 80 ce 3e
       -0.42891183 0.4475255 -0.40543553 0.4033274
000050 28 d1 54 3e d6 bc 8b be e0 9d 9d be 7a 5d 9c 3e
       0.20782912 -0.27292508 -0.30784512 0.30540067
000060 17 25 9d be 5d a2 e0 be e4 30 6c 3e e1 7a 85 3e
       -0.3069236 -0.43873873 0.23065525 0.26070312
000070 0e 02 25 be d6 bc aa be 0a 46 19 be e6 d8 b4 be
       -0.16114065 -0.33347195 -0.14968124 -0.3532173
000080 4a 5c a8 bc 16 dd 87 3e 1b e0 b1 bb f2 6a a6 3e
       -0.02055182 0.26535863 -0.005428327 0.32503468
000090 bb 08 ba be 9d 6f 05 be 24 d4 bd be 1a 99 42 be
       -0.36334786 -0.13030858 -0.37075913 -0.19003716
0000a0 82 14 1f 3e e8 02 37 3d 4e 01 44 3e d8 39 81 3e
       0.15535167 0.044680506 0.19141123 0.25239444
0000b0 a7 34 15 bd 7f 5b 87 3e 6b e2 52 3e 11 e8 7d be
       -0.036427166 0.26436993 0.20594184 -0.24795558
0000c0 f5 ce d1 3d dd fd 8e 3e df 39 54 be bf 5a 83 3e
       0.10244552 0.27928057 -0.20725201 0.2565517
0000d0 b7 0c 80 3d 82 bd 47 bd 90 1c 0b be 76 b4 1f 3e
       0.06252425 -0.048764713 -0.13585114 0.15596184
0000e0 b1 22 ed be 79 e2 a5 bd f7 1f 61 3e 24 69 37 3c
       -0.4631553 -0.08099837 0.2198485 0.011194501
0000f0 0d dc 86 3e b4 37 8e 3e e7 95 de 3d ae 21 37 bd
       0.2633976 0.27776873 0.10868435 -0.044709854
000100 d8 dc 22 3c 02 77 5a be 26 dc 09 bd 83 cc 76 3b
       0.009940349 -0.2133446 -0.033657216 0.003765852
000110 fd c7 e9 bc 6d b5 83 bd 25 c8 0f 3e be 3a 70 be
       -0.028537745 -0.064310886 0.14041193 -0.23459908
000120 2d 7a cd be b2 a8 b0 3d db f2 dc bd 4b f8 98 be
       -0.40132275 0.08625926 -0.107885085 -0.29876933
000130 7d 28 5a be e0 a6 ad be 4d 95 13 be ff 98 f7 3d
       -0.21304508 -0.33916378 -0.14412422 0.120897286
000140 40 cc 36 bd 64 f4 1a be cf 79 d1 ba 6a ab 25 be
       -0.04462838 -0.1513229 -0.0015981736 -0.1617867
000150 be cf 1e be 0c bf 13 be 3e 2d 5d 3e 50 13 00 bf
       -0.15508935 -0.14428347 0.2159929 -0.5002947
000160 87 e5 c3 bd c2 95 5c ba 65 09 3b be bb 36 31 be
       -0.09565263 -0.00084146496 -0.18265302 -0.17306034
000170 92 06 35 be 69 2d 35 3e 3c 1e c7 3d 10 6f bd be
       -0.17678288 0.17693104 0.097225636 -0.36998796
000180 25 11 fe bc 0c 12 24 3e 61 f9 fd 3d 10 a8 0c 3e
       -0.031014035 0.1602251 0.12401081 0.13735986
000190 bc 3b ec bd 0c 2f 24 bd cd 35 71 be 9e 52 da bd
       -0.11534831 -0.04008393 -0.2355568 -0.10660289
0001a0 8e ad 14 3e 0c 91 0f be b3 c4 61 bc 55 1e c5 bc
       0.14519331 -0.14020175 -0.013779807 -0.024062315
0001b0 ae c1 15 3e 80 e0 a9 bd d2 8e 1d 3e 58 3a 72 be
       0.14624664 -0.08294773 0.15386513 -0.23655069

flow.flow.transforms.3.alpha_prime f4 [7]
000000 59 c0 bd bd e3 3a d0 3d 46 20 81 be ec 3b 17 3e
       -0.09265203 0.10167482 -0.25219935 0.14768952
000010 18 e9 28 be ca fa 02 3e 94 00 4d be
       -0.16495168 0.12790981 -0.20019752

flow.flow.transforms.3.beta_prime f4 [7]
000000 26 e2 48 3c 2f 51 ff 3d 71 ad b5 3e 93 e2 b4 3b
       0.012260949 0.124666564 0.35483888 0.005520174
000010 21 6b 9b 3d 89 6e 8d be 04 14 40 bc
       0.075887926 -0.27623394 -0.011723522

flow.flow.transforms.4.x0 f4 [7, 16]
000000 53 5f 18 be 86 52 a4 bd 16 47 82 3e 7a c9 ba bd
       -0.14880113 -0.080235526 0.2544486 -0.0912046
000010 32 9b 83 bc 9c ae c1 3c 51 89 03 bd b4 ae d4 be
       -0.016065214 0.02364283 -0.032113377 -0.41539538
000020 20 b4 9e be aa 85 92 bd 5b bc 8a 3d 50 b0 37 3e
       -0.309968 -0.07154401 0.06774207 0.17938352
000030 03 ad 55 be 5e 27 ca be 5a 79 26 bd d5 31 56 bc
       -0.2086678 -0.3948316 -0.040643074 -0.013073404
000040 52 b3 ee bd 65 40 3e 3e e5 57 24 be a3 85 2e 3e
       -0.116552964 0.18579252 -0.16049154 0.17043166
000050 b1 c7 c5 3c 1d 01 9b 3e 62 60 07 3e 18 28 3a bd
       0.024143072 0.30274287 0.13220361 -0.045448393
000060 f9 9e c0 3e ef 2f 68 bd 14 f6 41 be a9 fb 77 3e
       0.37621287 -0.056686338 -0.18941528 0.24217094
000070 f6 be 19 3e 89 b1 ed be 9f cb 73 be fa 40 74 3e
       0.15014252 -0.4642451 -0.23808144 0.23852912
000080 ea 57 86 bc b9 a0 91 3e b5 fe 8c bb fe 6b ab 3e
       -0.016399343 0.28442934 -0.0043028244 0.3348083
000090 3e c2 a3 be 0e fe 25 be b9 f7 71 be a1 f0 46 be
       -0.31984133 -0.16210195 -0.23629655 -0.1942773
0000a0 06 e7 ff 3d ac b5 92 3d 58 0d 82 3e c7 3a 8c 3e
       0.12495236 0.071635574 0.25400805 0.27388594
0000b0 e0 68 b1 bc 58 f3 8a 3e ed e9 74 3e 94 33 33 be
       -0.021656454 0.27138782 0.2391736 -0.17500144
0000c0 9d 76 b2 3e 37 6c 8e 3e da ae 91 be 2e e2 be be
       0.3485612 0.27816936 -0.28453714 -0.37281936
0000d0 ec 6d 12 be d0 ba d0 be bf b0 cb be 49 04 59 be
       -0.14299744 -0.40767527 -0.39783284 -0.21193041
0000e0 d5 28 4a 3e 04 f9 4d be c2 7b 95 3e 23 64 68 3e
       0.19742139 -0.20114523 0.29195982 0.22694449
0000f0 08 5a 50 be 0c dc c6 3e 35 42 0c be b2 86 92 be
       -0.20346844 0.38839757 -0.13697131 -0.2861839
000100 21 4f 8b 3c 97 c6 3e be 74 d1 32 be 7c a0 d6 bd
       0.017005505 -0.18630444 -0.17462713 -0.10479829
000110 aa 4d 04 3d f2 d5 c2 3d 37 68 a3 3e 96 c4 c2 bd
       0.03230063 0.09513463 0.31915447 -0.09510152
000120 14 13 dd be 35 91 77 3e 84 7c 5d 3d 52 4c 84 be
       -0.43178618 0.24176486 0.054073825 -0.25839478
000130 37 12 86 be de 24 a5 be bf 91 3e bd fb 87 0d 3e
       -0.26185772 -0.3225469 -0.046525713 0.13821404
000140 d6 cd ea bd ad 0a d9 bc 81 0c be 3c a9 bf a9 bd
       -0.11465041 -0.026494348 0.023199322 -0.082885094
000150 4d d9 e2 3d d0 11 78 3c 13 8e 17 be e8 71 b9 3e
       0.11076603 0.015140966 -0.14800291 0.36219716
000160 39 f6 f6 3d 5a 8b 9e 3d b1 eb a6 3d 67 3e 49 3e
       0.12058682 0.07741423 0.08150423 0.19652711
000170 33 59 f1 3d 26 ca f2 bd 38 e3 2e bd 8d 64 77 3e
       0.117845915 -0.11854963 -0.04269716 0.24159451
000180 93 7e 73 be d6 8a dc 3e da 83 ea be c3 58 4d be
       -0.23778753 0.43074673 -0.4580372 -0.20053391
000190 f8 6e bb 3e 95 c6 87 be 5d 5b f3 3d 1e 04 05 bf
       0.366081 -0.26518694 0.118826605 -0.5195941
0001a0 08 02 5e be ff ae e3 3e 0d a5 57 be 93 f7 c6 3e
       -0.21680462 0.4446945 -0.21059056 0.3886076
0001b0 34 4e 57 be 2b 7f e5 3e 53 d5 00 be 7a b9 94 3e
       -0.21025926 0.44823584 -0.12581377 0.29047757

flow.flow.transforms.4.alpha_prime f4 [7]
000000 bd 02 28 3e 30 89 3d 3e 22 dd da bd 8a f4 e4 3b
       0.16407295 0.18509364 -0.10686709 0.006987159
000010 33 80 89 be 31 ad 5e be bd 60 84 bd
       -0.2685562 -0.21745755 -0.06463764

flow.flow.transforms.4.beta_prime f4 [7]
000000 7d 00 83 be 78 f0 62 bd 9d cc 61 3e f8 93 01 3c
       -0.2558631 -0.05540511 0.2205071 0.007908814
000010 f7 8a 00 3e d3 22 0e bd e4 84 88 bd
       0.12553011 -0.03470118 -0.06665972

flow.flow.transforms.5.x0 f4 [7, 16]
000000 1f 3c 36 3e d1 e1 ca 3d 96 50 60 be b6 ff bc be
       0.17796372 0.09906352 -0.21905741 -0.36913842
000010 c4 76 90 3e 3c b5 38 be a8 0d 42 bd 8d 3a fc 3e
       0.2821561 -0.18037885 -0.047376305 0.4926342
000020 04 69 bb 3e 9a c3 8f be 5e 38 12 bd 8a 95 94 bd
       0.36603558 -0.2807892 -0.035698287 -0.07255085
000030 26 67 d8 3c 66 51 3d 3d 0a bd 40 3e 82 f0 7c 3e
       0.026416373 0.046220206 0.18822113 0.24701121
000040 0f df a1 be 8f de 27 bd 4c 14 33 be 0d 9c 85 be
       -0.31615493 -0.040983733 -0.17488211 -0.2609562
000050 91 2e b7 3e a2 12 c0 3e 2b 68 59 be 46 ae 82 be
       0.35777715 0.37514216 -0.21231143 -0.25523585
000060 90 95 4e be f9 56 8a be 54 67 af be b1 2b 1d 3d
       -0.20174241 -0.2701948 -0.3425852 0.038371745
000070 b7 bf 30 3e ab ce f0 be 48 13 6a 3e 19 15 95 3e
       0.17260633 -0.47032675 0.22858918 0.2911766
000080 8e 6d 51 bc da 3a 93 3e ab 36 bd bd 52 d7 8b 3e
       -0.0127824675 0.28755838 -0.09238943 0.27312714
000090 da 7e bd be ce 34 fa bd d2 89 b7 be bc 16 74 be
       -0.37010843 -0.12217103 -0.35847336 -0.23836797
0000a0 a4 03 ad 3d 3d 8a af 3d 29 59 7a 3e ea d3 32 3d
       0.0844796 0.08571289 0.24448074 0.04365913
0000b0 5b fa 08 bd c0 0f 8b 3e b5 25 ca bb 52 ca 62 be
       -0.033441883 0.27160454 -0.006169046 -0.22147492
0000c0 54 97 40 bd 57 b6 ba 3e f8 e0 a3 be 6c fc 27 3e
       -0.047019318 0.3646724 -0.32007575 0.16404885
0000d0 cf 52 80 3e ea 9a 84 be f9 08 71 3e e9 ed fc 3b
       0.25063178 -0.2589944 0.23538579 0.007718791
0000e0 7c 5f 52 3b 50 62 6e bd 3e 3c 33 3e af 93 ae be
       0.003210037 -0.058199227 0.1750345 -0.3409705
0000f0 5f b1 59 be 44 a5 33 3c e6 50 0f 3a 2c 95 90 3d
       -0.21259068 0.010964695 0.0005467072 0.07059702
000100 80 cd 07 3b 29 34 8a 3e 5e 71 06 bd 33 92 2b be
       0.0020721853 0.2699292 -0.03282296 -0.1675499
000110 04 84 a3 3c 33 7a 7f bd e7 b4 a7 3d a8 ff 8b 3e
       0.01996041 -0.062372398 0.08188801 0.27343488
000120 67 08 92 3e b8 07 d0 bd ac 62 4a bc 3d fa 31 be
       0.28522035 -0.10157722 -0.012352627 -0.17380615
000130 e6 45 af 3e be 70 88 3e c8 c3 dc bd bf d6 fe bd
       0.34233016 0.26648515 -0.1077953 -0.12443303
000140 c5 f6 81 bd ef e1 32 3e a8 e2 ba 3d 3e 69 76 3e
       -0.06345896 0.17469 0.091252625 0.24063584
000150 3f 4a 9a be ca c8 27 be 2e 31 ef 3c 2d d8 07 bf
       -0.3013477 -0.16385189 0.029198255 -0.53064233
000160 9b 27 bb be 3e f2 08 bd 28 f2 30 be af 34 49 3e
       -0.36553654 -0.033434145 -0.17279875 0.19649003
000170 58 d3 26 be 3b d6 3e 3e 16 fd d4 bd e3 99 96 be
       -0.16291559 0.1863641 -0.10399835 -0.2941428
000180 d5 11 c8 3e c8 b1 6d be c8 8b 9a be 3e f8 bf be
       0.39076105 -0.2321235 -0.3018477 -0.3749408
000190 d4 0a 1a bd 12 f7 3d be 18 91 07 3d f5 63 8e 3e
       -0.037607983 -0.18551281 0.033097357 0.27810636
0001a0 11 28 82 be e2 65 51 be 00 e1 ad b9 24 c0 57 be
       -0.25421193 -0.20449021 -0.0003316477 -0.2106939
0001b0 01 1c 02 be f5 0c 4e 3e 51 1b 5c 3d 00 d7 cc 3e
       -0.12705995 0.2012213 0.05373699 0.40007782

flow.flow.transforms.5.alpha_prime f4 [7]
000000 89 02 8f be 6a 7b df 3d f0 3c 49 3d c7 06 d5 bd
       -0.27931622 0.10912211 0.04913038 -0.10401683
000010 e8 35 7c 3d 22 75 05 bd b5 d7 e5 3d
       0.061574847 -0.03258241 0.112227835

flow.flow.transforms.5.beta_prime f4 [7]
000000 d7 35 2a be b1 1e bf 3d ff 3e 8e 3e bd 16 14 be
       -0.16622101 0.09332026 0.27782437 -0.14461799
000010 12 12 b4 bc b1 7f e9 bd c9 d7 a4 bd
       -0.021981273 -0.11401308 -0.0804897

flow.flow.transforms.6.x0 f4 [7, 16]
000000 87 3f 90 bc d8 33 a8 bc d5 8b 20 be 1e c1 5d be
       -0.017608417 -0.020532534 -0.15678342 -0.216557
000010 78 ba 14 3e 08 5c a4 bd 85 f3 4c 3d aa e6 c0 3e
       0.14524257 -0.08025366 0.050036926 0.37675983
000020 f0 47 29 3e d9 2f 07 be 03 14 2e be c9 79 48 be
       0.16531348 -0.13201846 -0.16999821 -0.19577707
000030 80 f9 58 3e f5 0f 3f 3e c8 94 94 3d 30 81 24 3e
       0.21188927 0.18658431 0.0725494 0.16064906
000040 0a 60 fe 3c f8 83 3b 3e 60 12 41 be 4c d9 79 bd
       0.031051654 0.18312061 -0.18854666 -0.060998246
000050 77 85 82 bd e0 b8 a5 bd 94 70 48 3d f5 cc a0 bc
       -0.06373113 -0.08091903 0.048935488 -0.019628981
000060 58 b2 91 be 1c 8d 28 3d 44 9a d0 3c fe 4d 20 be
       -0.28456378 0.041150197 0.025464185 -0.15654752
000070 60 7c ae bc 13 61 55 3e 1c 50 2d 3e 3f 94 d7 bd
       -0.021299541 0.20837812 0.1692509 -0.105263226
000080 cb 82 8f be f0 75 d8 3c a9 b4 6b be 4c 52 a4 bc
       -0.28029475 0.026423424 -0.23018135 -0.020058773
000090 2c 39 01 be c6 f4 14 3e 12 ba 32 3e c7 02 bc 3e
       -0.12619466 0.14546499 0.17453793 0.3672087
0000a0 3c bb 83 3e db c6 89 be 9c 2f 06 3e d5 6a 61 be
       0.25728786 -0.26909527 0.13104099 -0.2201341
0000b0 d0 9a 85 3e 15 63 29 3e cc 4e c5 be ff aa 2c 3e
       0.26094675 0.16541703 -0.3853668 0.16862105
0000c0 d4 92 e3 bd f6 98 59 be 8c 58 bf 3e 66 75 40 bc
       -0.111119896 -0.21249756 0.37372243 -0.01174674
0000d0 ad 3d 26 3e fb 24 94 bd ac 18 5f 3b bc 0d ab bd
       0.16234465 -0.07233616 0.0034041805 -0.08352229
0000e0 ab f5 67 3e 24 f9 31 be d3 49 e6 3b a0 bb fc 3d
       0.22652309 -0.17380196 0.0070278435 0.12340474
0000f0 bf ed d3 bd ef f3 be be c1 0d 10 be 8d 4f 3c be
       -0.10348081 -0.37295482 -0.14067747 -0.18389721
000100 58 19 a3 bd eb 91 84 3e e0 9f 9d 3d f5 47 1e bd
       -0.07963818 0.25892577 0.07696509 -0.038642842
000110 e2 73 16 be 09 0c 44 bd c6 ad 78 be d5 fb 84 3e
       -0.14692643 -0.04786304 -0.2428504 0.25973383
000120 13 0a 99 3e f1 b9 20 be 12 35 ac bc a1 7f f2 bd
       0.298905 -0.15695931 -0.0210214 -0.118407495
000130 4c 97 48 3d 1b bc 84 3e c3 35 31 be 9e cf 19 be
       0.048972413 0.25924763 -0.17305665 -0.15020606
000140 5b 67 02 be a9 b9 dd bc 3e 23 57 bc 41 21 bf bd
       -0.1273474 -0.027066069 -0.013130961 -0.093325146
000150 82 13 be 3d 37 7f 73 3d 4b 29 08 be 53 f5 a1 3e
       0.092810646 0.059447493 -0.13297002 0.3163248
000160 3a 30 6c 3e 5c b6 d3 3d 0f 90 ad 3d 2f d5 33 3e
       0.23065272 0.10337517 0.084747426 0.17561792
000170 f4 e0 3d 3d ac a5 9b bd a8 50 e1 bc 98 cc 8b 3e
       0.04635711 -0.07599959 -0.02750428 0.2730453
000180 71 be 69 bd 39 2b 52 3d db fc 3a 3e 3d c4 5f bd
       -0.057066385 0.05131075 0.18260519 -0.054630507
000190 24 40 7f be 2a 9b 3b bd fd 35 80 be c8 ca 6a be
       -0.24926811 -0.045802273 -0.2504119 -0.22928917
0001a0 0f c4 44 3e e3 e5 f3 bd 56 99 a2 3d d6 f3 af 3d
       0.19215415 -0.11909082 0.07939403 0.0859143
0001b0 e4 7e c2 bd 03 48 f7 3d 48 8d ec 3d 17 4a fa bd
       -0.09496859 0.12074282 0.11550385 -0.12221163

flow.flow.transforms.6.alpha_prime f4 [7]
000000 36 92 6e be 35 68 07 be d7 aa e4 3d d3 32 ed 3c
       -0.23297963 -0.13223346 0.111653976 0.028954899
000010 d7 33 71 3e 02 20 ad be 81 22 42 3d
       0.23554932 -0.33813483 0.047396187

flow.flow.transforms.6.beta_prime f4 [7]
000000 f2 ab 87 3e 6b d2 95 3e 64 5b e8 3c 31 17 77 3e
       0.2649837 0.292621 0.028363891 0.2412994
000010 dd 25 01 3e 42 0b e8 3b 1e cd 2d 3e
       0.126121 0.00708142 0.16972777
