saved_experiments/classification/GPN/1/model_7.pt (torch, 764793 bytes, 36 tensors)

input_encoder.0.weight f4 [64, 2879]
000000 0d cf a0 3e 84 1d 4c be c4 51 11 be 21 61 ff bd
       0.31407967 -0.19933134 -0.14191347 -0.12469698
000010 70 46 28 be 1b 24 96 bd bf 1a 45 3d 68 4c 82 be
       -0.1643312 -0.07331105 0.04812121 -0.25448918
000020 45 0d a3 be 79 03 71 3d 0f 73 65 be aa a5 77 be
       -0.3184606 0.058841202 -0.22407173 -0.2418429
000030 7c eb a3 3e 66 e2 c8 bc 9b 74 02 3e 8b 5c bb 3d
       0.32015598 -0.024522018 0.12739794 0.091485105
000040 d2 32 a0 be c6 09 d4 3e 1d 7a c2 3d 9e 3e 87 3e
       -0.31288773 0.41413707 0.094959475 0.2641496
000050 36 3f 52 3d 28 cc 66 be 6e 8b a0 be 1a 70 f3 3d
       0.051329814 -0.22538817 -0.31356376 0.11886616
000060 a6 d6 64 3d 58 e7 2b be 6d 08 13 bd 40 8e a9 bd
       0.055868767 -0.1678747 -0.035896707 -0.08279085
000070 e5 b8 cd 3c 62 a2 d6 3e 64 0d 46 bc 51 30 d1 3c
       0.025112579 0.41920763 -0.0120881535 0.025535734
000080 44 de 85 3d 1d 50 38 3d d8 9f 20 bd 16 6c 1d bd
       0.065365344 0.044998277 -0.03921494 -0.038433157
000090 4f 37 7e 3d 4e ca 3b 3b 51 0b d4 3d e4 25 bb 3e
       0.062064465 0.0028654519 0.10353721 0.36552346
0000a0 4d 57 4e be 1c 7b 87 3d fe ac dc bd 90 5c 8b be
       -0.2015049 0.06615278 -0.10775183 -0.27219057
0000b0 77 f6 8a 3e bb d7 98 bd b5 4d d9 bd b8 40 55 bd
       0.27141163 -0.07463022 -0.106105246 -0.052063674
0000c0 6a 15 d2 bd 71 dc 21 bd 56 0a 6f 3d 13 c9 dc 3d
       -0.10257991 -0.03951687 0.058359466 0.10780539
0000d0 ee 18 d9 3e af a4 23 be a9 52 95 3d b9 85 14 3e
       0.42401832 -0.1598079 0.07291157 0.14504136
0000e0 a0 6e cd 3d f1 50 46 3e 94 08 ba 3d fa ad ca 3d
       0.10030866 0.19366814 0.090836674 0.09896465
0000f0 af 24 6d 3d 6f 47 90 bd 25 e0 94 3e f5 e1 8f bc
       0.057896312 -0.07044875 0.2907726 -0.0175638
000100 0e 95 31 3d c1 08 a4 3e 02 9d 84 3e 06 cd cc 3d
       0.04335504 0.3203793 0.25901037 0.100000426
000110 39 d7 e5 bd a4 56 12 3d f4 43 b6 3c 89 f2 43 3e
       -0.11222691 0.03572716 0.0222492 0.19135489
000120 7e 2d 25 3e 09 6e 49 be da 9d 65 3e b3 93 30 bd
       0.16130635 -0.19670881 0.22423497 -0.043109607
000130 84 2f 7d 3d 23 8d 2a 3d 1b 00 0c 3e c7 f4 b6 3d
       0.061812893 0.041638505 0.13671915 0.08933406
000140 d6 03 2a 3e 3c 8d 5b be 93 ad 30 3d bf a7 38 3e
       0.16603026 -0.21440595 0.043134283 0.1803274
000150 1c b9 eb 3c f7 34 72 be 4f e9 3a 3e 18 41 2c 3a
       0.02877479 -0.23653017 0.18253063 0.0006570979
000160 e9 ef 6e 3e c6 01 21 3e ec 6d 1a be 0e 37 91 3d
       0.23333706 0.15723333 -0.15080994 0.07090579
000170 d6 62 b5 bd 68 60 a4 3c 68 f3 d5 3d 46 2b 54 be
       -0.08856742 0.020065501 0.10446817 -0.20719633
000180 3c c9 04 be d9 1c a0 3d f9 5e 7d 3e c8 9b 3e 3c
       -0.1296739 0.07818002 0.2474326 0.011633821
000190 78 12 40 3c 78 d0 05 3b a6 60 00 3e 97 33 ed 3d
       0.011723153 0.0020418447 0.12536868 0.115821056
0001a0 48 3f c1 3d c1 83 90 3e d6 4c 0b 3e e4 a1 2d bd
       0.09435898 0.2822552 0.1360353 -0.04239072
0001b0 ca d8 b4 3d 3d 1e 3d be f0 5d 3a 3e 1b 45 e1 bd
       0.08830412 -0.18468566 0.18199897 -0.10999509
0001c0 c0 13 d5 3d 09 65 3f 3e b4 bd 33 3e 34 18 b8 3e
       0.10404158 0.18690886 0.17552835 0.35955966
0001d0 ee 14 f4 3d a8 ff 10 be c0 29 3e bd ee 1e d8 bd
       0.119180545 -0.14160025 -0.046426535 -0.10552774
0001e0 fb 42 22 be b7 72 5a 3d 5d 42 52 3e aa ac 26 be
       -0.15845864 0.053332057 0.20533128 -0.16276804
0001f0 58 63 90 3d bb e7 f0 bc b8 48 30 bc 0c 01 8f 3e
       0.07050198 -0.029407373 -0.010759525 0.27930486
000200 5a 37 36 3d e2 46 61 3e b2 68 e7 3d fb 30 85 3e
       0.04448638 0.21999696 0.11299266 0.26013932
000210 75 74 5d 3d b4 87 a0 be 1d c2 eb bc 28 e5 9a bc
       0.05406614 -0.31353533 -0.028779084 -0.018908098
000220 0f d0 86 3c 58 88 19 3e b4 e9 b7 bd bb 0c 82 bc
       0.016456632 0.14993417 -0.08980122 -0.015875211
000230 e3 5d a7 3d 40 11 b9 3d bc 2f 29 3e e4 9d 40 3e
       0.08172204 0.09036493 0.16522115 0.1881023
000240 e1 ad 63 3e 3e 23 e5 bc 9b 6d dd 3c 56 f4 01 be
       0.22234298 -0.027970906 0.027029803 -0.12690863
000250 30 73 3b 3e 96 84 4b be 1d 6f 7e 3e 93 f7 1e 3d
       0.1830566 -0.19874796 0.24847074 0.038810324
000260 87 fa ed 3a f2 3e 50 bd 1e 4c f8 bc 19 fa fb bc
       0.0018156328 -0.05084128 -0.030309733 -0.030758904
000270 d9 43 5a 3d 2a 52 aa 3e 02 4c 8e bc 44 f3 a4 3d
       0.05328736 0.3326581 -0.017370228 0.08054212
000280 7f 00 8b be d6 a0 c7 bc 10 14 51 bc 3b e7 ca bb
       -0.27148816 -0.024368685 -0.012761131 -0.0061921156
000290 6f d6 e4 3e 87 34 43 bd a8 25 0e 3f d5 48 07 3e
       0.4469485 -0.047657516 0.5552621 0.13211377
0002a0 29 9d 3d be d0 de 1d be 8e 5f 27 3e 18 60 3c 3e
       -0.18516983 -0.15417027 0.16345045 0.18396032
0002b0 12 40 1e 3e f3 d5 98 3d 04 77 58 3e 32 d3 55 be
       0.15454128 0.074626826 0.21139151 -0.20881346
0002c0 68 5a 0d 3d 93 0c 20 be c7 8a cf bd f5 e6 0e be
       0.034510046 -0.15629797 -0.101338916 -0.1395529
0002d0 65 4e 6d bd 2e a1 d4 3d fd 18 e8 3d 2e cd 02 3e
       -0.05793609 0.10382305 0.11332891 0.12773582
0002e0 34 fe ab 3d 5f 1b 4d 3e e9 2b ab 3d 49 40 81 3e
       0.08398095 0.20029972 0.083579846 0.25244358
0002f0 b4 85 e1 bd 19 f9 b1 be be 2c 63 3e 90 4c 05 3e
       -0.1101183 -0.3476036 0.22185037 0.13017488
000300 3c e2 37 3a 6f 6c 9d bb a4 4d b3 3c ff 02 f0 3e
       0.00070146075 -0.004804186 0.021887608 0.46877286
000310 66 fd 35 bd 43 ef eb 3d eb 74 c0 3d 02 83 19 3d
       -0.044431113 0.11520245 0.093973 0.037478454
000320 bc cf 27 bd 70 a7 9b 3e e9 8e 38 3e ac 2a 50 bd
       -0.040969595 0.30401182 0.18023266 -0.050821945
000330 ab be 90 3e 5a 67 99 3e 25 98 0f 3e 1e 03 e0 3d
       0.28270468 0.29961663 0.14022882 0.109380946
000340 e2 e9 20 3e 65 81 0f 3e c0 d8 21 be b9 8e 1e 3e
       0.15714219 0.14014204 -0.1580534 0.15484132
000350 c4 a0 9e bd 8a 63 76 3c f2 95 e9 3b d9 41 4f 3e
       -0.07745507 0.01503838 0.0071284706 0.20239963
000360 1a 72 10 be d8 d3 af bc f2 6e 23 3c 8b b1 d6 3d
       -0.14106026 -0.02146332 0.009975182 0.104830824
000370 26 91 fd bd ab f1 41 be 5c 35 7c be be cc 12 be
       -0.123812005 -0.18939845 -0.2462973 -0.14335915
000380 c4 bb 7d 3d e8 9d c5 bd 57 57 8e bc 69 01 4c be
       0.061946645 -0.09649259 -0.017375631 -0.19922413
000390 77 d2 c1 3d 59 15 6e 3e d2 ad bb 3e 7f 8e f1 3d
       0.09463971 0.23250331 0.36656052 0.11794757
0003a0 46 58 75 3e 66 79 ba 3e c4 2d 7b 3c 28 ca 08 3e
       0.23959455 0.36420745 0.015330736 0.13358366
0003b0 d3 8f 5e 3e a6 40 61 3e 4f 8a b1 3c cb 01 7a 3d
       0.21734552 0.21997318 0.021672396 0.061036866
0003c0 5d 27 8f bd d9 10 63 3e 30 88 04 3e bc d5 87 bd
       -0.0698993 0.22174396 0.12942576 -0.066325635
0003d0 8f 51 bd bb f3 73 94 bc 3a 9f 89 bc 91 6d 02 bd
       -0.005777545 -0.018121695 -0.016799558 -0.031842772
0003e0 6a 16 46 3c a0 25 af be ee 7c a3 be 99 a8 11 bd
       0.012090305 -0.34208393 -0.3193125 -0.035561178
0003f0 08 cf 20 3e f7 b3 95 be b5 dc e1 3e 67 07 81 3e
       0.15703976 -0.29238865 0.441137 0.2520096

input_encoder.0.bias f4 [64]
000000 de bd 17 3d b9 eb 34 bd 0d 73 8b 3c 31 fb 07 bb
       0.037046306 -0.044170115 0.017022634 -0.0020749087
000010 d2 c0 6d 3c e0 35 5d bd 29 de 2d bd 4c a0 d5 bb
       0.014511304 -0.054006457 -0.042448197 -0.006519353
000020 59 52 76 bd d1 9e 82 3b fe 01 2c bc c0 c7 dc b8
       -0.060137127 0.0039862175 -0.010498522 -0.00010527624
000030 99 72 af bc 0b 76 3f 3c 7d dc 0f 3d 09 bf 15 3c
       -0.02141695 0.0116858585 0.035122383 0.009139785
000040 6f 27 70 bd 72 3a 5c 3c 40 b5 38 b9 f2 0b b7 3b
       -0.058631357 0.013441669 -0.00017615128 0.005586141
000050 ae a3 7a bd 28 b6 bd 3b b7 bb 5f bd 61 db 0f 3c
       -0.061191253 0.005789537 -0.05462238 0.008780331
000060 45 d0 c7 3b 0f df 93 bd 04 ee 06 3e c7 ed 00 3c
       0.0060978257 -0.072202794 0.13176733 0.007869191
000070 48 1c 23 3d 6f 3a 83 3b 85 38 24 3c a0 e3 2f bb
       0.039821893 0.0040047686 0.010023241 -0.0026838556
000080 02 be 1d 3c bc f2 a5 3c a7 92 c1 3c cc 2f 81 bd
       0.009627821 0.020257346 0.0236295 -0.06307945
000090 22 34 b9 bb 64 cd 5d 3c 6d a0 d9 bb 44 f0 4b bd
       -0.0056519667 0.0135377385 -0.0066414387 -0.049789682
0000a0 eb b6 61 bd ac 2a 25 ba ec a4 6f 3d 24 66 2b bc
       -0.055106085 -0.0006300609 0.05850689 -0.010461364
0000b0 e5 47 22 bd 9e 3b 4e bd 82 7b 37 3c 3c 7a 60 bd
       -0.039619345 -0.050349824 0.01119888 -0.05480407
0000c0 1c 42 e3 39 88 f5 07 3b 6d 6d 40 bd cf dd 5f bd
       0.0004334607 0.0020745713 -0.046979357 -0.054654893
0000d0 3e 18 d3 bb 78 de 71 bd f0 eb 2f bd 1f ae 6b bd
       -0.006442099 -0.059050053 -0.042949617 -0.0575391
0000e0 b4 44 34 3b c4 8e fb 3c e4 c3 12 3d 11 71 6d bd
       0.002750677 0.030707724 0.035831347 -0.057969157
0000f0 d4 84 5b 3c 94 6d 57 bd bf 25 5d bd f6 60 64 bc
       0.013398368 -0.052594736 -0.053991076 -0.013939133

latent_encoder.weight f4 [16, 64]
000000 60 d5 13 3e db 1b 37 bd e0 51 98 3e 28 bb 1b 3e
       0.14436865 -0.0447043 0.29749966 0.15208113
000010 5f 2f eb 3e 9f d0 5d bc 50 24 b8 bd bf 89 a4 bd
       0.4593458 -0.013538509 -0.08991301 -0.080340855
000020 3b e7 8f 3b 4e 98 31 3e 41 0c a2 be 14 27 8a be
       0.0043915785 0.17343256 -0.31649974 -0.2698294
000030 76 66 94 be 3e 1d 2d 3e b3 a8 b4 bd a8 e0 82 3d
       -0.28984421 0.16905686 -0.08821239 0.06390506
000040 3e 7c 2d 3d c2 34 64 be 72 fb 4e bd 2a 0d bb bd
       0.042354815 -0.2228575 -0.050532766 -0.0913337
000050 b8 68 c7 bb 2c 87 47 3e 71 f0 16 3b 0e 89 a2 3d
       -0.0060854815 0.19485158 0.0023031498 0.07936297
000060 f6 b4 41 be 52 ca 7d 3e f2 11 e7 be e2 e7 96 be
       -0.18916687 0.2478421 -0.4513088 -0.29473788
000070 4f 49 5e 3e 37 99 d8 bd da 68 39 bd f8 b6 d5 b9
       0.21707653 -0.105760984 -0.04526601 -0.00040762848
000080 88 16 82 bb 27 df c1 bd f8 b7 33 3e 5d 2b 98 3d
       -0.003969971 -0.09466391 0.17550647 0.07430146
000090 2e 7f be bd 9b 66 40 be bd 56 8c bd b8 95 38 3d
       -0.09301601 -0.18789141 -0.068524815 0.045064658
0000a0 62 54 a5 ba 6a ca 09 be a8 3f 59 3e f8 2e b2 3e
       -0.0012613649 -0.13456121 0.21215689 0.3480146
0000b0 c3 86 be b9 ab 88 23 bc 06 e8 c4 be 39 56 d3 3b
       -0.0003634003 -0.009981315 -0.3845827 0.0064494875
0000c0 ef e1 26 3d d1 d6 84 be aa ca 85 3a d0 4d be bd
       0.04074281 -0.25945142 0.0010207493 -0.09292185
0000d0 b4 fd d3 3e 78 3c 4b 3a 4c 63 c6 bc dc 04 30 3d
       0.41404498 0.0007752846 -0.02421727 0.042973384
0000e0 d0 83 83 be 8f e3 64 be 68 6b cc bd 5e e8 1a ba
       -0.25686502 -0.22352432 -0.099814236 -0.0005909259
0000f0 aa 61 64 bd b1 57 14 bd 6e 13 3c 3a 69 d3 b9 3e
       -0.055757202 -0.03621644 0.0007174526 0.36294106
000100 51 c4 d0 3d 8a 04 da 3c 78 66 c1 3d a1 0c 84 be
       0.101936944 0.026613493 0.094433725 -0.25790885
000110 d7 e6 99 be ab 7c d0 bd 87 bc 00 be f0 2b 8d 3c
       -0.3005893 -0.101800285 -0.12571917 0.017232865
000120 53 c1 62 bd 88 3d 67 3d e6 c4 67 3e 32 7e b1 3e
       -0.05536015 0.056455165 0.22633705 0.34666592
000130 9f 1d 14 3e c2 cd 5c 3d 62 2e 3b bc 12 dc 82 3e
       0.14464425 0.053907163 -0.011424633 0.25558525
000140 8d c6 04 3d aa c1 56 3e 19 80 62 bd 6c 27 09 3d
       0.032415915 0.20972314 -0.055297945 0.03348486
000150 12 f0 95 bd 87 36 4c 3e 4b 05 97 3c ca 9c ce bd
       -0.073211804 0.19942676 0.018435141 -0.10088499
000160 4c ab 16 be 1f c5 5c be c4 e0 87 3e 6a 9b 7d 3e
       -0.14713782 -0.2155957 0.2653867 0.24766317
000170 fd 4f 53 be e9 af 59 3e 5e 1a bb 3d cc 4e 61 ba
       -0.20635982 0.2125851 0.091358885 -0.00085948105
000180 4d 18 46 3e 8f be a6 3e 5a 96 79 be bf 70 1d be
       0.19345208 0.3256726 -0.24373761 -0.1537504
000190 31 b7 64 be 1a 6c 9d 3d ec 0a 38 3e 2a 70 1a be
       -0.22335507 0.07686634 0.17972916 -0.1508185
0001a0 ce a0 8b bd 42 82 96 3e 83 61 09 3c 9c ff 1d be
       -0.068177804 0.29396254 0.008385065 -0.15429538
0001b0 e3 83 7a b9 fa 1b 1f 3d 90 35 46 bd 43 fb a5 bd
       -0.0002389099 0.03884504 -0.048390925 -0.08104565
0001c0 4f 6e 85 3d 44 5a b7 3e e2 46 8a 39 2a 56 9c bd
       0.0651518 0.35811055 0.00026374223 -0.07633622
0001d0 05 03 5d be 5b 0d aa b9 0c 72 e8 bd b9 2f a9 bd
       -0.21583183 -0.00032434877 -0.11349878 -0.082610555
0001e0 fb 42 a8 3d 32 8e 4b bd a0 d3 7e bd e2 4e b9 38
       0.082159005 -0.049696155 -0.06221354 8.8361805e-05
0001f0 8b c8 44 bd f5 a1 16 be 67 0e 15 3a 9a 22 99 bd
       -0.048042815 -0.14710219 0.0005686045 -0.07477303
000200 7f 04 4c 3e ee 0c e3 3d 85 b0 fa 3e 59 1d d9 3e
       0.1992359 0.110864505 0.489628 0.42405203
000210 c9 4e 3a 3f 2c 79 86 3c 54 1e e3 bd a8 aa d9 bc
       0.72776467 0.016415201 -0.11089769 -0.026570633
000220 6d 08 f6 b9 f7 e7 b0 3e ec ed d7 be 18 72 c2 be
       -0.00046927054 0.34551975 -0.42173707 -0.37977672
000230 bf 58 79 be 1c d1 b2 3e f0 3f c3 3d db 28 09 3e
       -0.2435026 0.34925163 0.095336795 0.13394491
000240 8f f3 9e 3d 4a 49 c7 be 60 da 20 bd b9 05 13 be
       0.07761299 -0.38923103 -0.03927076 -0.14357652
000250 78 b9 4a 3b 96 ef cd 3e de cf 17 3c bc 6c 4e be
       0.0030933302 0.40221852 0.009265868 -0.20158666
000260 e3 78 d8 3d e2 68 75 3d 1a 7e b3 3d bd 5b bc be
       0.10569932 0.059914477 0.08764286 -0.3678874
000270 c5 1f d2 3e 0e ca 2a 3d 6b 5e dc bd 5e c7 3a ba
       0.41039863 0.0416966 -0.10760196 -0.0007125045
000280 5d 57 4c be 9b e5 86 bd ac 8e 4f 3e 9f e8 c0 3d
       -0.19955201 -0.065867625 0.20269269 0.09419369
000290 96 03 ce 3d 45 3b c2 be 31 57 8c be 4e 67 27 3d
       0.10059278 -0.37935844 -0.27410272 0.040870003
0002a0 88 8a 62 3c 70 08 ac be c2 a3 18 be 2c 85 ce 3e
       0.013826974 -0.33600187 -0.14906219 0.40335977
0002b0 72 50 5b b9 04 b9 d4 3d e3 e3 17 be 04 2c e2 bb
       -0.00020915436 0.103868514 -0.14833026 -0.0069022197
0002c0 72 e8 a1 3e 06 c3 b6 be c4 a9 a2 39 bb 1a 13 3d
       0.31622654 -0.35695666 0.00031025533 0.035914164
0002d0 3d a1 28 3f 70 7a 7d 37 95 af 9d 3d 8d 51 51 3d
       0.6587103 1.5108482e-05 0.07699505 0.051103164
0002e0 d0 91 4d be 2b 67 e5 3d 37 29 47 bc 39 f2 9d 3a
       -0.20075154 0.11201318 -0.0121558225 0.0012050337
0002f0 76 0b 17 be 0a 8a d8 3d 93 97 08 ba 71 59 69 3e
       -0.14750466 0.10573204 -0.00052105746 0.22788025
000300 96 45 8b be a0 ad fe bc a1 a6 ec be 16 ee 9f 3e
       -0.27201527 -0.03108865 -0.46220878 0.31236333
000310 d8 f7 2a 3e fa 8e f8 3c 26 c7 a6 3d ca b1 d2 3d
       0.16696107 0.030341614 0.08143453 0.10287817
000320 c5 51 b6 3d e3 1b ca be 6c 89 39 be 01 9c c8 be
       0.08902315 -0.394744 -0.18118829 -0.39181522
000330 78 b8 86 3d 93 07 62 be c9 9d 48 bc ff 43 fc be
       0.06578153 -0.22073202 -0.01224465 -0.49270627
000340 60 85 c2 3d 2a 75 75 be 88 79 33 3e f8 41 4f 3c
       0.094980955 -0.23970476 0.17526829 0.0126500055
000350 d1 07 13 bd e9 67 ff be e1 e6 31 3e ec 61 f5 bb
       -0.035896126 -0.49883965 0.1737323 -0.00748848
000360 91 d3 d5 3e 9e 6d 43 bc 11 dd 81 be 9f 12 22 be
       0.41762975 -0.01192799 -0.25363973 -0.15827416
000370 f6 57 90 3d 3c 0b 4b be 89 73 11 bd 52 6f 07 ba
       0.07048027 -0.19828504 -0.035510574 -0.00051664293
000380 2d 42 6d be ae 64 bf be fb 49 38 3e fb 6c 0e 3d
       -0.23169775 -0.373815 0.17996971 0.0347719
000390 6d 78 d4 3e 8d a1 4b 3e a7 5d 96 be 43 e8 a3 3c
       0.41498128 0.19885845 -0.29368326 0.020008212
0003a0 8c 3e 83 3d 6c 32 c5 be d2 de 49 bd c7 36 a1 bd
       0.06408414 -0.3851503 -0.049284764 -0.07871776
0003b0 65 81 b4 39 3b 07 d7 bc e4 52 6e 3e 08 1e 01 3c
       0.00034428682 -0.026248565 0.23273808 0.007880695
0003c0 62 9e 4b be 6b 86 8c be df e7 19 3a 2d 2b bd 3c
       -0.19884637 -0.27446303 0.00058710383 0.023091877
0003d0 55 90 03 3d 84 0e 40 b8 46 f8 09 3e 04 8b 84 3d
       0.032120068 -4.5789886e-05 0.13473615 0.064718276
0003e0 5f c4 0b 3e ee 72 01 3e 0f db 36 3d b2 0c d8 b9
       0.13649128 0.12641498 0.044642504 -0.0004120819
0003f0 cc 85 ba 3d 70 a7 10 3d 54 6e 02 3a 79 f1 a6 3c
       0.09107551 0.03531593 0.00049755466 0.020378815

latent_encoder.bias f4 [16]
000000 13 e6 f1 3d bf 44 de bd 79 26 c8 bd a9 02 11 3e
       0.11811461 -0.10852956 -0.09772963 0.14161171
000010 71 a4 55 bd 7c 1b 06 3e f4 c4 b3 bd 4e cc ab bd
       -0.052158777 0.13096422 -0.087778 -0.083885774
000020 1b a1 dc 3c 84 13 b9 bd c2 21 d0 3d bb ad 0f 3e
       0.02693229 -0.090369254 0.10162689 0.14031117
000030 7b 16 dd bd cf 38 1d be b0 5f 24 3e e9 b0 4f 3d
       -0.107953034 -0.15353702 0.16052127 0.050705824

flow.flow.mean f4 [7, 16]
000000 00 00 00 00 00 00 00 00 00 00 00 00 00 00 00 00
       0.0 0.0 0.0 0.0
000010 00 00 00 00 00 00 00 00 00 00 00 00 00 00 00 00
       0.0 0.0 0.0 0.0
000020 00 00 00 00 00 00 00 00 00 00 00 00 00 00 00 00
       0.0 0.0 0.0 0.0
000030 00 00 00 00 00 00 00 00 00 00 00 00 00 00 00 00
       0.0 0.0 0.0 0.0
000040 00 00 00 00 00 00 00 00 00 00 00 00 00 00 00 00
       0.0 0.0 0.0 0.0
000050 00 00 00 00 00 00 00 00 00 00 00 00 00 00 00 00
       0.0 0.0 0.0 0.0
000060 00 00 00 00 00 00 00 00 00 00 00 00 00 00 00 00
       0.0 0.0 0.0 0.0
000070 00 00 00 00 00 00 00 00 00 00 00 00 00 00 00 00
       0.0 0.0 0.0 0.0
000080 00 00 00 00 00 00 00 00 00 00 00 00 00 00 00 00
       0.0 0.0 0.0 0.0
000090 00 00 00 00 00 00 00 00 00 00 00 00 00 00 00 00
       0.0 0.0 0.0 0.0
0000a0 00 00 00 00 00 00 00 00 00 00 00 00 00 00 00 00
       0.0 0.0 0.0 0.0
0000b0 00 00 00 00 00 00 00 00 00 00 00 00 00 00 00 00
       0.0 0.0 0.0 0.0
0000c0 00 00 00 00 00 00 00 00 00 00 00 00 00 00 00 00
       0.0 0.0 0.0 0.0
0000d0 00 00 00 00 00 00 00 00 00 00 00 00 00 00 00 00
       0.0 0.0 0.0 0.0
0000e0 00 00 00 00 00 00 00 00 00 00 00 00 00 00 00 00
       0.0 0.0 0.0 0.0
0000f0 00 00 00 00 00 00 00 00 00 00 00 00 00 00 00 00
       0.0 0.0 0.0 0.0
000100 00 00 00 00 00 00 00 00 00 00 00 00 00 00 00 00
       0.0 0.0 0.0 0.0
000110 00 00 00 00 00 00 00 00 00 00 00 00 00 00 00 00
       0.0 0.0 0.0 0.0
000120 00 00 00 00 00 00 00 00 00 00 00 00 00 00 00 00
       0.0 0.0 0.0 0.0
000130 00 00 00 00 00 00 00 00 00 00 00 00 00 00 00 00
       0.0 0.0 0.0 0.0
000140 00 00 00 00 00 00 00 00 00 00 00 00 00 00 00 00
       0.0 0.0 0.0 0.0
000150 00 00 00 00 00 00 00 00 00 00 00 00 00 00 00 00
       0.0 0.0 0.0 0.0
000160 00 00 00 00 00 00 00 00 00 00 00 00 00 00 00 00
       0.0 0.0 0.0 0.0
000170 00 00 00 00 00 00 00 00 00 00 00 00 00 00 00 00
       0.0 0.0 0.0 0.0
000180 00 00 00 00 00 00 00 00 00 00 00 00 00 00 00 00
       0.0 0.0 0.0 0.0
000190 00 00 00 00 00 00 00 00 00 00 00 00 00 00 00 00
       0.0 0.0 0.0 0.0
0001a0 00 00 00 00 00 00 00 00 00 00 00 00 00 00 00 00
       0.0 0.0 0.0 0.0
0001b0 00 00 00 00 00 00 00 00 00 00 00 00 00 00 00 00
       0.0 0.0 0.0 0.0

flow.flow.cov f4 [7, 16, 16]
000000 00 00 80 3f 00 00 00 00 00 00 00 00 00 00 00 00
       1.0 0.0 0.0 0.0
000010 00 00 00 00 00 00 00 00 00 00 00 00 00 00 00 00
       0.0 0.0 0.0 0.0
000020 00 00 00 00 00 00 00 00 00 00 00 00 00 00 00 00
       0.0 0.0 0.0 0.0
000030 00 00 00 00 00 00 00 00 00 00 00 00 00 00 00 00
       0.0 0.0 0.0 0.0
000040 00 00 00 00 00 00 80 3f 00 00 00 00 00 00 00 00
       0.0 1.0 0.0 0.0
000050 00 00 00 00 00 00 00 00 00 00 00 00 00 00 00 00
       0.0 0.0 0.0 0.0
000060 00 00 00 00 00 00 00 00 00 00 00 00 00 00 00 00
       0.0 0.0 0.0 0.0
000070 00 00 00 00 00 00 00 00 00 00 00 00 00 00 00 00
       0.0 0.0 0.0 0.0
000080 00 00 00 00 00 00 00 00 00 00 80 3f 00 00 00 00
       0.0 0.0 1.0 0.0
000090 00 00 00 00 00 00 00 00 00 00 00 00 00 00 00 00
       0.0 0.0 0.0 0.0
0000a0 00 00 00 00 00 00 00 00 00 00 00 00 00 00 00 00
       0.0 0.0 0.0 0.0
0000b0 00 00 00 00 00 00 00 00 00 00 00 00 00 00 00 00
       0.0 0.0 0.0 0.0
0000c0 00 00 00 00 00 00 00 00 00 00 00 00 00 00 80 3f
       0.0 0.0 0.0 1.0
0000d0 00 00 00 00 00 00 00 00 00 00 00 00 00 00 00 00
       0.0 0.0 0.0 0.0
0000e0 00 00 00 00 00 00 00 00 00 00 00 00 00 00 00 00
       0.0 0.0 0.0 0.0
0000f0 00 00 00 00 00 00 00 00 00 00 00 00 00 00 00 00
       0.0 0.0 0.0 0.0
000100 00 00 00 00 00 00 00 00 00 00 00 00 00 00 00 00
       0.0 0.0 0.0 0.0
000110 00 00 80 3f 00 00 00 00 00 00 00 00 00 00 00 00
       1.0 0.0 0.0 0.0
000120 00 00 00 00 00 00 00 00 00 00 00 00 00 00 00 00
       0.0 0.0 0.0 0.0
000130 00 00 00 00 00 00 00 00 00 00 00 00 00 00 00 00
       0.0 0.0 0.0 0.0
000140 00 00 00 00 00 00 00 00 00 00 00 00 00 00 00 00
       0.0 0.0 0.0 0.0
000150 00 00 00 00 00 00 80 3f 00 00 00 00 00 00 00 00
       0.0 1.0 0.0 0.0
000160 00 00 00 00 00 00 00 00 00 00 00 00 00 00 00 00
       0.0 0.0 0.0 0.0
000170 00 00 00 00 00 00 00 00 00 00 00 00 00 00 00 00
       0.0 0.0 0.0 0.0
000180 00 00 00 00 00 00 00 00 00 00 00 00 00 00 00 00
       0.0 0.0 0.0 0.0
000190 00 00 00 00 00 00 00 00 00 00 80 3f 00 00 00 00
       0.0 0.0 1.0 0.0
0001a0 00 00 00 00 00 00 00 00 00 00 00 00 00 00 00 00
       0.0 0.0 0.0 0.0
0001b0 00 00 00 00 00 00 00 00 00 00 00 00 00 00 00 00
       0.0 0.0 0.0 0.0
0001c0 00 00 00 00 00 00 00 00 00 00 00 00 00 00 00 00
       0.0 0.0 0.0 0.0
0001d0 00 00 00 00 00 00 00 00 00 00 00 00 00 00 80 3f
       0.0 0.0 0.0 1.0
0001e0 00 00 00 00 00 00 00 00 00 00 00 00 00 00 00 00
       0.0 0.0 0.0 0.0
0001f0 00 00 00 00 00 00 00 00 00 00 00 00 00 00 00 00
       0.0 0.0 0.0 0.0
000200 00 00 00 00 00 00 00 00 00 00 00 00 00 00 00 00
       0.0 0.0 0.0 0.0
000210 00 00 00 00 00 00 00 00 00 00 00 00 00 00 00 00
       0.0 0.0 0.0 0.0
000220 00 00 80 3f 00 00 00 00 00 00 00 00 00 00 00 00
       1.0 0.0 0.0 0.0
000230 00 00 00 00 00 00 00 00 00 00 00 00 00 00 00 00
       0.0 0.0 0.0 0.0
000240 00 00 00 00 00 00 00 00 00 00 00 00 00 00 00 00
       0.0 0.0 0.0 0.0
000250 00 00 00 00 00 00 00 00 00 00 00 00 00 00 00 00
       0.0 0.0 0.0 0.0
000260 00 00 00 00 00 00 80 3f 00 00 00 00 00 00 00 00
       0.0 1.0 0.0 0.0
000270 00 00 00 00 00 00 00 00 00 00 00 00 00 00 00 00
       0.0 0.0 0.0 0.0
000280 00 00 00 00 00 00 00 00 00 00 00 00 00 00 00 00
       0.0 0.0 0.0 0.0
000290 00 00 00 00 00 00 00 00 00 00 00 00 00 00 00 00
       0.0 0.0 0.0 0.0
0002a0 00 00 00 00 00 00 00 00 00 00 80 3f 00 00 00 00
       0.0 0.0 1.0 0.0
0002b0 00 00 00 00 00 00 00 00 00 00 00 00 00 00 00 00
       0.0 0.0 0.0 0.0
0002c0 00 00 00 00 00 00 00 00 00 00 00 00 00 00 00 00
       0.0 0.0 0.0 0.0
0002d0 00 00 00 00 00 00 00 00 00 00 00 00 00 00 00 00
       0.0 0.0 0.0 0.0
0002e0 00 00 00 00 00 00 00 00 00 00 00 00 00 00 80 3f
       0.0 0.0 0.0 1.0
0002f0 00 00 00 00 00 00 00 00 00 00 00 00 00 00 00 00
       0.0 0.0 0.0 0.0
000300 00 00 00 00 00 00 00 00 00 00 00 00 00 00 00 00
       0.0 0.0 0.0 0.0
000310 00 00 00 00 00 00 00 00 00 00 00 00 00 00 00 00
       0.0 0.0 0.0 0.0
000320 00 00 00 00 00 00 00 00 00 00 00 00 00 00 00 00
       0.0 0.0 0.0 0.0
000330 00 00 80 3f 00 00 00 00 00 00 00 00 00 00 00 00
       1.0 0.0 0.0 0.0
000340 00 00 00 00 00 00 00 00 00 00 00 00 00 00 00 00
       0.0 0.0 0.0 0.0
000350 00 00 00 00 00 00 00 00 00 00 00 00 00 00 00 00
       0.0 0.0 0.0 0.0
000360 00 00 00 00 00 00 00 00 00 00 00 00 00 00 00 00
       0.0 0.0 0.0 0.0
000370 00 00 00 00 00 00 80 3f 00 00 00 00 00 00 00 00
       0.0 1.0 0.0 0.0
000380 00 00 00 00 00 00 00 00 00 00 00 00 00 00 00 00
       0.0 0.0 0.0 0.0
000390 00 00 00 00 00 00 00 00 00 00 00 00 00 00 00 00
       0.0 0.0 0.0 0.0
0003a0 00 00 00 00 00 00 00 00 00 00 00 00 00 00 00 00
       0.0 0.0 0.0 0.0
0003b0 00 00 00 00 00 00 00 00 00 00 80 3f 00 00 00 00
       0.0 0.0 1.0 0.0
0003c0 00 00 00 00 00 00 00 00 00 00 00 00 00 00 00 00
       0.0 0.0 0.0 0.0
0003d0 00 00 00 00 00 00 00 00 00 00 00 00 00 00 00 00
       0.0 0.0 0.0 0.0
0003e0 00 00 00 00 00 00 00 00 00 00 00 00 00 00 00 00
       0.0 0.0 0.0 0.0
0003f0 00 00 00 00 00 00 00 00 00 00 00 00 00 00 80 3f
       0.0 0.0 0.0 1.0

flow.flow.transforms.0.x0 f4 [7, 16]
000000 e8 84 78 3b f5 bc 86 3e 88 b9 86 be 1b f6 98 be
       0.0037921015 0.26316038 -0.26313424 -0.29875264
000010 40 d0 5f be 56 f2 59 be 84 46 99 3e 08 3a 81 be
       -0.21856785 -0.2128385 0.29936612 -0.25239587
000020 74 0f 90 3e 06 ba 12 be 6d ad 57 3e 88 db 38 be
       0.2813679 -0.14328775 0.2106225 -0.18052495
000030 2c cf 54 be 32 3c 9d be 3e 2a c5 ba 59 e2 a6 3e
       -0.20782155 -0.30709988 -0.0015042496 0.32594565
000040 a7 fa 9b 3e 90 7f bf be ce 1c f1 3e 51 aa ca 3e
       0.3046467 -0.3740201 0.4709229 0.39583066
000050 16 a2 3f 3e fc 83 37 3e 77 a3 18 3f 87 99 0f 3d
       0.18714175 0.17921442 0.5962443 0.035058524
000060 6f f7 bb 3d bd 52 a7 3e da 7f 6b bd e7 a4 ca bd
       0.091780536 0.32680312 -0.057494976 -0.09894734
000070 64 35 95 3c ee 9e 95 3e 58 c5 68 be 8f 54 bd bd
       0.018213935 0.29222816 -0.2273153 -0.09244644
000080 d2 3a 84 be cf 6d 1b 3d 86 24 17 3e fe 27 77 3e
       -0.25826126 0.03794652 0.14760026 0.2413635
000090 92 c3 62 3e 23 d7 97 3d f5 c6 7b be 41 84 9d 3e
       0.22144917 0.07414081 -0.24587615 0.30764964
0000a0 25 a9 c7 be cd 2e 6f 3e fc 10 be bd d9 2d 04 bd
       -0.38996235 0.23357697 -0.09280583 -0.032270286
0000b0 fc c2 1d bd 7b 4c 0a 3e f9 5e fe 3d fe 56 89 be
       -0.03851603 0.13505737 0.12420458 -0.26824182
0000c0 7d 54 34 be 65 8e 1d be 61 83 86 be 6a b1 17 3e
       -0.17610355 -0.1538635 -0.2627211 0.14813772
0000d0 71 31 89 3d cd ab d9 be f7 31 7d 3e 22 f0 2f 3e
       0.06698883 -0.42513886 0.24726091 0.17181447
0000e0 35 bd d5 3e 85 f2 39 3e 7d 34 e8 3c b8 2e 1d 3e
       0.41745916 0.1815892 0.02834534 0.15349853
0000f0 09 74 f0 3d dc e1 49 3e 5f 00 bf 3e 51 aa b6 bd
       0.11740882 0.19715065 0.3730497 -0.08919204
000100 ac 7f 1c be f3 c2 c9 3d d0 11 94 be 96 8b f7 bc
       -0.15283078 0.09851637 -0.2891984 -0.030217927
000110 9f 40 fe 3d 96 c5 7a 3e 09 bf 2b be 61 fe 93 bd
       0.12414669 0.24489436 -0.16772093 -0.07226253
000120 ff cb 3b 3c 0e e5 7f be f1 be a8 bd 74 4c 19 bd
       0.011462211 -0.24989721 -0.08239544 -0.037426427
000130 fb ee 2c 3c 3d 46 94 bd 1e c1 1b 3d ce 39 23 be
       0.010555024 -0.072399594 0.038025968 -0.1594002
000140 9c af 7f 3e 16 ab e6 bd a1 3d a2 3e 83 02 e2 bc
       0.24969333 -0.11263101 0.31687644 -0.027589088
000150 62 b7 ca bc a6 77 01 be be ca 1b 3e 3e 5c 28 bd
       -0.024745647 -0.12643299 0.15214059 -0.041103594
000160 7a 0a b2 bb 2e 8a a9 3e 4a 0d be 3d c2 ac 9a bc
       -0.005433378 0.33113235 0.092798784 -0.018881205
000170 d8 2c 32 3d 95 cc f1 3d 57 ff 89 bc f3 15 27 3e
       0.043499798 0.11806599 -0.016845388 0.16316967
000180 91 1e 0e 3e aa 0b 17 3e 67 76 75 3e e2 70 ac be
       0.13878848 0.14750543 0.23970948 -0.33679873
000190 d0 66 02 3e 90 e9 b3 3e a8 8d 19 be cb 25 c8 bd
       0.12734532 0.35139132 -0.14995444 -0.097728334
0001a0 96 26 73 be c9 3b 22 3e c0 0a 4e be 3a ee 68 be
       -0.23745188 0.15843119 -0.20121288 -0.22747126
0001b0 c7 30 ac 3d 9b d8 03 bd 14 03 72 be b6 d9 30 bc
       0.08407741 -0.032188993 -0.23633987 -0.010794094

flow.flow.transforms.0.alpha_prime f4 [7]
000000 b8 61 61 be c8 a1 6f be 51 54 71 be 98 e8 f4 bd
       -0.22009933 -0.23401558 -0.2356732 -0.11958426
000010 35 ed c5 bd 0c 67 9d bd 80 a7 0f be
       -0.09664384 -0.0768567 -0.1402874

flow.flow.transforms.0.beta_prime f4 [7]
000000 89 40 d8 3e 51 48 eb 3d 51 e8 2d be d4 97 66 3d
       0.42236736 0.11488403 -0.16983153 0.05629714
000010 59 ef 22 3e 72 cf 69 3e 70 ea 85 3e
       0.15911616 0.2283304 0.26155424

flow.flow.transforms.1.x0 f4 [7, 16]
000000 33 52 3d bd 47 32 ef be 4c 13 61 be 49 d4 d8 bd
       -0.04622097 -0.46718046 -0.21980017 -0.10587365
000010 0e 01 8b 3e a1 d8 c0 3e 37 5c d1 be ab 32 c5 3e
       0.27149242 0.37665275 -0.40890667 0.3851522
000020 ae 01 b7 be be 7b 4f be 0b 6b b9 be c5 c6 99 3c
       -0.3574347 -0.20262048 -0.3621448 0.018771539
000030 45 95 2e 3e 88 3e ba bd b4 2c 96 be 5a b2 e2 3d
       0.1704913 -0.09093958 -0.2933098 0.11069174
000040 6a 56 1a 3e 6e b7 d8 be 77 af 14 3f 80 1b 16 3e
       0.15072027 -0.42327446 0.5808024 0.14658928
000050 cc 79 61 bb 30 44 9a bc 5d dd 16 3f 20 89 90 bc
       -0.0034404872 -0.018831342 0.58931524 -0.017643511
000060 70 4a 01 3f 92 91 c2 3e 1c 9b 6e 3d e1 5e 97 be
       0.5050421 0.38001686 0.058253393 -0.29564574
000070 fa 63 94 bc d4 0a c7 3e 7e ff 72 be 85 0f 49 3e
       -0.018114079 0.3887545 -0.23730275 0.19634826
000080 6e 77 a1 be 7e 54 56 3c 09 45 95 3b 96 8a ba 3d
       -0.3153643 0.013081668 0.004555349 0.091084644
000090 14 02 86 3e f7 ff 19 3e e4 d0 98 be 99 ce 5f 3e
       0.2617346 0.15039049 -0.2984687 0.21856155
0000a0 6a e9 7e be 85 20 09 3e a8 23 74 be 89 7d df 3d
       -0.24893728 0.13391311 -0.23841727 0.10912616
0000b0 c9 6b 13 3e ea 4b bb 3d 5b 1e af 3d 60 c1 7d be
       0.14396586 0.09145339 0.08550712 -0.24780798
0000c0 50 c6 01 be b1 12 60 bc 84 1e 65 be 18 82 a3 3e
       -0.12673306 -0.013676331 -0.22374922 0.3193519
0000d0 dc 9c e9 3c f2 97 c0 be e9 13 59 3e 2e 07 22 3e
       0.02851718 -0.37615925 0.21199001 0.15823051
0000e0 d1 dc a1 3e f9 0a 39 3e 0b 0e 98 3c ea 0b 89 3e
       0.31613782 0.18070592 0.018561384 0.26766902
0000f0 1c 9f 7b 3d c0 6f 4a 3e 00 58 95 3e 38 1c 6e bd
       0.061431035 0.19769192 0.291687 -0.05813238
000100 3b 3f 19 be 11 ab 1f 3e bf 51 ba be df a2 8a bd
       -0.14965527 0.155926 -0.36390492 -0.067693464
000110 96 4d 3f 3d 10 8b 92 3e d2 a5 3f be 9c ad cd bd
       0.04670485 0.2862172 -0.18715599 -0.10042879
000120 99 76 3e bd 3d 64 ac be f6 1f fc bd e9 c8 b1 bd
       -0.046499822 -0.33670226 -0.123107836 -0.08680899
000130 c4 b7 17 3c 92 23 2e be 0d 3c d3 bd 66 6e 5e be
       0.009260122 -0.17005756 -0.10314188 -0.21721801
000140 e0 05 b7 3e f6 4e 82 3e 96 dc a3 3e 91 77 8e 3c
       0.3574667 0.25450867 0.3200423 0.017390998
000150 ec 45 97 3e b1 4e 83 be cf 8f 63 be a3 c9 ca bd
       0.29545534 -0.25645974 -0.22222827 -0.099017404
000160 53 41 a8 be 29 84 cf 3e df 36 5e 3e 13 ab a9 be
       -0.32862338 0.40530518 0.21700619 -0.33138332
000170 76 4c 87 3e 76 f2 80 3e 6e 77 44 be 6e 45 0e be
       0.26425523 0.25184983 -0.19186184 -0.13893673
000180 8f 41 d3 bd 70 3e 1a bd 8a 9a b1 be d8 b2 44 3e
       -0.10315239 -0.0376572 -0.34688216 0.19208848
000190 81 dc 5d be 62 65 73 be e8 71 8c 3e d8 71 d8 3d
       -0.21666147 -0.23769143 0.27430654 0.10568589
0001a0 1d 26 b8 3e f0 8d 1e be 92 ef cd 3b a3 c4 2e 3d
       0.35966578 -0.15483832 0.0062846625 0.042667996
0001b0 58 42 f8 bd 1f e1 82 3d a7 d5 b9 3e 3f 9c 04 3e
       -0.12122029 0.06390595 0.36295816 0.12950228

flow.flow.transforms.1.alpha_prime f4 [7]
000000 8d d8 db 3d f5 ec 14 be 43 f4 e2 bd a1 e3 81 be
       0.10734663 -0.14543517 -0.110817455 -0.2536898
000010 92 0e a8 bd 3d 15 90 bc 21 93 99 3e
       -0.08205904 -0.017588252 0.29995063

flow.flow.transforms.1.beta_prime f4 [7]
000000 55 4e 71 3d 9c 33 e4 3d 66 c3 64 3e 8d 86 c5 bc
       0.058912594 0.11142656 0.22340164 -0.02411201
000010 19 4f 8f 3d 88 5f 9f 3d 48 18 40 3d
       0.069975086 0.07781893 0.046898156

flow.flow.transforms.2.x0 f4 [7, 16]
000000 35 b6 5d be 21 0b a2 3e 70 8a 67 3e 53 d6 bb be
       -0.21651538 0.31649116 0.22611403 -0.36686954
000010 81 fe 30 3e 91 51 c7 bd 41 c7 c5 3e 9f 1c 1e be
       0.17284586 -0.097323544 0.3862858 -0.15440606
000020 f2 db 8f 3c 00 1b ba b9 66 d0 12 3c c4 0c 6a be
       0.017560933 -0.000354968 0.008960819 -0.22856432
000030 b8 f6 68 3e 1e a9 03 bf 67 fc 17 3e 0c c7 e7 3e
       0.22750366 -0.5142993 0.14842378 0.45269048
000040 02 c8 ee 3e c7 fa ab be 30 55 fd 3e 57 43 c5 3e
       0.4663697 -0.33589765 0.49479055 0.3852794
000050 61 6a 34 3e a3 82 2d bd f3 7e 0f 3f 5b 17 8b 3b
       0.17618705 -0.042360913 0.56053084 0.0042447275
000060 ca 59 e4 3e bf f8 b3 3e e8 44 08 be 6c 4c 81 be
       0.44599754 0.35150716 -0.13307536 -0.25253618
000070 c0 41 5d 3c 8e db ac 3e bf 76 33 be e9 00 aa 3d
       0.013504446 0.33761257 -0.17525767 0.08300955
000080 20 b8 c0 be a4 51 31 3c c4 f3 eb bb 6d 56 c9 3d
       -0.37640476 0.010822687 -0.00720069 0.098309375
000090 61 e8 88 3e 01 0b 15 3e 18 b0 94 be e2 a8 69 3e
       0.2673979 0.14554979 -0.290406 0.2281833
0000a0 ee fa 58 be 06 06 c0 3d 34 4d 85 be 4f c2 16 3e
       -0.21189472 0.09376149 -0.26035464 0.1472256
0000b0 2b aa 3e 3e cf 1b c6 3d f3 b7 3a 3d 5b 32 3c be
       0.18619601 0.09673273 0.045585584 -0.18378584
0000c0 e8 c4 dc bd 32 d9 9c bd f8 0b 29 be a9 6b be 3e
       -0.107797444 -0.07658614 -0.16508472 0.37191513
0000d0 77 bc 02 3c bd 7e b5 be cc 65 42 3e 9d 3f 42 3e
       0.007979504 -0.35448256 0.18984145 0.18969579
0000e0 7e 07 b6 3e 0e d5 20 3e 7c 80 05 3c 0b a8 9a 3e
       0.3555259 0.15706274 0.008148309 0.30206332
0000f0 0a 22 d3 3d 31 9f 12 3e ed be a3 3e 38 e6 af bd
       0.10309227 0.14318539 0.31981602 -0.085888326
000100 00 bc 8c be 76 e7 c2 be be b1 5b be 21 57 b8 bd
       -0.27487183 -0.38067216 -0.21454522 -0.090009935
000110 3a a7 a7 be 51 c7 8d be 37 bd ad 3e e1 83 af bd
       -0.3274477 -0.2769113 0.33933422 -0.08570076
000120 d4 a4 54 be 37 21 eb 3d 58 5a aa 3c 22 66 8a 3e
       -0.20766002 0.114809446 0.020795032 0.27031046
000130 24 30 ef 3d c1 c5 73 3e d6 1c 7b 3e c3 a1 d3 3e
       0.11679104 0.23805906 0.24522719 0.41334352
000140 5f cf 76 3e 59 4e f0 bd ad bb a9 3e d6 7f d5 bc
       0.24102543 -0.11733694 0.33150998 -0.026061933
000150 fd e3 b2 bc 31 db be bd b0 a7 e9 3d 2b 2c a0 bb
       -0.021837229 -0.09319151 0.11408937 -0.0048880777
000160 39 97 8d bb f7 8c 99 3e cc 44 97 3d 95 ab 34 bd
       -0.0043210057 0.2999036 0.07386169 -0.044108946
000170 1a c7 95 3d 33 67 f5 3d 44 bc 47 bd 09 bf 29 3e
       0.07313366 0.11982574 -0.04876353 0.1657678
000180 d3 e7 fe 3d 62 82 9c 3c 76 ab 74 3e 5e d0 6f be
       0.12446561 0.01910514 0.23893532 -0.2341933
000190 95 2c 2b 3e a6 65 c6 3e 83 6b 1f be 73 dc 21 be
       0.16716225 0.38749427 -0.15568356 -0.15806751
0001a0 f4 8e 73 be 6d 22 89 3d 88 0a 2b be aa f0 52 be
       -0.23785001 0.06696019 -0.16703236 -0.20599619
0001b0 7c ab d1 3d 09 e6 3d bd a3 ba 5a be 67 27 be bd
       0.10237786 -0.046361957 -0.21360259 -0.09284859

flow.flow.transforms.2.alpha_prime f4 [7]
000000 c1 ee a7 bc 44 1e 36 3d 59 72 56 be af 3e 8c be
       -0.020499589 0.044462457 -0.20942058 -0.27391574
000010 1b 0c 13 bd 0b d5 d4 bc fb 63 c1 bc
       -0.035900217 -0.025980493 -0.023607245

flow.flow.transforms.2.beta_prime f4 [7]
000000 ab a2 4a 3d 52 0d 94 3e 15 6e 07 3d 6a df d6 3d
       0.04947154 0.28916413 0.033063967 0.104918316
000010 ad e4 14 be 34 bf 71 3e b3 3d f4 3d
       -0.14540358 0.23608094 0.11925831

flow.flow.transforms.3.x0 f4 [7, 16]
000000 65 64 09 be 94 a2 a2 3e 20 db a8 be 9c d2 cc be
       -0.13417204 0.31764662 -0.3297968 -0.40004432
000010 db df 88 3d db 45 95 be 92 ce 94 3d a5 09 95 be
       0.06683322 -0.29154858 0.07265963 -0.2910892
000020 05 33 ba 3e 4f 0d 49 be 3a 84 85 3e 6a f0 77 be
       0.3636705 -0.19633983 0.26077443 -0.24212804
000030 31 78 9f be f1 41 30 bd 37 bd 9d bd 77 8c bb 3e
       -0.31146386 -0.043031637 -0.077021055 0.36630604
000040 91 75 e5 3e 3f fd ed bd b2 6e 0a 3f b5 13 85 3e
       0.4481626 -0.116205685 0.5407516 0.25991598
000050 da 02 8d 3d a6 cc 75 3d 18 78 08 3f 74 51 de bc
       0.068853095 0.06000962 0.5330825 -0.02713845
000060 34 fa c8 3e f7 dd b8 3e b0 b3 a5 bc 99 af 6b be
       0.3925339 0.36106846 -0.020227283 -0.23016204
000070 eb a9 80 bd 61 9d a4 3e af ec 1b be 50 47 04 3e
       -0.06282409 0.3215132 -0.15227006 0.12917829
000080 d3 00 9b be 00 3c ac bc 5c 44 65 ba 2a 0d 97 3d
       -0.30274066 -0.021024704 -0.0008745843 0.07375558
000090 b2 3f 86 3e f0 66 0a 3e 5c 29 97 be 23 f0 85 3e
       0.2622047 0.1351583 -0.29523742 0.26159772
0000a0 e3 24 90 be 8a 14 44 3d 70 6d 7c be 9d b4 3b 3e
       -0.28153142 0.04787115 -0.24651122 0.18330617
0000b0 a1 fe 26 3e a1 bb 20 3e 7d c6 1a 3d a5 68 43 be
       0.1630807 0.15696575 0.03778695 -0.19082887
0000c0 51 a2 33 be a7 c3 2f 3e 60 80 16 3e f9 1b 9d be
       -0.17542388 0.17164479 0.14697409 -0.30685404
0000d0 56 4f 65 3e 1b c0 d2 bd b0 b4 6c be e3 c6 80 be
       0.22393546 -0.102905475 -0.23115802 -0.2515174
0000e0 c7 2f 97 be 94 30 71 be b6 42 3c be 12 5a 9a be
       -0.2952864 -0.23553687 -0.18384823 -0.30146843
0000f0 0c cc 82 3c ec 33 d9 be ab 25 52 be 87 2c 2b 3d
       0.015966438 -0.42422426 -0.20522182 0.04179051
000100 28 2e 71 3e 57 ba ab 3d fb cb b6 3e 93 68 ce bd
       0.23552763 0.08385151 0.357025 -0.1007854
000110 7f 78 4e 3d 01 ea 80 be 72 0b a8 3e 53 6f 97 3e
       0.050407883 -0.2517853 0.32821232 0.2957712
000120 34 f2 86 3e 35 a7 b3 3e 3f 7a cb bd b7 b4 0e bd
       0.2635666 0.35088506 -0.09935426 -0.03484031
000130 83 b4 9a 3d 76 cc 32 bd 31 48 9c be 4d 67 ad 3e
       0.07553961 -0.04365202 -0.30523828 0.33867875
000140 2b b0 42 bd 4a 8d a7 3e 0b d4 f6 3e 5b 7e 86 be
       -0.047531288 0.32724983 0.4820865 -0.26268277
000150 7a 2c d3 3e 77 34 ab be f1 e7 92 3e 9a 8d ce 3e
       0.4124487 -0.33438465 0.28692582 0.40342408
000160 a4 e2 84 3e 10 3f be 3e aa de a0 bd 70 16 43 3e
       0.25954163 0.37157488 -0.0785497 0.19051528
000170 cd b3 47 be 2b 92 e1 3d c4 ba 54 3e a3 43 39 be
       -0.19502182 0.110142075 0.2077437 -0.18092208
000180 53 f7 d4 3d a3 77 4a 3c 89 b6 7e 3e 8b 3e 98 be
       0.10398736 0.012357625 0.24874319 -0.29735216
000190 38 df 47 3e 1b c7 d4 3e 17 80 19 be 5e c6 a1 3c
       0.19518745 0.41558155 -0.14990269 0.01974791
0001a0 97 d3 91 be 5c 1e 3c 3e 67 bf 1b be 9e 0a c6 bd
       -0.28481743 0.18370956 -0.15209733 -0.09669994
0001b0 d1 00 87 3c d7 03 2d bd e7 f0 4c be 9f eb d7 bd
       0.016479881 -0.04223999 -0.20013772 -0.10542988

flow.flow.transforms.3.alpha_prime f4 [7]
000000 a5 47 b4 bd 93 35 a4 be 25 ca e1 bd 7d 43 cc 3d
       -0.088027276 -0.32072124 -0.11024884 0.0997381
000010 44 16 00 3e 46 ea 6b bc bb eb e3 bd
       0.12508494 -0.014399117 -0.111289464

flow.flow.transforms.3.beta_prime f4 [7]
000000 95 55 74 3d 02 6d a6 3e 1a 98 6a 3e e4 66 21 be
       0.05965193 0.3250504 0.22909585 -0.15761906
000010 ce b0 dc bd c4 7d 2b 3d 51 7a 3f 3e
       -0.1077591 0.041867986 0.18699004

flow.flow.transforms.4.x0 f4 [7, 16]
000000 9c 76 86 be 4c f7 d6 be 40 4a 91 3e 26 13 71 be
       -0.26262367 -0.41985548 0.2837696 -0.23542461
000010 e9 4b 80 3e fb ad b5 3e 0b d0 99 be e7 39 75 3e
       0.25057915 0.354843 -0.30041537 0.23947869
000020 e5 7d 76 be 8d 17 3f 3e 0f cf 27 be 4c 83 63 be
       -0.24071462 0.18661328 -0.1638758 -0.22218055
000030 eb 29 a9 bd 25 68 80 3e 16 d4 d6 3d 2d 99 66 be
       -0.08259948 0.25079456 0.10489671 -0.2251937
000040 1e 3b 70 be 91 3a 5a bd b9 e1 18 bf c5 23 97 be
       -0.23460051 -0.05327851 -0.59719425 -0.29519477
000050 db 7e 60 be 02 aa 70 be df ed cc bd 78 a1 39 bc
       -0.21923392 -0.23502353 -0.10006308 -0.011330001
000060 0d 32 51 be 8e 33 43 be 5f 20 46 3e 69 8e 99 3e
       -0.20429249 -0.19062635 0.19348286 0.29991463
000070 82 28 cc 3d 0a 0e e0 be 09 90 bb 3e 70 9b 8a bd
       0.09968664 -0.4376071 0.36633328 -0.067679286
000080 d2 d1 91 be 58 94 e2 bb a4 30 3c 3c c0 e6 47 3d
       -0.28480393 -0.0069146566 0.011486206 0.048804045
000090 64 e9 5c 3e 1e 2e 3c 3e 4a 51 a6 be 53 a1 80 3e
       0.21573406 0.18376967 -0.32483894 0.2512308
0000a0 93 6d 85 be b3 94 fe 3d 1d c3 72 be ba bc e6 3d
       -0.2606016 0.12430706 -0.23707242 0.112664655
0000b0 c9 80 c5 3d cc 7c 15 3e 9f 71 28 3d 41 f6 73 be
       0.096437044 0.14598387 0.041123983 -0.23824407
0000c0 0b 89 55 be 7c 25 d2 bd 13 6a 5f be 06 28 c7 3e
       -0.20853059 -0.10261056 -0.21817808 0.38897723
0000d0 0a 27 e2 3d ca 98 c0 be 24 c0 61 3e 4e df 44 3e
       0.11042602 -0.3761657 0.22045952 0.19225809
0000e0 1f 27 ae 3e 03 70 32 3e a1 c2 7b bd 93 0c 87 3e
       0.34014222 0.17425542 -0.06146491 0.2637678
0000f0 14 37 8b 3d 82 94 71 3e 77 f5 91 3e bc 24 fe bd
       0.06797615 0.23591807 0.28507587 -0.1240935
000100 f4 f9 ef bc 75 b9 8a 3e de 43 d6 3e 7c 72 17 be
       -0.029293992 0.27094617 0.41848654 -0.14789766
000110 07 15 b4 be 07 f2 c3 3d f4 db b2 3e cb 80 47 be
       -0.35172293 0.095676474 0.34933436 -0.19482724
000120 de da a8 3e 7a 42 ac 3e e4 ff 7e be 29 03 61 3e
       0.32979482 0.33644468 -0.24902302 0.21973862
000130 82 73 16 be 7a 50 b9 3e e2 a6 a8 3e 94 56 91 be
       -0.146925 0.3619421 0.3293982 -0.28386366
000140 43 cc 73 3e 84 02 f6 bd 92 b9 a4 3e 03 20 89 bd
       0.23808388 -0.120121986 0.3217283 -0.06695559
000150 1e 17 b3 bc d5 bd ee bd 81 1b 1a 3e a3 25 50 bd
       -0.02186161 -0.11657301 0.15049554 -0.050817143
000160 59 7f 96 bc 27 c3 a3 3e 39 2e 79 3d 21 19 26 bd
       -0.018371271 0.31984827 0.060835097 -0.04055131
000170 2d 1f a1 3d 7f a5 0b 3e e2 22 d5 bc 02 2f e9 3d
       0.078672744 0.1363735 -0.02601761 0.11385919
000180 a9 ed 92 3d 03 22 8c 3d 08 94 65 3e ff fd a0 be
       0.07174236 0.06842425 0.2241975 -0.31443784
000190 9e 5b 39 3e 8b f8 8c 3e 04 d3 9f bc 76 77 da bd
       0.18101355 0.27533373 -0.0195098 -0.106673166
0001a0 2d 76 90 be 9b 55 3f 3e 20 4d 9a bd 38 9f 0e be
       -0.2821516 0.18685 -0.07534242 -0.13927925
0001b0 ec db bf ba 8b 28 b5 bc 14 6d 7c be 22 8e 6c bd
       -0.0014637685 -0.022114059 -0.24650985 -0.057752736

flow.flow.transforms.4.alpha_prime f4 [7]
000000 9f f6 4f 3e 34 bd bb bd 2d 7f c3 be ea db 29 be
       0.20308922 -0.09166947 -0.38182965 -0.16587797
000010 f1 cb ab 3d bc 5f 6c be 66 68 a7 be
       0.08388508 -0.23083395 -0.32696837

flow.flow.transforms.4.beta_prime f4 [7]
000000 09 24 21 3e 4f fc 53 be 54 39 d5 bd d6 7e 52 39
       0.15736403 -0.20701717 -0.10411325 0.0002007441
000010 b2 4a 20 bc 7a 65 3c 3d d0 89 75 3e
       -0.009783434 0.045995213 0.23978353

flow.flow.transforms.5.x0 f4 [7, 16]
000000 c3 9a 23 be 3b a8 27 3d 24 78 b6 3e 43 07 bb 3e
       -0.15977006 0.04093192 0.35638535 0.36528978
000010 ea 07 6e 3e 75 37 a8 be b7 35 92 be cf 21 22 3e
       0.23245206 -0.3285481 -0.28556606 0.1583321
000020 91 f7 98 3e 71 7c 8e 3e 5a 03 85 be 82 8b 92 be
       0.29876378 0.27829316 -0.2597912 -0.2862206
000030 33 7b 89 3e 26 ec e0 3d 36 76 08 be f2 f6 61 be
       0.26851806 0.10982542 -0.13326344 -0.22066858
000040 e8 19 d0 3e 23 4d 66 be ba f2 e2 3e 35 02 cf bc
       0.40644765 -0.22490363 0.4432581 -0.025269607
000050 68 e8 3a 3d e0 39 78 3e 6f 26 eb 3e 0c c2 1e be
       0.045631796 0.24240828 0.4592776 -0.1550371
000060 c9 2c e3 3e 13 e8 0e 3e f8 22 a3 3d 36 f9 84 be
       0.44370106 0.13955717 0.07965654 -0.25971383
000070 8e 10 09 3e 22 b6 8a 3e c4 2a ca bd 4b 0e ae bd
       0.13385221 0.2709208 -0.09871438 -0.0849882
000080 5f 9d 97 be 9c bc 32 3d 24 77 1c 3c 62 6a 22 3c
       -0.29612252 0.043636903 0.00954989 0.009913059
000090 c0 e4 7e 3e 41 d2 08 3e 73 95 a0 be a3 a6 64 3e
       0.24891949 0.13361456 -0.3136402 0.22329192
0000a0 5a 12 94 be f1 2d 0f 3e db 5e 58 be 3e c1 31 3e
       -0.2892025 0.13982369 -0.21129934 0.17358872
0000b0 37 26 b4 3d 23 f6 20 3e 53 d0 25 3d d4 9f 75 be
       0.087963514 0.15718894 0.040481877 -0.23986751
0000c0 09 51 81 3e a3 1e 45 3e a5 94 45 3e 97 57 a6 be
       0.25257137 0.19249968 0.19294985 -0.324887
0000d0 31 11 5b 3d 72 72 8a 3e a7 15 3a 3d d2 3b 5f be
       0.053483192 0.2704044 0.045430806 -0.21800163
0000e0 b4 94 a0 bd 39 37 4c be d0 59 52 be dd aa 75 be
       -0.07840863 -0.19942941 -0.20542073 -0.2399096
0000f0 66 09 47 be 0e 32 c3 be 66 9a 88 be f3 d1 38 be
       -0.19437179 -0.38124126 -0.26680297 -0.1804884
000100 03 dd 0e be 17 60 d9 3d 1f c5 84 be 77 96 9a bd
       -0.13951497 0.10614031 -0.2593164 -0.0754823
000110 36 0a c4 3c ba 87 5c 3e 22 3d 23 be 6f 3d a1 bd
       0.02393065 0.2153615 -0.15941289 -0.07873046
000120 80 03 24 bd a4 69 60 be 17 f3 fa bd 67 21 51 bd
       -0.0400424 -0.21915299 -0.12253397 -0.051057246
000130 32 c1 f7 3c bf f6 25 be ce ea 1b 3b 6f 4a 08 be
       0.03024349 -0.16207407 0.0023791078 -0.13309644
000140 90 e9 9a be 6f 8f 86 3e cf 48 00 bf 6a 65 5e be
       -0.3025632 0.26281306 -0.501111 -0.21718374
000150 36 87 02 3e 59 b7 9b 3d 1f 03 93 be 05 3c ec 3d
       0.12746891 0.0760333 -0.2871332 0.11534885
000160 f5 9b 8c be 30 c0 a3 bb b5 8a bc bd 97 de 77 3e
       -0.27462736 -0.004997276 -0.09206144 0.24206005
000170 48 0c 28 be 97 c5 c8 be dc ff 71 bc 04 f7 19 be
       -0.16410935 -0.3921325 -0.014770474 -0.15035635
000180 b2 8e b3 bd 85 ca cc bd 28 78 ab be 67 b7 bb 3e
       -0.08767451 -0.09999565 -0.3349011 0.36663362
000190 de 8c 54 be 8d db 84 be 60 b3 4f 3e 24 ab 87 3d
       -0.20756862 -0.25948754 0.2028327 0.06624439
0001a0 ec 53 6f 3e bf 45 20 be 6a c3 d2 bd 96 b3 64 3e
       0.23371857 -0.15651606 -0.102911785 0.22334132
0001b0 4f e1 1b be 34 1f c6 3d 4f 45 c2 3e 9b f7 53 3d
       -0.15222667 0.0967392 0.37943503 0.051749807

flow.flow.transforms.5.alpha_prime f4 [7]
000000 4e 80 43 be 92 ba 04 be fe d2 40 3c 8f 9d 16 bd
       -0.19091913 -0.12961796 0.011769054 -0.036771353
000010 8f 23 1f be 6f 59 dc 3d 09 89 88 3e
       -0.15540908 0.107592456 0.2666705

flow.flow.transforms.5.beta_prime f4 [7]
000000 62 40 66 be d8 cd 4a 3e 2a 54 8f 3e 36 b5 4c be
       -0.22485498 0.19805086 0.279939 -0.19991001
000010 ec 0c 13 3e 58 c6 27 be ee 40 8e be
       0.14360398 -0.16384256 -0.27783912

flow.flow.transforms.6.x0 f4 [7, 16]
000000 5c 17 10 be f8 8a c8 3e 7d d4 ce be d4 4f fb be
       -0.14071411 0.39168525 -0.4039649 -0.49084342
000010 de c2 63 3c 0c 23 8d be c5 9e cb 3e 41 19 c9 3d
       0.01390144 -0.275658 0.3976957 0.0981927
000020 08 d9 54 3a 79 46 6f 3e d3 b5 5a 3d 86 83 71 be
       0.00081194984 0.23366727 0.053396057 -0.23585328
000030 1c 36 6e 3d 9e 8b e2 bd 55 28 7e be 13 3d f2 3d
       0.05815707 -0.11061786 -0.24820073 0.11828055
000040 24 8f 0d be 18 03 6e 3e 9f 97 16 bf 1f 99 81 be
       -0.13824135 0.23243368 -0.58825105 -0.25312135
000050 ca 3f 28 be 42 38 e9 bd 2c a2 04 be 19 7f 15 bd
       -0.16430584 -0.113876835 -0.12952489 -0.036498163
000060 44 d9 6b be 60 84 eb bd c2 7a 10 be 67 88 94 3e
       -0.23032099 -0.11499858 -0.14109328 0.29010317
000070 14 4f 4c be be 8a f5 be b0 13 86 bd 97 3d b3 3d
       -0.19952041 -0.47957414 -0.06546724 0.08751982
000080 b0 d7 df 3e 87 05 28 3e 26 11 25 be 3b 53 1b be
       0.43719244 0.16408359 -0.16119823 -0.15168469
000090 69 73 b6 be 6f 8c 77 3c a4 b6 b8 3e e7 58 fb be
       -0.35634926 0.015109166 0.36076844 -0.49091265
0000a0 fe e3 ad 3e f0 08 b8 bd 5d 2d 9e 3e f8 45 20 bd
       0.33963007 -0.0898608 0.30893984 -0.039129227
0000b0 fa 57 62 be 30 4e 63 be 16 c6 98 3d be 56 a6 bb
       -0.22103873 -0.22197795 0.07459657 -0.0050762584
0000c0 e0 aa b5 be 1c c9 d1 3e 40 00 8c 3e 49 45 e3 be
       -0.3548193 0.40973747 0.2734394 -0.44388798
0000d0 89 5c bf 3e 22 9e f2 3e e0 dd a4 be 74 f2 98 3e
       0.37375286 0.4738627 -0.32200527 0.29872477
0000e0 8a 3c b3 be a6 35 98 be bc 55 9f be 67 89 64 3e
       -0.35007125 -0.2972843 -0.31120098 0.2231804
0000f0 37 eb b4 3d 84 92 96 3c b8 ab a6 be 37 87 e2 3d
       0.08833926 0.018380411 -0.32552886 0.110609464
000100 a7 09 04 be 93 bb b6 3d 4a 24 68 be bb c2 89 bd
       -0.12894307 0.08922496 -0.22670093 -0.06726595
000110 a2 51 18 3d 47 a0 50 3e 0f 33 fb bd 54 17 48 bd
       0.037187226 0.20373641 -0.12265598 -0.048850372
000120 73 ca 40 bd d3 81 2f be 85 26 9e bd 0f 56 0d bd
       -0.04706807 -0.17139368 -0.07722191 -0.0345059
000130 00 ca bf 3c 67 a0 0d be 16 cd 12 3c a9 2a b0 bd
       0.02341175 -0.1383072 0.008960029 -0.08601887
000140 2e e0 3c 3e 8a 51 a6 bd b9 79 8c 3e 08 f4 89 bd
       0.18444893 -0.08121021 0.27436617 -0.067359984
000150 eb ad 27 3c d7 f2 8b bd ef 24 c2 3d 22 21 97 bc
       0.010234336 -0.068334274 0.09479701 -0.018448416
000160 51 8d 3b bb ca 53 9d 3e fe e4 ef 3c ea 43 9f bb
       -0.0028618167 0.30727988 0.029283997 -0.004860391
000170 e7 df 7e 3d dd 46 ea 3d 54 a3 22 bd f3 34 0c 3e
       0.06222525 0.11439297 -0.039706543 0.13692074
000180 da 93 a3 3c d3 de 0b 3e ad ea af 3d c7 da 9a be
       0.019967962 0.1365922 0.08589683 -0.3024504
000190 82 be 1b 3e 99 f6 a3 3d ff 68 28 be 1e 95 2e bd
       0.15209392 0.08006019 -0.16446303 -0.042622678
0001a0 52 1a a7 be 5d eb 56 3e bf d5 21 be 00 33 34 be
       -0.32637268 0.20988221 -0.15804194 -0.1759758
0001b0 20 3e 8a bc f8 9f b9 3c 96 9d 5e be 76 f6 b6 3b
       -0.016875327 0.022659287 -0.21739802 0.0055835797

flow.flow.transforms.6.alpha_prime f4 [7]
000000 c5 9f 4d bd 83 88 cd bd 17 c3 60 3e 91 3a 8a bd
       -0.050201196 -0.10035803 0.21949421 -0.06749452
000010 af c8 c2 be 07 b6 9b be 7c 31 81 bc
       -0.38043734 -0.30412313 -0.015770666

flow.flow.transforms.6.beta_prime f4 [7]
000000 17 da c5 3c 83 41 83 be 5d 97 76 be 12 ab f8 bd
       0.024151845 -0.2563592 -0.24081178 -0.12142004
000010 12 bd 7b 3d b4 90 21 3e 81 47 1a 3e
       0.06145961 0.15777856 0.15066339
