saved_experiments/classification/GPN/1/model_5.pt (torch, 764793 bytes, 36 tensors)

input_encoder.0.weight f4 [64, 2879]
000000 3a ac 94 39 53 bc f4 3b 2c 03 c7 b8 1e 42 5a bb
       0.0002835708 0.007468739 -9.48965e-05 -0.003330357
000010 f4 1c d0 39 77 a8 fb 39 ba c7 12 ba b9 15 1a ba
       0.00039694423 0.00047999967 -0.00055992196 -0.0005877871
000020 a4 a2 7c ba b4 d2 bc ba 80 87 ef b7 56 bc 0c ba
       -0.00096372725 -0.0014406056 -2.8554117e-05 -0.00053686404
000030 da ef e2 39 2b f1 33 bc d4 2c 27 ba 74 9f 8f b8
       0.00043284782 -0.010982792 -0.00063772243 -6.848472e-05
000040 8c 2f 4c ba 75 2f 35 3a 32 99 02 bb b4 83 ae b9
       -0.00077890675 0.00069116737 -0.0019927737 -0.00033285993
000050 e3 77 eb 3a 82 d2 3f 39 30 fa 02 bd 3b 3c 8a bc
       0.0017964806 0.000182936 -0.03197688 -0.016874423
000060 2a a5 91 39 86 93 ef ba 7e a5 8a 3b 80 ea 57 3b
       0.00027779612 -0.0018278218 0.004231154 0.003294617
000070 ab 47 51 ba 23 6c c1 bb 0e b0 bd 39 4a 24 8f 39
       -0.00079833966 -0.0059027835 0.0003618006 0.00027302123
000080 1e dd d8 39 a8 70 0f ba 8a c8 9f 3a 1a 32 f2 3a
       0.00041363476 -0.0005471804 0.0012190503 0.0018478066
000090 9a 64 2d ba d8 28 8b ba 92 5d e4 39 12 7d 8f b9
       -0.0006614417 -0.0010617031 0.00043557264 -0.0002736827
0000a0 33 1c f2 39 3c 35 a1 39 e8 5a 3a ba 14 53 77 bc
       0.00046178847 0.00030747976 -0.0007108883 -0.015095491
0000b0 45 7d 32 3b 15 e0 26 bd 4b f9 8a 3c 25 21 9b bc
       0.002723531 -0.040741045 0.016964575 -0.018936703
0000c0 e9 0a d7 39 fc 63 79 3a e9 99 ab b9 a5 bc 08 ba
       0.00041016124 0.0009513495 -0.00032730334 -0.00052160985
0000d0 c8 f7 f7 39 a3 7f 94 3b 31 e3 ba 3b 43 42 ba b9
       0.00047296123 0.004531817 0.005703353 -0.00035526053
0000e0 1a 26 72 39 0e 2d 7c b9 78 0a c7 38 60 52 bf 39
       0.00023093112 -0.00024049377 9.4910094e-05 0.00036491733
0000f0 3d 75 03 3b 1b 93 14 3a 0c c5 8a b8 01 1e 28 3a
       0.0020058893 0.00056676724 -6.6170556e-05 0.00064131623
000100 58 28 b4 38 b0 90 ed b8 07 36 d4 3a d4 26 e4 39
       8.5905835e-05 -0.00011327991 0.0016190418 0.00043516478
000110 15 f1 a5 b9 30 8e 1b 38 1e 58 e7 39 80 c3 35 b7
       -0.00031650873 3.7087302e-05 0.00044125406 -1.0833959e-05
000120 14 3a fc 39 06 3f 8d 3a cc 26 95 3a f4 66 12 ba
       0.00048108457 0.0010776229 0.001137936 -0.0005584799
000130 34 66 0b ba ae e0 09 b9 6a be 30 39 67 5f 17 3a
       -0.00053176587 -0.00013149038 0.00016855603 0.0005774409
000140 12 7d 2c bb 94 09 81 b8 1c 70 40 39 90 2e 2a 3a
       -0.0026319665 -6.1529834e-05 0.00018352311 0.00064919237
000150 b1 6f 3b ba 8e a6 5f ba 2a 12 57 3a 68 71 91 b8
       -0.0007150127 -0.00085315935 0.0008204306 -6.935262e-05
000160 29 3a 0b 3a eb 0f d9 b9 cd ae 1a ba 3e 3f 28 3a
       0.0005311096 -0.00041401325 -0.0005900681 0.0006418115
000170 10 bf 1a 38 50 4c e6 39 72 f0 de 39 54 e2 19 b9
       3.6894402e-05 0.00043925876 0.00042522285 -0.00014675531
000180 e6 cb 53 ba ca 82 1a 3a 8e c6 3b ba b9 4c 17 ba
       -0.00080793945 0.0005894123 -0.0007163071 -0.00057716254
000190 e2 6b e0 39 11 7e 89 3a 02 a5 99 ba 10 5f 37 b9
       0.00042804988 0.0010489841 -0.001172215 -0.00017487654
0001a0 a0 d6 24 b8 a4 fb a3 38 67 3f 5d ba 41 28 8d 39
       -3.9300532e-05 7.8193174e-05 -0.00084399286 0.00026923607
0001b0 5d e4 36 3a d6 b0 61 ba 12 05 32 ba 63 ac 8e ba
       0.0006976778 -0.00086094195 -0.00067909167 -0.0010885115
0001c0 34 b4 c9 b9 2a 9d 26 bb 04 5b 22 39 aa 0d 69 ba
       -0.0003847197 -0.0025423267 0.0001548343 -0.0008890281
0001d0 41 ce 04 3a ea eb d2 39 ca ea ac b9 9c cd e0 b8
       0.00050661346 0.0004023009 -0.00032981328 -0.0001071945
0001e0 3a b4 28 3a 2c 0f e1 b9 39 ca e1 bb bd 1b db b9
       0.0006435547 -0.00042926648 -0.006890562 -0.00041791602
0001f0 25 bf 32 bb 24 c7 94 ba 10 5d 7d b8 a8 a2 7f bb
       -0.0027274576 -0.0011350852 -6.040657e-05 -0.0039006863
000200 09 72 25 3a a0 4a 56 3a a0 9b 50 39 64 db c6 39
       0.0006311243 0.0008174572 0.000198944 0.00037928962
000210 47 ce 34 bb 02 30 9a bb 0a 03 51 ba 1e 31 e2 39
       -0.0027588771 -0.00470543 -0.000797317 0.00043142674
000220 52 e4 0e bb 8c 7d 82 b8 87 d9 18 bb ac 24 11 3a
       -0.002180357 -6.222268e-05 -0.0023323016 0.00055367756
000230 65 07 94 bb 7c 0a 9e 38 15 f3 21 3a 55 33 d3 39
       -0.004517483 7.53598e-05 0.00061778846 0.00040283301
000240 ce 73 94 3a e4 01 d2 b9 9a b0 93 b9 60 c7 c2 b9
       0.0011326016 -0.0004005573 -0.00028169603 -0.0003715111
000250 ae bd df 39 60 9d 67 b8 56 b7 2c ba b6 a3 36 3a
       0.00042675197 -5.522126e-05 -0.00065885985 0.0006967144
000260 3c 0e 28 ba 48 0e 15 3a 48 12 ed ba 5e 12 94 ba
       -0.00064108125 0.0005686027 -0.0018087113 -0.0011296978
000270 32 a8 1f 3a 72 ee 01 3a 5f d3 e3 b9 ae 25 d7 b9
       0.00060904317 0.00049564906 -0.00043454298 -0.0004103607
000280 3a b3 8a 39 44 3c d3 b9 2f 85 d4 b9 ac b2 67 ba
       0.00026454945 -0.00040289958 -0.0004053502 -0.0008838575
000290 61 b1 94 39 07 77 94 3a 94 95 ac 38 de a3 94 3a
       0.00028360917 0.0011326977 8.22946e-05 0.001134034
0002a0 d2 65 59 3a 71 79 f3 39 42 df d3 39 56 b2 3c b9
       0.00082930655 0.00046439053 0.00040411396 -0.00017995512
0002b0 68 8a d7 39 69 8b 1d ba 6e 3e 8a b9 d4 ac 17 ba
       0.00041111116 -0.00060098484 -0.00026367925 -0.0005785946
0002c0 6b fd aa 39 f7 1e 00 3a 15 02 ce ba 69 0d 32 3a
       0.00032613738 0.00048874266 -0.0015717173 0.00067921594
0002d0 cd 66 a2 bb e3 43 3a bb 54 07 e7 38 4e a9 91 b9
       -0.0049561025 -0.0028421811 0.00011016303 -0.00027782697
0002e0 af b0 e1 bb eb fb 03 bc 15 74 73 ba e6 70 b9 39
       -0.0068875174 -0.008055667 -0.0009287012 0.00035370066
0002f0 4a 74 d9 3a d0 c3 91 ba d3 5d 06 3b bc e1 94 b8
       0.0016590443 -0.0011120979 0.00205027 -7.099236e-05
000300 e6 b2 d7 b9 d4 2c a5 39 80 5b 1b b9 25 a5 0c ba
       -0.00041141285 0.00031504652 -0.00014816038 -0.00053651846
000310 90 b5 bd 38 44 4a 30 3b 32 f0 30 3a f0 8f 7a 38
       9.046041e-05 0.0026899735 0.0006749659 5.9738697e-05
000320 8a 85 89 b9 76 03 dc b9 c6 a8 13 3a f4 c7 dd b9
       -0.0002623017 -0.00041964249 0.0005632754 -0.00042301381
000330 ef ed 92 3a 90 10 32 3a 64 36 df 39 ac 60 39 ba
       0.0011209826 0.0006792629 0.000425744 -0.0007071595
000340 00 7f a8 38 cc 61 5d 3a ae 61 ce b9 49 db 4c 3a
       8.03452e-05 0.0008445054 -0.0003936416 0.00078146585
000350 48 01 07 3a 8e ba 21 3a ee 81 96 39 33 47 2c bb
       0.0005150032 0.00061694614 0.00028707035 -0.0026287555
000360 1c 29 a5 b9 36 c0 54 b9 9e e4 cf 39 24 a0 e0 3a
       -0.0003150188 -0.000202895 0.0003965245 0.0017137569
000370 90 fd 29 b8 fe 67 b9 39 51 78 91 39 1f 67 a7 39
       -4.052889e-05 0.0003536343 0.00027746198 0.00031929553
000380 a1 0f 4a bc 70 44 2c 3a 4c 64 83 39 58 50 5f 3b
       -0.012332828 0.0006571477 0.00025060994 0.0034074988
000390 36 64 c3 39 e0 94 8e ba b4 5b c2 b9 7f 64 1a 3a
       0.0003726796 -0.0010878108 -0.00037070888 0.0005889609
0003a0 6c 91 f5 39 e8 36 56 ba 06 a5 ec 39 00 51 97 3b
       0.0004683839 -0.0008171634 0.0004513638 0.0046178102
0003b0 3f 78 00 3a 00 f6 49 bc 9a a0 c7 b9 72 a9 99 3b
       0.00049007306 -0.012326717 -0.00038075895 0.004689389
0003c0 5d 85 8d ba 34 8b 6d ba 9e 20 95 3a e4 30 05 ba
       -0.0010797192 -0.00090615754 0.0011377519 -0.00050808326
0003d0 22 2e 8a 39 fc 08 3c 3a 36 e3 67 3a ea fa 9c ba
       0.00026355783 0.00071729696 0.0008845808 -0.0011976634
0003e0 5a f4 fe b9 da 88 e8 3a 14 ec 84 b9 f6 51 0e 3a
       -0.0004862871 0.001774098 -0.00025352894 0.0005429083
0003f0 70 79 fb ba 8e ef 2e 3a e8 91 69 3a c0 7d bc 38
       -0.0019185971 0.00066732697 0.00089099864 8.987961e-05

input_encoder.0.bias f4 [64]
000000 51 ba 7d bd d0 8c 24 3c a3 25 57 bd fa 78 12 3d
       -0.061945263 0.010043338 -0.052526128 0.035759903
000010 5f f2 3b 3c 2e 26 14 3c c7 92 64 3c 7a fd c7 3c
       0.01147136 0.009042306 0.01395101 0.02441286
000020 5d 3d 73 bd 60 8f 07 3d a6 32 25 3c 2b f9 a5 3c
       -0.059384692 0.033095717 0.010082876 0.020260414
000030 b8 b8 c9 3b 46 cc 6c bd a6 0b 56 bd ac 58 0e 3d
       0.0061560534 -0.057811998 -0.052257203 0.034752533
000040 ca dd 05 3d 87 51 4e bd dd 48 2f bd 6f 01 70 3b
       0.032682218 -0.05037072 -0.042794097 0.0036621948
000050 ff 6c aa bc 8d aa 38 3c 05 d3 2b 3c 7d 8f 98 ba
       -0.020803927 0.011271131 0.010487323 -0.0011639443
000060 ab ed 4d bd aa 40 78 bd 6e 55 44 bd 97 3c 48 bd
       -0.050275486 -0.060608543 -0.047933035 -0.048885908
000070 91 d5 80 bd aa 3a 40 3b 1e 10 46 bd 18 34 c8 3c
       -0.062907346 0.0029331842 -0.048355214 0.024438903
000080 f4 ed 51 bd 4b d5 44 bd 51 76 7a 3c 1f f6 35 bd
       -0.05125232 -0.048054975 0.015286998 -0.044424172
000090 77 8f 38 bd bc 41 c4 ba 8b 53 27 bd 06 5a 27 bd
       -0.045058694 -0.0014973204 -0.040851157 -0.040857337
0000a0 61 b0 91 bb a2 b1 d5 3b 97 c9 5c bd 26 30 49 bd
       -0.004446075 0.0065214196 -0.05390319 -0.049118184
0000b0 01 b0 6f bd e9 0b 55 3c 25 88 6e bd 53 bb 6b bd
       -0.05851746 0.013003328 -0.058235306 -0.057551693
0000c0 69 9e 02 3d b9 c5 77 bd 01 0b 65 3c 86 8b 79 bd
       0.031889353 -0.060491297 0.013979674 -0.060924076
0000d0 e3 7d 9a 3c 8e ab 04 3c 43 e8 bb 3c fe b9 64 bd
       0.018858856 0.008097542 0.0229379 -0.05584144
0000e0 b5 4d 8e 3c 50 c2 0c 3d 21 ba cd 3c 47 74 91 3c
       0.017371038 0.034365 0.025113167 0.01775564
0000f0 64 0d 82 bd 8f bd 68 bd 2d e3 25 3c 13 7c 37 bd
       -0.0635021 -0.056821402 0.010124964 -0.04479606

latent_encoder.weight f4 [16, 64]
000000 9c a5 c0 bc 33 5a 82 be f7 2c b2 3c 49 6b 3b 3e
       -0.023516469 -0.25459442 0.021749957 0.18302645
000010 bf 4c 66 3e 4d d6 be bc c7 c3 54 bd 51 b3 b2 bd
       0.22490214 -0.023295546 -0.05194452 -0.08725608
000020 ac e4 6a 3d 0f 70 bc be 71 09 ec 3b 2b e9 cf be
       0.057346985 -0.36804244 0.007203274 -0.4060758
000030 09 6a 64 3e 53 97 a6 bc b6 c0 75 3d f6 be 81 3d
       0.22306074 -0.020335829 0.059998237 0.06335251
000040 3a 8a a3 be 7b 46 81 bd d2 09 b2 bd 63 e4 89 3e
       -0.31941396 -0.06312271 -0.08693279 0.26932058
000050 c3 7e 63 bc a6 45 73 3e 50 0a 19 be 20 86 ac bd
       -0.013885203 0.23757038 -0.1494534 -0.0842402
000060 c8 19 0b 3e d8 b9 01 39 cb 30 73 3d 98 6a 8a 3c
       0.13584054 0.00012371631 0.059372704 0.016896531
000070 b3 84 02 3b f3 02 85 3e 9a 8b b3 bd a1 c0 3a 3e
       0.001991552 0.25978813 -0.08766861 0.18237545
000080 16 79 a1 bc f1 fa a9 3d 7f 06 ae 3e cc 70 4e 3e
       -0.019711059 0.082998164 0.3398933 0.20160216
000090 df e6 01 3e 09 75 d4 3d d6 ea 7a 3d 54 c2 35 bd
       0.12685727 0.10373885 0.061259113 -0.04437478
0000a0 e6 05 98 3e 2c a4 3e 3d 90 32 82 bc e2 4a bb ba
       0.29692 0.046543285 -0.01589325 -0.0014289285
0000b0 92 3e 08 3b 40 ea 08 3e b1 01 e4 bd 49 f0 a2 3a
       0.0020789248 0.1337061 -0.11133135 0.001243123
0000c0 9b 52 94 be fd 73 2e bb 89 6a dd 3d 5c e8 3d bd
       -0.28969273 -0.0026619427 0.108113356 -0.046364173
0000d0 17 c5 78 be f2 74 8c 3e 68 9c 19 bd 12 aa 3c be
       -0.24293934 0.27432972 -0.037502676 -0.18424252
0000e0 bb 3e e8 3d 7f 11 94 3e b5 1d d8 be d5 bd 6a be
       0.1134009 0.28919598 -0.42210165 -0.22923978
0000f0 ae 45 55 3b c3 d9 10 3c 33 49 11 3e 91 38 71 bd
       0.0032542753 0.008840981 0.1418808 -0.058891837
000100 ac 87 d3 3c 21 a6 b6 3c c5 04 21 3b cf a3 92 bd
       0.02582153 0.022296013 0.0024569493 -0.0716015
000110 85 38 67 3d 3d 14 29 be b1 92 c2 3b f5 49 bd 3d
       0.056450386 -0.16511627 0.005937897 0.09242622
000120 87 83 bd 3d 15 40 2b bd 89 1b f8 bd 59 53 01 be
       0.092536025 -0.04180916 -0.12114627 -0.12629451
000130 66 c8 80 be 0b 00 5a 3d 1a 87 29 bd 54 9c 3a be
       -0.25152892 0.053222697 -0.04138861 -0.18223697
000140 4c 0b 99 3c 07 43 46 bd 00 ce f4 bc 99 eb 5a be
       0.018682145 -0.048403766 -0.029883385 -0.21378936
000150 49 df 98 bd c8 8e 02 3e c4 89 c6 bb c5 67 c5 bd
       -0.07464463 0.12749779 -0.0060589034 -0.09638933
000160 3e 28 89 bd b8 44 b4 bb 1e d3 3b bd d7 db e9 bd
       -0.06697129 -0.005501356 -0.045855634 -0.11418884
000170 14 d0 4e b9 f2 1d 3b be e0 97 0b 3e f8 6c a6 bd
       -0.00019723206 -0.18273142 0.13632154 -0.08126253
000180 b4 2b da bd c4 dd 5b be cf c7 97 be 04 12 95 3d
       -0.10652867 -0.21471316 -0.2964463 0.07278827
000190 f3 fe 26 3e fb 9e 22 bd 06 49 ea bc 74 d7 1b bb
       0.16308193 -0.039702397 -0.028599273 -0.0023779543
0001a0 41 af 0a be d2 8a 46 be 4e 55 af 3d bd 12 b4 ba
       -0.13543417 -0.19388893 0.085611925 -0.0013738495
0001b0 ae 2e fb bb 60 db 97 bd 7c 66 fe bc 7f 36 93 3d
       -0.0076654768 -0.07414889 -0.031054728 0.07188129
0001c0 85 cd 70 bb 28 82 39 bb 81 7b 86 bd 7f 4d 34 3c
       -0.0036743593 -0.002830634 -0.06566525 0.011004805
0001d0 75 43 82 3d 5e f6 f4 ba b7 2a b4 bd 42 04 c2 bd
       0.06360523 -0.0018689146 -0.0879721 -0.09473468
0001e0 1e 70 8a bd 30 8f 21 be 1f 6a ff 3c ae 11 6e bb
       -0.06759666 -0.15777278 0.031178532 -0.0036326456
0001f0 12 39 90 b9 a5 91 00 3c 81 22 b2 bc 9f e3 fc bc
       -0.0002750834 0.007847224 -0.021744968 -0.030870257
000200 16 ee 5d 3b ee 7b 06 bc ca 0d 5a bc a4 62 31 be
       0.0033863834 -0.008208258 -0.013308952 -0.17322785
000210 c9 fa 86 bd e7 bf 78 3e 1d 64 50 3e 8d ab 43 3e
       -0.06590802 0.24291955 0.2035069 0.1910841
000220 64 23 b9 b9 5d d6 11 be d2 1c 56 be 6b 4c 35 3e
       -0.00035312318 -0.1424193 -0.20909432 0.17704932
000230 69 b1 96 bc 24 72 a2 bd 51 a1 a4 3b 73 3b e5 bd
       -0.018395143 -0.07931927 0.005024113 -0.1119298
000240 9d 43 18 bd 72 98 2a 3d 33 93 c2 bc 1c 8f 81 be
       -0.037173856 0.04164929 -0.02375183 -0.25304496
000250 6a 3c 75 be 3e 19 dd 3d 89 01 26 be fd 0a 0f be
       -0.23948827 0.1079583 -0.16211523 -0.13969035
000260 ab d3 b4 bb 81 71 c9 3a 79 63 6e be ba 46 5d bd
       -0.005518397 0.001536891 -0.23280133 -0.05402253
000270 16 3d fe bb 0d 63 15 be 31 8b eb 3b 32 83 20 3e
       -0.007758747 -0.14588566 0.007188224 0.15675047
000280 ce 2d 34 3c 76 b2 92 bc db 22 ef bd 3b e5 e6 bd
       0.010997249 -0.017907362 -0.1167657 -0.11274191
000290 32 27 19 bd c8 1e ed 3d 72 d6 c9 bc b7 e9 8c bd
       -0.037390895 0.11578137 -0.024638388 -0.06880515
0002a0 d7 67 50 3d fe b7 e1 bd 84 eb 93 3d 09 88 1a bd
       0.05088028 -0.11021422 0.072226554 -0.03772739
0002b0 ae 88 e1 ba b7 bb 17 be 6c ed 9a bd d4 73 82 bd
       -0.0017206871 -0.14817701 -0.07564816 -0.06369749
0002c0 2d 39 7c 3e d3 63 3c bb c2 04 58 3e 52 c2 e3 ba
       0.24631186 -0.0028746023 0.21095565 -0.0017376638
0002d0 f5 22 87 3e 63 1d 34 3d bd 08 e7 3d f2 26 6b 3c
       0.26393858 0.043973338 0.112809636 0.014352547
0002e0 4c f0 c8 3d b1 2c 00 be 50 d6 c2 bd 8b 27 75 bc
       0.09811458 -0.12517048 -0.09513533 -0.014963041
0002f0 c9 49 8a 3b fd 88 54 3b 24 b7 79 bd 55 3c 80 3b
       0.0042202217 0.0032430284 -0.060965672 0.003913442
000300 62 63 ef 3b 11 47 38 3e 50 dd 1c bd c0 a2 2d 3e
       0.0073055485 0.1799586 -0.038296998 0.16956615
000310 a3 85 98 3d fe 0a c3 bc b6 ec a1 bd 84 41 64 bb
       0.07447364 -0.023808952 -0.07906477 -0.003482909
000320 49 a0 5f 3d d9 e5 87 bd da 09 4e 3e 13 28 5a be
       0.05459622 -0.06635637 0.20120946 -0.2130435
000330 a7 bf 55 3e fa 1f d6 3c 9e 77 c7 bc bd 84 df 3d
       0.20873891 0.026138294 -0.02434903 0.1091399
000340 20 eb b4 be fa e2 08 bd 69 5c 49 bd c4 f3 8a 3d
       -0.35335636 -0.033419587 -0.049160395 0.06784776
000350 16 6b 3f 3e 1e c5 e6 3d 9e 26 43 3e 5d 2a 85 3e
       0.18693194 0.11268066 0.190577 0.26008883
000360 53 3c eb bb 3b 6a a9 bb ba 4d 56 3d 55 e3 6a bd
       -0.007178822 -0.0051701344 0.05232022 -0.057345707
000370 bb bf ca bb 53 19 ed bc 3c 68 7d 3d 77 65 47 3e
       -0.006187407 -0.02894274 0.061866984 0.194723
000380 71 9c 45 bd 0e 00 96 3d 42 08 95 be 68 d6 e7 3d
       -0.048244897 0.07324229 -0.29107863 0.113201916
000390 a1 e5 0d 3e aa a2 29 3d de aa 4b 3c 5e 74 9f bc
       0.13857128 0.041414894 0.012430875 -0.019464668
0003a0 07 b8 87 bd 09 b4 80 be 5a 3b f4 3d c8 e8 18 3e
       -0.06626897 -0.25137356 0.11925383 0.14932549
0003b0 33 6c 7f 3b 6a 6a 9d 3e 67 da 54 bd c5 83 12 3d
       0.0038974404 0.3074525 -0.051966097 0.035770196
0003c0 b2 28 86 be df 7b 25 3b 75 ce ce 3d 64 ba b2 3d
       -0.26202923 0.0025250835 0.10097972 0.087269574
0003d0 6d 78 96 bd e6 0b bc 3b 0d e1 46 3c cd 06 ef bd
       -0.07347188 0.005738723 0.012138617 -0.11671219
0003e0 19 f3 93 3e 02 1d 74 3e 05 5e 7a be 61 b5 7b be
       0.28896406 0.2383919 -0.24449928 -0.2458091
0003f0 70 b1 1d bb a3 7f a5 ba 14 05 60 be 0f ed 07 3e
       -0.002406206 -0.001262654 -0.21876937 0.13274024

latent_encoder.bias f4 [16]
000000 42 de 93 bc c8 c6 85 3d 98 02 a0 3c 72 10 85 3c
       -0.018050317 0.06532055 0.019532487 0.016243193
000010 d6 18 db bc bd 87 2a bd ee 7d f1 bc 80 3c f2 bb
       -0.026745241 -0.041633356 -0.029478993 -0.007392466
000020 d7 a9 a2 3d a0 e2 3d bd 14 57 0c be ec 4d b7 3d
       0.07942551 -0.046358705 -0.13705093 0.08950409
000030 69 a8 55 3d 0c 20 3e 3d fb 22 e1 3c 8b 8d 4b 3d
       0.05216256 0.04641728 0.0274825 0.049695533

flow.flow.mean f4 [7, 16]
000000 00 00 00 00 00 00 00 00 00 00 00 00 00 00 00 00
       0.0 0.0 0.0 0.0
000010 00 00 00 00 00 00 00 00 00 00 00 00 00 00 00 00
       0.0 0.0 0.0 0.0
000020 00 00 00 00 00 00 00 00 00 00 00 00 00 00 00 00
       0.0 0.0 0.0 0.0
000030 00 00 00 00 00 00 00 00 00 00 00 00 00 00 00 00
       0.0 0.0 0.0 0.0
000040 00 00 00 00 00 00 00 00 00 00 00 00 00 00 00 00
       0.0 0.0 0.0 0.0
000050 00 00 00 00 00 00 00 00 00 00 00 00 00 00 00 00
       0.0 0.0 0.0 0.0
000060 00 00 00 00 00 00 00 00 00 00 00 00 00 00 00 00
       0.0 0.0 0.0 0.0
000070 00 00 00 00 00 00 00 00 00 00 00 00 00 00 00 00
       0.0 0.0 0.0 0.0
000080 00 00 00 00 00 00 00 00 00 00 00 00 00 00 00 00
       0.0 0.0 0.0 0.0
000090 00 00 00 00 00 00 00 00 00 00 00 00 00 00 00 00
       0.0 0.0 0.0 0.0
0000a0 00 00 00 00 00 00 00 00 00 00 00 00 00 00 00 00
       0.0 0.0 0.0 0.0
0000b0 00 00 00 00 00 00 00 00 00 00 00 00 00 00 00 00
       0.0 0.0 0.0 0.0
0000c0 00 00 00 00 00 00 00 00 00 00 00 00 00 00 00 00
       0.0 0.0 0.0 0.0
0000d0 00 00 00 00 00 00 00 00 00 00 00 00 00 00 00 00
       0.0 0.0 0.0 0.0
0000e0 00 00 00 00 00 00 00 00 00 00 00 00 00 00 00 00
       0.0 0.0 0.0 0.0
0000f0 00 00 00 00 00 00 00 00 00 00 00 00 00 00 00 00
       0.0 0.0 0.0 0.0
000100 00 00 00 00 00 00 00 00 00 00 00 00 00 00 00 00
       0.0 0.0 0.0 0.0
000110 00 00 00 00 00 00 00 00 00 00 00 00 00 00 00 00
       0.0 0.0 0.0 0.0
000120 00 00 00 00 00 00 00 00 00 00 00 00 00 00 00 00
       0.0 0.0 0.0 0.0
000130 00 00 00 00 00 00 00 00 00 00 00 00 00 00 00 00
       0.0 0.0 0.0 0.0
000140 00 00 00 00 00 00 00 00 00 00 00 00 00 00 00 00
       0.0 0.0 0.0 0.0
000150 00 00 00 00 00 00 00 00 00 00 00 00 00 00 00 00
       0.0 0.0 0.0 0.0
000160 00 00 00 00 00 00 00 00 00 00 00 00 00 00 00 00
       0.0 0.0 0.0 0.0
000170 00 00 00 00 00 00 00 00 00 00 00 00 00 00 00 00
       0.0 0.0 0.0 0.0
000180 00 00 00 00 00 00 00 00 00 00 00 00 00 00 00 00
       0.0 0.0 0.0 0.0
000190 00 00 00 00 00 00 00 00 00 00 00 00 00 00 00 00
       0.0 0.0 0.0 0.0
0001a0 00 00 00 00 00 00 00 00 00 00 00 00 00 00 00 00
       0.0 0.0 0.0 0.0
0001b0 00 00 00 00 00 00 00 00 00 00 00 00 00 00 00 00
       0.0 0.0 0.0 0.0

flow.flow.cov f4 [7, 16, 16]
000000 00 00 80 3f 00 00 00 00 00 00 00 00 00 00 00 00
       1.0 0.0 0.0 0.0
000010 00 00 00 00 00 00 00 00 00 00 00 00 00 00 00 00
       0.0 0.0 0.0 0.0
000020 00 00 00 00 00 00 00 00 00 00 00 00 00 00 00 00
       0.0 0.0 0.0 0.0
000030 00 00 00 00 00 00 00 00 00 00 00 00 00 00 00 00
       0.0 0.0 0.0 0.0
000040 00 00 00 00 00 00 80 3f 00 00 00 00 00 00 00 00
       0.0 1.0 0.0 0.0
000050 00 00 00 00 00 00 00 00 00 00 00 00 00 00 00 00
       0.0 0.0 0.0 0.0
000060 00 00 00 00 00 00 00 00 00 00 00 00 00 00 00 00
       0.0 0.0 0.0 0.0
000070 00 00 00 00 00 00 00 00 00 00 00 00 00 00 00 00
       0.0 0.0 0.0 0.0
000080 00 00 00 00 00 00 00 00 00 00 80 3f 00 00 00 00
       0.0 0.0 1.0 0.0
000090 00 00 00 00 00 00 00 00 00 00 00 00 00 00 00 00
       0.0 0.0 0.0 0.0
0000a0 00 00 00 00 00 00 00 00 00 00 00 00 00 00 00 00
       0.0 0.0 0.0 0.0
0000b0 00 00 00 00 00 00 00 00 00 00 00 00 00 00 00 00
       0.0 0.0 0.0 0.0
0000c0 00 00 00 00 00 00 00 00 00 00 00 00 00 00 80 3f
       0.0 0.0 0.0 1.0
0000d0 00 00 00 00 00 00 00 00 00 00 00 00 00 00 00 00
       0.0 0.0 0.0 0.0
0000e0 00 00 00 00 00 00 00 00 00 00 00 00 00 00 00 00
       0.0 0.0 0.0 0.0
0000f0 00 00 00 00 00 00 00 00 00 00 00 00 00 00 00 00
       0.0 0.0 0.0 0.0
000100 00 00 00 00 00 00 00 00 00 00 00 00 00 00 00 00
       0.0 0.0 0.0 0.0
000110 00 00 80 3f 00 00 00 00 00 00 00 00 00 00 00 00
       1.0 0.0 0.0 0.0
000120 00 00 00 00 00 00 00 00 00 00 00 00 00 00 00 00
       0.0 0.0 0.0 0.0
000130 00 00 00 00 00 00 00 00 00 00 00 00 00 00 00 00
       0.0 0.0 0.0 0.0
000140 00 00 00 00 00 00 00 00 00 00 00 00 00 00 00 00
       0.0 0.0 0.0 0.0
000150 00 00 00 00 00 00 80 3f 00 00 00 00 00 00 00 00
       0.0 1.0 0.0 0.0
000160 00 00 00 00 00 00 00 00 00 00 00 00 00 00 00 00
       0.0 0.0 0.0 0.0
000170 00 00 00 00 00 00 00 00 00 00 00 00 00 00 00 00
       0.0 0.0 0.0 0.0
000180 00 00 00 00 00 00 00 00 00 00 00 00 00 00 00 00
       0.0 0.0 0.0 0.0
000190 00 00 00 00 00 00 00 00 00 00 80 3f 00 00 00 00
       0.0 0.0 1.0 0.0
0001a0 00 00 00 00 00 00 00 00 00 00 00 00 00 00 00 00
       0.0 0.0 0.0 0.0
0001b0 00 00 00 00 00 00 00 00 00 00 00 00 00 00 00 00
       0.0 0.0 0.0 0.0
0001c0 00 00 00 00 00 00 00 00 00 00 00 00 00 00 00 00
       0.0 0.0 0.0 0.0
0001d0 00 00 00 00 00 00 00 00 00 00 00 00 00 00 80 3f
       0.0 0.0 0.0 1.0
0001e0 00 00 00 00 00 00 00 00 00 00 00 00 00 00 00 00
       0.0 0.0 0.0 0.0
0001f0 00 00 00 00 00 00 00 00 00 00 00 00 00 00 00 00
       0.0 0.0 0.0 0.0
000200 00 00 00 00 00 00 00 00 00 00 00 00 00 00 00 00
       0.0 0.0 0.0 0.0
000210 00 00 00 00 00 00 00 00 00 00 00 00 00 00 00 00
       0.0 0.0 0.0 0.0
000220 00 00 80 3f 00 00 00 00 00 00 00 00 00 00 00 00
       1.0 0.0 0.0 0.0
000230 00 00 00 00 00 00 00 00 00 00 00 00 00 00 00 00
       0.0 0.0 0.0 0.0
000240 00 00 00 00 00 00 00 00 00 00 00 00 00 00 00 00
       0.0 0.0 0.0 0.0
000250 00 00 00 00 00 00 00 00 00 00 00 00 00 00 00 00
       0.0 0.0 0.0 0.0
000260 00 00 00 00 00 00 80 3f 00 00 00 00 00 00 00 00
       0.0 1.0 0.0 0.0
000270 00 00 00 00 00 00 00 00 00 00 00 00 00 00 00 00
       0.0 0.0 0.0 0.0
000280 00 00 00 00 00 00 00 00 00 00 00 00 00 00 00 00
       0.0 0.0 0.0 0.0
000290 00 00 00 00 00 00 00 00 00 00 00 00 00 00 00 00
       0.0 0.0 0.0 0.0
0002a0 00 00 00 00 00 00 00 00 00 00 80 3f 00 00 00 00
       0.0 0.0 1.0 0.0
0002b0 00 00 00 00 00 00 00 00 00 00 00 00 00 00 00 00
       0.0 0.0 0.0 0.0
0002c0 00 00 00 00 00 00 00 00 00 00 00 00 00 00 00 00
       0.0 0.0 0.0 0.0
0002d0 00 00 00 00 00 00 00 00 00 00 00 00 00 00 00 00
       0.0 0.0 0.0 0.0
0002e0 00 00 00 00 00 00 00 00 00 00 00 00 00 00 80 3f
       0.0 0.0 0.0 1.0
0002f0 00 00 00 00 00 00 00 00 00 00 00 00 00 00 00 00
       0.0 0.0 0.0 0.0
000300 00 00 00 00 00 00 00 00 00 00 00 00 00 00 00 00
       0.0 0.0 0.0 0.0
000310 00 00 00 00 00 00 00 00 00 00 00 00 00 00 00 00
       0.0 0.0 0.0 0.0
000320 00 00 00 00 00 00 00 00 00 00 00 00 00 00 00 00
       0.0 0.0 0.0 0.0
000330 00 00 80 3f 00 00 00 00 00 00 00 00 00 00 00 00
       1.0 0.0 0.0 0.0
000340 00 00 00 00 00 00 00 00 00 00 00 00 00 00 00 00
       0.0 0.0 0.0 0.0
000350 00 00 00 00 00 00 00 00 00 00 00 00 00 00 00 00
       0.0 0.0 0.0 0.0
000360 00 00 00 00 00 00 00 00 00 00 00 00 00 00 00 00
       0.0 0.0 0.0 0.0
000370 00 00 00 00 00 00 80 3f 00 00 00 00 00 00 00 00
       0.0 1.0 0.0 0.0
000380 00 00 00 00 00 00 00 00 00 00 00 00 00 00 00 00
       0.0 0.0 0.0 0.0
000390 00 00 00 00 00 00 00 00 00 00 00 00 00 00 00 00
       0.0 0.0 0.0 0.0
0003a0 00 00 00 00 00 00 00 00 00 00 00 00 00 00 00 00
       0.0 0.0 0.0 0.0
0003b0 00 00 00 00 00 00 00 00 00 00 80 3f 00 00 00 00
       0.0 0.0 1.0 0.0
0003c0 00 00 00 00 00 00 00 00 00 00 00 00 00 00 00 00
       0.0 0.0 0.0 0.0
0003d0 00 00 00 00 00 00 00 00 00 00 00 00 00 00 00 00
       0.0 0.0 0.0 0.0
0003e0 00 00 00 00 00 00 00 00 00 00 00 00 00 00 00 00
       0.0 0.0 0.0 0.0
0003f0 00 00 00 00 00 00 00 00 00 00 00 00 00 00 80 3f
       0.0 0.0 0.0 1.0

flow.flow.transforms.0.x0 f4 [7, 16]
000000 e2 f8 4f be c5 3f 27 3e 25 1f fb 3c b0 2f 53 bd
       -0.20309785 0.1633292 0.0306545 -0.05155915
000010 2e 9a 30 3e 68 0f be be 32 4d d9 bd 0c d1 83 3e
       0.17246315 -0.3712113 -0.10610427 0.25745428
000020 a7 ce 1e 3e 46 f4 e4 bd 7f b7 e7 bc 3f 6b af bd
       0.15508519 -0.11179404 -0.02828574 -0.085653774
000030 5d 09 5d be 48 9e 32 be e1 c2 20 bd 21 7d 20 3e
       -0.21585603 -0.17443192 -0.03924835 0.15672733
000040 b4 bb 4f 3e 95 8c f9 bd 38 f2 b0 3b b9 c8 fc bd
       0.20286447 -0.12185017 0.0053999685 -0.12342972
000050 dc e8 bb 3e 21 37 5c be 9a c3 36 3e 0b 98 11 be
       0.36701095 -0.21505405 0.17848054 -0.14218156
000060 37 df 6a 3e b6 91 f4 bc d6 c8 6e be 98 db 8d bd
       0.22936712 -0.029854637 -0.233188 -0.0692665
000070 7f 04 08 3e aa 2c a2 bd ed a9 7c be ca de e7 3d
       0.13282965 -0.07918675 -0.24674197 0.113217905
000080 b9 b1 a6 bd 11 45 64 bd 37 92 69 be 1b 81 2a bb
       -0.08139367 -0.05572993 -0.22809683 -0.0026016894
000090 a8 e8 bb 3c 01 3a 5c 3e 68 a2 29 bd f2 4c 05 3e
       0.022938088 0.21506502 -0.04141465 0.13017634
0000a0 8c 8c a6 be ff 9e c6 bb 3b 54 e4 3d 1e 79 d1 bd
       -0.32529104 -0.0060614343 0.11148878 -0.102281794
0000b0 4a e0 ab be 50 50 c3 3c f7 db f6 3e c8 1e 4c 3e
       -0.33569556 0.023842007 0.48214695 0.19933617
0000c0 a5 54 27 3e 1c 3f 83 bc 04 4d 1f 3e ac ca ca 3d
       0.16340883 -0.016021304 0.15556723 0.09901938
0000d0 7f 12 c7 bc fd 1a 2f be 36 be 0d 3d 0b 87 3d 3e
       -0.024300812 -0.17100139 0.034605227 0.18508546
0000e0 49 b3 ed 3e 57 e5 0a 3e 7e 77 b6 bd c7 9d 5d 3e
       0.46425846 0.13564049 -0.0890951 0.21642219
0000f0 d0 98 92 3e f0 c1 67 be 26 38 a7 be f0 f2 59 3e
       0.28632212 -0.22632575 -0.32660025 0.2128408
000100 d8 c7 57 be 91 bd d3 bd 4d 03 2c bd 25 d5 cf 3c
       -0.21072328 -0.10338891 -0.041995335 0.02537019
000110 b6 02 09 bf c2 7b 68 be ab 23 e5 be 30 4d dc 3e
       -0.5351976 -0.2270346 -0.44753775 0.4302764
000120 b7 e5 25 bd 72 22 85 3e ee ba b2 3d ab 88 95 bc
       -0.040502276 0.26002842 0.0872706 -0.018253645
000130 d7 35 bd bc c7 a7 a0 bd 6c ac 93 3c d0 d9 d8 3e
       -0.023096962 -0.07844501 0.018026553 0.42353678
000140 6d 37 00 3e a7 2e 90 bd a5 17 82 bd 9f f3 d1 3c
       0.12521143 -0.07040148 -0.06352166 0.025628863
000150 41 21 0b 3d fb e1 9e 3d 76 be c8 3d eb 4c 1b be
       0.03396726 0.07757946 0.098019525 -0.1516606
000160 dc 7e 8d ba ec 75 88 3d 93 bb 3d be e4 54 27 3e
       -0.0010795253 0.06663117 -0.18528585 0.16340977
000170 fd f2 c9 3d 53 51 10 3e d9 20 27 bd 8d 05 ce bc
       0.098607995 0.14093523 -0.04080281 -0.025149131
000180 c3 c0 0d be 42 be ff 3c 9d 46 91 bd 9d 0f 84 bd
       -0.13843064 0.031218652 -0.070935465 -0.064482905
000190 d0 50 b3 3d b1 62 56 be 65 9c 9e bd de bb f1 bc
       0.08755648 -0.20936085 -0.07744674 -0.029508527
0001a0 4c bd 82 bd 0d 2f a3 bd 1f d7 7a bc 6d 54 3d be
       -0.06383762 -0.079679586 -0.015310078 -0.18489237
0001b0 cc b6 1d bd ca 50 65 3d 7c d5 4a 3e ae 11 d4 bc
       -0.038504407 0.05598525 0.19808 -0.025887337

flow.flow.transforms.0.alpha_prime f4 [7]
000000 61 38 80 3e 44 3c e2 bb 25 0a df bd a6 82 44 be
       0.25043014 -0.006904157 -0.10890607 -0.19190463
000010 e0 29 5e be 86 ef 81 be 7d 92 6d be
       -0.21695662 -0.25378054 -0.23200412

flow.flow.transforms.0.beta_prime f4 [7]
000000 e2 35 72 be de e1 26 3e 9c 93 27 3e d3 51 88 3e
       -0.23653367 0.16297099 0.16364902 0.26624927
000010 2a 62 a0 3d c0 46 73 3e c0 39 9d 3d
       0.07831223 0.23757458 0.076770306

flow.flow.transforms.1.x0 f4 [7, 16]
000000 a2 80 03 3e 4e de 8b bd 6e 9d a4 bd d0 0e 62 3e
       0.12842038 -0.06829511 -0.0803784 0.22075963
000010 74 69 eb 3d 6c 6e 83 3e 2b 73 95 3d e2 51 71 be
       0.11494723 0.25670183 0.07297357 -0.23566392
000020 26 bc 02 be 38 6c e5 3c bb 4d eb bc 1d b6 46 3e
       -0.12767085 0.028005704 -0.028723588 0.19405408
000030 d0 e7 b4 3c de 34 91 3e 02 fd ed 3d c7 e6 44 be
       0.022083193 0.28360647 0.11620523 -0.1922866
000040 44 76 60 3e 9e 6d 60 bd aa f6 8f bd b1 0f d9 bd
       0.21920115 -0.05479204 -0.07029469 -0.10598696
000050 7d fb ac 3e d4 d7 4e be 53 88 11 3e 66 ed 32 be
       0.3378562 -0.2019952 0.1421216 -0.17473373
000060 bb 41 6b 3e 94 96 a6 bd f0 0d 59 be 87 20 ea bd
       0.22974293 -0.08134189 -0.21196723 -0.11431985
000070 43 ab 22 3e 1d 83 a2 bd ac 4f 65 be aa 2e a2 3d
       0.15885644 -0.07935164 -0.22393674 0.07919057
000080 07 0b b4 be d6 60 8e bd bb a7 c9 3c 8e a3 70 3d
       -0.35164663 -0.06952064 0.024616113 0.058749728
000090 e1 49 a3 bd f9 65 42 3e fe 5a 32 be 6f f3 f5 bd
       -0.07973076 0.18984212 -0.17417523 -0.12009322
0000a0 95 6f 5a be 31 9c 13 3d eb a4 08 3e 89 74 34 be
       -0.21331628 0.036037628 0.13344161 -0.1762258
0000b0 c2 63 b9 be 97 d0 9a 3e 2d 6a 00 3f 3a dd b4 bd
       -0.36208922 0.30237266 0.5016201 -0.08831258
0000c0 2d 86 44 3e 4c 36 94 3c 93 cd f4 3d 7b dd d2 3d
       0.19191809 0.018092297 0.11953273 0.1029615
0000d0 b0 80 f5 bc 56 1d 18 be e4 fb d8 3c 0e 6f 61 3e
       -0.02996859 -0.14854941 0.026487298 0.2201502
0000e0 3c 94 e7 3e ce c5 15 3e d3 d7 c8 bd 08 20 6c 3e
       0.4523028 0.14626238 -0.0980679 0.23059094
0000f0 39 2d 8a 3e e2 08 4a be 04 c7 a2 be 24 8e 6c 3e
       0.26987627 -0.19729951 -0.31792462 0.23101097
000100 16 2a 87 3d cc cd 23 3d df ed 9e bd f1 1e b3 bd
       0.06599824 0.039991185 -0.07760214 -0.08746136
000110 87 29 99 3e 62 77 48 bc e4 a7 dc 3d de d5 79 be
       0.29914495 -0.012235494 0.1077421 -0.2439799
000120 fc bc 6d 3d 73 d6 e9 bd 24 fd 16 be 00 a7 18 b7
       0.058041558 -0.11417856 -0.14745003 -9.098789e-06
000130 c6 a8 0d 3d f6 1a e0 3d 84 a7 8b bc 83 e4 82 bd
       0.034584783 0.109426424 -0.017047651 -0.063912414
000140 af 4c db be 8b 69 5e bd 34 11 da 3e 94 f9 a7 bb
       -0.42831942 -0.054299872 0.4259125 -0.0051261876
000150 99 76 35 bc 08 de 0a 3e 66 52 a9 3e 05 b2 b8 3e
       -0.011075639 0.1356126 0.33070678 0.36073318
000160 79 a1 9b be b2 45 81 3e 05 6f 20 3e 16 4d 31 be
       -0.3039663 0.25248486 0.1566735 -0.17314562
000170 b4 20 5a 3e c9 ca 88 be 57 1b 79 3e c8 05 22 bc
       0.21301538 -0.26717213 0.24326836 -0.009889074
000180 39 d2 52 be 73 35 d9 3d a3 7d 3e be a0 ae 99 be
       -0.20588006 0.10605898 -0.18602614 -0.3001604
000190 a6 7d 02 bf fc d7 14 3e 28 28 75 3e b2 68 91 3e
       -0.50972974 0.14535517 0.239411 0.2840019
0001a0 9a d8 97 be 10 d8 cc 3a 67 a5 15 bd 02 16 c0 3c
       -0.2965744 0.0015628356 -0.036534693 0.023447994
0001b0 d2 a2 ab bd db 28 b4 be 0f 35 7f be a7 32 25 3b
       -0.08380665 -0.3518742 -0.24922584 0.0025207193

flow.flow.transforms.1.alpha_prime f4 [7]
000000 5e 9d a0 be 3c 20 66 be 7d c0 16 be 75 de 23 be
       -0.31370062 -0.22473234 -0.14721866 -0.1600283
000010 5c 4e 89 3d ee af f0 3d f8 85 06 3d
       0.06704399 0.11752306 0.032842606

flow.flow.transforms.1.beta_prime f4 [7]
000000 8d 5c d9 bd 18 23 8c 3e b8 12 29 3e d7 a3 7a 3e
       -0.10613356 0.27370524 0.16511047 0.24476562
000010 80 94 7f be 8d c2 07 be 29 68 07 be
       -0.24958992 -0.13257809 -0.13223328

flow.flow.transforms.2.x0 f4 [7, 16]
000000 b0 dd 2d bd 68 4c 07 3d 10 92 d3 3d 22 3a 5a be
       -0.042447746 0.03303185 0.103305936 -0.21311238
000010 d1 9e 8b 3c 8a e3 fa bd 2c 2f d8 bc c7 08 d8 3e
       0.017043503 -0.12250431 -0.02638968 0.42194197
000020 1b 36 8f 3d 9e 27 d3 bc 4a ff 12 bd 74 b9 80 be
       0.06992742 -0.025775727 -0.035887994 -0.2514149
000030 4d eb db 3d 41 5f 98 be db 34 25 be 99 23 d8 3e
       0.107382394 -0.29760173 -0.16133444 0.4221466
000040 39 27 3c bd 85 86 2b 3e f9 8a 73 3e 62 81 70 3e
       -0.045935843 0.16750534 0.23783483 0.23486856
000050 6a 41 5e be 4c 13 3c be b1 fa 37 3d b1 8b 2b 3e
       -0.21704641 -0.18366736 0.044916812 0.16752507
000060 d5 61 fb bd 80 dd 60 3e 50 56 67 3e 9e a8 bf 3c
       -0.12274519 0.21959496 0.2259152 0.023395833
000070 6b d7 71 be 58 d2 64 3e 19 83 e5 3e d6 5e e3 bc
       -0.23617332 0.22345865 0.44826582 -0.027755182
000080 85 fe b2 be f1 50 31 3d d4 3f 9a 3c 09 de 4f bc
       -0.34959808 0.043290082 0.018829264 -0.012687215
000090 8f 68 49 bd e6 0e 15 3e 0f 4e 14 be 86 52 76 bc
       -0.04917198 0.14556465 -0.14482902 -0.015034324
0000a0 e3 64 77 be c1 f8 fb 3d 75 51 0d 3e f5 c5 3e be
       -0.24159579 0.123033054 0.13800605 -0.18630202
0000b0 bb 53 a0 be 0f 22 95 3e fc cb ed 3e 13 09 1e 3d
       -0.3131388 0.29127547 0.4644469 0.038582873
0000c0 e4 b8 5c bd 59 9e 10 3c 93 e2 93 3e da ea 43 3e
       -0.053887263 0.0088268155 0.288838 0.19132558
0000d0 0e c2 6a 3e d8 e9 33 3e 07 09 ba bd b9 c1 83 3e
       0.22925588 0.17569673 -0.09083753 0.25733736
0000e0 6a 7a fe 3e 08 28 7b 3c 36 ae bf 3d fc c9 3a be
       0.4970277 0.015329368 0.093594 -0.18241113
0000f0 e9 7f b3 3d 45 f3 81 be e6 24 81 be 97 0d 0e 3e
       0.08764631 -0.25380912 -0.25223464 0.13872372
000100 f4 b1 37 be 46 02 be 3d ce 9b 11 3d 33 1b 00 be
       -0.17938977 0.092777774 0.035548978 -0.12510376
000110 5c 21 08 bf b5 6f 50 bd bb 50 c2 be 48 ba ef 3e
       -0.531759 -0.050887782 -0.37952217 0.4682181
000120 26 b8 21 3e c2 a1 96 3e c7 12 8a 3d 6e 3f 33 bd
       0.15792903 0.29420286 0.06741863 -0.043761663
000130 98 cc 12 3e 96 61 9d 3c cd 69 37 3e 47 e6 b6 3e
       0.14335859 0.019211572 0.17911454 0.35722563
000140 93 d5 93 be 28 8e 92 bd 20 36 ae 3e ae 6f 78 be
       -0.28873882 -0.071560204 0.3402567 -0.24261352
000150 7c cc 4c 3e 35 bf 73 3e 71 ac 68 be ca 7a 3f be
       0.1999988 0.23803408 -0.22722031 -0.18699184
000160 44 a1 d6 3e 3c 39 c1 be 81 2a bf 3d d2 df 85 be
       0.4191991 -0.3773898 0.09334279 -0.26147324
000170 34 04 71 be 95 4e f3 bd 74 e0 7e be 66 48 99 3e
       -0.2353676 -0.11880223 -0.2489031 0.29938048
000180 dc dc 8f be 22 42 24 3e 61 a4 71 be 5e a9 38 be
       -0.2809819 0.16040853 -0.23597862 -0.18033358
000190 2b 77 25 3e 74 aa 72 be bc 92 fd 3d 32 0e b0 bd
       0.1615874 -0.23697835 0.12381503 -0.085964575
0001a0 b6 48 4b be 6f 8c 4c 3d 96 a3 58 bc a0 a0 3b be
       -0.19851956 0.049938615 -0.013222596 -0.18322992
0001b0 40 e8 a1 38 b9 a5 65 3e b6 e3 07 bd b8 57 66 be
       7.720338e-05 0.224265 -0.033176146 -0.224944

flow.flow.transforms.2.alpha_prime f4 [7]
000000 ae 5f c8 bd d6 3d 04 3e ff b4 7d be 02 7f 07 3d
       -0.097838745 0.12914214 -0.24776076 0.03308011
000010 7c f8 35 be ad be 07 3e c8 67 cd 3b
       -0.1777057 0.13256331 0.006268475

flow.flow.transforms.2.beta_prime f4 [7]
000000 8b b8 80 be f6 76 23 bd a6 5d 91 3e e5 26 5f 3e
       -0.25140795 -0.039908372 0.2839176 0.21792181
000010 96 19 99 3b e0 45 12 bd 62 9d 8b 3d
       0.0046722395 -0.03571117 0.06817128

flow.flow.transforms.3.x0 f4 [7, 16]
000000 ba e0 3a 3e 44 09 ec 3c 4d 3b d7 bc da c0 7b be
       0.18249789 0.028813012 -0.026273394 -0.24585286
000010 44 51 54 3e df 9f da be 86 e7 a9 be 8f 04 d5 3e
       0.20734125 -0.42700097 -0.3318445 0.4160504
000020 b2 e7 f0 3e e8 91 b0 bd 8e 9d 28 be 8b 33 6f 3d
       0.4705177 -0.086215794 -0.16466352 0.058398765
000030 ef 4d 4f be 3a 4b 31 be fb 3d 64 3d 59 c6 e1 3e
       -0.20244573 -0.17313853 0.05572317 0.4409664
000040 13 44 88 be 7a 79 ac bc 12 df a8 ba c3 fd 7e 3e
       -0.26614437 -0.021054018 -0.0012883863 0.2490149
000050 8d c8 12 bf 4a 38 46 bd b4 d6 fd bd 20 62 97 3e
       -0.57337266 -0.048393525 -0.12394467 0.2956705
000060 a3 88 16 be 2d bd 82 3e 02 13 ef 3d 5d 46 14 3e
       -0.1470056 0.25534955 0.11673547 0.14479966
000070 b3 c1 05 be 45 4d 48 be b9 40 21 be 4f f0 5a be
       -0.13062172 -0.19560726 -0.15747346 -0.21380733
000080 d3 68 a3 be e9 63 30 bc e4 48 1d 3c 7a 90 1b 3e
       -0.31915912 -0.010766008 0.009599898 0.15191832
000090 5a 0b ee bd 92 10 33 3e 8e c1 50 be c7 d3 1a bd
       -0.11623259 0.1748679 -0.20386335 -0.037799623
0000a0 f8 a1 2d be d3 df cc bc 37 3e b5 3d a0 a4 41 be
       -0.16956317 -0.025009071 0.08849757 -0.18910456
0000b0 fe 79 a5 be e2 4d 99 3e 31 b1 ea 3e af fc 1a be
       -0.32319635 0.29942232 0.4583831 -0.15135454
0000c0 c7 40 74 3e 78 89 ac bd 62 5f 54 3e 92 7d 3b 3e
       0.23852836 -0.084246576 0.2073951 0.1830962
0000d0 40 78 ef bc 2a 53 63 be f8 3f d4 3d 6a 45 a8 3d
       -0.029232144 -0.22199693 0.103637636 0.08216365
0000e0 fe 9c ee 3e 73 f1 6e 3e d5 6a c4 3b 7b 8c a7 3e
       0.4660415 0.23334293 0.0059941807 0.32724366
0000f0 28 01 16 bb 94 cb 56 be 61 33 c9 be a4 cb 47 bd
       -0.0022888873 -0.20976096 -0.39297011 -0.04877819
000100 c4 87 98 3d 2f 04 36 bb aa a9 45 be 45 1b 0e 3c
       0.0744777 -0.002777349 -0.19303003 0.008673494
000110 bc 9f e0 3e 73 76 8e 3c c9 3c 25 3e f7 78 c1 be
       0.43871868 0.017390465 0.16136469 -0.377876
000120 0e e6 ed bd ea b4 b6 3d ef c6 a5 bd f3 96 ff bd
       -0.11616145 0.08921225 -0.08094584 -0.12479963
000130 f0 2d 51 bd a1 49 0c 3d 0c d9 aa bd 84 8d 2d be
       -0.0510692 0.034249905 -0.0834218 -0.16948515
000140 05 99 b6 be 8b 2f 80 be b6 fe b5 3b d7 97 7b bc
       -0.3566362 -0.25036272 0.0055540456 -0.015356026
000150 ed f4 8e be d8 e4 a4 be 47 d5 9a be be 89 a7 3e
       -0.2792124 -0.32205844 -0.30240843 0.32722276
000160 aa 93 63 be 71 1d a1 be a7 36 bd 3e 4b 86 21 be
       -0.22224298 -0.31467775 0.3695576 -0.15773885
000170 a9 ad b9 3d cf 6f 94 be f4 60 bc 3e c4 b5 89 be
       0.09066326 -0.28991553 0.3679272 -0.2689649
000180 d6 ae 02 3e 54 fd 57 bd 21 9d 15 3d 90 ae 23 3e
       0.12762007 -0.052731827 0.036526803 0.15984559
000190 b6 47 b8 be 24 07 98 3e 02 bc 16 3e 33 57 f5 bd
       -0.3599221 0.29692948 0.14720157 -0.119795226
0001a0 d9 5b 83 3d a4 04 cb 3d 47 53 12 3c 38 96 fb 3e
       0.06414003 0.099129945 0.008930988 0.49138045
0001b0 eb db 6b 3e c6 ef 58 be d1 c4 93 3d bd c0 a0 3e
       0.23033111 -0.21185216 0.07215274 0.31397048

flow.flow.transforms.3.alpha_prime f4 [7]
000000 51 f6 0b 3e 39 d5 2a 3e c6 20 88 be c0 83 55 bd
       0.13668181 0.166829 -0.26587504 -0.0521276
000010 7f 0c 01 3e 7f 7d ec bb b0 69 27 3d
       0.12602423 -0.0072171087 0.040872276

flow.flow.transforms.3.beta_prime f4 [7]
000000 52 20 5e be 6b c5 c4 bd c6 42 4b 3d 41 9c 02 3e
       -0.21692017 -0.09607967 0.049624227 0.12754919
000010 fd f6 d2 bd 42 19 22 be 8a 27 08 be
       -0.103010155 -0.15829948 -0.13296333

flow.flow.transforms.4.x0 f4 [7, 16]
000000 b0 21 08 3e db 60 f9 bd 93 cc d9 bd 3b 55 10 3e
       0.13294101 -0.12176677 -0.106347226 0.14095013
000010 8c 98 09 3e 7d 9b 86 3e 55 c2 b1 3d 2c 4f 61 be
       0.13437098 0.26290503 0.08679644 -0.22002858
000020 1b 51 15 be 84 60 aa 3d 5f fd 68 bc 2e 3b 2b 3e
       -0.1458172 0.0831919 -0.014220565 0.16721794
000030 a0 42 b8 bb 30 de 5a 3e 91 21 f9 3d e9 d6 4a be
       -0.0056231767 0.2137382 0.121646054 -0.19808544
000040 f2 6a 56 3e fb e7 dc bd d0 bd 21 be ba 77 1e be
       0.20939234 -0.10786434 -0.15795064 -0.1547536
000050 15 e6 71 3e fa fd 57 be c3 f8 e5 3d 8c 04 42 be
       0.23622926 -0.21092978 0.11229088 -0.18947047
000060 38 69 5e 3d ab 2f 3e be 9a e0 60 be 97 0f 3f bd
       0.054299563 -0.18572871 -0.21960679 -0.046645727
000070 9f 03 0f 3e c8 21 18 3c 76 1a 82 be e6 f7 a4 3d
       0.13966225 0.009285398 -0.25410813 0.080550954
000080 17 ab 72 3e 7e 44 24 be 01 21 9b 3d 5d 79 2d 3c
       0.23698078 -0.16041753 0.07574654 0.010588017
000090 50 2f d8 3d 6f 8d 3a be 05 80 9c 3c f5 10 77 3d
       0.10555899 -0.18218015 0.019104013 0.060318906
0000a0 c9 fc bb 3d e4 99 cb 3d 21 eb 7e be 67 53 6b 3e
       0.09179074 0.09941462 -0.24894382 0.22981034
0000b0 35 98 bc 3e db 5d bf bd 53 6e a1 be a3 10 01 3d
       0.36834875 -0.093440734 -0.31529483 0.031510007
0000c0 e0 41 fd 3d 76 5a b3 3d aa 88 de bd 4b 17 00 3e
       0.1236608 0.087574884 -0.1086591 0.12508886
0000d0 9f fe 3d be 97 19 cf bd 11 92 98 3d e2 e4 82 be
       -0.18554161 -0.10112303 0.07449735 -0.2556525
0000e0 2e dc 95 be 16 94 e3 bd f4 a3 e5 bc 1a 56 f9 bc
       -0.29269546 -0.111122295 -0.02803228 -0.030436564
0000f0 57 ac ae 3c 62 7e b6 3d e6 45 50 3e c1 e2 90 be
       0.021322412 0.08910824 0.20339164 -0.28298
000100 39 8d 4d be c0 41 6f bd ce 98 58 3e 3c f9 b0 bd
       -0.20073403 -0.058412313 0.2115204 -0.08641288
000110 ce 03 07 bf 7f b9 4d bd 8b 4b e3 be a1 81 4c 3c
       -0.5274018 -0.05022573 -0.44393572 0.012482078
000120 8c f6 d2 3d 37 58 70 3e b6 13 bf 3d 0d 24 8a 3e
       0.10300931 0.23471151 0.093299314 0.2698063
000130 4c 8b 5a 3e dc cd c9 bd b2 31 5f bc a7 8b c8 3e
       0.213422 -0.09853718 -0.013622688 0.39169046
000140 aa f9 81 3d 81 ec f7 bd 28 0f 30 bd 8c 79 75 3d
       0.06346448 -0.121056564 -0.042983204 0.05993037
000150 20 e9 ee 3c 3c 6e bc 3d 20 41 9a 3d ba 25 d5 bd
       0.029163897 0.09200713 0.07531953 -0.104075864
000160 ed 53 18 bd 5c fe 04 bd 7b 12 15 be 4b 65 00 3e
       -0.037189413 -0.03246914 -0.14557831 0.1253864
000170 fa 1e 0d 3e 3f c7 5c bd 10 36 b0 bc 84 d8 f7 bc
       0.13781348 -0.053900953 -0.021510154 -0.03025461
000180 de 6b 06 be 27 a1 1b 3d 91 b5 e2 bd a8 4c b1 bc
       -0.13127086 0.037995484 -0.11069787 -0.021642998
000190 72 e5 83 3d 97 30 29 be e8 d7 8d 3b c5 bf 79 bd
       0.064402476 -0.16522442 0.0043287165 -0.0609739
0001a0 d2 41 91 bd b0 a7 9f bd 06 47 11 bd 38 01 10 be
       -0.07092632 -0.07795656 -0.035468124 -0.14062965
0001b0 4a 06 cc bd 1e 8d 4e 3d 6c c8 53 3e 43 1c 6f bc
       -0.09962137 0.05042755 0.20681924 -0.01459414

flow.flow.transforms.4.alpha_prime f4 [7]
000000 fa 02 6b be 20 e1 f0 bc 54 2c 19 3e c1 f8 c3 bd
       -0.22950354 -0.029404223 0.14958316 -0.095689304
000010 42 33 fd 3c 0f a6 27 be 9d 6f 75 be
       0.03090823 -0.1637194 -0.23968358

flow.flow.transforms.4.beta_prime f4 [7]
000000 4c a2 aa 3e b3 b5 a8 3d 9b a4 f1 bd 47 6e 4f be
       0.33326948 0.082377814 -0.11798974 -0.20256911
000010 1f 78 24 3e e5 5d be 3d d9 28 12 bc
       0.16061448 0.09295253 -0.008920872

flow.flow.transforms.5.x0 f4 [7, 16]
000000 d4 06 39 3e 8e bd 99 bd af 62 c1 bd e5 2a 4e 3e
       0.18069011 -0.07506858 -0.094426505 0.2013355
000010 e5 f1 0d 3e 20 56 4d 3e f0 d9 b2 3d 6d c2 41 be
       0.13861807 0.20052385 0.087329745 -0.18921824
000020 6e c0 49 be a5 9d 7f 3d b4 24 6d bc ed b6 3d 3e
       -0.19702312 0.0624062 -0.014474083 0.18526812
000030 a2 fd 88 bc d0 b3 85 3e 73 dd 9d 3d bd c8 3d be
       -0.016722504 0.2611375 0.07708254 -0.18533607
000040 5f 53 21 3e 26 65 b9 bd ba 6f 8c bd 61 86 c6 3d
       0.1575446 -0.09052496 -0.06857248 0.096935995
000050 dc b2 62 3e 26 d2 b1 bd 78 92 65 3e b9 e8 ee 3d
       0.22138542 -0.08682661 0.22419155 0.11665482
000060 c5 3c d2 3e 8f f3 3e be 69 67 71 3d c5 b6 31 be
       0.41061988 -0.18647598 0.05893651 -0.17354877
000070 7b f8 2c 3e 34 a3 99 3d 20 ce 5c be 30 bc 7a 3d
       0.16891663 0.07501832 -0.21563005 0.061214626
000080 04 e0 9a 3e 64 d8 8b bc e0 a8 ff 39 17 9f ac 3c
       0.30249035 -0.017070957 0.00048763212 0.021071954
000090 55 52 57 be e3 2d 70 be 93 86 5d 3d a7 61 fc 3b
       -0.21027501 -0.23455004 0.054083418 0.0077020708
0000a0 0c df 07 3e e0 af 97 3d f0 df 20 be 75 b5 d5 bd
       0.1326868 0.07406592 -0.15710425 -0.10435001
0000b0 88 11 b4 3e f4 c0 5d be 80 48 96 bc f7 e3 0b 3d
       0.35169625 -0.21655637 -0.018345118 0.03415295
0000c0 36 7f 3d 3d 5c 44 8a be 27 8a a5 be c5 7c b6 be
       0.046263896 -0.2700528 -0.32331964 -0.35642067
0000d0 55 35 9c be 82 96 a4 bd da a0 f5 3d ed eb aa be
       -0.3050944 -0.080365196 0.119935706 -0.33383122
0000e0 6d ab 2d 3d 70 3c 4e 3e 7a eb 7c be cb c4 bb be
       0.042399812 0.20140243 -0.24699202 -0.3667358
0000f0 d3 e2 a2 be ca e3 6f be 5f 7f 9f 3e 31 6f 86 be
       -0.31813678 -0.23426738 0.31151864 -0.26256707
000100 1f 2a a3 be 3f b8 1f be a5 bb 5e be 64 3b 97 be
       -0.31868073 -0.15597628 -0.21751268 -0.295375
000110 36 51 b2 bd 83 37 86 bd f9 85 28 3e 2b 1a dc 3e
       -0.08706896 -0.06553557 0.16457357 0.42988715
000120 55 e4 d2 bd 20 62 20 3e 17 7d 4e 3e fb bf cf 3e
       -0.10297457 0.15662432 0.20164905 0.40576157
000130 02 6d 65 3e 82 44 46 be 23 f1 bc 3e 67 b5 5a be
       0.22404864 -0.19362071 0.36902723 -0.21358262
000140 38 80 ce bc 39 15 a6 bd 86 42 10 be b7 61 4f 3d
       -0.025207624 -0.08109517 -0.14087877 0.050630298
000150 5f 60 1d 3d bb 2c d2 be 2f a5 29 3e 7d 39 aa 3e
       0.038421985 -0.41049752 0.16566919 0.33246985
000160 8f b0 eb 3e 37 8d c0 be b1 85 ae be 6f 1c cc 3c
       0.4603314 -0.37607738 -0.34086373 0.024915902
000170 b2 d2 a9 be 41 67 03 be f2 66 a8 be e6 b9 ac be
       -0.3316856 -0.12832357 -0.3289104 -0.3373558
000180 2a f0 1d be 07 0d 1a 3d 04 d9 64 bd d6 7a 4d bd
       -0.15423647 0.03761008 -0.055871025 -0.050165974
000190 c5 20 82 3d fc ab 22 be 36 27 86 bd 48 5c e4 bc
       0.063539065 -0.1588592 -0.06550448 -0.027876034
0001a0 c8 79 61 bd 7a 93 5b bd 6a e5 33 bd 11 1b 26 be
       -0.05504778 -0.05360744 -0.04391996 -0.16221263
0001b0 4b 48 b7 bd eb f9 4a 3d 3d a1 35 3e 7c 00 9b ba
       -0.08949336 0.049554747 0.17737289 -0.0011825706

flow.flow.transforms.5.alpha_prime f4 [7]
000000 dc f6 38 bd 15 31 cd 3d 26 d3 15 3e b6 77 57 be
       -0.0451573 0.10019127 0.14631328 -0.2104176
000010 ae 5c 27 3d 6b 90 d5 3d 7b 3e 29 bd
       0.04085987 0.10427936 -0.04131935

flow.flow.transforms.5.beta_prime f4 [7]
000000 d2 67 89 3e c4 ff 38 3e 56 f4 72 bc a7 01 5f be
       0.2683702 0.18066317 -0.014828762 -0.21777974
000010 a5 23 6d 3d 2b 9c 2e bc 61 84 52 3e
       0.05789532 -0.0106573505 0.20558311

flow.flow.transforms.6.x0 f4 [7, 16]
000000 95 fe 39 3e 06 d3 86 bd d8 e2 30 be 00 1e 78 3e
       0.18163522 -0.06583218 -0.17274034 0.24230194
000010 9c 03 c8 3c db 43 63 3e b2 f9 49 3d 70 f1 4e be
       0.024415784 0.22193854 0.049310394 -0.20209289
000020 6e 6d d3 bd 0e 93 b5 bb 20 17 06 3d 4d f6 89 3e
       -0.103236064 -0.005541212 0.032736897 0.26945725
000030 1b dc 89 bd 52 49 b8 3c 69 3b db 3d e8 64 28 be
       -0.06731435 0.0224959 0.10704691 -0.16444743
000040 81 96 a9 be c4 ef 93 be 35 a6 6f 3e 22 20 88 be
       -0.33122638 -0.28893864 0.23403247 -0.26587015
000050 e0 88 20 3c fa 6f 8d bd 0e ca fb be 83 47 54 3d
       0.009798259 -0.069061235 -0.49177593 0.05182601
000060 dc 8a 39 be f5 38 03 3e cf a6 03 3e 2f 29 c7 3e
       -0.18119377 0.12814696 0.12856601 0.38898608
000070 2d 18 79 be 2c 59 62 be 2f 3e 05 3f 52 ca 5f 3e
       -0.24325629 -0.22104329 0.5204801 0.21854523
000080 a0 13 a6 be 4b 81 e5 bd 3c ca ad bd a4 c6 1d be
       -0.32436848 -0.11206301 -0.08485839 -0.15407807
000090 42 b5 5f 3d 17 bf 72 3e 46 3f 67 be 09 0d c8 bc
       0.05461622 0.23705707 -0.2258273 -0.024420278
0000a0 c2 bc 60 be 6a 89 95 bd 4b 63 0e 3e a5 d3 18 be
       -0.21947005 -0.073016 0.13905065 -0.14924486
0000b0 86 b1 e4 bb 15 29 a6 3e a5 ca d8 3e e7 5d 67 3b
       -0.0069791703 0.32453218 0.42342106 0.0035303773
0000c0 42 ed ed bd 86 e9 b5 3d f0 6d 1b bd d5 3b ee bd
       -0.11617519 0.08882432 -0.03794664 -0.11632506
0000d0 3f b5 30 be 9d 54 d9 3d b1 62 40 be 74 2c 95 bd
       -0.1725664 0.10611842 -0.18787648 -0.072838694
0000e0 51 82 93 3d ab 26 32 bd 33 03 c0 3d 78 4f 50 be
       0.0720259 -0.043493908 0.0937561 -0.20342815
0000f0 b7 38 40 be 8e 8c ec 3d 2e 7c 01 3f ae 28 7c bd
       -0.18771635 0.11550246 0.5058011 -0.061562233
000100 ed 18 13 be d5 fa 06 be c8 2c 04 3a 46 ac 86 bd
       -0.14364977 -0.13181622 0.00050420733 -0.06575827
000110 e6 b0 ff be 7d ef 2c bd 4e b8 c8 be c6 f7 d3 3e
       -0.4993965 -0.04222058 -0.39203113 0.41399974
000120 c7 bb ea 3d 6e 90 53 3e 75 14 df 3c 5b 73 66 3e
       0.11461597 0.20660564 0.027231434 0.22504942
000130 8c 41 19 3e 2f 91 13 bd a4 18 9d bb 7e f6 aa 3e
       0.1496641 -0.03602713 -0.004794197 0.33391184
000140 65 f7 4c 3e 7a 5b 06 3e 77 cd c9 bd b5 1b 25 be
       0.20016249 0.13120833 -0.098536424 -0.1612385
000150 fd 64 8f 3e 48 48 22 be 84 d8 f4 3d 3d dd 7e be
       0.28006735 -0.15847886 0.119553596 -0.24889083
000160 ef 2d ac be c9 8f 4d 3d ad 88 93 3e 3d 91 9c be
       -0.33628795 0.050185952 0.28815213 -0.30579558
000170 9e 3e 61 be 5a e5 58 be 27 76 00 3e 60 2b 8b be
       -0.21996543 -0.2118124 0.12545072 -0.2718153
000180 54 56 3d be ad fb a3 bd 1c da 06 be 45 34 ea bd
       -0.18489963 -0.08006988 -0.1316914 -0.11435751
000190 6d e0 ea 3d 25 7f 13 be d1 73 3c bd 55 46 2d bc
       0.11468587 -0.1440397 -0.04600889 -0.0105758505
0001a0 b6 0a af bd 5d 23 a6 bd b8 0b 44 bb e1 8c 49 be
       -0.08546965 -0.08112214 -0.0029914211 -0.19682647
0001b0 af 8b 16 be 8c fd 35 bd d3 51 c2 3d 1e 8a 7f bd
       -0.14701723 -0.044431254 0.09488263 -0.06238758

flow.flow.transforms.6.alpha_prime f4 [7]
000000 89 b6 f5 bd c0 e1 da 3c 9e 5f 84 be 55 1d 25 3d
       -0.119977064 0.026718974 -0.258542 0.040311176
000010 8b ba b1 bc 39 19 71 be e7 63 35 be
       -0.021695396 -0.23544778 -0.17713891

flow.flow.transforms.6.beta_prime f4 [7]
000000 5d c5 31 3e 64 65 95 bd 3d 75 94 3d a3 12 05 be
       0.17360444 -0.07294729 0.07248924 -0.1299539
000010 dc f8 63 3e 8f 29 24 be c3 81 72 3d
       0.22262901 -0.16031478 0.05920578
